Sistema_Compressao/modelo_treinado1.onnx (onnx, 278656 bytes, 7 tensors)

dense_layers.0.weight f4 [32, 120]
000000 1e 06 ef 3c bd e5 1e 3d 1e c9 02 3e 30 c0 a4 3c
       0.029177722 0.038793314 0.12772033 0.020111173
000010 47 a2 a3 3d 9e f4 9f bd 48 3d 2d 3c 55 1a 5f 3d
       0.07989936 -0.07810329 0.010573693 0.05446847
000020 2b de bc 3d dc d4 72 bd 39 0b cb bc ac 36 f6 3c
       0.09222063 -0.05928503 -0.024785625 0.030055366
000030 98 a8 03 be c8 7d 01 bc 2f 1a 8b bc 95 ee 18 3d
       -0.12857282 -0.007903524 -0.016980259 0.037336905
000040 82 12 1f 3c 5d 2f c4 3c f1 b3 d1 bc 8b 3d a6 3d
       0.009709002 0.023948366 -0.025598498 0.08117207
000050 64 2b ee 3d 31 de 66 3d 94 16 1c 3d b1 eb b0 3b
       0.1162937 0.056364242 0.03810747 0.0053991904
000060 35 eb 08 3d 19 51 56 bc 48 1c db 3d ee 71 2f 3c
       0.033427436 -0.013080859 0.106987536 0.010708315
000070 34 e7 28 bd 95 ce c5 3d 53 8e f3 bd 13 d4 46 bd
       -0.041236117 0.09658543 -0.118923806 -0.048542093
000080 00 af 4e 3d 6a 6f b0 3b be 25 b6 3d c6 3d c1 3c
       0.05045986 0.0053843753 0.088939175 0.023589026
000090 c8 5b 28 bd 86 2f e1 3d c2 f9 37 3d 02 ee df bd
       -0.041103154 0.109953925 0.044915922 -0.10934068
0000a0 2f 82 02 3e b6 db 2b bd e3 65 95 bd 5d f6 ab 3c
       0.12744974 -0.04195758 -0.07294824 0.020991499
0000b0 5f c0 88 3b 4b 48 07 bd 40 c7 c4 3d db 77 59 3d
       0.004173323 -0.03302793 0.096083164 0.05309282
0000c0 75 12 10 bd 62 fc 63 3d 71 ab a4 3d 49 18 ab 3d
       -0.035173852 0.055660613 0.08040512 0.083542414
0000d0 a1 17 09 bd dc 43 37 bd 0d 48 10 bc 14 4d f0 bc
       -0.0334698 -0.04474245 -0.008806241 -0.029333629
0000e0 be 65 46 bd 91 0a 1f 3d 44 c1 46 3c b7 d4 9c 3c
       -0.048436873 0.038828436 0.012131039 0.0191444
0000f0 a5 a8 dd 3d e2 b0 55 bd 86 f3 af 3d fa d5 42 3c
       0.10823182 -0.05217064 0.0859137 0.011891836
000100 49 27 4b 3d 36 7e 55 3d 81 8a 51 bc 02 76 35 b8
       0.049598012 0.052122317 -0.01278937 -4.3263666e-05
000110 6b b8 be bd ba a7 8b 39 85 4c 63 bd 5f ee 25 3c
       -0.09312519 0.00026637112 -0.055492897 0.010127633
000120 b6 e8 b3 bd 62 bc fc 3d 7e 01 98 3d 3c f1 c3 bd
       -0.087846205 0.12340619 0.074221596 -0.09567496
000130 b5 0a d7 3d d7 f4 29 3d 21 ba 18 bd 42 dd 75 ba
       0.10500089 0.041493263 -0.03728688 -0.0009378978
000140 b0 d1 72 bd 73 62 a5 bd 38 03 bc bd a5 26 f1 3c
       -0.059282005 -0.08075418 -0.091803014 0.029437372
000150 66 46 d3 3b 01 68 0d bd bb ae c6 3d 38 b0 9f 3d
       0.006447601 -0.034523014 0.09701296 0.07797283
000160 bd 65 aa bd 90 38 ad bd ba b8 9a b8 94 f1 32 3c
       -0.08320186 -0.08458054 -7.3777e-05 0.0109218545
000170 83 ff a6 bd 02 29 ae 3d 42 14 de bc a7 9f c8 3b
       -0.08154204 0.08503915 -0.027109269 0.0061225477
000180 b0 47 d3 3d 88 c6 0e 3e 77 4a 90 bd 77 84 50 3d
       0.10316408 0.13942921 -0.07045453 0.05090758
000190 b7 33 a0 bc 07 1a 99 3c a7 81 a4 bd e5 72 b5 bb
       -0.01955591 0.018689169 -0.08032542 -0.005537378
0001a0 6f 3d 8a ba 5d d7 9b 3c 18 11 1d 3e 56 9c 56 3d
       -0.0010546873 0.019023592 0.15338552 0.052395187
0001b0 8a 65 c3 3a 4f 16 73 3d 5f 54 63 bd ea 79 a4 bd
       0.001490758 0.059347447 -0.055500384 -0.08031066
0001c0 75 46 ab bd bc 7f db 3d 16 98 b8 3d a7 69 af 3d
       -0.08363048 0.10717723 0.09013383 0.085650735
0001d0 48 aa a6 3c 6d 60 a0 bd 37 a8 f9 ba c0 a3 55 bc
       0.020344868 -0.07830892 -0.0019047324 -0.013039529
0001e0 64 b1 b8 3c 76 76 b1 bd 7d 70 a8 3d 24 e9 04 bb
       0.022545524 -0.08665173 0.082245804 -0.0020280564
0001f0 f0 bc 0a 3c ed f2 63 bc 0d 6e 9e bd a6 f5 96 3d
       0.008467898 -0.0139128985 -0.07735834 0.073710725
000200 4c 0e c3 3d 84 94 81 3d 59 5b b3 3d 27 15 6d 3b
       0.09524211 0.06327155 0.087576576 0.0036175938
000210 9d 6e 97 3c d2 a7 87 bd 50 bc 97 bd 21 9a 05 3d
       0.018485362 -0.06623806 -0.07408965 0.032617692
000220 6e 35 5e bd 35 4b c9 bd 0e e5 2b bc 24 a2 25 bc
       -0.054250173 -0.09828798 -0.010491623 -0.010109458
000230 fa 84 9d 3d 4e 26 e9 bc 01 97 04 be a4 8f 98 bd
       0.07691379 -0.028460648 -0.12948228 -0.07449272
000240 8c 62 f3 ba fc 97 59 3d ee 54 cf 3d b6 72 c5 bd
       -0.0018568798 0.05312346 0.10123621 -0.0964102
000250 74 c9 65 bd 51 d5 98 bc 7f cd 5d bd a3 de f8 bd
       -0.056100324 -0.018656405 -0.054151054 -0.121518396
000260 f9 d6 46 bd e1 29 ac 3d 62 2e 60 3d ed 1e c9 3d
       -0.048544858 0.08406425 0.054731734 0.09820352
000270 66 fe 36 bd a2 05 86 bd 9b bb e4 3d 9b 1d 18 bd
       -0.044676207 -0.06544043 0.111685954 -0.03713761
000280 3c d9 ea 3c 0f 85 5f 3d 39 f8 77 3c f9 59 99 bc
       0.028668039 0.054570254 0.0151348645 -0.01871966
000290 90 df 22 bd ee 01 07 bd bc d1 61 3d 17 f7 4e 3d
       -0.039763987 -0.032960825 0.05513166 0.050528612
0002a0 e5 9c ef bd 08 f1 fd bb d6 6f 06 bd 28 79 11 39
       -0.11699847 -0.0077496804 -0.0328215 0.00013873412
0002b0 59 e1 c6 3d 40 a0 ed bd eb df 19 3e a6 63 da bd
       0.097109504 -0.11602831 0.15026824 -0.10663538
0002c0 70 7a 15 3d 6d f5 8c bd f2 f6 dd 3d 4a 01 6e bd
       0.03649372 -0.06882749 0.10838117 -0.058106698
0002d0 71 a2 a4 bc 2f 0e 56 bd ff 0d 47 bc 03 91 e5 3b
       -0.02009699 -0.05225962 -0.012149333 0.007005812
0002e0 06 05 0a bd e9 58 b6 bc c4 51 1b bd 3e d9 c9 3d
       -0.033696197 -0.022259193 -0.037919775 0.09855889
0002f0 88 a2 2a bd 12 4a eb 3d 5a 99 2e bd 6c f6 87 bc
       -0.041658908 0.11488737 -0.042626716 -0.016596995
000300 15 01 2d 3d 9c 15 d6 3c a0 10 02 3c 87 d8 e6 bd
       0.04223736 0.026133351 0.007938534 -0.11271768
000310 2e 25 36 bd e0 88 f6 3d 9b 93 1f bd a8 40 b0 3d
       -0.04446905 0.120378256 -0.038959127 0.08606082
000320 fc 9f db 3c 46 59 f9 ba a0 6a 1a bd 97 c6 1a 3c
       0.026809685 -0.0019023798 -0.03769934 0.009446762
000330 e6 d0 03 3d a0 47 af bc d5 fa e2 3b bb 6f d5 3d
       0.032181643 -0.021396458 0.006926874 0.104217015
000340 7b 10 36 bc b1 b4 98 bc 77 ed 9f 3d e1 f9 21 3e
       -0.011112328 -0.018640848 0.07808965 0.15817977
000350 4a ef a0 bd 73 dd aa 3d ff 06 e4 bd 1f d2 07 bd
       -0.07858141 0.08343019 -0.11134147 -0.03315937
000360 97 3a 15 3e 95 96 d9 3d 4b e6 a6 3d 0d e2 a9 3d
       0.14573132 0.10624424 0.08149394 0.08295069
000370 f4 bb 00 3a cf 19 1a 3d 85 71 9e bd e8 dc aa bd
       0.00049108197 0.03762227 -0.07736496 -0.08342916
000380 50 8d 20 bd b2 7e 88 3c 06 92 52 3d 02 1d 16 3b
       -0.039197266 0.016661976 0.05140879 0.0022905474
000390 65 9d f6 bd 30 97 c4 bd ea 25 ab bd 97 aa b2 bb
       -0.120417394 -0.09599149 -0.08356841 -0.005452465
0003a0 22 8a 46 bc 12 5a be bc 37 84 25 bd 87 1c 87 3d
       -0.012117894 -0.023236308 -0.040409293 0.06597238
0003b0 02 4f 89 bd 96 b7 12 be 8a fa d6 3d c3 fb 38 bd
       -0.06704523 -0.14327845 0.10497005 -0.045161974
0003c0 28 24 b6 bc 41 01 9f bc 40 71 62 bd b4 a4 8c 3d
       -0.022234038 -0.019409778 -0.055283785 0.06867352
0003d0 73 65 22 bc 01 c6 87 bd 84 d1 1d bc bc c6 fa 3d
       -0.009911883 -0.06629563 -0.009632472 0.12244937
0003e0 5c e1 63 bd 36 a0 86 bd 9e b6 46 bd a2 e0 75 bd
       -0.05563484 -0.065735266 -0.048514 -0.06002868
0003f0 5d dd 08 be c5 b8 2c bd 4e b8 f8 3d b2 c6 fe 3d
       -0.13365693 -0.042168397 0.12144528 0.12440242

dense_layers.0.bias f4 [32]
000000 81 69 ed b8 b5 3e 92 bd 47 c3 2c bd 4c 69 34 3d
       -0.00011320692 -0.07140867 -0.04217842 0.04404573
000010 54 9c db 3c ec da 66 bc 97 15 77 bc 1b 01 96 3c
       0.026807941 -0.014090281 -0.015080831 0.018311074
000020 43 eb 30 3d 97 a2 3d bd 6b b5 66 bd 34 80 ab 3d
       0.043193113 -0.046297636 -0.056325357 0.08374062
000030 da dc 85 bd 79 ad 02 bd 53 b9 4d 3d e6 7d 6b 3d
       -0.06536265 -0.031903718 0.050225567 0.057493113
000040 de d1 a0 3d 80 ff 45 3d 97 45 e3 ba f8 9a 17 3d
       0.07852529 0.048339367 -0.0017339465 0.037013024
000050 a7 2a 3c bd 2d 09 83 bd a0 4c 99 bc 6d b6 41 3d
       -0.045939114 -0.063982345 -0.018713295 0.047293115
000060 c4 fb 69 bc 65 a8 34 bd 8c e1 77 bd c8 15 78 3d
       -0.014281217 -0.044105906 -0.060517833 0.060567647
000070 df 3c 26 3d 77 8e 07 bd 47 78 7c 3c 26 f8 86 3d
       0.040585395 -0.03309485 0.015409536 0.06590299

dense_layers.2.weight f4 [2, 32]
000000 56 b8 41 3e c8 0f 36 3e 9b 16 52 3e 09 ed 02 3e
       0.18917975 0.17779458 0.20516436 0.12785734
000010 f4 87 f4 bd 07 6a 06 3e a2 a1 c9 3d af aa 3f be
       -0.119399935 0.13126384 0.09845282 -0.18717454
000020 ee 75 ea bd 6a e1 52 3e b0 d6 5b 3e 53 23 50 be
       -0.114482746 0.20593801 0.21468616 -0.20325975
000030 87 99 3b be e4 9b 4b 3e 90 9f 51 bd 76 da 0c 3e
       -0.18320285 0.19883686 -0.05117756 0.13755211
000040 4f 70 6e bd eb a9 02 be bb eb 0c be 1f bc 38 3e
       -0.058212575 -0.12760131 -0.13761799 0.18040513
000050 29 3e 3c 3e 7d d9 4f bd 64 b7 d7 bd 65 6d 5a 3e
       0.18383087 -0.050744522 -0.10533026 0.21330793
000060 f0 14 16 be d9 0e ca 3d 4e 86 05 be 7c 75 e0 bd
       -0.14656425 0.09866113 -0.13039514 -0.10959908
000070 a6 a8 2c be 0a b4 2d 3e f3 c8 66 be 86 6b ae bd
       -0.1686121 0.1696321 -0.22537594 -0.08516602
000080 48 2b 02 3c 9e f0 0e 3e b3 de 37 be 17 d0 e5 3d
       0.007944889 0.13958976 -0.17956047 0.112213306
000090 42 9c c1 3d 84 ff 5e 3e 34 05 72 be da a2 0d be
       0.09453632 0.21777159 -0.23634797 -0.13831654
0000a0 e7 6a 20 3d 1c 51 6c be 6e 7c 80 3d 0f 34 27 bd
       0.03916445 -0.23077816 0.06273733 -0.04082113
0000b0 fc 24 5e 3e 6f 9c fd 3d 01 ca fe 3d 50 bc 06 3e
       0.21693796 0.12383353 0.12440873 0.13157773
0000c0 25 93 ec bd a4 ce 66 3d ce b1 31 3e 9e 66 8e bd
       -0.11551503 0.05634941 0.17352983 -0.069531664
0000d0 08 d1 6d 3e af 68 f1 3d 12 ee 55 3e f1 cb 03 3e
       0.2322427 0.11787545 0.20891598 0.12870766
0000e0 58 93 90 3d 04 b7 c4 3c e8 49 f0 3d dd 9a f9 3d
       0.070593536 0.02401305 0.117328465 0.12187741
0000f0 6d 66 eb bd 61 af 4f 3d 81 29 61 bd 27 d3 58 be
       -0.114941455 0.050704364 -0.05497122 -0.21174298

dense_layers.2.bias f4 [2]
000000 a0 a4 12 3e 23 c0 29 be
       0.14320612 -0.165772

onnx::LSTM_217 f4 [2, 480]
000000 15 fe 5c 3d 80 72 ea bc b8 0e d3 3d 39 f5 eb 3d
       0.05395325 -0.028619051 0.10305542 0.11521382
000010 58 82 8e bc d1 fb 09 bd 85 42 ba bd b5 2d 4d 3d
       -0.017396137 -0.033687416 -0.09094719 0.050092418
000020 3e 14 0f 3e 34 ba 01 3d fc de 90 3d 85 bf f4 3d
       0.13972566 0.031671718 0.07073781 0.11950592
000030 01 26 aa 3d 3a b7 50 bd fd b0 86 bd 32 e1 87 3d
       0.0830803 -0.05095599 -0.065767266 0.066347495
000040 8a 12 dd 3d 2e aa 12 3e ca 04 a4 bd 0f f0 7f bc
       0.10794552 0.14322731 -0.08008726 -0.015621199
000050 c4 a7 02 bd d7 58 89 3d 8a f0 8a bd f7 5f 98 3d
       -0.031898275 0.06706398 -0.067841604 0.07440179
000060 62 03 9e bd 98 29 7c 3d ef 2d da bc 0d 5c 58 3d
       -0.07715489 0.061563104 -0.026633231 0.05282216
000070 53 a6 e1 3d cb d1 20 3d 83 2d 17 bd 5f eb 99 bd
       0.11018052 0.039262574 -0.036908638 -0.075155966
000080 4f dc 47 bc 05 d3 68 bc 67 12 5f bb bb 9a 05 3e
       -0.012198522 -0.014210467 -0.0034038068 0.13047306
000090 f8 fb e1 3d 4e a4 b5 bd dd 97 e6 3d a7 9e 15 3e
       0.11034387 -0.08869229 0.11259434 0.14611302
0000a0 1f 3f 76 3d 82 11 20 3e 0c 7f 84 bd 24 eb 07 3e
       0.06011879 0.15631679 -0.06469545 0.13273293
0000b0 ee 14 9d 3c 97 c9 da 3c fb 56 fc bc 35 c2 48 bc
       0.01917502 0.026707454 -0.030803194 -0.012253334
0000c0 bb d7 c9 bd 18 de be bd c3 21 a5 bd 38 51 da bd
       -0.098556004 -0.09319705 -0.0806308 -0.106600225
0000d0 1e e2 90 bd df 05 a8 3b 3e de 36 3d 20 aa c1 3d
       -0.070743784 0.005127653 0.04464554 0.09456277
0000e0 99 df a8 bd bf b8 10 3e a8 75 1e 3e bb 5b 16 3e
       -0.08245773 0.14132975 0.1547457 0.1468343
0000f0 fa 76 13 3e 4b 59 ad 3d bc 07 d5 bb 7f 5e cb bd
       0.14400855 0.08464297 -0.006501166 -0.09930133
000100 e9 b6 34 bc a7 4c 07 3d 23 07 11 bc 36 be cb bc
       -0.011029937 0.033032086 -0.008851799 -0.024870973
000110 42 ad 11 3e 7a 4c 1f 3e 92 44 ef 3d 56 b1 18 3e
       0.14226249 0.15556517 0.116830006 0.14911398
000120 64 a1 70 3b f2 ef 0d 3d 15 89 50 3d 2f 0e 4c 3d
       0.003671729 0.034652658 0.05091198 0.049818214
000130 4d a8 9f bd c2 44 d6 3d f8 67 d5 3d 28 85 eb 3d
       -0.07795773 0.10462333 0.10420221 0.11500007
000140 9f 30 f0 3b c2 e1 b1 3d c3 ff 22 3e 4c 9a 05 3e
       0.007330015 0.08685638 0.15917878 0.13047141
000150 55 67 66 bd f2 67 dc bb 77 32 b0 bc 4e 67 2e bc
       -0.05625089 -0.0067262584 -0.021508439 -0.010644747
000160 6e cd 39 bc 68 75 97 3d 90 a3 a8 3d 94 d8 0a bd
       -0.011340482 0.0739544 0.08234322 -0.03389795
000170 0a 0d 0e 3e bf 9a e5 bb 90 2e c1 bd be bc cb bd
       0.13872162 -0.0070069726 -0.09432709 -0.09948109
000180 ec 67 24 3d e8 61 ac bd 56 7d ad bc ae 66 e7 3d
       0.04013817 -0.08417112 -0.021177929 0.112988815
000190 ff 51 7a bd bb 27 90 bb 3a 1a fe 3d 38 2e b3 3d
       -0.061113354 -0.0043992675 0.12407346 0.0874905
0001a0 c4 fd fb 3c a3 ec cb 3c c9 dc 1f 3e 45 91 1a 3e
       0.030760653 0.02489311 0.15611567 0.15094478
0001b0 bf 0d fb 3c ee 9c dd bc 38 61 18 3e c8 1d 4f bd
       0.030646203 -0.027052369 0.14880836 -0.05056551
0001c0 fd e7 cb bd 3d a3 20 bc 3a 62 ce 3d 85 fe bf 3d
       -0.09956358 -0.009804544 0.10077329 0.093747176
0001d0 92 61 e9 3d 98 8a 8d bd 88 fe ea 3c 6a a8 0a bd
       0.11395563 -0.069112 0.028685823 -0.03385202
0001e0 df a6 10 3e fd e9 46 bd bf 62 65 bc 68 b4 8e bd
       0.14126156 -0.048562992 -0.014000594 -0.069680035
0001f0 07 fa 00 3e f2 21 39 3d f3 ae c1 bd 45 de 4f 3d
       0.12595378 0.04519839 -0.09457197 0.050749082
000200 04 62 f2 3a 2a 5d a3 bd 62 b5 a3 3d 80 5a f4 3d
       0.0018492346 -0.07976754 0.079935804 0.11931324
000210 df 2a 23 bd a4 b6 da 3c 0f 08 28 bd 39 07 a8 bd
       -0.039835807 0.026698418 -0.04102331 -0.082045026
000220 f3 4e a3 3d 4c a1 da bd 99 6d c4 bc ed bf 7a 3d
       0.07974043 -0.10675296 -0.023978041 0.06121819
000230 96 84 58 3d b8 d5 be 3d 78 c2 61 3d 96 ff f1 ba
       0.05286082 0.09318107 0.0551171 -0.0018463011
000240 51 d6 80 3d 9c 7d 8f bd 56 12 76 bd b7 2e b9 bc
       0.062908776 -0.0700638 -0.06007608 -0.022605283
000250 32 28 aa bd fe 61 a1 3d 8c 77 83 3c f6 5a ad bd
       -0.08308448 0.07880019 0.016048215 -0.08464615
000260 4f 69 30 3c 4d 57 85 bd 54 c8 ec 3d 75 e6 d0 3d
       0.010767295 -0.06510792 0.11561647 0.10200206
000270 1e ce 05 3e f9 79 ce bd f0 75 dc 3a 0a 78 da 3d
       0.13066909 -0.10081858 0.0016819816 0.10667427
000280 a3 32 ee 3c 9f e6 ef bd e4 df 8f 3d 37 41 95 bd
       0.02907688 -0.11713909 0.070251256 -0.07287829
000290 56 c2 da bc ac 6c 6a 3d cf 7a e5 bc 5e ff 9b 3c
       -0.026703995 0.057232544 -0.028012661 0.019042667
0002a0 10 3b 55 bd 99 e6 a6 bd 7d 01 0a bc 43 7b 00 bc
       -0.05205828 -0.08149452 -0.008423206 -0.007841888
0002b0 9a 13 dc 3d e8 b8 b4 3d 51 c9 1c bd a2 82 4e 3c
       0.10745926 0.088243306 -0.038277928 0.0126043875
0002c0 e2 28 a2 3c ef e8 b8 bc 18 88 73 bb 85 fe d2 3d
       0.019794885 -0.022572009 -0.0037159976 0.10302452
0002d0 b8 3d 02 3e 84 39 b7 bd 47 9c e3 bc 4a 37 0f bd
       0.12718856 -0.08946517 -0.02778448 -0.034964837
0002e0 4f 5f e5 3d 2e 4f e6 3d 02 6e c0 3c e0 42 9b 3d
       0.11199819 0.11245571 0.023489956 0.07581115
0002f0 2b cc c6 3c eb df 8a bd e1 ec 69 bd bd 90 bb 3d
       0.024267277 -0.0678099 -0.05711067 0.09158466
000300 1c d7 62 3d 88 44 d2 bd c0 08 3b 3b c0 ed d3 3c
       0.055380926 -0.102669775 0.002853915 0.025870204
000310 83 fd ff 3d 16 d0 2d 3d 98 a0 42 3d 94 a6 04 3e
       0.124995254 0.042434774 0.047516435 0.1295417
000320 a0 0d 68 3d 81 d3 12 3d 0c 02 d1 3d 43 4c 1e bd
       0.05665362 0.035846237 0.102054685 -0.038646948
000330 9c 90 15 3e 1e f1 06 bd bc 77 d9 bd 53 7e ee bb
       0.14605945 -0.03294479 -0.10618541 -0.0072782426
000340 a8 46 98 bd 4a be 5f 39 1d 1b df 3d 91 72 24 bd
       -0.074353516 0.00021337825 0.10893843 -0.04014832
000350 43 e7 10 3d 57 96 6e bd a8 2f 39 bd 15 52 5a 3d
       0.0353768 -0.058248844 -0.045211464 0.053300936
000360 c7 f7 d3 bc ff 4e d1 bd 04 44 54 3d c3 bd c4 3c
       -0.025874985 -0.102201454 0.051822677 0.024016267
000370 47 de 00 bd 03 38 b6 3d 67 de 93 3d 0e f8 ab 3d
       -0.03146198 0.08897402 0.07220154 0.08396922
000380 fb a6 b8 bd 7b df 1f bd 89 96 5c bc ac c1 fe bc
       -0.09016224 -0.039031487 -0.013463625 -0.03109821
000390 16 58 81 bd 8e a2 13 be d5 4a 1e 3d 92 19 bd 3d
       -0.06315629 -0.14417478 0.038645584 0.09233393
0003a0 4e d3 c9 3d eb 83 f8 bc b4 7b 27 3d 1f eb be bc
       0.09854756 -0.03033634 0.040889457 -0.023305474
0003b0 bd c2 89 3c 3e 32 ed bd 76 5a c0 bd d7 3b e3 bd
       0.016816491 -0.115818486 -0.09392254 -0.11095398
0003c0 5d 82 8e 3d b2 31 ce 3c 79 71 1e 3d 5d 58 b0 3d
       0.069584586 0.025170181 0.038682435 0.08610604
0003d0 39 1b a5 bd c2 a4 03 bc 5a 33 04 3d cf 32 ba 3c
       -0.08061833 -0.008034887 0.032275535 0.022729306
0003e0 0e d1 91 3d 08 6e 5a 3d a8 86 be 3d 83 70 86 bd
       0.07119952 0.05332759 0.093030274 -0.06564429
0003f0 74 f1 4e 3c 3a fb 4f bd 34 83 03 3d 93 49 cf 3c
       0.012630809 -0.050776698 0.032107547 0.025303638

onnx::LSTM_218 f4 [2, 240, 4]
000000 9c 9f 13 be 7a 67 85 ba 2c 42 43 bd 61 46 f3 bd
       -0.14416355 -0.0010177933 -0.04767053 -0.11878658
000010 47 48 d9 3b 01 82 18 bd 88 86 aa 3b b3 1a a2 3d
       0.0066309306 -0.037233356 0.0052040257 0.07915249
000020 25 24 07 be 3a 8d a0 bc f1 98 de bc fb 14 06 be
       -0.13197382 -0.019598592 -0.027172538 -0.13093941
000030 63 bd 3c bc 33 e3 1f be dd 9b ea bd 4d da fb bc
       -0.011519763 -0.15614013 -0.1145551 -0.030743742
000040 92 b6 1c 3e 53 5c 9c 3c 2b 2b e1 3d 6e eb ff 3d
       0.1530402 0.019086992 0.10994562 0.124960765
000050 48 42 4e be ba 99 87 bc b1 1f 83 3d 16 3a 9b 3d
       -0.20142472 -0.016552795 0.06402529 0.075794384
000060 9c f0 29 3d 50 5d f5 3d 92 13 c1 3d 51 39 ad 3d
       0.04148923 0.119806886 0.09427561 0.08458198
000070 d5 82 28 3d da dd 53 bd d3 08 7e 3d be 52 37 be
       0.041140396 -0.051725246 0.062020134 -0.17902657
000080 de d9 ec bd 48 a6 92 bc 6d 2d b5 bd 60 65 76 3d
       -0.11564992 -0.017901555 -0.08846555 0.060155272
000090 23 47 8e 3c 37 46 cb 3c 39 cb a7 3d 55 26 28 be
       0.017367905 0.024813754 0.081930585 -0.16420873
0000a0 f7 9f 5d be 29 31 ec bc c3 d3 f0 bc 60 7f 2c be
       -0.21643053 -0.028832035 -0.02939785 -0.16845465
0000b0 05 21 ec bd a7 87 13 be 03 62 db bd 15 93 25 3e
       -0.115297355 -0.14407216 -0.107120536 0.16169389
0000c0 b1 b7 e8 3d b6 e4 04 3e 20 77 30 3b 36 7d 15 3e
       0.11363161 0.12977871 0.0026926473 0.14598545
0000d0 23 f1 1c 3d bf 32 0b be 75 f9 13 3b f2 19 e1 bd
       0.038315903 -0.13593577 0.0022579108 -0.10991277
0000e0 08 15 e5 3c ce 6c 39 3b bb 51 09 bc 49 4e 44 3e
       0.02796413 0.0028293612 -0.0083813025 0.19170488
0000f0 7c 30 03 be be a9 1a be 8e 1f 6e 3d 00 c2 0b be
       -0.12811464 -0.15103814 0.05813556 -0.13648224
000100 91 a7 fb 3c f4 ea 0a be 6b 90 97 3c c3 d3 9f bd
       0.03071955 -0.1356619 0.018501481 -0.07804062
000110 da 32 fd 3a fb d5 27 3d e3 f9 78 bd 02 cd 90 bd
       0.0019317523 0.040975552 -0.060785186 -0.07070352
000120 22 6d db 3d 41 20 99 3d 4f 66 b2 3c fe 98 0d bc
       0.10714175 0.07476855 0.0217773 -0.008642433
000130 b2 60 00 3e f3 7e d5 3d b8 22 7e 3d ae fe 0b bd
       0.12536886 0.10424604 0.06204483 -0.03417843
000140 e6 f9 93 bd 13 0a 1e be 4e 38 ae 3d cc fb 18 be
       -0.07225399 -0.1543353 0.08506833 -0.14939803
000150 d9 cf 86 3e 74 3c 4f 3e 1e 96 bc 3d cf a8 0e 3d
       0.2633045 0.20237905 0.0920832 0.034828957
000160 61 05 9c 3d 3f d9 34 bd 94 f7 da 3c dc ca 76 bd
       0.076182134 -0.044152495 0.026729383 -0.060252056
000170 21 16 ee bc 8b 10 00 bd fb dc 94 bd 3e 3c 25 be
       -0.029063286 -0.031265777 -0.07268711 -0.16136262
000180 9b ae 53 bd 03 23 6c bd 5b 86 2b 3e 97 e8 8a 3d
       -0.05168019 -0.057650577 0.16750471 0.06782644
000190 35 ac 13 bc 08 90 bd 3d 23 42 be 3d b2 92 2f be
       -0.009013225 0.092559874 0.09289958 -0.17145804
0001a0 ab 5a 34 ba fb 80 d7 3c a3 98 01 be 97 4c 62 bd
       -0.00068799657 0.02630662 -0.12655883 -0.055248823
0001b0 7f b7 0b 3a e0 8a 78 3d fd 8f 15 be 7a f4 01 bc
       0.0005329772 0.060679317 -0.14605708 -0.007931823
0001c0 ff b7 a1 bd 36 a6 15 be 03 80 94 bd 7a d3 7d 3d
       -0.078964226 -0.14614186 -0.07250979 0.061969258
0001d0 fe c5 21 3d 44 fd 6f 3d 72 4d 3d bc 7c 69 79 3d
       0.03949546 0.058591142 -0.011554109 0.060891613
0001e0 98 61 67 bc 52 29 a4 bd 4c dc e7 bd de 87 01 be
       -0.014122389 -0.08015694 -0.11321315 -0.12649485
0001f0 9a 6a c4 bc ad 15 23 be bc 5c 0b 3e b9 e1 89 b7
       -0.023976613 -0.15926237 0.13609594 -1.6436783e-05
000200 6b 31 3c 3e 77 50 15 3e 8f 79 f8 3c 31 f0 1d 3c
       0.18378226 0.14581476 0.030331401 0.009639786
000210 46 8c 43 bd 6f 0a 00 bd 30 31 a3 3d 00 ab 84 bd
       -0.047741197 -0.03125995 0.07968366 -0.06477928
000220 4c c2 92 3d 8b 7e 8a bc 89 2b a1 bd f2 4e 1b 3e
       0.071659654 -0.016906044 -0.07869632 0.15166834
000230 43 ca bf 3c f8 b4 6e 3c 13 ac 99 bc 87 ba 74 3d
       0.023411876 0.0145695135 -0.01875881 0.0597482
000240 82 34 47 3b 66 01 94 bc 30 3f 09 be 49 fd 01 be
       0.0030396287 -0.018067073 -0.1340301 -0.12694277
000250 a9 5c 63 bd af c1 aa 3c cb fb bb 3d 8e 7b eb 3c
       -0.05550829 0.020844309 0.09178885 0.028745439
000260 1b 2e 93 bc fc 8e ad 3d 02 0d 0b 3d bd 46 12 3e
       -0.01796632 0.08474538 0.033947952 0.14284797
000270 32 83 1f 3e 92 9e 14 3e d3 c8 12 3e 24 06 d3 3d
       0.15577391 0.14513615 0.14334421 0.103039056
000280 a8 0e ac bd 29 fd 21 be 1b 3b ab bd 11 3f 16 3c
       -0.08401233 -0.15819229 -0.08360883 0.00917031
000290 11 99 04 3e c4 a1 25 3e b8 2e 99 3b 56 9f 35 bc
       0.12949015 0.1617499 0.0046747588 -0.011085352
0002a0 78 80 44 3d 91 b6 1e 3e 2c c4 79 be 62 ec 93 bb
       0.04797408 0.15499331 -0.2439124 -0.004514263
0002b0 4e 55 80 3d c7 e0 12 3e 4a 47 53 be f5 45 89 3c
       0.062662706 0.14343558 -0.20632663 0.01675699
0002c0 ae 4e 11 3d d6 e0 02 be 7c 02 0f be 6b 4a bb bd
       0.035475425 -0.1278108 -0.13965791 -0.091450535
0002d0 54 10 06 bc 25 a2 44 3e c1 d7 a0 bd 16 8f b9 3d
       -0.008182604 0.19202478 -0.07853652 0.090604946
0002e0 8b 74 f3 bd 11 b8 be bd 92 46 2f 3d db d7 5f bd
       -0.11887463 -0.09312452 0.04279191 -0.054649215
0002f0 ce a4 cc bd f5 65 c5 bd 50 d2 98 3d 60 45 ce bb
       -0.099923715 -0.096385874 0.07461989 -0.0062948912
000300 3a 2a a9 3d ac 61 7f bd 15 e7 93 3d f8 cf 77 3d
       0.08260007 -0.062349007 0.0722181 0.06050107
000310 c1 76 dd bc 61 40 98 3d 56 2b d6 3d 4f 5d 02 3e
       -0.027034165 0.07434154 0.104574844 0.12730907
000320 74 8d 2e 3e cf 55 ab bd 51 66 a4 3c 67 da db 3c
       0.17046148 -0.08365976 0.02006832 0.02683754
000330 2d e0 1f bd 07 cb d8 bd 11 a7 55 bd 19 84 07 3d
       -0.03903215 -0.105855994 -0.05216128 0.033084963
000340 d5 36 ef 3d b1 04 c8 3d 17 5a ba 3d da 55 df 3d
       0.1168038 0.0976652 0.090992145 0.10905047
000350 90 1f 36 bc 07 9d ec bd fe 11 42 3e 04 50 51 bd
       -0.0111159235 -0.11553388 0.18952176 -0.0511017
000360 a1 e8 7a 3b c5 a5 4d bc 54 b1 bd bc c2 1a 60 3d
       0.003828563 -0.01255173 -0.023155846 0.05471302
000370 8e da 8d bd ea 27 6f bd 8a d6 7b 3d 09 70 a4 bb
       -0.069264516 -0.058387674 0.061483897 -0.0050182384
000380 e6 b3 0c be 16 12 d8 bd d8 59 f6 3b d7 f2 d7 bd
       -0.13740501 -0.105503246 0.0075180344 -0.10544365
000390 2d 78 bb 3d e3 16 cf bd 52 c8 77 be 4c 83 1d be
       0.09153781 -0.10111787 -0.2419751 -0.15382117
0003a0 36 27 10 be a3 1b 9a bc 3a 6d cf 3d 24 a1 09 be
       -0.14077458 -0.018812006 0.10128255 -0.13440377
0003b0 56 8d 30 3c 20 c3 e8 3d f7 c0 16 3d 8a 79 ea 3d
       0.010775885 0.11365342 0.03680512 0.11448963
0003c0 b2 c9 a5 3c db 50 9f bd b2 19 10 be 90 a1 a9 bb
       0.020237777 -0.07779094 -0.14072302 -0.0051767305
0003d0 75 d7 b2 bd 56 1a 0a 3d 54 67 7c be 86 95 d0 bc
       -0.087325014 0.033716522 -0.24648792 -0.025461923
0003e0 5a d3 25 be f3 7a 27 3d 3d 23 22 3d 3c 27 af 3c
       -0.16193905 0.040888738 0.039584387 0.021381013
0003f0 fb 7e 26 be 3c da 98 3d 46 32 a9 be fd b3 28 3c
       -0.16259377 0.074635 -0.33046168 0.010296819

onnx::LSTM_219 f4 [2, 240, 60]
000000 da df e1 bd 38 ec 1d bd c3 77 15 bc 2c 5c cf 3d
       -0.110290244 -0.038555354 -0.009122792 0.10125002
000010 a3 e5 0f 3e 1d ff b3 3d 2d 03 27 be b8 20 a5 bc
       0.14052443 0.08788893 -0.16309805 -0.020157203
000020 33 a4 cd bc 73 cd 0b 3e 04 e9 ca 3c 54 61 b9 bd
       -0.02510271 0.13652591 0.024769314 -0.09051767
000030 1e b6 aa bd 88 5b 87 3d f9 3b 25 3d 14 a8 b4 bd
       -0.08335517 0.06609255 0.040340398 -0.08821121
000040 dd ce 4b bd 81 98 03 3d 58 e3 dc bc 63 44 09 3e
       -0.049757827 0.03212786 -0.026963875 0.13404994
000050 b3 17 bc 3d bb 45 27 3e b4 f8 cb 3d 6e e5 92 3d
       0.09184208 0.16335194 0.09959546 0.071726665
000060 f0 e2 0f be b2 cb 9b bd 37 ce a8 bd 14 29 80 3d
       -0.14051414 -0.07607211 -0.08242457 0.06257835
000070 1f 04 b4 3d 5e 85 ae 3d 98 fb aa bd c5 6e 7c bd
       0.087898485 0.085215315 -0.08348769 -0.061629076
000080 af f2 26 3e d4 a5 4a bd cf 0b 06 3e 06 f1 11 3e
       0.16303514 -0.049474552 0.13090442 0.142521
000090 77 e0 db 3d 10 3a a4 3d 67 bf eb 3d 9d 28 de bc
       0.10736173 0.08018887 0.115111165 -0.027118975
0000a0 31 ae 93 bd fb a7 94 bd 70 a8 fa 3d 1e 7c 06 3e
       -0.07210959 -0.07258602 0.12239158 0.13133284
0000b0 18 92 51 bd 82 83 2a bd 04 8b 23 bd 18 54 36 3c
       -0.051164716 -0.041629322 -0.039927498 0.011128448
0000c0 a3 38 4b 3d ec ef 9d bd f8 03 a6 3c b8 49 2e bc
       0.04961456 -0.07711777 0.020265564 -0.010637693
0000d0 c2 01 7a bd 40 45 0f 3d 47 0a ce 3d 08 eb 81 3d
       -0.061036833 0.03497815 0.10060554 0.06343657
0000e0 3b e8 31 bd 21 39 c6 3d da 5b a8 3c 00 24 ae bd
       -0.043434363 0.09678865 0.02055161 -0.0850296
0000f0 9f 93 08 3c c9 e2 a3 3d 5a 70 76 bd 5d 1c 2c 3e
       0.008335977 0.0800224 -0.06016574 0.16807695
000100 8b 54 85 3d 42 6d e0 bb c0 b6 dd 3c b3 ac eb bd
       0.06510266 -0.006848962 0.027064681 -0.11507549
000110 1e 69 a9 bd 18 df 4e 3d 11 00 34 be 58 16 0d 3e
       -0.08272003 0.050505728 -0.1757815 0.13778055
000120 93 3d 55 be e2 e2 94 bd 54 ad 3c 3e 35 dc 26 3e
       -0.2082427 -0.07269837 0.18425494 0.1629494
000130 d5 61 34 3d 1f 0c a2 3d d7 a0 b7 3d 2b 29 83 bd
       0.044038612 0.07912468 0.08966225 -0.064043365
000140 a7 cf d2 bd 89 5f 68 3d 53 54 ec 3d 1b f8 bf 3d
       -0.10293513 0.056731734 0.11539521 0.09373494
000150 0a 8b 70 3d 65 0a 26 3d 7c 2e 18 be 61 a9 38 3d
       0.058726348 0.040537257 -0.14861482 0.045083407
000160 dc b1 80 3c cd 5b 94 bd a0 5b 95 bc cc c5 6d bd
       0.01570981 -0.07244072 -0.018232167 -0.058049962
000170 7b cb 25 3c b6 e8 c2 bd 8b 2d 80 bd c9 92 a0 bc
       0.010119314 -0.09517042 -0.06258687 -0.019601243
000180 a2 1d 2a bd 91 7f 1a be 57 ce 98 3d ce d7 07 be
       -0.041532166 -0.15087725 0.07461231 -0.13265917
000190 a0 80 69 bc 64 4d 2a 3a bc 2a 0a be d0 17 70 3c
       -0.014251858 0.00064965175 -0.13492864 0.014654115
0001a0 2e 3c f6 bc de 2d 03 bd 7d 8f 5b be dc 58 9d bd
       -0.030057993 -0.032026164 -0.21441455 -0.07682964
0001b0 70 38 dd 3b f8 4c c1 bd f9 97 de bc dd fa 90 bc
       0.0067511126 -0.09438509 -0.027172076 -0.017697746
0001c0 0a cc 78 3d 93 04 0e 3e 63 8c 98 bd 6a 48 08 3e
       0.06074146 0.13868932 -0.07448652 0.13308874
0001d0 68 86 d0 bd ed 77 f7 3d a5 47 b3 bc dc 30 08 be
       -0.10181886 0.12083421 -0.021884749 -0.13299888
0001e0 f4 22 26 bd 30 b2 76 3d 42 0b 5b 3d a2 26 59 3c
       -0.040560678 0.060228527 0.053477533 0.01325384
0001f0 e5 67 53 3e ef c2 20 bd 38 38 7e bd bc b4 da 3d
       0.20645101 -0.039248403 -0.062065333 0.106790036
000200 f5 44 c1 bd 3f 37 d6 3d 4f b7 73 3c c2 de 5e 3d
       -0.09436981 0.10459756 0.014875247 0.054411657
000210 0d f3 80 bd 34 2c 01 be fb 05 27 3d a0 b7 54 bd
       -0.06296358 -0.12614518 0.040777188 -0.05193293
000220 47 a5 97 bd 9f 76 b0 bc 31 bd 9d 3d 78 5a 90 3c
       -0.07404571 -0.021540938 0.07702101 0.017621264
000230 53 4d b4 bd d1 ba 66 3e 49 63 6a bd 61 a0 a8 bd
       -0.08803811 0.22532202 -0.057223592 -0.08233715
000240 8c b0 01 bc 3e 6c 42 bd 30 ca d5 3b 12 3c 04 bd
       -0.007915627 -0.04746651 0.006524347 -0.03228385
000250 34 22 76 bd a3 ad 88 3d f9 b0 78 3d e2 8b b0 3d
       -0.060091212 0.066737436 0.06071565 0.086204305
000260 e1 b6 3b 3e 25 37 9b ba c9 1b fa 3d d0 01 cf bc
       0.18331482 -0.0011841996 0.12212331 -0.025269419
000270 be 4e f8 bd f4 86 63 3d a6 72 3f bd ed 5a 27 be
       -0.12124394 0.055548623 -0.046740197 -0.16343279
000280 61 8f 01 bd 8e af b8 3d fa 1e 17 3e 57 05 77 3c
       -0.031630877 0.090178594 0.1475791 0.015076957
000290 8f 23 11 be d5 25 1c bd 92 93 a0 bd 0a 5c 51 bd
       -0.14173721 -0.038122017 -0.07840647 -0.051113166
0002a0 2d ff c9 3b 63 af 40 3d ba 4d 22 be 41 d0 03 3d
       0.0061644525 0.04704226 -0.15849963 0.03218103
0002b0 21 e4 13 3e f5 0b 94 3b 88 3a 2d 3d 9c 7e 78 3d
       0.14442493 0.004518027 0.042292148 0.06066762
0002c0 45 27 be bd 41 2c e3 bd bd 1d 06 be fd 19 50 bc
       -0.09284834 -0.11092425 -0.13097282 -0.012701509
0002d0 f6 f4 98 bd c2 4f 5f 3d 96 a4 1c 3d cf 56 4c ba
       -0.074685976 0.054519422 0.0382429 -0.0007794918
0002e0 16 e3 1f bd 74 70 f2 3d b7 ec e4 bd 44 e2 fc bd
       -0.039034925 0.11837855 -0.11177962 -0.12347844
0002f0 f2 82 ef bd 85 31 e5 bc 6e 31 31 3d 4f ef e3 3d
       -0.11694898 -0.027977714 0.04326003 0.11129629
000300 3b 0c 01 3e 97 69 2f be 3f 1a 46 3e 38 56 d5 3d
       0.12602322 -0.17130123 0.1934595 0.104168355
000310 4a d6 85 3d 3f a0 9d bc db 4e eb 3b dd 66 46 3e
       0.06535013 -0.01924145 0.007181031 0.19375177
000320 9c 3b 14 bb e4 a9 3b 3d a1 95 a7 bd 30 12 1e bd
       -0.0022618538 0.045816317 -0.08182836 -0.038591564
000330 65 d1 fd bc 74 1e ed 3b ef 3b ee bd da 7d 3b 3e
       -0.030983636 0.0072362963 -0.11632525 0.18309727
000340 a9 ab 33 be 0a 25 06 be e0 e3 84 bd fd 9b 0a be
       -0.17545952 -0.13100067 -0.06488776 -0.13536067
000350 ed be ee 3d a2 43 a1 3d c8 55 21 bd 0d 80 94 3d
       0.1165751 0.07874228 -0.039388448 0.07250986
000360 8e 49 0b 3d 2c cc 22 be bd 21 4b bd 34 37 c5 bb
       0.034005694 -0.15898198 -0.049592722 -0.0060185436
000370 02 89 2b be a2 94 77 3d ab 6d 6d 3d 01 b2 16 3d
       -0.16751483 0.06044448 0.057965916 0.03679085
000380 5c 8e 09 be 8b 26 f8 bd 67 30 5a bd cf e6 dd 3c
       -0.13433212 -0.121167265 -0.053268816 0.027087597
000390 a7 bc db bd 19 d3 fd 3c 0a d2 8c bb 77 ed b8 bd
       -0.10729342 0.030984448 -0.0042974995 -0.09029668
0003a0 a7 aa 01 be db 54 c0 bc c1 85 83 bc 6d 16 0c 3e
       -0.12662755 -0.023477962 -0.01605499 0.1368043
0003b0 2e 2c 06 3d 7f 2d 9d 3b 87 d8 a6 3c db 86 63 bd
       0.032756977 0.0047966833 0.02036692 -0.05554853
0003c0 83 93 44 3d 8a 6d d5 bd 67 5f 8d 3d 56 83 36 3d
       0.04799224 -0.104212835 0.06902962 0.044558845
0003d0 58 42 0a 3e 2f 0f 6d bd 94 c0 17 be 25 fa fe bb
       0.1350187 -0.05787581 -0.14819556 -0.0077812844
0003e0 1e 65 ff 3d b9 b7 0c 3e 68 ed 54 3d 34 ae 71 bd
       0.124704584 0.1374196 0.05198422 -0.059004024
0003f0 3d bc 48 bb 3c 4b ed 3c 1e 2b 83 3d a8 72 f7 bd
       -0.0030629777 0.028966539 0.06404708 -0.12082416
