Sistema_Compressao_simples/modelo_treinado2.onnx (onnx, 147732 bytes, 7 tensors)

dense_layers.0.weight f4 [32, 120]
0.040423464 0.11254883 0.028436717 -0.066999875 -0.09754435 -0.12867029 -0.020620253 -0.11482455
-0.040012654 -0.004536096 0.057991236 -0.12044825 0.11975911 0.07830054 -0.035586268 0.05990722
0.0058757868 -0.036721468 -0.13686073 0.0006328159 0.035413228 -0.0967222 0.07047401 0.00635321
0.04186752 0.008912146 -0.0029066375 0.0037227268 0.03433954 -0.12441874 0.005191604 0.022605512
-0.048376188 0.0009446843 -0.04376047 0.03357376 -0.03126425 0.023235416 -0.01703916 -0.06664636
0.06177066 0.06294676 0.04084158 -0.1055075 0.06946339 0.08033446 -0.0290474 0.074399866
-0.050007667 -0.034244414 -0.0670764 0.04735255 -0.018025277 -0.016350623 -0.04142817 0.11787356
0.028740196 -0.0017885186 0.056720246 0.017553812 0.09483016 -0.085439645 -0.0013625086 -0.06556855
-0.010857886 -0.059577387 -0.068048924 0.03955817 -0.039299566 -0.08214599 0.009453794 -0.09323862
0.006146061 0.06760561 0.07045115 0.0771828 -0.0144498125 0.09298246 0.0067782593 -0.064712726
0.023054477 -0.013928963 0.124787144 -0.039924577 0.13015357 -0.047155593 0.020042336 -0.051483836
-0.0014567141 -0.048786763 -0.016147355 0.09246271 0.023461482 0.09238491 -0.037479166 0.02886122
-0.08305236 0.0027605784 -0.05474228 -0.025128074 -0.02425148 0.07539158 0.031917658 -0.10746124
0.035552632 0.04506735 -0.049016446 0.16431655 -0.09203309 0.029163126 0.05237451 0.026892351
-0.029611673 -0.022479197 0.01824329 -0.03275395 0.097724386 -0.13178757 0.019311424 0.062721044
0.015397395 0.010269373 -0.11769776 0.015775653 -0.049378026 -0.049968287 0.032248236 -0.07228936
0.056975447 0.010878654 0.12392531 0.04904654 0.017387494 0.02837391 -0.053180877 -0.07779396
-0.024059448 -0.058661345 -0.01718519 -0.11780093 -0.049058028 -0.06264461 0.053707033 -0.0016541164
-0.033165466 -0.107141346 -0.0282318 0.060039762 -0.06903945 0.004251011 0.055253763 0.052732687
0.016892795 -0.029763587 -0.07879015 0.12204858 -0.039849956 -0.057500772 -0.045141134 -0.006320936
-0.08225759 0.064941704 -0.010043161 -0.08957012 0.10081685 0.009924151 -0.057311263 -0.031886145
-0.108850196 -0.019045483 0.044285208 -0.08271655 -0.018854044 0.12949279 -0.02777709 0.1109747
0.030422455 -0.046780925 -0.03919638 0.07501449 0.14563553 -0.07859055 -0.0062251976 0.045326393
-0.04269225 0.027506055 -0.1013358 0.10574565 -0.029271184 0.04518476 -0.028947987 -0.040799722
-0.0033635902 0.10069612 0.044449016 -0.057814997 0.06559551 0.07940401 -0.010349639 -0.03163611
0.04111864 0.09897986 -0.043777615 -0.09753332 -0.01153289 -0.13308087 -0.041684553 0.10355637
0.06441395 0.033353683 -0.021731839 0.091980055 0.053775836 0.15585326 0.084670424 0.014747286
0.0306224 0.013820996 -0.021120073 -0.13751513 -0.13177027 0.12382982 0.0077748974 -0.117650904
0.035887133 0.04737986 -0.03843329 0.057274956 0.06432841 -0.03473452 -0.12823406 0.0043185474
-0.029331733 0.051958956 0.03962823 0.11875402 0.120915905 -0.109415285 -0.07426312 0.105563596
0.063069105 -0.0063801515 0.10277509 -0.00893861 0.049342815 -0.054422963 0.011265213 0.10136635
0.008866636 -0.018917024 -0.11914566 0.08482765 -0.04540255 -0.060228523 -0.036175326 -0.025011258
00000000: 1393 253d 0080 e63d 1ef4 e83c 3b37 89bd
00000010: 55c5 c7bd 25c2 03be ceeb a8bc 2229 ebbd
00000020: 4fe4 23bd 88a3 94bb 3888 6d3d 92ad f6bd
00000030: 4444 f53d 095c a03d e8c2 11bd 4661 753d
00000040: ac89 c03b 4069 16bd 3825 0cbe 8ee3 253a
00000050: 760d 113d 4a16 c6bd ae54 903d 972e d03b
00000060: 477d 2b3d 4004 123c 497d 3ebb fef8 733b
00000070: 9ea7 0c3d 41cf febd 551e aa3b 322f b93c
00000080: 1c26 46bd b1a4 773a 2e3e 33bd a484 093d
00000090: f10e 00bd 3358 be3c b595 8bbc e37d 88bd
000000a0: 3b03 7d3d 3bea 803d 8049 273d 5114 d8bd
000000b0: d242 8e3d 6586 a43d d0f4 edbc f55e 983d
000000c0: d7d4 4cbd df43 0cbd 5a5f 89bd bff4 413d
000000d0: bfa9 93bc bef1 85bc 96b0 29bd b167 f13d
000000e0: 8f70 eb3c ba6c eaba 7d53 683d 03cd 8f3c
000000f0: 5136 c23d fbfa aebd 3496 b2ba ce48 86bd
00000100: 46e5 31bc 6b07 74bd 3c5d 8bbd bf07 223d
00000110: 95f8 20bd 283c a8bd 16e4 1a3c e4f3 bebd
00000120: e564 c93b cf74 8a3d b148 903d 0412 9e3d
00000130: e8be 6cbc 976d be3d 291c de3b 1b88 84bd
00000140: bedc bc3c 4e36 64bc 6790 ff3d f487 23bd
00000150: fa46 053e 3926 41bd d32f a43c b7e0 52bd
00000160: 37ef beba a1d4 47bd 7547 84bc 175d bd3d
00000170: 4b32 c03c 4d34 bd3d c183 19bd 5e6e ec3c
00000180: 5b17 aabd d2ea 343b 7139 60bd 64d9 cdbc
00000190: 0aab c6bc e766 9a3d 17bc 023d a314 dcbd
000001a0: a39f 113d 8b98 383d 78c5 48bd 9942 283e
000001b0: d87b bcbd 82e7 ee3c a786 563d 594d dc3c
000001c0: 2e94 f2bc 4b26 b8bc f472 953c 0229 06bd
000001d0: b923 c83d 52f3 06be fe32 9e3c e473 803d
000001e0: 5b45 7c3c df40 283c 860b f1bd f13b 813c
000001f0: 9d40 4abd 8cab 4cbd ba16 043d 720c 94bd
00000200: 165f 693d 623c 323c 8ecc fd3d 06e5 483d
00000210: 3870 8e3c 6770 e83c 31d4 59bd 7152 9fbd
00000220: 5218 c5bc e146 70bd f5c7 8cbc 9d41 f1bd
00000230: 12f1 48bd d14b 80bd e8fb 5b3d f0ce d8ba
00000240: 83d8 07bd ec6c dbbd 6046 e7bc 41ec 753d
00000250: 8e64 8dbd 114c 8b3b c551 623d 3bfe 573d
00000260: c262 8a3c c4d2 f3bc bb5c a1bd 9bf4 f93d
00000270: b539 23bd ee85 6bbd e9e5 38bd db1f cfbb
00000280: ab76 a8bd 2800 853d 128c 24bc 8a70 b7bd
00000290: 1179 ce3d e898 223c 37bf 6abd 0c9b 02bd
000002a0: daec debd 4605 9cbc 6864 353d 4b67 a9bd
000002b0: cc73 9abc c299 043e c88c e3bc b446 e33d
000002c0: 8338 f93c 5b9d 3fbd 628c 20bd 32a1 993d
000002d0: 7b21 153e 15f4 a0bd befc cbbb 2ba8 393d
000002e0: 12de 2ebd 6154 e13c 2589 cfbd 2d91 d83d
000002f0: 1fca efbc a813 393d 5424 edbc 9c1d 27bd
00000300: ae6f 5cbb c439 ce3d 2c10 363d 6bcf 6cbd
00000310: f056 863d 929e a23d 8891 29bc de94 01bd
00000320: 056c 283d f4b5 ca3d 2850 33bd 8dbf c7bd
00000330: 72f4 3cbc 5a46 08be 6cbd 2abd 5d15 d43d
00000340: 76eb 833d df9d 083d f806 b2bc 0a60 bc3d
00000350: 0d44 5c3d ff97 1f3e b067 ad3d 9a9e 713c
00000360: d4db fa3c 7571 623c 0104 adbc c4d0 0cbe
00000370: c9ee 06be 7d9a fd3d 91c4 fe3b f5f2 f0bd
00000380: 63fe 123d 6211 423d 3a6c 1dbd 2599 6a3d
00000390: 9dbe 833d c945 0ebd ca4f 03be 9a82 8d3b
000003a0: 1a49 f0bc ead2 543d 3651 223d 4f35 f33d
000003b0: c2a2 f73d 1f15 e0bd 4317 98bd ba31 d83d
000003c0: 602a 813d 9710 d1bb bf7b d23d 3f73 12bc
000003d0: b11b 4a3d 9dea 5ebd ba91 383c 2999 cf3d
000003e0: 5e45 113c e0f7 9abc a402 f4bd 1eba ad3d
000003f0: 06f8 39bd 2fb2 76bd 942c 14bd 69e4 ccbc

dense_layers.0.bias f4 [32]
0.03469459 -0.04555338 -0.041945722 0.031357218 0.0132207945 0.00068619166 0.03742867 0.0863724
-0.016053947 0.06508029 0.049617272 0.058312554 0.08653812 -0.038201854 0.06434196 0.08299751
-0.0047274665 0.017475858 -0.04683783 -0.0923242 0.007520108 8.718161e-05 -0.06465622 0.09431093
-0.005144144 0.017756639 -0.042325955 -0.052329518 0.04963721 0.03830814 0.051031668 0.07536199
00000000: ea1b 0e3d 2e96 3abd 47cf 2bbd 6d70 003d
00000010: 089c 583c 8be1 333a ce4e 193d 03e4 b03d
00000020: 9183 83bc d148 853d 7b3b 4b3d 25d9 6e3d
00000030: e63a b13d 8c79 1cbd b8c5 833d 99fa a93d
00000040: dde8 9abb 8829 8f3c 06d9 3fbd 7814 bdbd
00000050: 3d6b f63b 45d5 b638 7b6a 84bd 1726 c13d
00000060: 3590 a8bb 5f76 913c fb5d 2dbd 7a57 56bd
00000070: 6350 4b3d ffe8 1c3d 9506 513d 6357 9a3d

dense_layers.2.weight f4 [2, 32]
0.15581962 0.20319195 -0.18152846 0.009157485 -0.23947455 -0.101704836 0.08974341 -0.092951655
-0.20247813 0.22048405 -0.004892671 0.020339042 -0.06899115 -0.099477865 -0.2111362 -0.0414762
-0.045254692 0.22671337 -0.13480745 0.15598747 0.17079812 0.11844269 0.22220166 -0.10827353
-0.23449308 0.22066729 -0.09173654 0.16769601 0.20018543 0.19791579 -0.031240618 0.1934335
-0.03814427 0.03380824 -0.16149177 0.16707306 -0.009532488 -0.21915299 -0.011343193 -0.15263653
0.17347676 0.0410288 0.1575066 0.17141968 -0.13552682 0.16163418 0.0034106642 -0.15417248
-0.1656166 -0.18088393 0.058669966 0.14089009 -0.18110539 -0.15000327 -0.0062383404 -0.014748869
-0.0653393 -0.12552802 0.016549503 0.16368997 0.1844478 -0.14275844 -0.1563877 -0.089984834
00000000: 2e8f 1f3e 8d11 503e 99e2 39be 4709 163c
00000010: d138 75be a04a d0bd 65cb b73d 705d bebd
00000020: 6d56 4fbe 92c6 613e b352 a0bb 109e a63c
00000030: 3b4b 8dbd 0dbb cbbd 1734 58be f3e2 29bd
00000040: fc5c 39bd 8d27 683e f70a 0abe 2ebb 1f3e
00000050: b4e5 2e3e 1592 f23d d588 633e 83be ddbd
00000060: f41e 70be 9bf6 613e 5ee0 bbbd 81b8 2b3e
00000070: 69fd 4c3e 70aa 4a3e 53ec ffbc 6e13 463e
00000080: 2b3d 1cbd 827a 0a3d 195e 25be 3315 2b3e
00000090: 272e 1cbc a469 60be cdd8 39bc c04c 1cbe
000000a0: e4a3 313e d10d 283d 6949 213e a488 2f3e
000000b0: 8bc7 0abe 6e83 253e 7385 5f3b 64df 1dbe
000000c0: 6697 29be a339 39be eb4f 703d 7e45 103e
000000d0: b173 39be 759a 19be fe6a ccbb 3ea5 71bc
000000e0: 9cd0 85bd 6b8a 00be d392 873c 589e 273e
000000f0: e2df 3c3e 452f 12be 1924 20be f849 b8bd

dense_layers.2.bias f4 [2]
-0.066198744 0.11338107
00000000: 3593 87bd 5634 e83d

onnx::LSTM_217 f4 [2, 480]
0.052446153 -0.05006987 -0.015151973 -0.069287054 -0.04734246 0.13840222 0.060136963 0.07495981
0.069119655 0.1337094 0.10361275 0.029466648 0.09466325 -0.06417739 0.06838534 -0.021164328
0.10558651 0.039040186 -0.09100006 0.09182081 0.14835893 0.016888255 0.16727789 -0.06941166
0.07867293 0.059134815 0.10731651 -0.008024013 -0.09813989 0.0070833853 0.072037004 0.14793912
-0.011587204 -0.016869998 0.14705463 0.09964495 -0.09279582 0.022253694 0.028192813 0.10685656
-0.026278315 -0.06765983 0.14955173 0.07061975 0.010392349 -0.09887531 0.013194227 0.09483664
0.041009698 0.1403332 0.13927694 0.14051488 0.065889575 -0.07688179 0.018306931 0.11069933
0.09613041 0.00027858955 0.024283653 0.013773413 0.10290541 0.06756933 0.07024066 0.101084165
-0.08853648 0.14937879 0.110820554 0.16607875 0.114544116 -0.05062457 -0.075385116 0.15423305
-0.083113834 0.0988978 -0.050587405 0.04091993 0.15182059 0.09765182 0.114039004 0.09574038
-0.055738397 -0.048087187 0.15285318 -0.063038476 0.022571687 0.095856525 -0.0065998547 0.06556901
0.1314806 0.04566103 0.05212216 -0.038004797 0.09225875 0.14562087 0.1538186 -0.05700293
0.10908259 0.052981734 0.11308381 0.03007315 0.019608922 0.09265687 -0.022248525 0.056937646
-0.054162208 -0.09833593 -0.08614693 -0.033755645 -0.0905431 -0.008429294 0.11121997 0.033842437
0.1370612 0.07370603 0.10484993 -0.057759095 0.09290006 -0.08481409 0.1175807 0.16306125
0.011235757 0.12719376 -0.051434644 0.05744533 -0.10732009 -0.0057318513 0.11683549 0.04108169
0.057522595 -0.07986796 -0.081238024 0.0013819324 0.047080707 0.1381089 0.0024349173 -0.10479171
0.074551016 -0.0044789417 0.0774754 -0.037549753 0.037301857 0.041476 -0.0777919 0.13142039
-0.10347709 0.11944251 0.07580354 0.122323595 0.105847225 -0.059213206 -0.07907671 -0.009032646
-0.10342041 0.086919196 0.14972037 -0.0066190395 -0.036590047 -0.15105815 -0.028434083 0.09790612
0.018432919 -0.02361806 0.026159933 -0.107017554 0.020737717 -0.03846185 -0.07110665 -0.04168964
-0.03669129 -0.066045724 -0.091042474 0.11277582 -0.027578808 -0.07836023 0.06393951 0.0916422
0.1281549 0.15137857 0.05142612 -0.037954375 -0.08387141 -0.018926175 0.047256123 0.14860645
0.062198337 0.056685302 0.13598083 -0.06684062 -0.04074424 0.15272368 0.0077665127 -0.094928354
0.083995074 -0.046901625 0.06316243 -0.12611467 -0.06248383 0.0015976988 0.0028134238 -0.12376986
-0.11979359 0.009783512 0.10652592 -0.015976526 0.08551232 0.09582445 -0.119704895 -0.0894442
-0.050616514 0.117022455 -0.017415708 -0.03677696 -0.074669905 0.085301705 0.006778396 0.044919495
0.05861601 0.023178088 0.0971401 -0.10367853 -0.095628716 0.004945113 0.09387245 -0.06939053
0.056144036 -0.06758548 0.11636509 -0.02254068 -0.023049878 0.0021102803 0.06005784 -0.09176614
0.0050490787 0.002121171 0.09231727 0.07091596 -0.11355667 -0.009410853 -0.12801181 0.0022953448
0.08110827 0.07839412 -0.1203866 0.11762127 0.08277063 0.0014149369 -0.015113105 0.06736336
-0.04284143 0.09351394 0.05722703 0.14865555 0.15272696 0.010502568 0.02935842 0.11403766
00000000: c7d1 563d 1016 4dbd fb3f 78bc 5fe6 8dbd
00000010: 2bea 41bd 50b9 0d3e 2d52 763d 8784 993d
00000020: 9b8e 8d3d 1eeb 083e ec32 d43d 0a64 f13c
00000030: cede c13d 6f6f 83bd 9d0d 8c3d d060 adbc
00000040: bd3d d83d 9ae8 1f3d 3d5e babd 8d0c bc3d
00000050: 67eb 173e 3d59 8a3c e54a 2b3e b327 8ebd
00000060: 461f a13d 5937 723d c2c8 db3d 2677 03bc
00000070: 91fd c8bd be1b e83b 2388 933d 5a7d 173e
00000080: 42d8 3dbc f332 8abc 7d95 163e a712 cc3d
00000090: bc0b bebd 614d b63c 9df4 e63c 9dd7 da3d
000000a0: 9f45 d7bc 3d91 8abd 1724 193e 16a1 903d
000000b0: ac44 2a3c 237f cabd 992c 583c b639 c23d
000000c0: c9f9 273d 82b3 0f3e 9d9e 0e3e 22e3 0f3e
000000d0: 1df1 863d 3374 9dbd 6bf8 953c 55b6 e23d
000000e0: 05e0 c43d a80f 9239 83ee c63c e2a9 613c
000000f0: 12c0 d23d ca61 8a3d 56da 8f3d 3705 cf3d
00000100: 9d52 b5bd c1f6 183e e3f5 e23d 8c10 2a3e
00000110: 1b96 ea3d b65b 4fbd 8363 9abd 45ef 1d3e
00000120: 9637 aabd ee8a ca3d bd34 4fbd a89b 273d
00000130: db76 1b3e adfd c73d 488d e93d 8813 c43d
00000140: f24d 64bd 12f7 44bd 8b85 1c3e 511a 81bd
00000150: 42e8 b83c 6d50 c43d 9843 d8bb 0c49 863d
00000160: daa2 063e 0f07 3b3d 0c7e 553d ebaa 1bbd
00000170: 28f2 bc3d a31d 153e a082 1d3e e87b 69bd
00000180: b166 df3d 6003 593d 7c98 e73d f75b f63c
00000190: e4a2 a03c e3c2 bd3d 8a42 b6bc 7337 693d
000001a0: 31d9 5dbd 5964 c9bd cd6d b0bd 5c43 0abd
000001b0: a96e b9bd 061b 0abc 4cc7 e33d 5e9e 0a3d
000001c0: c559 0c3e 30f3 963d 8fbb d63d cd94 6cbd
000001d0: 6342 be3d 02b3 adbd 26ce f03d 87f9 263e
000001e0: 2e16 383c 153f 023e 22ad 52bd cb4b 6b3d
000001f0: a3ca dbbd 41d2 bbbb 7247 ef3d 4645 283d
00000200: d09c 6b3d d091 a3bd 1f60 a6bd f521 b53a
00000210: b3d7 403d 6b6c 0d3e 2293 1f3b 099d d6bd
00000220: 34ae 983d 16c4 92bb 6cab 9e3d c5cd 19bd
00000230: d5c9 183d bde2 293d 5c51 9fbd 1193 063e
00000240: cceb d3bd 469e f43d e33e 9b3d cb84 fa3d
00000250: 6ec6 d83d 8c89 72bd f8f2 a1bd aafd 13bc
00000260: 14ce d3bd b102 b23d 4c50 193e 87e4 d8bb
00000270: 72df 15bd fdae 1abe 98ee e8bc 0183 c83d
00000280: a200 973c a97a c1bc 5b4d d63c 052c dbbd
00000290: 25e2 a93c 2c8a 1dbd 5da0 91bd c2c2 2abd
000002a0: 9b49 16bd fb42 87bd 7a74 babd 02f7 e63d
000002b0: f4ec e1bc 547b a0bd b8f2 823d e8ae bb3d
000002c0: 0a3b 033e fc02 1b3e 32a4 523d 0c76 1bbd
000002d0: c6c4 abbd 110b 9bbc a38f 413d 4a2c 183e
000002e0: afc3 7e3d d92e 683d 8f3e 0b3e bce3 88bd
000002f0: 6fe3 26bd 9963 1c3e 3b7e fe3b cc69 c2bd
00000300: 9c05 ac3d eb1b 40bd 4e5b 813d 3424 01be
00000310: 0bef 7fbd e069 d13a 6b61 383b 0d7b fdbd
00000320: 5756 f5bd 064b 203c 432a da3d 34e1 82bc
00000330: 1521 af3d 9c3f c43d d727 f5bd 852e b7bd
00000340: 4353 4fbd 78a9 ef3d 63ab 8ebc 70a3 16bd
00000350: 89ec 98bd a9b2 ae3d 4f1d de3b 81fd 373d
00000360: 5717 703d f9df bd3c 64f1 c63d 6955 d4bd
00000370: fdd8 c3bd 9d0a a23b 3340 c03d 9f1c 8ebd
00000380: 4af7 653d 426a 8abd d250 ee3d 3ba7 b8bc
00000390: 19d3 bcbc a14c 0a3b 36ff 753d e3ef bbbd
000003a0: be72 a53b 5803 0b3b d610 bd3d 633c 913d
000003b0: 6690 e8bd fa2f 1abc 8715 03be 7f6d 163b
000003c0: 181c a63d 198d a03d 408d f6bd 6ce3 f03d
000003d0: a683 a93d 6775 b93a f59c 77bc cdf5 893d
000003e0: 7f7a 2fbd 3d84 bf3d e466 6a3d 2939 183e
000003f0: 7564 1c3e f712 2c3c 1281 f03c 948c e93d

onnx::LSTM_218 f4 [2, 240, 4]
0.08399452 0.08366887 -0.006556872 -0.085553415 0.13371703 -0.089856826 0.13479325 -0.04381703
-0.23354064 0.0100929355 -0.1740482 -0.1045602 0.017239945 -0.043295037 0.03658064 0.17935792
-0.100225955 0.047587972 -0.11722938 -0.06709195 0.07775574 0.0036244867 0.06538083 0.127184
-0.010982798 -0.07770967 -0.03810003 0.19978692 -0.02058274 0.036695186 0.08949763 0.13388477
0.06492278 0.09723438 -0.078019485 -0.023420436 -0.034238674 0.054317456 0.059298735 0.21789661
-0.0073317206 -0.1614333 -0.09491469 0.048772696 0.028842945 -0.023597982 -0.08739768 -0.027748855
-0.10991048 0.004096839 0.1371447 -0.11888389 0.03572159 -0.13180101 -0.071115 -0.035480548
0.22313526 0.042694468 -0.00251213 0.15414034 0.14730005 -0.013464323 -0.0077851885 0.058384374
0.1748691 0.13780175 0.10488102 -0.057634886 0.027949622 0.05534997 -0.14837793 -0.09588885
-0.03761074 -0.11339267 -0.021595363 0.04244051 0.09258313 -0.0929724 0.027014496 0.11637051
-0.015030327 -0.100919046 0.14713168 -0.1082614 0.009233569 0.13527162 -0.07316661 0.19927241
-0.12715308 -0.05736703 0.010594326 -0.0020127047 -0.076896414 0.06470546 -0.11658908 -0.14470717
0.03324543 0.04156127 -0.14090262 -0.031606745 -0.17752081 -0.041161828 -0.08605836 -0.045299478
-0.059185162 -0.038558193 -0.09334992 0.081050046 -0.11615988 0.029062934 0.0113959685 -0.098668136
-0.0155390315 -0.05672269 0.07284923 -0.09012067 -0.12299708 -0.06541851 0.0190306 0.11397594
-0.27258033 -0.11788895 -0.00018197579 -0.17708898 0.051852524 0.10516368 0.11469003 -0.036002047
0.13386272 0.15953353 0.014561533 0.09776943 0.10868575 -0.03926905 -0.112467125 0.09426432
0.034346737 -0.04480262 -0.18796355 0.09326916 -0.0787205 0.08249467 0.11902132 0.103969
-0.14901896 -0.13486226 -0.21913303 -0.084564574 0.0015085868 0.002069371 -0.1303567 0.104743
0.043034688 -0.037288647 -0.16392991 -0.04627661 -0.042982128 0.082400985 0.02308785 -0.12017927
0.15869963 0.05141657 -0.0318782 0.1460319 0.12249682 -0.09351696 -0.0591369 0.06580176
0.10189786 0.10304406 -0.10913785 -0.05756037 -0.07605609 -0.106746845 0.16394356 -0.12631598
0.023317726 0.099665724 0.07454516 0.0017152287 -0.03018253 -0.15877515 -0.08608468 -0.023596048
-0.20941034 0.006865238 -0.14102603 -0.09801268 0.19043398 0.09457841 0.024714367 0.007872739
0.03851055 0.09574045 -0.046232697 0.15839982 -0.078430824 0.017394245 -0.017643016 0.03128151
-0.16757953 -0.05153319 0.1567256 -0.014734207 0.0070471307 -0.086681925 -0.14491773 -0.032337368
-0.093402416 0.010811821 -0.13731961 -0.08989267 -0.10312534 0.063034706 0.073647894 0.066219494
-0.18615344 -0.12347226 0.11018774 0.088870205 0.016036315 0.0757378 0.051482916 0.026836025
-0.15633117 0.03317387 -0.10537448 -0.09682331 -0.11565065 0.04991448 -0.11174069 0.07176901
0.06804822 0.056166712 -0.0759661 -0.08980351 0.009331697 -0.1574289 -0.06858774 0.075779244
-0.038265627 -0.0733591 -0.10632256 -0.106790826 -0.0147687 -0.06826664 0.077977635 0.057591498
-0.2010876 -0.16405292 0.007101211 -0.015966838 0.14705946 -0.069359384 0.06573625 0.035390962
00000000: 5205 ac3d 965a ab3d 07db d6bb a136 afbd
00000010: 1eed 083e db06 b8bd 3e07 0a3e 7c79 33bd
00000020: 4725 6fbe d75c 253c b139 32be a823 d6bd
00000030: c93a 8d3c 2356 31bd 95d5 153d 9aa9 373e
00000040: 4443 cdbd 9beb 423d f515 f0bd 8167 89bd
00000050: 673e 9f3d cc88 6d3b 62e6 853d 863c 023e
00000060: 32f1 33bc 3f26 9fbd c70e 1cbd f194 4c3e
00000070: 229d a8bc b14d 163d 894a b73d 1719 093e
00000080: 3cf6 843d d222 c73d aec8 9fbd 37dc bfbc
00000090: da3d 0cbd fb7b 5e3d 3be3 723d 4a20 5f3e
000000a0: ee3e f0bb c54e 25be a262 c2bd e1c5 473d
000000b0: 0a48 ec3c 8e50 c1bc 8efd b2bd 9151 e3bc
000000c0: bf18 e1bd c73e 863b a96f 0c3e 6679 f3bd
000000d0: cd50 123d d8f6 06be bea4 91bd 0d54 11bd
000000e0: 927d 643e 65e0 2e3d 8ca2 24bb f7d6 1d3e
000000f0: d3d5 163e 7799 5cbc e51a ffbb 7424 6f3d
00000100: e310 333e e71b 0d3e dccb d63d 8f12 6cbd
00000110: 9bf6 e43c a6b6 623d 62f0 17be 6061 c4bd
00000120: b80d 1abd 6b3a e8bd c2e8 b0bc 1ad6 2d3d
00000130: 399c bd3d 5068 bebd 814d dd3c a953 ee3d
00000140: c341 76bc a5ae cebd b0a9 163e 27b8 ddbd
00000150: 6548 173c a584 0a3e 60d8 95bd 110e 4c3e
00000160: 6b34 02be b1f9 6abd d393 2d3c 95e7 03bb
00000170: de7b 9dbd 4c84 843d 41c6 eebd 1e2e 14be
00000180: 5c2c 083d 263c 2a3d c748 10be 1376 01bd
00000190: 04c8 35be 4e99 28bd 5e3f b0bd f28b 39bd
000001a0: 246c 72bd 32ef 1dbd 3e2e bfbd 91fd a53d
000001b0: 3be5 edbd 6415 ee3c 28b6 3a3c 8512 cabd
000001c0: 6c97 7ebc 0d56 68bd fa31 953d 3091 b8bd
000001d0: e5e5 fbbd 24fa 85bd 10e6 9b3c 386c e93d
000001e0: a68f 8bbe c36f f1bd c1d0 3eb9 d056 35be
000001f0: 5063 543d 0e60 d73d 9be2 ea3d e276 13bd
00000200: 4f13 093e c25c 233e 7f93 6e3c 573b c83d
00000210: a296 de3d 95d8 20bd 2a55 e6bd a70d c13d
00000220: 2aaf 0c3d f482 37bd 8479 40be e703 bf3d
00000230: 3738 a1bd f7f2 a83d 73c1 f33d b3ed d43d
00000240: 6d98 18be 5519 0abe 6964 60be 3130 adbd
00000250: c6bb c53a 499e 073b 3a7c 05be 7f83 d63d
00000260: 2445 303d fbbb 18bd 3edd 27be 8b8c 3dbd
00000270: 070e 30bd d9c1 a83d bb22 bd3c 8d20 f6bd
00000280: 2882 223e 2e9a 523d b792 02bd 6389 153e
00000290: 9ddf fa3d d285 bfbd 8939 72bd 13c3 863d
000002a0: d3af d03d c408 d33d aa83 dfbd 6cc4 6bbd
000002b0: 4cc3 9bbd 179e dabd d2e0 273e fa58 01be
000002c0: d104 bf3c 8b1d cc3d 22ab 983d 86d1 e03a
000002d0: 5a41 f7bc f495 22be 2a4d b0bd 804c c1bc
000002e0: aa6f 56be caf5 e03b 2169 10be dfba c8bd
000002f0: 2001 433e 53b2 c13d c975 ca3c a9fc 003c
00000300: 3dbd 1d3d 9213 c43d 7f5e 3dbd 9033 223e
00000310: 57a0 a0bd 607e 8e3c 1688 90bc 0a21 003d
00000320: f899 2bbe 7714 53bd ad7c 203e be67 71bc
00000330: 9eeb e63b 4b86 b1bd 5065 14be 3074 04bd
00000340: c449 bfbd 1024 313c 839d 0cbe a619 b8bd
00000350: 6133 d3bd 5718 813d b5d4 963d 169e 873d
00000360: 029f 3ebe 06df fcbd 1caa e13d 9501 b63d
00000370: 975e 833c 6b1c 9b3d c0df 523d 39d7 db3c
00000380: 4715 20be 53e1 073d 93ce d7bd 4d4b c6bd
00000390: 3fda ecbd 2073 4c3d 4ed8 e4bd a1fb 923d
000003a0: dd5c 8b3d 110f 663d 1d94 9bbd e7ea b7bd
000003b0: f9e3 183c 0b35 21be bb77 8cbd 2632 9b3d
000003c0: 6bbc 1cbd 4c3d 96bd a4bf d9bd 26b5 dabd
000003d0: 6bf8 71bc 61cf 8bbd bdb2 9f3d 10e5 6b3d
000003e0: e8e9 4dbe 7dfd 27be 47b1 e83b e3cc 82bc
000003f0: c196 163e 4b0c 8ebd baa0 863d 1df6 103d

onnx::LSTM_219 f4 [2, 240, 60]
-0.06347289 0.117498524 -0.086157136 0.15023993 0.020592531 -0.11187031 0.031948455 -0.108650275
0.064151086 -0.09603761 -0.13480222 -0.082 -0.01611252 -0.13558571 -0.0998802 -0.031171924
0.0900871 0.04858377 0.051290262 -0.02017313 -0.17349169 -0.0881626 0.07355874 -0.09399776
-0.11573924 -0.028299138 -0.024011241 -0.11548249 0.02671406 -0.028263042 -0.07394574 -0.072691046
-0.009857915 -0.11340879 0.03401211 0.044078574 -0.11005103 -0.10506393 -0.11107903 0.12228244
-0.18060881 -0.055176668 0.08871377 0.10748332 -0.019346295 -0.11631324 -0.0697783 0.026422145
-0.059383098 0.028149687 -0.024014734 -0.07030735 -0.07800847 -0.09688512 -0.0043137716 -0.022458518
-0.0060104155 -0.13681553 0.045011457 -0.041860767 0.07823435 0.10004667 0.20468815 0.022614151
0.084951274 -0.07742793 0.117024526 -0.03503977 -0.046125006 -0.11921508 -0.14029293 -0.03765436
0.07141113 -0.16466963 -0.08189508 -0.050106414 -0.008250718 -0.037305653 0.10079964 -0.049193103
-0.12887958 0.0023949326 0.039530918 0.10877631 -0.09962551 0.059817165 0.092511415 -0.15568176
0.12238218 0.12956928 -0.116865255 -0.029023277 0.05923547 0.09836901 -0.10556417 -0.12110976
-0.036418464 -0.071141124 -0.0045121145 -0.12403546 0.04333844 -0.02898966 0.132675 0.09147368
0.10415936 -0.039768796 0.118827805 0.014881832 -0.10306216 -0.031502657 0.12769541 0.051679347
0.10052255 -0.0724844 0.08173655 -0.09123214 -0.030759659 -0.033873215 -0.10904777 0.1342137
-0.14894286 -0.051796317 0.10626128 0.019778622 -0.01296288 -0.040679704 0.012397117 0.001191218
0.110622786 0.048148733 -0.15023346 0.071645215 -0.07510739 -0.09572388 -0.084151834 0.09052399
0.039920196 0.05109508 -0.06197744 0.078076385 0.14663386 0.13871324 -0.053208217 0.0051964507
-0.06924636 0.052824073 0.18214904 -0.036991827 -0.03771943 -0.077689186 -0.17216027 -0.0020579211
-0.024660012 0.013180564 -0.14015 0.09138754 -0.1372701 -0.104158804 0.013802352 -0.1039706
0.12939522 0.0411823 -0.05006527 0.08473356 -0.09841558 0.015067512 0.017979354 -0.075444214
0.15039085 0.09821212 0.034269214 0.07121597 0.08562605 0.070604146 0.19203387 -0.13719265
-0.036795534 0.16427049 0.08793814 -0.1567134 0.06404444 0.063964695 0.088273816 -0.009545766
0.03899472 -0.09027725 0.051845107 0.0038282215 0.050796058 -0.03796754 0.055409633 -0.07785833
2.2621927e-05 0.0025637487 -0.114538744 -0.107476406 0.13872427 0.05091405 -0.010199753 -0.04541859
0.036935385 -0.13626525 0.095818564 -0.03607415 0.07926341 -0.043394234 -0.14791419 0.03992941
-0.052548915 0.025707304 0.006643625 0.068761654 0.04671215 -0.05643941 0.033661414 -0.05746601
0.013549464 0.053222008 0.0098868795 -0.049695157 -0.01240159 -0.06642682 0.11277822 0.028896732
0.008824289 -0.12653227 0.041456915 -0.022758408 0.09903551 -0.009223101 -0.112332284 -0.1386977
0.10867759 0.13955982 0.08021956 -0.03888347 -0.11252805 -0.1506162 -0.13246419 0.10791749
-0.0949988 -0.08731786 0.08499189 -0.10424449 0.05584059 0.11963336 -0.06722574 0.096531145
0.040852696 -0.06470516 -0.12812093 0.05932479 0.02282994 -0.06360447 -0.107070625 -0.0047486024
00000000: 13fe 81bd 11a3 f03d 2773 b0bd 7fd8 193e
00000010: abb1 a83c 431c e5bd 62dc 023d 0984 debd
00000020: a561 833d 5eaf c4bd 9809 0abe 9eef a7bd
00000030: 67fe 83bc fbd6 0abe fe8d ccbd 435c ffbc
00000040: 967f b83d c6ff 463d bd15 523d 1f42 a5bc
00000050: cea7 31be 988e b4bd f7a5 963d e681 c0bd
00000060: b208 edbd 98d3 e7bc 39b3 c4bc 1582 ecbd
00000070: 72d7 da3c e587 e7bc dd70 97bd 0bdf 94bd
00000080: 1883 21bc de42 e8bd 4850 0b3d bc8b 343d
00000090: 6f62 e1bd c22b d7bd 677d e3bd 376f fa3d
000000a0: 84f1 38be ee00 62bd 91af b53d 3720 dc3d
000000b0: 1f7c 9ebc a335 eebd ede7 8ebd 4173 d83c
000000c0: b13b 73bd 2c9a e63c 8cba c4bc 4dfd 8fbd
000000d0: e8c2 9fbd b56b c6bd 8a5a 8dbb edfa b7bc
000000e0: 05f3 c4bb 5f19 0cbe ef5d 383d 3276 2bbd
000000f0: 5539 a03d 45e5 cc3d c599 513e 5041 b93c
00000100: effa ad3d 8992 9ebd 8eaa ef3d dd85 0fbd
00000110: 93ed 3cbd 0927 f4bd f3a8 0fbe 753b 1abd
00000120: 0040 923d 289f 28be 9cb8 a7bd 623c 4dbd
00000130: 052e 07bc d0cd 18bd 0b70 ce3d b57e 49bd
00000140: 02f9 03be 4df4 1c3b 2ceb 213d 1dc6 de3d
00000150: 7608 ccbd d802 753d a076 bd3d 0a6b 1fbe
00000160: 82a3 fa3d cfad 043e 0d57 efbd 39c2 edbc
00000170: e4a0 723d b175 c93d 0732 d8bd 6508 f8bd
00000180: 872b 15bd 70b2 91bd 5cda 93bb 4e06 febd
00000190: a683 313d b97b edbc f5db 073e 8e56 bb3d
000001a0: 8151 d53d 9be4 22bd fe5b f33d edd2 733c
000001b0: 4112 d3bd ee08 01bd 96c2 023e b9ad 533d
000001c0: c4de cd3d b372 94bd 7e65 a73d ebd7 babd
000001d0: aefb fbbc a4be 0abd 7054 dfbd 516f 093e
000001e0: 7a84 18be 6028 54bd 849f d93d c706 a23c
000001f0: 4262 54bc c39f 26bd 471d 4b3c a522 9c3a
00000200: 338e e23d 9b37 453d cdd6 19be baba 923d
00000210: e7d1 99bd e20a c4bd cc57 acbd a464 b93d
00000220: 5c83 233d 1349 513d 0edc 7dbd 83e6 9f3d
00000230: 3027 163e d80a 0e3e dcf0 59bd fd46 aa3b
00000240: 09d1 8dbd 0e5e 583d 4785 3a3e be84 17bd
00000250: b07f 1abd 821b 9fbd c84a 30be 30de 06bb
00000260: cb03 cabc 4bf3 573c 7b83 0fbe 6429 bb3d
00000270: 8890 0cbe 3651 d5bd 4323 623c 8aee d4bd
00000280: 2e80 043e c5ae 283d 3e11 4dbd ca88 ad3d
00000290: 1c8e c9bd badd 763c 7049 933c 7f82 9abd
000002a0: 0f00 1a3e 7023 c93d e05d 0c3d aed9 913d
000002b0: b65c af3d e898 903d 87a4 443e 3b7c 0cbe
000002c0: eab6 16bd 8636 283e e918 b43d 7a79 20be
000002d0: bb29 833d ecff 823d e7c8 b43d d865 1cbc
000002e0: edb8 1f3d 47e3 b8bd 895b 543d e6e2 7a3b
000002f0: 870f 503d da83 1bbd 36f5 623d 3074 9fbd
00000300: 38c4 bd37 9104 283b 4a93 eabd 971c dcbd
00000310: bc0d 0e3e 408b 503d dd1c 27bc d808 3abd
00000320: 8f49 173d 1e89 0bbe 863c c43d 7dc2 13bd
00000330: db54 a23d 27be 31bd d176 17be 058d 233d
00000340: 883d 57bd 2098 d23c c4b2 d93b e9d2 8c3d
00000350: 3d55 3f3d 032d 67bd 8de0 093d 7b61 6bbd
00000360: 92fe 5d3c 52ff 593d 94fc 213c 268d 4bbd
00000370: 0a30 4bbc c90a 88bd 44f8 e63d d7b8 ec3c
00000380: c093 103c ad91 01be bace 293d d76f babc
00000390: 21d3 ca3d 7d1c 17bc 780e e6bd c506 0ebe
000003a0: 5b92 de3d c5e8 0e3e 274a a43d 4644 1fbd
000003b0: 1b75 e6bd 223b 1abe b1a4 07be d803 dd3d
000003c0: bb8e c2bd b5d3 b2bd 3a10 ae3d 237e d5bd
000003d0: 1ab9 643d 5602 f53d a6ad 89bd 1fb2 c53d
000003e0: 2855 273d 2484 84bd 2232 03be 8dfe 723d
000003f0: db05 bb3c 0f43 82bd d847 dbbd 2a9a 9bbb
