Sistema_Compressao_simples/modelo.onnx (onnx, 299581 bytes, 9 tensors)

dense_layers.0.weight f4 [32, 128]
0	0xbdd83a89	-0.1055804
1	0x3d023cd3	0.031796288
2	0x3d57adb2	0.052655883
3	0xbd46528c	-0.048418567
4	0x3d3f11af	0.046647724
5	0x3d7ce9f7	0.061746564
6	0xbd82eec6	-0.06393199
7	0x3c10ebea	0.008845309
8	0x3d77f7bd	0.060538996
9	0x3d3afd77	0.04565188
10	0xbd5b2461	-0.05350149
11	0x3dc98fb6	0.09841864
12	0xbc8e3e4d	-0.017363692
13	0xbb87d30c	-0.004145032
14	0x3cf51b75	0.02992032
15	0xbdcd956a	-0.10038264
16	0x3d925ea7	0.0714696
17	0xbd1b8488	-0.03796819
18	0x3d6a2f03	0.05717374
19	0xbd79a87e	-0.060951702
20	0x3e0e4e81	0.13897134
21	0x3db03cb7	0.086053304
22	0x3ca8c182	0.020600084
23	0x3db46b28	0.08809501
24	0x3d81dcb6	0.063409254
25	0x3cfdc22e	0.030976381
26	0xbd02e39b	-0.031955343
27	0x3d4f9474	0.050678685
28	0x3d236e7d	0.03990029
29	0x3bc5fd79	0.006042179
30	0x3d64c6a9	0.05585352
31	0xbd9383d6	-0.0720288
32	0x3cf0014c	0.029297493
33	0x3d79047c	0.060795292
34	0x3b461fa3	0.003023126
35	0x3d6da676	0.058020078
36	0x3d8a82fc	0.067632645
37	0x3da20690	0.07911408
38	0x3d9ef3b7	0.07761329
39	0xbdae2e13	-0.08504882
40	0xbdacbbd7	-0.08434265
41	0xbd18d5ab	-0.037313145
42	0x3dbd9d82	0.09258558
43	0xbd81789c	-0.063218325
44	0xbdb9f26d	-0.09079442
45	0x3cfd91b9	0.030953275
46	0x3ca61136	0.020271879
47	0xbd91439b	-0.07092973
48	0x3da1f2c7	0.07907634
49	0x3da426ed	0.08015237
50	0xbc83366b	-0.01601716
51	0xbd8fb711	-0.07017339
52	0x3d655ac8	0.05599478
53	0xbc7ef612	-0.015561597
54	0xbdbcff20	-0.09228349
55	0x3cd461bb	0.025925508
56	0xbb25642f	-0.0025236716
57	0x3dd11098	0.10208243
58	0xbcf25c5b	-0.029585054
59	0x3d42ca72	0.04755635
60	0xbd9a0311	-0.07520116
61	0x3dac64d6	0.084176704
62	0xbdfd466d	-0.12366948
63	0x3d499a10	0.04921919
64	0xbd438b9d	-0.047740567
65	0xbd64d581	-0.055867676
66	0x3d88f1f2	0.066867724
67	0xbd41542a	-0.047199406
68	0x3d3d5e6f	0.046232637
69	0xbd9e97c4	-0.07743791
70	0xbd7d3668	-0.061819464
71	0xbcef164c	-0.029185437
72	0x3cfd850e	0.030947234
73	0xbcb36492	-0.021898542
74	0xbd882618	-0.06647891
75	0x3cc6aa61	0.024251165
76	0x3db38106	0.08764844
77	0xbd91d0de	-0.071199164
78	0xbca8a219	-0.020585107
79	0x3c9b3936	0.018948179
80	0xbc195052	-0.009357529
81	0xbe03e993	-0.1288207
82	0x3daee5df	0.08539938
83	0x3d331e92	0.043730326
84	0x3d9ada29	0.07561142
85	0xbdf514e6	-0.11966877
86	0xbc84a75c	-0.016193084
87	0x3c1374ae	0.008999987
88	0xbd0d2223	-0.034456383
89	0x3d1e6eb7	0.038679805
90	0xbcbee268	-0.023301318
91	0xbc54255d	-0.012948361
92	0x3d0be40e	0.034153037
93	0xbe0d1e9f	-0.13781212
94	0x3c8ce3c0	0.017198443
95	0x3d9629e3	0.07332208
96	0x3cf82889	0.030292766
97	0xbc3e3dfd	-0.011611459
98	0x3d5dce53	0.054151844
99	0xbcdf895d	-0.02728718
100	0x3bd2f642	0.0064380476
101	0x3d709b69	0.05874196
102	0xbc738089	-0.014862188
103	0xbd0260e5	-0.031830687
104	0xbd742665	-0.05960693
105	0x3d8ad6ef	0.067792766
106	0x3b813e54	0.0039441977
107	0x3d0fda98	0.035120577
108	0x3d621938	0.05519983
109	0x3dbffe0c	0.093746275
110	0x3dd16d3a	0.102259114
111	0xbc159dbe	-0.009131847
112	0xbdf1d918	-0.118089855
113	0x3d945be8	0.07244092
114	0xbd8f540e	-0.06998454
115	0xbdf579e7	-0.11986142
116	0xbdd7079a	-0.10499497
117	0x3d8f3858	0.069931686
118	0x3c7dec0a	0.015498171
119	0xbcfdad20	-0.030966341
120	0x3d8d556b	0.06901058
121	0xbd38cc68	-0.045116812
122	0x3b651bdc	0.0034959232
123	0x3d9b22b4	0.075749785
124	0x3d0f520c	0.034990355
125	0xbdb5f23a	-0.08884092
126	0xbc13bfa7	-0.009017861
127	0xbd2cdf38	-0.042205065
128	0x3d478042	0.0487063
129	0xbd1610bb	-0.03663705
130	0xbd5ce9e1	-0.05393398
131	0x3da94e36	0.08266871
132	0x3d61fe3d	0.0551741
133	0xbd33707e	-0.043808453
134	0xbd86fe0b	-0.065914236
135	0xbde10b47	-0.10988479
136	0x3c55ff5f	0.0130613735
137	0xbd3bb3d5	-0.045825798
138	0x3c1ac185	0.009445553
139	0xbdca3ff1	-0.09875477
140	0xbd65d312	-0.056109495
141	0xbceb3a0d	-0.028714204
142	0xbd54715e	-0.051865928
143	0x3d0b017a	0.033936955
144	0xbdb77a31	-0.08958853
145	0x3d3f80a6	0.046753548
146	0xbbe791c1	-0.0070669358
147	0x3ce2506e	0.027626242
148	0xbdb4b2ff	-0.08823203
149	0xbdb16ec4	-0.08663705
150	0xbd9c0615	-0.076183476
151	0x3d255eeb	0.040373724
152	0xba61a0aa	-0.00086070097
153	0x3d311c28	0.043239743
154	0x3c0e86a2	0.008699091
155	0xbd143caf	-0.036190685
156	0x3d262ae5	0.04056825
157	0x3d6f45ee	0.0584163
158	0x3de5b1fd	0.11215589
159	0x3de4d2fa	0.11173053
160	0x3dbc982a	0.092087105
161	0xbd2d9199	-0.04237518
162	0xbc46053f	-0.012086212
163	0x3bd311e3	0.0064413412
164	0xbdb01bae	-0.085990295
165	0x3beaa07c	0.0071602445
166	0x3d3339c2	0.043756254
167	0x3d9a9066	0.07547073
168	0x3dd597c0	0.10429335
169	0x3d9779b7	0.07396262
170	0xbdf28301	-0.11841393
171	0x3d9e46f1	0.07728375
172	0x3c9eaaf9	0.019368635
173	0x3d9aa08f	0.07550155
174	0xbdb1e8c8	-0.086869776
175	0x3d97f8bf	0.074204914
176	0xbd108795	-0.03528555
177	0xbda4fa07	-0.080555014
178	0x3d2d3206	0.042284034
179	0x3d489061	0.048965815
180	0xbcc08383	-0.02350021
181	0x3dcba595	0.09943692
182	0x3cb85003	0.02249909
183	0xbd8b25e3	-0.06794336
184	0xbd2ad3a0	-0.041705728
185	0xbe121d16	-0.14268908
186	0xbe0f104c	-0.1397106
187	0x3d3ecc84	0.04658176
188	0xbd8723df	-0.06598639
189	0xbdad725f	-0.0846908
190	0x3ce6cb40	0.028173089
191	0x3dc506a4	0.09620407
192	0x3d6a7fe6	0.05725088
193	0xbd2ddd8f	-0.042447623
194	0xbc773a1c	-0.015089538
195	0xbc15a909	-0.009134539
196	0x3d7326b2	0.059363075
197	0xbd5a920f	-0.05336195
198	0xbc91cffa	-0.017799366
199	0x3d83e1e0	0.064395666
200	0x3d90866f	0.07056891
201	0x3c019f2c	0.007911485
202	0x3cbc2886	0.022968542
203	0xbcd6fb65	-0.026242921
204	0xbdc4ff8f	-0.096190564
205	0x3cb951df	0.022622047
206	0x3d4dcb5b	0.050242763
207	0xbc609a3a	-0.0137086455
208	0xbd89a767	-0.067213826
209	0x3c8b7a58	0.017026111
210	0xbd97d0a9	-0.07412846
211	0xbcc8ea84	-0.024525888
212	0xbdd22e6d	-0.10262761
213	0x37c95642	2.4001234e-05
214	0xbd4ea260	-0.05044782
215	0xbc0ccca3	-0.008593711
216	0xbd17eba6	-0.037089966
217	0x3c3ac316	0.011399051
218	0xbcd3d29b	-0.02585726
219	0x3d9859de	0.07439016
220	0xbc0641be	-0.008194385
221	0x3dd042da	0.10169001
222	0xbb26ab65	-0.002543175
223	0x3da54a62	0.08070828
224	0x3cd41c8d	0.02589252
225	0xbd022620	-0.03177464
226	0xbd3ebe7a	-0.04656837
227	0x3d91939e	0.07108234
228	0xbc1761a2	-0.009239586
229	0xbc0524f3	-0.008126485
230	0xbc51da00	-0.012808323
231	0xbbd84efa	-0.0066012116
232	0xbda86881	-0.082230575
233	0xbd97e1b5	-0.07416097
234	0xbdafd0fd	-0.08584783
235	0x3da38c20	0.07985711
236	0xbd60de65	-0.054899592
237	0x3c2ee9df	0.010675876
238	0xbd3c1a10	-0.045923293
239	0x3b574d4a	0.0032852464
240	0xbcce2edf	-0.025168834
241	0xbccdf28f	-0.025140075
242	0xbd83cdad	-0.06435714
243	0x3cd70f0b	0.02625229
244	0x3d3eb1b6	0.046556197
245	0x3db1b268	0.086766064
246	0xbd6f7114	-0.05845745
247	0xbcb16083	-0.021652466
248	0xbdb143fb	-0.08655544
249	0xbc3f27ec	-0.011667233
250	0x3d7956f9	0.06087396
251	0xbd50cb43	-0.050975095
252	0x3d250b2d	0.04029386
253	0x3cdfd715	0.027324239
254	0xbd4910ac	-0.049088165
255	0x3d767ab3	0.06017561

dense_layers.0.bias f4 [32]
0	0x3d7dd93a	0.06197474
1	0x3c327b16	0.010893604
2	0xbd4b0fdb	-0.049575668
3	0x3caad32c	0.020852648
4	0xbd935b44	-0.07195142
5	0xbcbe93f7	-0.023263915
6	0x3ce2422c	0.027619444
7	0xbd2fbd39	-0.042905066
8	0xbdac2653	-0.08405747
9	0x3d8337da	0.06407137
10	0xbd7ad3b5	-0.061237056
11	0x3d2345da	0.039861538
12	0xbd777bba	-0.06042073
13	0x3d6b5477	0.0574536
14	0xbd77ffc2	-0.060546644
15	0x3c89a47b	0.016802063
16	0xbd62c85d	-0.055366863
17	0xbb9fe55b	-0.004879636
18	0xbceeb0b8	-0.029137
19	0xbd98d9d2	-0.07463421
20	0x3db1de13	0.086849354
21	0xbd8b0ce7	-0.0678957
22	0x3d206451	0.03915817
23	0x3cf48ac3	0.029851323
24	0xbcaa5069	-0.020790296
25	0x3dacf220	0.08444619
26	0x3c341776	0.010991922
27	0xbd2b684d	-0.041847516
28	0x3d80c5d7	0.06287735
29	0x3da7fc48	0.08202416
30	0xbc81cb23	-0.015843933
31	0x3cc00878	0.023441538

dense_layers.2.weight f4 [32, 32]
0	0xbdb33892	-0.08751024
1	0xbe1ca436	-0.15297017
2	0xbc9c88b6	-0.019108158
3	0x3da9ef32	0.08297576
4	0x3c3988b9	0.011324101
5	0xbd2683c3	-0.040653
6	0x3e1499d6	0.14511809
7	0xbe26ef13	-0.16302137
8	0x3e33115f	0.17487095
9	0xbdf96aa5	-0.12178544
10	0xbe30add5	-0.17253812
11	0xbdae468f	-0.08509552
12	0xbe3d28f1	-0.18472649
13	0xbd9669c8	-0.07344395
14	0xbd342709	-0.04398254
15	0xbe1269e0	-0.142982
16	0xbe0d37dd	-0.13790841
17	0xbdc0316b	-0.09384426
18	0x3d405693	0.046957564
19	0xbd58bc41	-0.052913908
20	0x3da5f451	0.0810324
21	0x3df7a2b7	0.12091582
22	0xbdaff5b2	-0.085917845
23	0xbddd630c	-0.10809907
24	0xbddf5fb8	-0.10906929
25	0xbce06f01	-0.02739668
26	0xbdef5752	-0.11686577
27	0xbe4663c1	-0.1937399
28	0xbd8fde25	-0.070247926
29	0xbdc170a1	-0.094453104
30	0x3e14fe8f	0.14550231
31	0x3e2779e6	0.16355094
32	0xbe2b8087	-0.16748248
33	0x3e52e28e	0.20594236
34	0x3d8f8bb2	0.07009067
35	0x3d13c34e	0.03607493
36	0xbd9d8bd7	-0.07692688
37	0xbe4cc7ff	-0.19998167
38	0xbd4bfd17	-0.049801912
39	0xbe43986c	-0.19101113
40	0xbc1132f8	-0.00886225
41	0xbda54aaf	-0.080708854
42	0xbe2d8944	-0.16946894
43	0x3db3f2dc	0.08786556
44	0xbcc3ba46	-0.023892533
45	0x3d57f76a	0.052726187
46	0x3dcf869f	0.10133099
47	0xbd0578c3	-0.03258587
48	0x3da0f429	0.0785907
49	0xbe09a29c	-0.13440937
50	0x3e4a7a37	0.19773184
51	0x3ca9108e	0.020637777
52	0x3966c9a9	0.00022009634
53	0x3d254c87	0.040356185
54	0x3e13c13a	0.14429179
55	0xbe24e6c5	-0.16103657
56	0x3d1f452c	0.038884327
57	0xbe5541f6	-0.20825943
58	0x3dd92c7b	0.10604187
59	0xbd02ffe7	-0.03198233
60	0xbdc0592f	-0.093920104
61	0xbda9242e	-0.08258854
62	0xbd49eed5	-0.049300034
63	0x3cc90913	0.02454046
64	0x3e492206	0.19641885
65	0xbda2e436	-0.07953684
66	0x3bfda4e3	0.0077406033
67	0x3e0a95ed	0.13533755
68	0xbe4a4975	-0.19754584
69	0x3dc8f146	0.09811644
70	0xbdce07f1	-0.100601085
71	0x3e51d333	0.20490722
72	0xbc43b22e	-0.011944337
73	0x3d2048e1	0.039132003
74	0x3e340fc9	0.17584147
75	0x3e13da82	0.14438823
76	0x3e051349	0.12995638
77	0x3d72101d	0.059097398
78	0x3dd460fd	0.103700615
79	0xbcb40972	-0.02197716
80	0x3c231d11	0.00995566
81	0xbdfba24d	-0.12286816
82	0xbd677cf6	-0.056515656
83	0x3dada8ef	0.08479487
84	0x3e20db36	0.15708622
85	0x3d0e4fca	0.03474406
86	0x3cbcd030	0.02304849
87	0xbde9b5f8	-0.11411661
88	0xbdd90419	-0.10596485
89	0x3dccc398	0.09998244
90	0x3c5b5ae8	0.013388373
91	0x3e047c08	0.12937939
92	0xbdb30d4b	-0.0874277
93	0x3d9316ac	0.07182059
94	0xbdc7d927	-0.097582154
95	0xbb9afdd3	-0.0047299652
96	0xbe08ca05	-0.13358314
97	0xbe081e03	-0.13292699
98	0xbe27cf44	-0.1638766
99	0xbd9a4070	-0.07531822
100	0xbbd440b8	-0.0064774416
101	0x3ad8c8f6	0.0016539383
102	0xbe1a9bfb	-0.15098564
103	0x3d7dfd56	0.062009178
104	0xbd9d9320	-0.076940775
105	0x3bcfae6b	0.006337931
106	0xbd78bf74	-0.06072946
107	0x3e2350c1	0.15948774
108	0x3dd6786c	0.104721874
109	0xbd3d648e	-0.046238475
110	0xbe0902b8	-0.13379943
111	0xbc3cba44	-0.011519019
112	0xbd0bf763	-0.034171473
113	0xbe56a75b	-0.20962279
114	0xbd8188b0	-0.06324899
115	0x3d84a85d	0.06477425
116	0x3db28b04	0.087179214
117	0x3e541cf8	0.20714176
118	0xbd5f863d	-0.05457138
119	0xbe7ea7e7	-0.24868737
120	0x3e20360e	0.1564562
121	0xbd2f13a2	-0.042743333
122	0xbc8f65cc	-0.017504595
123	0x3d86d352	0.06583275
124	0xbd492ba2	-0.049113877
125	0x3cad7394	0.021173276
126	0xbddd349f	-0.10801052
127	0x3dd06ecc	0.10177383
128	0x3d31628f	0.043306883
129	0xbdb90c24	-0.09035519
130	0x3d0e8e80	0.034803867
131	0x3e4c4aca	0.19950405
132	0xbd193f91	-0.037414137
133	0x3d954dcd	0.0729023
134	0x3e1faa32	0.15592268
135	0x3e2827bb	0.16421406
136	0x3b926ec0	0.004468769
137	0x3db33706	0.08750729
138	0xbbad184c	-0.0052824374
139	0x3e3b8487	0.18312274
140	0xbe3b7e77	-0.18309961
141	0xbe251a82	-0.16123393
142	0xbd9904c2	-0.074716106
143	0x3d4f986b	0.050682466
144	0x3d98520b	0.074375235
145	0x3b17aa78	0.0023142379
146	0xbe35b696	-0.17745432
147	0x3da57b74	0.080801874
148	0x3d80bddb	0.06286212
149	0xbdb39f80	-0.087706566
150	0x3e2e776e	0.17037746
151	0xbabc5574	-0.0014368729
152	0x3d3bf1d4	0.045884922
153	0x3dae4d81	0.085108764
154	0xbd7d5e9f	-0.061857816
155	0xbc916f3e	-0.01775324
156	0x3e214313	0.15748243
157	0xbe0a662d	-0.1351554
158	0x3e30ccb8	0.17265594
159	0x3d97c935	0.07411424
160	0x3ddda5f5	0.108226694
161	0x3ddabf80	0.10681057
162	0xbde60989	-0.112322874
163	0x3e0bd4da	0.13655415
164	0x3e268724	0.1626249
165	0xbe46ccad	-0.19414015
166	0x3d8bcdce	0.068263635
167	0xbd177101	-0.036973003
168	0xbd8f2d60	-0.069910765
169	0xbe37b5ce	-0.17940447
170	0x3e389126	0.1802412
171	0x3cbc4b60	0.02298516
172	0xbd37d625	-0.04488196
173	0xbd213b02	-0.039362915
174	0x3d84642d	0.064644195
175	0x3e089fd5	0.13342221
176	0x3de3ba1c	0.11119482
177	0xbe614125	-0.21997507
178	0xbcd6e276	-0.026231032
179	0xbe0e3c05	-0.13890083
180	0xbd3564e6	-0.044285677
181	0x3e19d180	0.15021324
182	0xbe115af1	-0.14194848
183	0x3cf7f737	0.030269248
184	0x3e0bce7c	0.13652986
185	0xbd1c29aa	-0.03812567
186	0xbd2e89ee	-0.04261201
187	0x3e10e853	0.14151125
188	0xbde22978	-0.11043066
189	0x3b6c060b	0.0036014344
190	0x3d973cae	0.073846206
191	0x3dcccd9c	0.100001544
192	0x3e15bde5	0.1462322
193	0x3db953f8	0.09049219
194	0xbe0cd4e9	-0.13753094
195	0x3e03616c	0.12830132
196	0xbe38615b	-0.18005888
197	0xbaced684	-0.0015780483
198	0x3de62c66	0.11238937
199	0x3d183339	0.037158225
200	0x3d0fbe48	0.035093576
201	0x3d6a11cb	0.057145875
202	0x3da7aab0	0.08186853
203	0xbdd55593	-0.104167126
204	0x3dd15d66	0.102228925
205	0xbd7e77dd	-0.06212603
206	0xbe015f3a	-0.12633982
207	0xbba685ad	-0.0050818534
208	0xbe1ff770	-0.15621734
209	0xbe0d2433	-0.1378334
210	0xbd9e85fe	-0.07740401
211	0x3dd58352	0.10425438
212	0x3ddca60d	0.10773859
213	0xbdb951cd	-0.090488054
214	0xbb9f667f	-0.0048645134
215	0x3e35f14e	0.17767832
216	0x3e2afffa	0.1669921
217	0xbd29441f	-0.04132473
218	0x3d8bbda5	0.06823281
219	0x3e2386b5	0.15969355
220	0xbd92eb37	-0.0717377
221	0xbd6a0746	-0.057135843
222	0x3db53989	0.088488646
223	0xbcfffe4f	-0.031249193
224	0x3d67a57f	0.056554314
225	0x3cb5e4cb	0.022203824
226	0x3db3e8f9	0.087846704
227	0x3dd68a89	0.10475642
228	0xbc64abe3	-0.013956997
229	0x39ab6201	0.0003268868
230	0xbd2f40d4	-0.042786434
231	0xbdd5d923	-0.10441806
232	0x3d3975c7	0.045278337
233	0xbe15862f	-0.14601968
234	0x3de86f16	0.11349313
235	0x3de7622c	0.11298022
236	0x3e42c78b	0.19021432
237	0x3e516df4	0.204521
238	0xbbd9dae2	-0.0066484073
239	0x3e40d275	0.18830283
240	0x3dd0ad1e	0.101892695
241	0xbc386e66	-0.01125679
242	0xbe2bfec5	-0.16796406
243	0x3d54b53c	0.05193065
244	0xbe1b8fa3	-0.15191512
245	0x3d78cde8	0.060743243
246	0xbdb4936e	-0.088171825
247	0xbde97a01	-0.114002235
248	0xbe4e3bbe	-0.20139977
249	0x3d9a5784	0.075362235
250	0xbd898b4c	-0.06716022
251	0xbe03ac7d	-0.12858768
252	0xbc316613	-0.010827559
253	0x3df7fcf2	0.12108792
254	0x3e0aafe2	0.13543656
255	0x3de1ddb8	0.110286176

dense_layers.2.bias f4 [32]
0	0x3dbb7f27	0.09155112
1	0xbe17d04f	-0.14825557
2	0xbdd47593	-0.10373988
3	0x3d9bd3aa	0.07608731
4	0xbda3c917	-0.07997339
5	0xbe2e99be	-0.17050835
6	0xbdb3fa3b	-0.08787962
7	0xbda5ebb5	-0.08101598
8	0xbd7beb26	-0.061503552
9	0x3e2388a1	0.15970089
10	0xbd2b6ae7	-0.041849997
11	0x3e2d207a	0.1690692
12	0x3cf0e6c2	0.029406909
13	0x3c9570eb	0.01824232
14	0x3df27a46	0.11839728
15	0x3e03acad	0.1285884
16	0xbe003886	-0.12521562
17	0x3e079ae5	0.13242681
18	0x3e33fe95	0.17577584
19	0x3d805eaa	0.06268056
20	0x3e145c9f	0.14488457
21	0xbdc47265	-0.095921315
22	0xbe1d9bc7	-0.15391456
23	0x3df2450f	0.11829578
24	0x3ca7482e	0.02042016
25	0xbe316241	-0.17322637
26	0x3d970e18	0.07375735
27	0x3bf35115	0.007425437
28	0xbd668fd1	-0.056289498
29	0xbd74ff56	-0.05981382
30	0x3e1361e3	0.1439281
31	0x3dace363	0.08441808

dense_layers.4.weight f4 [2, 32]
0	0xbd5c3e50	-0.053770363
1	0xbe1f1bff	-0.15538023
2	0x3e242182	0.16028407
3	0x3e48c49d	0.19606252
4	0x3e4f72ed	0.20258684
5	0x3d3bbfde	0.045837276
6	0x3de40211	0.11133207
7	0xbde0443b	-0.10950514
8	0xbe1115a5	-0.14168413
9	0xbe6e7b4c	-0.23289222
10	0x3e810474	0.2519871
11	0x3d54f25c	0.051988944
12	0x3e0cb1ba	0.13739672
13	0xbe371728	-0.17879927
14	0x3e1d536b	0.15363853
15	0xbde0eec1	-0.10983039
16	0xbe5f2031	-0.21789624
17	0xbdd5db62	-0.104422346
18	0x3cd3f155	0.025871912
19	0xbd52c96a	-0.051461615
20	0xbe1a0012	-0.1503909
21	0x3e5e636a	0.21717611
22	0xbd79d399	-0.06099281
23	0xbe1ad174	-0.15118963
24	0xbcfeedb9	-0.031119214
25	0xbda2b3cb	-0.07944449
26	0x3dad764b	0.08469828
27	0xbe7e0e5e	-0.24810168
28	0x3d2e3fd0	0.042541325
29	0x3e0275b7	0.12740217
30	0x3e3ea6f3	0.18618374
31	0x3d8c3760	0.068464994
32	0xbe3d8974	-0.18509465
33	0x3d89b014	0.06723037
34	0x3d1db24c	0.038500115
35	0x3dfb8daf	0.122828834
36	0xbe242bea	-0.16032377
37	0x3dd23e3e	0.10265778
38	0xbd890b34	-0.0669159
39	0x3e15a82a	0.14614931
40	0x3df7f0f5	0.12106506
41	0x3e0024a4	0.12513977
42	0x3e1bcdc7	0.15215217
43	0x3e27d31a	0.16389123
44	0xbdb2a106	-0.08722119
45	0xbe231d1e	-0.15929076
46	0xbc36b6ca	-0.011151979
47	0xbc7eaf2d	-0.015544695
48	0xbcfdf5b6	-0.031000953
49	0xbe404a2b	-0.18778293
50	0xbc8b7aec	-0.017026387
51	0xbe023e22	-0.12719014
52	0x3e3f3909	0.18674101
53	0x3dd835c6	0.105571315
54	0xbe3e2a1e	-0.18570754
55	0x3deec9b0	0.116595626
56	0xbe296987	-0.16544162
57	0x3dd986bd	0.106214024
58	0x3b5cc52c	0.003368686
59	0xbdb525cd	-0.088451006
60	0x3ce8c002	0.028411869
61	0x3e3196c5	0.1734267
62	0xbcc62446	-0.024187218
63	0xbe39121f	-0.18073319

dense_layers.4.bias f4 [2]
0	0xbdfa1fac	-0.12213072
1	0x3d2325a4	0.03983082

onnx::LSTM_126 f4 [1, 512, 4]
0	0xbdbbc6bd	-0.09168766
1	0xbdbd03ee	-0.09229265
2	0x3e6f2d63	0.23357157
3	0x3d457dab	0.04821555
4	0xbdde0438	-0.108406484
5	0xbd95e2e3	-0.07318666
6	0xbc30a8ee	-0.0107824635
7	0x3db3732b	0.08762201
8	0x3d1f2000	0.038848877
9	0xbc03d33c	-0.008045968
10	0x3d8c54c8	0.06852108
11	0xbd01357a	-0.03154514
12	0x3cb5ed07	0.02220775
13	0x3d845659	0.06461782
14	0xbe41534d	-0.18879433
15	0x3c86d91c	0.016460948
16	0xbd408864	-0.047005072
17	0xbd056be1	-0.032573584
18	0x3dd2e692	0.10297884
19	0x3dd491c9	0.10379369
20	0xbd87f286	-0.066380545
21	0xbd1dee30	-0.03855723
22	0xbc975267	-0.01847191
23	0x3d9396c7	0.07206493
24	0x3de9fa78	0.11424726
25	0x3e21eedf	0.15813778
26	0xbb607c23	-0.0034253679
27	0x3e22bfdb	0.158935
28	0x3e116d16	0.14201769
29	0x3c37152f	0.011174484
30	0x3d56c14b	0.052430432
31	0xbd3111ac	-0.043229744
32	0xbe629109	-0.22125639
33	0xbca7b931	-0.020474048
34	0xbd8ea6c8	-0.06965405
35	0xbddb405d	-0.10705636
36	0x3d740927	0.05957904
37	0xbc2933ba	-0.010327274
38	0xbd80d9c2	-0.06291534
39	0xbd95783e	-0.07298325
40	0xbd2b7175	-0.041856248
41	0x3cfd5e79	0.030928837
42	0xbc423d5b	-0.011855449
43	0xbd1bf881	-0.03807879
44	0xbd203f43	-0.03912283
45	0x3ddf5936	0.109056875
46	0xbe3531ab	-0.17694728
47	0x3d87a715	0.06623665
48	0xbd93a7f0	-0.07209766
49	0xbd7bedd4	-0.061506107
50	0xbd24eeb4	-0.040266708
51	0xbb2a9552	-0.0026028943
52	0xbd07065c	-0.03296505
53	0x3d864fc5	0.065581836
54	0xbc917b81	-0.017759087
55	0x3bc7a0b0	0.0060921535
56	0xbe51b807	-0.20480357
57	0xbe0ec8ef	-0.13943838
58	0xbe0aa49a	-0.13539353
59	0x3c89bb7c	0.016813032
60	0x3b41e6e2	0.002958708
61	0x3c2d81da	0.010590041
62	0xbcb335d0	-0.021876246
63	0x3d00f6af	0.031485256
64	0xbe161601	-0.14656831
65	0xbcffe464	-0.031236835
66	0xbd645756	-0.055747353
67	0xbdf6d7a9	-0.12052853
68	0xbd3b0efb	-0.045668583
69	0xbde15cd4	-0.11004034
70	0xbdad6ba6	-0.08467798
71	0x3d083e48	0.03326252
72	0xbc8a5d0f	-0.016890077
73	0x3dbf7355	0.0934817
74	0xbd80fb8c	-0.06297979
75	0x3c9e4f00	0.01932478
76	0x3d8c9936	0.0686516
77	0x3d702af0	0.0586347
78	0xbc4722fd	-0.012154338
79	0x3e2a283f	0.16616915
80	0x3d4b68f0	0.049660623
81	0x3e0715fd	0.13191982
82	0xbe401e7e	-0.18761632
83	0xbaec89d7	-0.001804645
84	0x3d37f2b0	0.04490918
85	0x3da16626	0.078808114
86	0xbd1c414e	-0.038148217
87	0xbd939407	-0.07205968
88	0x3e0540d1	0.13013007
89	0xbda2550b	-0.07926377
90	0x3daf197f	0.08549785
91	0x3d31eeec	0.043440744
92	0xbd23d457	-0.039997425
93	0x3d15844b	0.036503118
94	0xbd54911a	-0.051896192
95	0xbc3cd811	-0.011526124
96	0x3d235760	0.03987825
97	0xbd8a5239	-0.06753964
98	0x3e064573	0.1311243
99	0xbd593ded	-0.053037573
100	0x3e212fc9	0.15740885
101	0x3dbc9e39	0.09209866
102	0xbd5c7845	-0.053825635
103	0x3d8e24a4	0.069405824
104	0xbd9a83df	-0.07544684
105	0x3cdd6fa5	0.027030775
106	0x3d2183cb	0.03943233
107	0xbc98042a	-0.018556673
108	0x3ddac863	0.10682752
109	0x3d84d8c6	0.06486659
110	0xbd63ae02	-0.05558587
111	0x3d633a52	0.05547554
112	0xbdd3aaf7	-0.10335343
113	0x3c119761	0.008886189
114	0x3996d404	0.00028768193
115	0x3bbff45d	0.005857988
116	0x3dc8458e	0.097788915
117	0xbd0683a7	-0.032840397
118	0xbce79018	-0.028266951
119	0x3dd0005e	0.1015632
120	0xbe1050ca	-0.14093319
121	0x3cc1ca21	0.023655953
122	0x3dc27629	0.094951935
123	0xbd655538	-0.055989474
124	0x3bb1795c	0.0054160785
125	0xbb8e71c5	-0.0043470585
126	0x3c5bcb53	0.0134151755
127	0x3caff096	0.021477025
128	0x3d94f7f6	0.07273857
129	0x3d512f0a	0.05107025
130	0xbbd2d86f	-0.0064344923
131	0x3c64e8e3	0.01397154
132	0x3d196693	0.037451338
133	0x3d90f6f9	0.07078356
134	0xbddbe036	-0.10736124
135	0xbd1bd30e	-0.038043074
136	0x3c248ebd	0.010043797
137	0xbd45f699	-0.048330877
138	0xbd8a0e0d	-0.06740961
139	0x3d8c8db2	0.06862964
140	0xbd8da112	-0.06915487
141	0xbdb66b51	-0.08907188
142	0x3d5b4213	0.05352981
143	0xbc627d3f	-0.013823806
144	0x3d30de2a	0.043180622
145	0x3d8b7a89	0.06810481
146	0xbde79a1b	-0.1130869
147	0x3dc63d65	0.09679679
148	0x3d4cdcc5	0.05001523
149	0xbda8e336	-0.08246462
150	0xbd79c66a	-0.060980238
151	0xbc0f115c	-0.008732166
152	0xbc810537	-0.015749557
153	0xbd3b322e	-0.045702152
154	0x3d42f8d8	0.047600597
155	0xbd80d044	-0.062897235
156	0x3d8947dd	0.0670316
157	0x3df67dbf	0.12035703
158	0xbe65a475	-0.22426017
159	0x3d0f298c	0.03495173
160	0xbe40c1b9	-0.188239
161	0xbdc939bc	-0.09825465
162	0xbd8507e9	-0.06495649
163	0xbd83f131	-0.06442488
164	0x3dcd36f9	0.10020251
165	0x3df6a889	0.12043864
166	0xbd278838	-0.040901393
167	0xbd6b6b3b	-0.05747531
168	0x3d3aed8a	0.04563669
169	0xbde1664a	-0.11005838
170	0x3e91bcc7	0.28464338
171	0x3d2b54f5	0.04182907
172	0x3d456939	0.04819605
173	0x3e2db4ba	0.16963473
174	0xbde087e7	-0.10963421
175	0xbaf4ea67	-0.001868558
176	0x3dd310f0	0.10305965
177	0x3d2cdd1b	0.04220305
178	0xbe223972	-0.15842226
179	0x3cad16c4	0.02112902
180	0x3d3fb92a	0.046807446
181	0xbdb66f45	-0.08907942
182	0xbd7c2ee5	-0.06156816
183	0x3bead6d0	0.007166721
184	0x3de17661	0.11008907
185	0xbda7e3e6	-0.08197765
186	0x3e20f54a	0.1571857
187	0x3da0380c	0.0782319
188	0xbd02bcaf	-0.031918224
189	0x3d98e4c1	0.07465506
190	0xbd8ceb5a	-0.06880827
191	0x3dfb2a1b	0.1226389
192	0x3a7dfa8e	0.00096885196
193	0xbdc0c074	-0.094117075
194	0xbd83ef5c	-0.064421386
195	0xbc42e378	-0.011895053
196	0xbc814cf0	-0.015783757
197	0xbcb65704	-0.02225829
198	0xbc1cf5c6	-0.009580081
199	0xbccc33db	-0.02492707
200	0x3d861e8f	0.06548797
201	0xbc21b078	-0.009868734
202	0xbdd0983f	-0.10185289
203	0xbce1842f	-0.02752885
204	0x3e0c20e0	0.13684416
205	0x3daa6677	0.08320325
206	0x3e1ea60c	0.1549303
207	0x3ddfa464	0.10920027
208	0xbe07c927	-0.13260327
209	0x3c9933a9	0.018701391
210	0x3d4f0d94	0.05055006
211	0xbdcf60cf	-0.10125887
212	0xbd3c56d1	-0.045981232
213	0xbd2c69da	-0.042093135
214	0xbda07414	-0.0783464
215	0xbcf7cc2b	-0.030248722
216	0x3dbdab63	0.09261205
217	0xbdaa513b	-0.08316275
218	0x3d931950	0.07182562
219	0xbd80907c	-0.06277558
220	0x3ce12d60	0.027487457
221	0xbcf6fab9	-0.03014885
222	0x3d1d70a0	0.038437486
223	0x3d35cc21	0.044384126
224	0xbdb017d4	-0.08598295
225	0xbdcaa5e7	-0.098949246
226	0xbcbdb258	-0.02315633
227	0x3db2e5b2	0.08735217
228	0xbd790e6d	-0.060804773
229	0x3d2aafab	0.041671436
230	0xbe14a13d	-0.14514633
231	0xbda26364	-0.079291135
232	0x3d85397b	0.06505104
233	0xbd7ed909	-0.0622187
234	0x3e504a66	0.20340881
235	0x3d2303a2	0.039798386
236	0xba007e7e	-0.00049016613
237	0xbdbaa30e	-0.091131315
238	0x3c82f41f	0.015985547
239	0x3d3a58a7	0.0454947
240	0x3c476f4b	0.01217253
241	0x3bf55cec	0.007487884
242	0x3d212705	0.039343853
243	0x3d8a1936	0.0674309
244	0x3deb64cf	0.11493837
245	0xbd6e728b	-0.058214705
246	0xbdee873d	-0.116468884
247	0x3d261598	0.040547937
248	0x3ce46bd7	0.027883453
249	0x3df6a5a0	0.12043309
250	0xbd36845e	-0.04455983
251	0xbb7e5b97	-0.0038811916
252	0x3e24ccf2	0.16093805
253	0xbdca6f33	-0.09884491
254	0xbb3b2d3c	-0.0028560897
255	0x3da1467e	0.078747734

onnx::LSTM_127 f4 [1, 512, 128]
0	0x3d128932	0.03577537
1	0x3df28914	0.11842552
2	0x3d64e1b7	0.05587932
3	0xbd57e601	-0.052709583
4	0x3d810374	0.06299487
5	0x3d1fb97c	0.03899525
6	0x3db28977	0.087176256
7	0x3d522cc6	0.05131223
8	0x3ea5a4d4	0.32352316
9	0xbd78d1ba	-0.060746886
10	0xbe4739f1	-0.19455697
11	0x3d04236f	0.032260355
12	0xbdd73951	-0.10508979
13	0xbd9bf233	-0.07614555
14	0xbe70ef3f	-0.23528765
15	0xbd384ed4	-0.04499705
16	0xbe0429f1	-0.12906624
17	0x3e03233f	0.12806414
18	0x3dad3ad5	0.08458487
19	0xbd82681a	-0.06367512
20	0x3db54e63	0.08852842
21	0x3e1306d7	0.14358078
22	0xbcb0440c	-0.021516822
23	0x3dfb44d4	0.12268987
24	0xbc06f07c	-0.008236047
25	0xbc1d24c9	-0.00959129
26	0x3d07bac5	0.0331371
27	0x3d59fc2b	0.053219
28	0x3da4ccff	0.080469124
29	0xbda80869	-0.08204729
30	0x3cb86fcd	0.022514248
31	0xbd8b8bd2	-0.06813778
32	0x3d818fa9	0.06326229
33	0xbd43a115	-0.04776104
34	0xbe441c60	-0.19151449
35	0x3e108953	0.14114885
36	0x3e1b4013	0.15161161
37	0x3c84ec06	0.016225826
38	0x3dd95df0	0.1061362
39	0x3d291abd	0.041285265
40	0x3e8e9d2b	0.27854285
41	0x3d3f93f2	0.04677195
42	0x3cc927ce	0.024555113
43	0xbdbc2354	-0.09186426
44	0xbd621204	-0.055192962
45	0x3d61298f	0.054971274
46	0x3d8f986d	0.07011495
47	0xbd2e8c8d	-0.04261451
48	0xbe2cc2c0	-0.16871166
49	0xbdd33aa6	-0.10313921
50	0x3dd59f79	0.104308076
51	0xbd3d13aa	-0.04616133
52	0xbe6bf2a5	-0.2304178
53	0x3d499a37	0.049219336
54	0xbd95a7a0	-0.073073626
55	0xbcf948a6	-0.03043015
56	0x3e2557e8	0.16146815
57	0xbd6a8396	-0.057254396
58	0xbd4b773d	-0.04967426
59	0x3d8449f9	0.06459422
60	0x3c80e90a	0.015736122
61	0x3d0b0ff2	0.033950754
62	0xbd1f645e	-0.038914077
63	0x3d3ece57	0.0465835
64	0xbd48bd5c	-0.049008712
65	0x3e00f423	0.12593131
66	0x3c6b5123	0.014362606
67	0x3d9bb820	0.076034784
68	0xbe281201	-0.16413118
69	0xbe0ccef6	-0.13750824
70	0x3d933b36	0.07189028
71	0x3c234732	0.009965705
72	0xbce183b2	-0.027528618
73	0xbd01be26	-0.03167548
74	0xbe0b36e8	-0.13595164
75	0x3dece00b	0.1156617
76	0xbe4e49ef	-0.20145391
77	0xbdd4c152	-0.103884354
78	0xbcb6abc3	-0.0222987
79	0x3d6ef1c6	0.058336042
80	0xbc4c9f10	-0.012489095
81	0x3e1b8ac2	0.1518965
82	0xbdfea14a	-0.12433107
83	0x3d65c70b	0.056098025
84	0x3d854421	0.06507135
85	0x3e6542ff	0.22388838
86	0xbd84681d	-0.064651705
87	0x3d8d1fcd	0.06890831
88	0xbd35006c	-0.044189855
89	0x3e42af7a	0.19012251
90	0x3e0c5a61	0.13706352
91	0x3e3d8659	0.18508281
92	0xbd02fbbd	-0.031978358
93	0x3d3a40d0	0.045471966
94	0x3d3f01c1	0.046632532
95	0x3d0a7c14	0.033809736
96	0xbe345708	-0.17611325
97	0x3df3af6e	0.11898695
98	0x3c73102d	0.0148354
99	0x3e050f4b	0.12994115
100	0x3d2f7d12	0.042843886
101	0x3d9b5083	0.07583716
102	0x3d887b9f	0.06664204
103	0x3d0eb6bf	0.03484225
104	0xbd3b11c9	-0.045671258
105	0x3e28833e	0.16456315
106	0x3d9ccfef	0.07656848
107	0x3da5fcc9	0.081048556
108	0xbdac0377	-0.08399098
109	0x3d2280b1	0.03967351
110	0x3dca6bee	0.09883867
111	0xbdcc111e	-0.09964202
112	0xbd2ac4bd	-0.04169153
113	0x3ccce0bf	0.025009511
114	0x3c98c2c5	0.01864756
115	0x3d25f775	0.040519197
116	0xbe21f267	-0.15815125
117	0x3e34ce48	0.17656815
118	0xbd7b394f	-0.06133395
119	0xbe20e84a	-0.15713611
120	0x3a8482c6	0.0010109774
121	0xbce66f13	-0.028129136
122	0xbe0df8bb	-0.13864414
123	0x3d5daba3	0.054118764
124	0x3da6223f	0.08112001
125	0xbde2b0a1	-0.110688455
126	0xbe0d0b9b	-0.13773958
127	0x3d7104bf	0.058842417
128	0xbd0a17e2	-0.033714183
129	0xbd90919c	-0.07059023
130	0x3d73e974	0.05954881
131	0xbba3ebf8	-0.005002495
132	0x3de5f02c	0.1122745
133	0xbca42d64	-0.020041175
134	0x3e348015	0.17626984
135	0x3da59806	0.08085637
136	0xbcaab63d	-0.020838851
137	0xbd7c8b1e	-0.06165611
138	0xbd819879	-0.0632791
139	0xbb83c514	-0.0040212963
140	0xbde0032e	-0.109381065
141	0x3d8faff9	0.07015986
142	0xbdfa96c8	-0.122357905
143	0xbcd2c7fa	-0.025730122
144	0xbd2ec39e	-0.042667024
145	0x3dcba858	0.099442184
146	0x3dba85e5	0.091075696
147	0xbbb9c87f	-0.005669653
148	0x3d53bebb	0.051695567
149	0xbcdfcaf8	-0.027318463
150	0x3d475633	0.04866619
151	0xbc4d2230	-0.012520358
152	0xbd07c47e	-0.033146374
153	0x3d4d5133	0.050126266
154	0xbda6c61a	-0.081432536
155	0xbda83363	-0.08212926
156	0xbc8056d0	-0.015666395
157	0xbdfaa15c	-0.12237808
158	0x3d8d37ba	0.068953946
159	0x3caa7bc5	0.020810971
160	0xbd2c3263	-0.04204024
161	0x3d33241e	0.043735616
162	0xbd9898bd	-0.074510075
163	0x3d5b62f2	0.05356116
164	0xbd08334d	-0.03325205
165	0xbccba5a0	-0.02485925
166	0xbd299ea1	-0.041411046
167	0x3db58709	0.088636465
168	0xbcff4ba1	-0.031163992
169	0xbd9f0459	-0.07764501
170	0x3c49f761	0.012327046
171	0xbd7f21c4	-0.06228806
172	0xbdd540e8	-0.104127705
173	0xbd89ac49	-0.06722314
174	0x3d67aa9f	0.0565592
175	0xbd855282	-0.06509878
176	0xbd88299f	-0.066485636
177	0x3c534aa6	0.012896216
178	0x3dbcdb4e	0.092215165
179	0xbe2cf63e	-0.16890809
180	0x3d46f45d	0.048572887
181	0x3ddb10ad	0.1069654
182	0xbde3d766	-0.11125068
183	0x3cacfcc2	0.021116618
184	0x3dda93ac	0.106726974
185	0xbdd7221c	-0.10504553
186	0x3c2e5264	0.010639761
187	0xbdc100aa	-0.09423955
188	0x3da96b27	0.08272391
189	0x3d6558b9	0.055992816
190	0xba48e4c8	-0.00076634856
191	0x3d332a1c	0.04374133
192	0x3dba76ed	0.091047145
193	0x3d7e24ba	0.062046744
194	0x3cf94f77	0.0304334
195	0x3cfd5094	0.030922212
196	0xbdc34910	-0.0953542
197	0x3d866824	0.06562832
198	0xbce7fc5a	-0.028318573
199	0xbdc0a952	-0.09407295
200	0xbc91f5c5	-0.017817387
201	0xbd09df1c	-0.03366004
202	0x3d4bf558	0.049794525
203	0xbc0e95ff	-0.008702754
204	0xbd46b08b	-0.04850821
205	0xbafaa879	-0.0019123695
206	0x3d4637db	0.04839311
207	0xbd691185	-0.056901474
208	0xbd5258ee	-0.05135434
209	0x3de8aa64	0.113606244
210	0xbcef9134	-0.029244043
211	0x3cd492a0	0.025948822
212	0x3d981cf6	0.07427399
213	0x3de696a6	0.11259203
214	0x3d5c9a0e	0.053857855
215	0xbda35763	-0.07975652
216	0x3d7ed076	0.062210523
217	0xbd75bf5a	-0.05999694
218	0x3d4fd710	0.05074221
219	0x3c9461a2	0.018112961
220	0xbd51f98f	-0.05126339
221	0xbd0608eb	-0.03272335
222	0xbceb441f	-0.028719006
223	0xba3ab1b7	-0.00071218185
224	0xbda74adb	-0.081685744
225	0xbaf627f8	-0.0018780222
226	0x3df17871	0.117905505
227	0x3de35a36	0.11101191
228	0x3cc0be31	0.02352819
229	0x3e1c1bab	0.1524493
230	0xbd4adcf4	-0.049527124
231	0xbe26870d	-0.16262455
232	0xbd65ae63	-0.05607451
233	0xbcd81f71	-0.02638218
234	0x3d22c393	0.039737295
235	0xbca189f4	-0.019719101
236	0x3d73b0fa	0.05949495
237	0xbc2929f3	-0.010324943
238	0xbc6bebb2	-0.014399456
239	0xbd40ece7	-0.047100928
240	0xbca0cf36	-0.019630056
241	0x3d6ae7ed	0.057350088
242	0x3da68e32	0.0813259
243	0xbca2bffd	-0.019866938
244	0xbd7e2d19	-0.062054727
245	0xbbfed57a	-0.0077769132
246	0x3c794f87	0.015216715
247	0x3d0bd07f	0.034134384
248	0xbd8e6da4	-0.06954506
249	0x3bf95432	0.007608914
250	0x3d204b21	0.03913415
251	0x3def04c6	0.11670832
252	0x3cfce69e	0.030871686
253	0xbdb976cf	-0.09055864
254	0xba42d7f6	-0.00074326934
255	0x3d90c144	0.070681125

onnx::LSTM_128 f4 [1, 1024]
0	0x3d064f7d	0.03279065
1	0x3db52596	0.088450596
2	0x3dfab29c	0.12241098
3	0x3d8ccd23	0.06875064
4	0x3d3c943a	0.046039797
5	0xbce09737	-0.027415855
6	0x3dd0227a	0.10162826
7	0xbd2939a8	-0.04131475
8	0x3d4918c2	0.049095877
9	0x3d6693d3	0.05629332
10	0x3d84ac13	0.06478133
11	0x3da47331	0.080297835
12	0x3d3f26c1	0.046667818
13	0x3d7d83d7	0.06189331
14	0x3d9923cf	0.07477533
15	0x3d8f47df	0.0699613
16	0x3d8becc9	0.068322726
17	0x3d8692c2	0.065709606
18	0x3de247fd	0.11048887
19	0x3d4204a8	0.04736772
20	0x3d616537	0.055028167
21	0x3d66b8d4	0.05632861
22	0x3dc82b9b	0.09773942
23	0xbd3d8c3e	-0.046276323
24	0x3dbebecb	0.093137346
25	0x3d5e26d6	0.054236256
26	0x3cb2c9fc	0.02182483
27	0xbb78c422	-0.00379587
28	0x3ce3a1e2	0.027787153
29	0xbd382002	-0.0449524
30	0x3da4ea8e	0.0805255
31	0xbcec20a7	-0.028824164
32	0xbbae4362	-0.0053180913
33	0x3d20fc86	0.039303325
34	0xbd0ce222	-0.034395345
35	0x3d833722	0.06407
36	0x3dc467e5	0.09590129
37	0x3de7c4c4	0.11316827
38	0x3d62f9af	0.055413898
39	0xbb8a38bf	-0.0042181904
40	0xbd8f7196	-0.07004087
41	0x3d61af07	0.05509856
42	0xbc327adb	-0.010893549
43	0x3c108102	0.00881982
44	0x3ddea567	0.10871392
45	0x3d8c1844	0.06840566
46	0x3be37cfe	0.0069423905
47	0x3d8690ce	0.06570588
48	0x3dbaeacd	0.09126816
49	0xbd2aa5f6	-0.04166218
50	0x3ddda8c1	0.10823203
51	0x3d04d859	0.032432888
52	0x3cc5b5e9	0.024134593
53	0xbcf4d536	-0.029886823
54	0x3af5ce99	0.0018753588
55	0x3c098dc1	0.008395613
56	0x3bc076c1	0.0058735316
57	0x3d4eed54	0.050519302
58	0x3d8d0b1c	0.068868846
59	0xbd439fb1	-0.047759715
60	0x3da05e4a	0.07830484
61	0x3dc0243a	0.0938191
62	0x3d966047	0.07342582
63	0xbd41976a	-0.04726354
64	0xbd388e2b	-0.045057457
65	0x3d8e25a5	0.06940774
66	0x3c84a511	0.016191991
67	0xbcab95e5	-0.020945499
68	0x3d9ef4d3	0.0776154
69	0x3dc38c6e	0.09548269
70	0xbb836f33	-0.0040110587
71	0x3cfdb1ad	0.030968511
72	0x3dd9ff61	0.10644413
73	0x3d23d66c	0.03999941
74	0x3ca7ce24	0.020484038
75	0xbd143aa5	-0.03618874
76	0x3d1faac5	0.038981218
77	0x3d29ff37	0.041503157
78	0xbbfd6a1b	-0.007733596
79	0x3ca5403f	0.020172236
80	0x3daa4728	0.08314353
81	0x3d8addb5	0.067805685
82	0xbc035cc3	-0.008017722
83	0x3daaf15a	0.083468154
84	0x3e106820	0.1410222
85	0x3d83d93a	0.06437917
86	0xbcdfc3b5	-0.027315
87	0x3d16ecc4	0.03684689
88	0x3d250376	0.040286504
89	0xbced6bf7	-0.028982146
90	0x3cb7e569	0.022448258
91	0x3dd1714f	0.1022669
92	0xbc7cb470	-0.015423879
93	0x3d38081a	0.0449296
94	0x3c89dd39	0.01682912
95	0x3cae9ed8	0.021315977
96	0xbd1c408f	-0.038147505
97	0xbcd4a5a0	-0.025957882
98	0x3cbbbded	0.022917712
99	0x3d49b15b	0.049241405
100	0x3dce6fff	0.10079955
101	0x3dccc2f3	0.09998121
102	0x3dcdc124	0.10046604
103	0xbc2feb22	-0.010737212
104	0xbc40cfcb	-0.011768292
105	0xbb223720	-0.0024752095
106	0xbc63e0ff	-0.013908624
107	0x3dc80d80	0.097682
108	0x3d10af1b	0.035323244
109	0xbd26de51	-0.04073936
110	0x3d0d256f	0.034459528
111	0x3d6eed2a	0.058331646
112	0x3ddf56a3	0.109051965
113	0xbd708a05	-0.058725376
114	0xbb930889	-0.0044871015
115	0x3da7b43d	0.081886746
116	0x3b9f648d	0.0048642815
117	0x3db2de90	0.08733857
118	0xbd06b912	-0.03289134
119	0x3d2ac891	0.04169518
120	0x3ceb94ca	0.028757472
121	0x3da15e4c	0.07879314
122	0xbd2e08ae	-0.042488746
123	0x3c37249a	0.01117816
124	0xbd039f11	-0.03213412
125	0x3cb05210	0.021523505
126	0xbcf77f63	-0.03021211
127	0x3d31e72d	0.043433357
128	0x3e029cad	0.1275508
129	0xbd02dfa3	-0.031951558
130	0x3d6f3703	0.058402073
131	0x3dcb6065	0.09930495
132	0x3dc73a14	0.097278744
133	0x3dd50bf8	0.104026735
134	0x3d6cfec0	0.057860136
135	0x3deaac90	0.11458695
136	0x3c37afff	0.011211394
137	0x3d0d66b3	0.03452177
138	0x3da44e16	0.08022706
139	0x3d7bb1e7	0.061448958
140	0xbc103641	-0.008801998
141	0xbc9818e8	-0.018566564
142	0x3d998127	0.07495337
143	0x3d8afba0	0.06786275
144	0x3c93d833	0.018047428
145	0x3d8adf84	0.067809135
146	0x3ce30064	0.027710147
147	0x3dc500e9	0.09619314
148	0xbb7995f5	-0.0038083766
149	0x3e05a844	0.1305247
150	0xbd8b6a85	-0.06807426
151	0x3dab4e4b	0.083645426
152	0x3d01712b	0.031602066
153	0x3dbeae32	0.09310569
154	0xbd90209a	-0.07037468
155	0x3d63abb7	0.055583682
156	0x3dc51003	0.096221946
157	0x3dd2a7b8	0.10285896
158	0xbd5dca9a	-0.054148294
159	0x3ddc6d4d	0.10763035
160	0x3df7fbca	0.12108572
161	0xbc87aac6	-0.016560923
162	0x3d5764c4	0.052586332
163	0x3d099d91	0.033597533
164	0x3dd1cc3b	0.10244032
165	0x3ce81fb9	0.028335439
166	0xbd63ab66	-0.05558338
167	0x3d9e8998	0.07741088
168	0x3d5f8940	0.05457425
169	0x3d17041a	0.036869146
170	0xbd66697b	-0.056252938
171	0xbd018a51	-0.03162605
172	0x3df3dade	0.1190698
173	0xbd166a50	-0.03672248
174	0x3d10eae3	0.035380255
175	0x3d012c9a	0.031536676
176	0xbd8bd9e9	-0.068286724
177	0xbc594599	-0.013261222
178	0x3ca162a9	0.019700365
179	0x3d0b82ab	0.03406016
180	0xbc8d49c8	-0.017247096
181	0xbac032a0	-0.0014663525
182	0x3ce2e35c	0.027696304
183	0xbc1db270	-0.009625062
184	0x3db9300e	0.09042369
185	0x3b4a979d	0.0030913122
186	0x3cf76ee1	0.030204238
187	0xbd0c513d	-0.034257162
188	0x3da1533b	0.07877203
189	0xbc098b2c	-0.008394998
190	0x3df86069	0.12127764
191	0x3dfcd284	0.1234484
192	0x3dd68e66	0.10476379
193	0x3e005740	0.12533283
194	0x3dbd925d	0.09256432
195	0x3d67e349	0.05661324
196	0x3d3c45c5	0.045964975
197	0x3d198ccc	0.03748779
198	0xbd6444c0	-0.055729628
199	0x3d8d529d	0.06900523
200	0x3c980fd7	0.01856224
201	0x3c93e87a	0.01805519
202	0xbd358852	-0.04431946
203	0x3cdb25b4	0.026751377
204	0x3da5a68d	0.08088408
205	0xbc9138de	-0.017727312
206	0x3ddc1171	0.10745514
207	0x3a12ffe5	0.0005607589
208	0x3de9adc1	0.11410094
209	0x3dca9a50	0.09892714
210	0x3dbe914d	0.09305058
211	0x3d0deda9	0.03465048
212	0x3c27669c	0.010217335
213	0x3d14217b	0.036164742
214	0x3d7b69d6	0.06138023
215	0xbb910ad3	-0.004426339
216	0xbcb35c81	-0.021894695
217	0x3db1947c	0.08670899
218	0xbd9129e5	-0.07088069
219	0x3dc071d5	0.09396712
220	0x3dea1c71	0.11431206
221	0xbd3e4de9	-0.04646102
222	0xbd8aabef	-0.06771075
223	0xbce5ecaa	-0.028066952
224	0x3db6df7a	0.089293435
225	0x3cc6ca67	0.024266435
226	0xbd6cbd15	-0.05779751
227	0x3da5cfbb	0.08096262
228	0xbc0080f8	-0.007843249
229	0x3d22d9b9	0.039758418
230	0x3dcda134	0.10040513
231	0x3d92f7e8	0.071761906
232	0x3cb08f15	0.021552602
233	0xbb732f8a	-0.0037107193
234	0x3cc3962c	0.023875318
235	0xbd07b50f	-0.033131655
236	0x3daf13e0	0.08548713
237	0x3dff90ff	0.12478828
238	0x3e077f7c	0.13232225
239	0xbc790ee5	-0.015201305
240	0xbd3a9e4a	-0.045561112
241	0x3ce8c904	0.028416164
242	0x3dca4059	0.098755546
243	0x3cd89ef9	0.026442992
244	0x3dc95d50	0.09832251
245	0x3babbe97	0.005241226
246	0xbb843aab	-0.004035314
247	0x3beb7ec7	0.007186744
248	0x3c9e80a3	0.019348448
249	0x3cfceb2b	0.030873856
250	0x3b903556	0.0044008894
251	0x3d8bc87d	0.068253495
252	0xbd6c09ca	-0.057626523
253	0x3dcb2564	0.09919241
254	0x3dc55397	0.09635084
255	0x3c26b853	0.010175782
