Sistema_de_Compressao_GN_PINN/modelo_PINN_v1.onnx (onnx, 183092 bytes, 5 tensors)

output_layer.weight f4 [14, 100]
0	0xbcaaeec9	-0.020865815
1	0x3d8c60b7	0.068543844
2	0x3cee2c78	0.029073939
3	0x3dd33714	0.1031324
4	0xbdfd0e3e	-0.12356232
5	0x3e03ef85	0.12884338
6	0xbc2b4d51	-0.010455445
7	0xbc16feef	-0.009216054
8	0x3c8380a3	0.01605255
9	0xbdde2019	-0.10845966
10	0x3cf73ff3	0.03018186
11	0xbe4e2f3d	-0.20135207
12	0x3e5fbdb5	0.21849711
13	0x3c82835c	0.015931778
14	0x3d91697c	0.07100198
15	0x3e0d3bc9	0.13792337
16	0xbe02ccc8	-0.1277343
17	0xbe20a809	-0.156891
18	0xbd42203c	-0.047394022
19	0x3da972a4	0.08273819
20	0x3ccf86e9	0.025332885
21	0x3e46d11f	0.19415711
22	0xbd675533	-0.056477737
23	0x3d45d7af	0.048301395
24	0xbe7634c9	-0.24043573
25	0x3c31759a	0.010831261
26	0x3cc34a8b	0.023839256
27	0xbe80fab2	-0.25191265
28	0xbe0ef4ca	-0.13960567
29	0x3d1af64e	0.03783255
30	0xbe1a079a	-0.15041962
31	0x3e064d76	0.13115487
32	0xbe3abccf	-0.18236087
33	0x3d126c20	0.035747647
34	0x3df5e35b	0.12006255
35	0x3ca1c2c4	0.019746192
36	0xbe55e9d0	-0.20889974
37	0xbda412d7	-0.08011406
38	0x3db8c04e	0.09021054
39	0xbe2a5a9c	-0.16636127
40	0xbdf68ad9	-0.12038202
41	0x3d2d9117	0.042374697
42	0xbb002610	-0.0019553937
43	0xbd8883b8	-0.06665748
44	0xbe37b409	-0.17939772
45	0xbe8f9757	-0.2804515
46	0x3e85ddd6	0.2614581
47	0x3c8f667a	0.01750492
48	0xbdfafdfd	-0.12255476
49	0x3cd44d4c	0.025915764
50	0x3b6a095f	0.0035711152
51	0xbc11759d	-0.008878139
52	0x3dacf971	0.08446015
53	0xbd6dab49	-0.05802468
54	0x3e60828e	0.21924803
55	0xbe9525ef	-0.29130504
56	0x3e347a2c	0.1762473
57	0x3e5a6aa2	0.2132974
58	0xbcf0ea4d	-0.029408598
59	0x3e279cf5	0.16368468
60	0xbe5c4a4d	-0.21512718
61	0x3de6739b	0.11252519
62	0xbe0f07de	-0.13967845
63	0x3e0a035d	0.13477845
64	0x3e2e55e0	0.17024946
65	0xbd8bf136	-0.06833117
66	0x3e46130a	0.193432
67	0x3c464176	0.012100568
68	0x3e042485	0.12904556
69	0x3d69cfae	0.057082824
70	0x3ddd8718	0.10816783
71	0x3df49018	0.11941546
72	0x3d05d916	0.032677732
73	0xba87b7eb	-0.0010354494
74	0x3de044ed	0.109506465
75	0x3e34275f	0.17593144
76	0x3c38ebda	0.0112867
77	0x3e85dea6	0.2614643
78	0xbcfde299	-0.03099184
79	0x3e544f19	0.20733298
80	0x3e016786	0.12637147
81	0xbd85bdbe	-0.06530331
82	0xbca7bbd4	-0.020475306
83	0x3c83dbcf	0.016096024
84	0xbe5477f9	-0.20748891
85	0x3dde4271	0.108525164
86	0xbc2fbc05	-0.01072598
87	0xbe172d8d	-0.1476347
88	0x3e4ee9b1	0.20206334
89	0x3cf4eade	0.02989715
90	0x3c9c5ae2	0.019086305
91	0xbd8947d2	-0.06703152
92	0xbd420e31	-0.047376815
93	0xbea8e9f7	-0.32991
94	0x3d37982b	0.044822853
95	0x3db4dd57	0.0883128
96	0xbe46de57	-0.19420753
97	0x3ee464c5	0.4460813
98	0x3e05ad3c	0.13054365
99	0xbe622ad7	-0.22086655
100	0x3e5886ca	0.21145168
101	0xbd10439c	-0.035220727
102	0xbe971c98	-0.29514003
103	0xbcf6520e	-0.030068424
104	0xbdccdd76	-0.10003178
105	0x3e228040	0.15869236
106	0x3d1c769f	0.038199063
107	0x3d78b1bf	0.060716387
108	0x3c474aa4	0.012163792
109	0x3dbb7de3	0.0915487
110	0xbe25f1b6	-0.16205487
111	0xbdb7f537	-0.08982318
112	0xbdc62217	-0.09674471
113	0xbd9c1a04	-0.076221496
114	0x3e1951f1	0.14972664
115	0xbd2139a2	-0.039361604
116	0xba2fb7ac	-0.00067030895
117	0xbe12f5e1	-0.14351608
118	0x3d7c8346	0.06164863
119	0x3cd33e5d	0.025786573
120	0x3deb5ce3	0.11492326
121	0xbbcb8494	-0.006210873
122	0xbe225dd7	-0.1585611
123	0x3e1ab758	0.15109003
124	0xbd5604fc	-0.052250847
125	0xbdfad9d1	-0.122485764
126	0x3cfd4b7c	0.030919783
127	0x3e87917f	0.26478192
128	0x3b249553	0.0025113418
129	0x3e10e9a7	0.14151631
130	0xbe211e68	-0.15734255
131	0x3e0d12fe	0.13776776
132	0xbd98c0b2	-0.07458629
133	0xbcb3aa6f	-0.021931855
134	0x3d3bb8da	0.045830585
135	0x3d815cbd	0.063165165
136	0xbe5520de	-0.20813319
137	0xbdcc250d	-0.099680044
138	0xbda50b51	-0.08058799
139	0xbcc8820d	-0.024476076
140	0xbe8ca274	-0.27467692
141	0xbcc3e847	-0.02391447
142	0x3e069a60	0.13144827
143	0xbb4d6fe6	-0.0031347214
144	0xbd4151d9	-0.047197197
145	0xbd8c6402	-0.068550125
146	0x3d2e8dd1	0.042615715
147	0xbc89388a	-0.016750593
148	0x3de9ac91	0.114098676
149	0x3d8ba131	0.06817854
150	0x3db994b4	0.09061566
151	0xbc21cf0e	-0.009876026
152	0x3dcff866	0.101548
153	0xbd651346	-0.055926584
154	0xbd1b595b	-0.037927013
155	0x3d937db9	0.07201714
156	0xbd21a157	-0.039460506
157	0x3cffc2b3	0.03122077
158	0xbd838633	-0.06422081
159	0x3de528a2	0.11189391
160	0x3bee4a50	0.0072720423
161	0xbc811ae8	-0.0157599
162	0x3de4c069	0.11169512
163	0xbe45f8f9	-0.19333257
164	0x3db05fcc	0.08612022
165	0x3dc97c0d	0.09838114
166	0xbda8cf29	-0.08242638
167	0xbd446827	-0.04795089
168	0xbc9e1408	-0.019296661
169	0xbdb1d6b9	-0.08683533
170	0xbd4cf91e	-0.050042264
171	0xbdccda82	-0.100026146
172	0x3e06380f	0.13107322
173	0x3e425bba	0.18980303
174	0xbe8364df	-0.25662896
175	0xbd9beaac	-0.076131195
176	0x3cbc800b	0.023010274
177	0x3e77a8de	0.24185511
178	0xbda432a2	-0.0801747
179	0xbdb3bff2	-0.08776845
180	0x3e207084	0.15667921
181	0xbd840378	-0.06445974
182	0x3d94d7a7	0.07267695
183	0xbd49b513	-0.04924495
184	0xbdf29100	-0.11844063
185	0xbd603fb9	-0.05474827
186	0x3ddd39f3	0.108020686
187	0xbcff82a4	-0.031190224
188	0x3e26356a	0.16231313
189	0x3e14bdbb	0.14525501
190	0xbd6a6c6e	-0.057232313
191	0x3d6a864b	0.057256978
192	0x3e370ab9	0.17875184
193	0x3e40ed97	0.18840633
194	0xbd92caa0	-0.07167554
195	0x3cf10e3d	0.029425735
196	0x3cd5ee4a	0.026114602
197	0xbd9129ea	-0.070880726
198	0xbd14e458	-0.036350578
199	0x3c5b04cd	0.013367844
200	0x3e045f31	0.12926938
201	0x3e1168cc	0.14200133
202	0xbea06c28	-0.31332517
203	0x3de6f90a	0.11277969
204	0xbd71f9b2	-0.05907602
205	0x3d99a5a1	0.07502294
206	0x3e0d35c8	0.13790047
207	0x3e592c47	0.21208297
208	0x3d1018d2	0.03517992
209	0x3e9b67c8	0.30352616
210	0xbe55767c	-0.2084598
211	0x3ddb6471	0.10712517
212	0x3e0c9a43	0.13730721
213	0xbd9f6561	-0.07783008
214	0xbd9bc115	-0.07605187
215	0xbc4fe6c8	-0.0126893
216	0xbdfe1407	-0.12406164
217	0xbe1f7473	-0.15571766
218	0x3e230e53	0.15923433
219	0x3d9eab5a	0.077475265
220	0x3cb24088	0.021759287
221	0x3e83eb0e	0.2576527
222	0x3d10a1b1	0.03531045
223	0xbc156f14	-0.009120721
224	0xbded032c	-0.115728706
225	0x3ddf1e90	0.10894501
226	0xbd2bb53f	-0.041920897
227	0xbe29e3d4	-0.16590816
228	0xbe361662	-0.17781976
229	0x3d0c1ede	0.034209125
230	0xbddb3f40	-0.10705423
231	0x3d6ed3b7	0.058307376
232	0xbe36086b	-0.17776649
233	0x3c7ebcac	0.015547913
234	0xbeb8de8f	-0.361073
235	0xbe43f8bb	-0.19137852
236	0x3e8d5b83	0.2760888
237	0xbca1aadc	-0.019734792
238	0x3e4af6a7	0.19820653
239	0x3e884560	0.2661543
240	0x3d80f136	0.06296007
241	0xbc88eb75	-0.016713837
242	0xbd78617e	-0.06063985
243	0xbdebcbea	-0.11513503
244	0xbea3d6b7	-0.31999752
245	0x3e372501	0.1788521
246	0x3e645eae	0.22301742
247	0xbdf3013c	-0.1186547
248	0xbdc3e408	-0.09564978
249	0x3e9a9157	0.3018901
250	0x3e0c7c03	0.13719182
251	0x3e14a706	0.1451684
252	0x3e0a50a9	0.13507332
253	0x3c24c5bc	0.010056909
254	0xbd07e62c	-0.033178493
255	0xb99fa03a	-0.0003044622

output_layer.bias f4 [14]
0	0x3b911989	0.004428093
1	0xbcbfc262	-0.023408119
2	0xbe412097	-0.18860088
3	0xbd429500	-0.04750538
4	0xbbf081d1	-0.007339694
5	0x3d730557	0.059331264
6	0xbde8f2ab	-0.1137441
7	0xbbac0d1e	-0.005250587
8	0xbe47b21a	-0.19501534
9	0x3de360bb	0.11102434
10	0xbe074c82	-0.13212779
11	0x3d1e1a6e	0.038599424
12	0xbdb1ffcf	-0.0869137
13	0xbd3d7cca	-0.046261586

onnx::LSTM_122 f4 [1, 400, 7]
0	0x3d398dce	0.04530125
1	0xbd0ce927	-0.03440204
2	0x3ba1677a	0.0049256654
3	0x3d37a9bd	0.04483961
4	0x3d911bdc	0.07085392
5	0xbcff6205	-0.031174669
6	0x3c9040d4	0.017609037
7	0x3de45fcb	0.111510836
8	0xbcbb4f09	-0.022864835
9	0xbde0bc5b	-0.10973426
10	0x3cb3e576	0.021960001
11	0xbcafb3ab	-0.021447977
12	0x3d2e7e90	0.04260117
13	0xbcabb1c4	-0.020958789
14	0x3d15e7f8	0.036598176
15	0x3d812c15	0.06307236
16	0xbe891e26	-0.26780814
17	0x3d0e95c4	0.034810796
18	0xbdab6286	-0.08368401
19	0xbce9e24d	-0.028550291
20	0xbc943e9a	-0.018096257
21	0x3dd7da50	0.10539687
22	0x3b34a575	0.002756444
23	0x3e0fa91c	0.14029354
24	0xbd6177c7	-0.05504587
25	0xbd822d1e	-0.06356262
26	0xbe07af53	-0.13250475
27	0x3d91bf17	0.071165256
28	0xbb8de830	-0.0043306574
29	0x3a196610	0.00058516953
30	0xbe28011f	-0.16406678
31	0xbda7777d	-0.081770875
32	0xbd0e78d1	-0.03478319
33	0xbd9ba66b	-0.07600101
34	0xbd58f0dc	-0.052964076
35	0x3bc6a2a5	0.006061869
36	0x3ccdabfd	0.025106424
37	0x3deb4d35	0.114893354
38	0x3ddf1235	0.108921446
39	0xbc812e69	-0.0157692
40	0xbd6e8d74	-0.05824037
41	0x3dbe2180	0.09283733
42	0x3bd8c5ca	0.006615375
43	0xbd868b14	-0.06569496
44	0xbdf24585	-0.11829666
45	0xbdec0462	-0.115242735
46	0x3d42cbf5	0.04755779
47	0xbd4085b6	-0.047002517
48	0xbcd82952	-0.02638689
49	0x3d9037c8	0.070418894
50	0xbd5d876c	-0.054084226
51	0x3cd146ec	0.025546513
52	0xbcb5b04d	-0.022178793
53	0xbc86f9f6	-0.016476613
54	0xbda8b0a4	-0.082368165
55	0xbda7b64d	-0.08189068
56	0x3db6c34d	0.089239694
57	0xbc262433	-0.0101404665
58	0x3db2c149	0.087282725
59	0x3d442f6e	0.047896795
60	0x3dbcf5c2	0.09226562
61	0xbd96db38	-0.073660314
62	0x3d88398b	0.066516005
63	0x3e0ecebf	0.13946055
64	0x3e03a475	0.12855704
65	0x3c004fb7	0.0078315055
66	0xbd539485	-0.05165531
67	0xbc2a8738	-0.010408215
68	0x3ce6c135	0.0281683
69	0x3e335ade	0.17515132
70	0xbbe78f83	-0.0070666685
71	0xbdd525a1	-0.10407568
72	0x3e053e74	0.13012105
73	0x3bbbcc92	0.005731174
74	0xbd215071	-0.039383356
75	0xbe05425c	-0.13013595
76	0x3d04dabf	0.032435175
77	0x3bd6aa6d	0.006551078
78	0x3caf9205	0.021431932
79	0x3e2140ae	0.1574733
80	0x3e4295b8	0.19002426
81	0x3e05372a	0.13009325
82	0xbc913902	-0.017727379
83	0x3e0ce0bd	0.13757606
84	0x3db5cb3f	0.08876657
85	0xbdab2824	-0.083572656
86	0xbd0b6eb0	-0.034041107
87	0x3d6b24e7	0.05740824
88	0x3d819f12	0.063291684
89	0x3d18d441	0.037311796
90	0xbd89e4b0	-0.06733072
91	0x3d93f76f	0.072249286
92	0xbc4ec43e	-0.01262003
93	0xbd92680c	-0.071487516
94	0x3e01a7bb	0.1266164
95	0xbc63e0cb	-0.013908575
96	0xbd8d9300	-0.06912804
97	0x3d2de554	0.042455032
98	0x3daaee84	0.083462745
99	0x3d8945aa	0.067027405
100	0x3d96da83	0.073658966
101	0xbcaa3e41	-0.020781638
102	0xbced0bc6	-0.028936278
103	0x3e17abad	0.14811583
104	0xbb7f6dc7	-0.0038975345
105	0x3cafb7df	0.021449981
106	0xbdb1d2a0	-0.08682752
107	0xbd12de0f	-0.035856303
108	0xbd3d2d90	-0.04618603
109	0x3da1567e	0.07877825
110	0x3d07b08e	0.03312736
111	0x3d6682d9	0.05627713
112	0x3d3b24bb	0.045689326
113	0x3e103ff5	0.14086898
114	0x3d1de6df	0.038550254
115	0x3ddc53ab	0.10758146
116	0xbc2ca8c6	-0.010538286
117	0xbb40b1f9	-0.0029402955
118	0x3d936d7f	0.07198619
119	0xbd940f2e	-0.07229458
120	0x3de1312a	0.109957054
121	0xbd4f5549	-0.050618444
122	0xbd5a9549	-0.053365026
123	0xbdc194d1	-0.094522126
124	0xb9ff7526	-0.00048724673
125	0xbd53ae31	-0.051679794
126	0x3dcd03ce	0.10010491
127	0x3d734a7e	0.059397213
128	0xbd371fe2	-0.04470814
129	0x3d4b5482	0.04964114
130	0x3d5f4576	0.054509602
131	0x3da3701a	0.07980366
132	0x3d56643e	0.052341692
133	0x3d55a830	0.05216235
134	0x3c28eded	0.010310632
135	0xbc09b2be	-0.008404432
136	0xbdbf5658	-0.09342641
137	0x3c80cef4	0.015723683
138	0xbcd1b764	-0.025600143
139	0xbd6afa16	-0.057367407
140	0x3c8ecc9c	0.01743155
141	0xbda38f01	-0.0798626
142	0xbd342815	-0.043983538
143	0xbd871ef5	-0.065977015
144	0xbdcb35b7	-0.09922355
145	0xbd42a2ca	-0.04751853
146	0x3d9c2ae6	0.0762537
147	0x3d014064	0.03155555
148	0xbd5e1165	-0.054215807
149	0xbda07c88	-0.078362525
150	0xbc7add4d	-0.015311551
151	0x3ce76d89	0.028250473
152	0xbb96ad6f	-0.0045983116
153	0xbe005074	-0.1253069
154	0xbce7abd8	-0.028280184
155	0xbcccacc0	-0.024984717
156	0xb9c03c03	-0.00036665806
157	0x3d46c3e7	0.04852667
158	0x3e10c63d	0.14138122
159	0xbdfc2521	-0.12311769
160	0x3b0b08fc	0.0021215072
161	0x3d0392a4	0.03212227
162	0xbd871fe9	-0.06597883
163	0xbdea30ed	-0.11435113
164	0xbcf602c0	-0.030030608
165	0xbc28f8b0	-0.010313198
166	0xbdf6d240	-0.12051821
167	0xbdf3964d	-0.11893902
168	0xbdce0ce7	-0.10061055
169	0x3ddc4f63	0.10757329
170	0xbd47b3dc	-0.04875551
171	0x3c105547	0.008809394
172	0xbd5d511a	-0.054032423
173	0x3baf61a0	0.005352214
174	0x3b37a9ba	0.002802475
175	0x3d11083d	0.035408247
176	0x3dc2c64e	0.0951048
177	0x3d812c0c	0.063072294
178	0xbb2b2de9	-0.0026119894
179	0xbd42c089	-0.047546897
180	0x3d340c52	0.043957062
181	0xbd6d48d2	-0.057930775
182	0xbcb06397	-0.021531863
183	0x3da051a8	0.07828075
184	0xbd984e4e	-0.074368104
185	0x3dc2431a	0.09485455
186	0x3d687b14	0.056758
187	0xbaad2846	-0.0013210855
188	0x3d3798b0	0.04482335
189	0x3d69d38e	0.05708652
190	0xbd2417cd	-0.04006176
191	0x3cd1165a	0.025523353
192	0x3e0c3e94	0.13695747
193	0xbd9173bc	-0.07102153
194	0xbc0ef88d	-0.008726251
195	0xbd8245e9	-0.063609906
196	0x3d881135	0.06643907
197	0xbdb29de0	-0.087215185
198	0xbe1fa331	-0.15589596
199	0x3d552675	0.05203863
200	0xbd41efde	-0.047347896
201	0x3d41d2ce	0.04732018
202	0xbd54ea5a	-0.051981308
203	0xbd37c65a	-0.044866897
204	0xbdd70fd2	-0.10501064
205	0x3d2541ca	0.040345944
206	0x3ccb3497	0.02480535
207	0xbd082f9a	-0.03324852
208	0xbd951212	-0.07278837
209	0xbe0177fc	-0.12643427
210	0x3e11c430	0.14234996
211	0x3d8b34e3	0.06797197
212	0xbd05a00b	-0.032623332
213	0x3e2090c6	0.15680227
214	0x3e326f0d	0.17425175
215	0x3c69c902	0.014269115
216	0x3df407da	0.1191556
217	0xbc3df6ce	-0.011594487
218	0x3c55079b	0.013002302
219	0xbc9aec26	-0.018911432
220	0xbd052561	-0.03250635
221	0xbd9d833c	-0.076910466
222	0xbd903e08	-0.070430815
223	0x3d3a3a42	0.045465715
224	0x3dbc8024	0.092041284
225	0x3d6001f9	0.05468938
226	0xbe35be0e	-0.17748281
227	0xbd336c93	-0.043804716
228	0xbda36e7f	-0.0798006
229	0xbcc0d3bd	-0.023538465
230	0xbc1bda2e	-0.009512467
231	0x3df21e42	0.118221775
232	0xbd78254c	-0.060582444
233	0xbdc248a9	-0.09486515
234	0xbd58a02a	-0.05288712
235	0xbd824b39	-0.06362004
236	0xbc1e8d42	-0.009677233
237	0x3db45fa9	0.08807308
238	0xbdc4d7b3	-0.09611454
239	0x3b8308a0	0.003998831
240	0xbd5c8709	-0.053839717
241	0x3d85f7b4	0.06541386
242	0x3cd2360f	0.025660543
243	0xbd491891	-0.049095694
244	0xbd295005	-0.04133608
245	0x3dbca974	0.09212008
246	0xbdba3191	-0.09091485
247	0xbde730c0	-0.11288595
248	0xbde20496	-0.11036031
249	0x3da3f75e	0.08006166
250	0x3d47e394	0.04880102
251	0xbc068654	-0.008210737
252	0xbe17a34e	-0.1480839
253	0xbe14551b	-0.1448559
254	0xbbb78704	-0.005600812
255	0x3d61221b	0.054964166

onnx::LSTM_123 f4 [1, 400, 100]
0	0xbdb23ebf	-0.08703374
1	0x3e12f505	0.1435128
2	0x3d0d2777	0.034461465
3	0xbe69f33b	-0.22846691
4	0x3af8f4d1	0.0018993859
5	0x3da4726a	0.08029635
6	0x3d1e3a4c	0.038629815
7	0xbcf946c8	-0.030429259
8	0x3c4d5208	0.012531765
9	0xbe48b9af	-0.19602083
10	0x3daca649	0.08430154
11	0xbe47e8c6	-0.1952239
12	0x3db3d66c	0.08781132
13	0xbd8e5487	-0.06949716
14	0xbd20b4a3	-0.03923477
15	0x3d5cb93c	0.05388759
16	0xbdc5ee17	-0.09664553
17	0x3d7a76cf	0.06114846
18	0x3d98ea90	0.07466614
19	0x3d7e0070	0.062012136
20	0xbdc0f4f2	-0.094217196
21	0x3e243628	0.16036284
22	0xbd90a5ce	-0.07062875
23	0x3d32b979	0.04363391
24	0x3ddd3755	0.10801569
25	0xbe2432c3	-0.16034989
26	0x3c218483	0.009858253
27	0xbe3ab861	-0.18234397
28	0xbd5e833d	-0.054324377
29	0xbc3f43ed	-0.01167391
30	0x3df6f672	0.120587245
31	0xbd004800	-0.031318665
32	0xbdfc0b87	-0.12306886
33	0x3db98171	0.09057892
34	0xbd48eb70	-0.049052656
35	0x3cf31735	0.029674152
36	0x3d7537b7	0.059867587
37	0x3c2926fb	0.010324235
38	0xbe3bf098	-0.18353498
39	0x3dc56b0a	0.09639557
40	0xbd49b5ba	-0.049245574
41	0x3cbfe2b0	0.023423523
42	0xbe0eb0ae	-0.13934585
43	0xbba43ad3	-0.005011895
44	0xbdaa9cae	-0.083306655
45	0xbd8e4eb2	-0.06948604
46	0xbd077fb6	-0.03308078
47	0x3e7eab56	0.24870047
48	0xbdf9c830	-0.12196386
49	0x3df18b43	0.1179414
50	0x3dca1805	0.098678626
51	0xbe191a9e	-0.1495156
52	0x3de2592b	0.11052164
53	0x3d0482d7	0.03235134
54	0xbe0b1de8	-0.13585627
55	0x3e1e576d	0.15463038
56	0x3e4daabc	0.20084661
57	0xbce1be8b	-0.027556678
58	0x3db80ef1	0.08987225
59	0x3e0729a9	0.13199486
60	0xbdbdc3b4	-0.09265843
61	0x3e02736d	0.12739344
62	0xbe455cf4	-0.1927374
63	0x3e3cf7a1	0.18453838
64	0x3c7327b7	0.014841012
65	0xbdd7962d	-0.10526691
66	0x39801fb7	0.00024437692
67	0x3e4ddc0e	0.20103475
68	0x3d882b0c	0.066488355
69	0xbd1fad0a	-0.038983382
70	0x3c5ee05a	0.013603294
71	0x3da6fd22	0.0815375
72	0xbbe583a6	-0.007004219
73	0x3d285155	0.04109319
74	0x3e06c1e9	0.13159908
75	0x3e9ce47b	0.30643067
76	0xbc8eeb94	-0.017446317
77	0xbbd72394	-0.0065655205
78	0xbd87771f	-0.066145174
79	0x3dac3c3a	0.08409925
80	0xbb690d24	-0.003556081
81	0x3c742006	0.014900213
82	0xbdde4b89	-0.10854251
83	0xbd8c6d47	-0.068567805
84	0x3d549a55	0.051904995
85	0x3e1b2996	0.15152583
86	0xba16ef3c	-0.00057576946
87	0x3c978d2e	0.018499937
88	0x3cfd1995	0.030895988
89	0x3d83dbd2	0.06438412
90	0x3cfbc29d	0.030732447
91	0x3c4e14c1	0.01257819
92	0xbd69a79c	-0.05704461
93	0x3d96acf4	0.07357207
94	0x3de4adfe	0.11165999
95	0xbe11e16f	-0.14246152
96	0xbdca33ee	-0.09873186
97	0x3d3db31e	0.046313398
98	0xbd943d6f	-0.0723828
99	0xbe17ff7b	-0.14843552
100	0xbd69d87b	-0.057091217
101	0x3c136fc3	0.008998814
102	0xbd180671	-0.037115518
103	0xbd18a4c1	-0.037266497
104	0xbdc471cf	-0.0959202
105	0x3bcc9a8f	0.0062440108
106	0x3d5f6ad1	0.054545227
107	0xbe390247	-0.18067275
108	0xbd307217	-0.043077555
109	0xb92d6660	-0.00016536703
110	0xbc0f0b55	-0.008730729
111	0xbda9de87	-0.08294397
112	0xbd8414b7	-0.064492635
113	0xbc47af26	-0.012187755
114	0x3ce36d91	0.027762206
115	0xbd4ed41f	-0.050495263
116	0xbdc382c4	-0.09546426
117	0x3dc4c6b9	0.09608216
118	0x3b348c41	0.0027549418
119	0xbc974981	-0.018467667
120	0x3cd72c60	0.026266277
121	0x3dc2e0c5	0.09515528
122	0xbb90cf90	-0.0044192746
123	0x3d9e5a8b	0.077321135
124	0x3d52fd47	0.051511075
125	0x3cad52d0	0.021157652
126	0x3d43a19b	0.04776154
127	0xbe207520	-0.1566968
128	0xbd8a82da	-0.06763239
129	0x3c2d5652	0.010579662
130	0x3d4bf2c0	0.04979205
131	0x3d0d82fc	0.034548745
132	0xbe0164de	-0.12636134
133	0x3d6b6c03	0.057476055
134	0xbdfe9120	-0.12430024
135	0xbc796f16	-0.015224239
136	0xbc224571	-0.009904251
137	0xbccefc93	-0.025266921
138	0xbdb82f9c	-0.08993456
139	0xbd9d6bd6	-0.07686584
140	0xbd7eea8f	-0.06223541
141	0x3db59bd4	0.088676125
142	0xbc643a0f	-0.013929858
143	0xbc9f9b52	-0.019483242
144	0x3b42ab6d	0.0029704229
145	0x3d0695ca	0.032857694
146	0x3cf35b9f	0.029706774
147	0x3d9a08fc	0.07521245
148	0x3d174355	0.036929447
149	0x3c9d12d1	0.019174011
150	0x3ced46be	0.028964397
151	0xbdd0c0b5	-0.10193006
152	0xbd86233e	-0.06549691
153	0x3d88c79d	0.06678698
154	0xbbe11bc7	-0.0068697664
155	0x3e210418	0.15724218
156	0x3df8ae75	0.1214265
157	0xbd876c41	-0.06612445
158	0xbd0814dc	-0.033223018
159	0x3d01feef	0.031737264
160	0xbd896ff8	-0.067108095
161	0x3d9e559c	0.077311724
162	0xbcf9a2d0	-0.030473143
163	0x3c6408fd	0.013918159
164	0x3bdaeac5	0.0066808187
165	0xbe29c88a	-0.16580406
166	0xbd49bdd4	-0.0492533
167	0x3dbc3787	0.091902785
168	0x3da46713	0.08027472
169	0xbb824362	-0.003975318
170	0xbd48e6a3	-0.049048077
171	0xbd3bb96a	-0.04583112
172	0xbd98ddc5	-0.07464174
173	0x3c7d7213	0.015469092
174	0x3df5ddad	0.12005172
175	0x3c29eae2	0.010370942
176	0x3d16d5c6	0.036824964
177	0xbd04ba43	-0.032404196
178	0xbd9809cf	-0.07423746
179	0x3d925783	0.07145598
180	0xbd89361a	-0.06699772
181	0xbd1fdd86	-0.03902962
182	0x3ce0f883	0.02746225
183	0x3db21358	0.08695096
184	0xbddc3611	-0.107525
185	0xbcf8ea1a	-0.030385066
186	0x3dc7cd19	0.09755916
187	0xbcc6eeb3	-0.024283743
188	0x3d1771bc	0.0369737
189	0x3d51b030	0.051193416
190	0x3cc8fdeb	0.02453514
191	0x3b2e45a1	0.0026591795
192	0x3b31d331	0.0027133937
193	0xbdfea72f	-0.124342315
194	0x3c9403d9	0.018068241
195	0x3cd88bce	0.026433852
196	0xbc9a83d2	-0.018861685
197	0xbd50d440	-0.050983667
198	0x3cac11e1	0.02100462
199	0xbda75c85	-0.081719436
200	0xbe0ea650	-0.1393063
201	0x3e466faf	0.19378541
202	0xbeda2f55	-0.42614236
203	0xbe68bcea	-0.22728315
204	0xbe811c75	-0.25217023
205	0x3ea1136e	0.31460136
206	0x3e837e6b	0.25682387
207	0xbe5b93f5	-0.2144316
208	0xbe062d20	-0.13103151
209	0xbd34066c	-0.043951437
210	0x3e6371fb	0.22211449
211	0xbe713a3c	-0.23557371
212	0x3df82dea	0.121181324
213	0xbe4e53d0	-0.2014916
214	0xbe310935	-0.17288668
215	0x3e7c99a4	0.24667984
216	0xbe26695e	-0.16251132
217	0x3e52ab9f	0.20573281
218	0x3e159d1d	0.14610715
219	0x3e86da9b	0.26338658
220	0xbde59461	-0.11209942
221	0x3e3ac680	0.18239784
222	0xbeadc15d	-0.33936587
223	0x3e65a619	0.22426642
224	0x3e8b626c	0.27223527
225	0xbe7ab53e	-0.24483201
226	0xbdc98faf	-0.098418586
227	0xbe2fae0a	-0.17156234
228	0xbecf4ae4	-0.40486825
229	0xbe61a6b9	-0.22036256
230	0xbe10f6d7	-0.14156662
231	0xbe91ce24	-0.28477585
232	0xbe69a250	-0.22815824
233	0x3e3b6f28	0.18304121
234	0xbef390c8	-0.47571397
235	0xbe81f194	-0.25379622
236	0x3dfafdc7	0.122554354
237	0x3e38e91f	0.18057679
238	0xbe4d13c4	-0.20027071
239	0x3e0801d6	0.1328195
240	0xbeb75485	-0.3580667
241	0x3e64d553	0.22347002
242	0xbdc74fa9	-0.09731991
243	0xbe314d05	-0.17314537
244	0x3d0565b4	0.032567695
245	0xbe328bdd	-0.17436166
246	0xbe71af71	-0.23602082
247	0xbcd8f5e5	-0.02648444
248	0xbe9059fd	-0.28193656
249	0x3e88cdc1	0.26719478
250	0x3e97e9c1	0.29670528
251	0xbe408a40	-0.18802738
252	0x3ea3337c	0.31875217
253	0x3d070635	0.032964904
254	0xbe4252d2	-0.18976906
255	0x3e7a40d2	0.2443879

onnx::LSTM_124 f4 [1, 800]
0	0x3d1d4dd0	0.038404286
1	0x3d949966	0.07255821
2	0x3dc9dc71	0.09856499
3	0x3dc411a1	0.09573675
4	0x3e055971	0.130224
5	0xbd1b144f	-0.037861165
6	0x3d853627	0.06504469
7	0xbd4a5282	-0.04939509
8	0x3dbb1a40	0.09135866
9	0xbd419274	-0.04725881
10	0x3ca3813f	0.01995909
11	0x3b74689d	0.00372938
12	0x3dab39b6	0.08360617
13	0x3dce4d3b	0.10073324
14	0xbd333ee6	-0.043761156
15	0x3d71e98c	0.05906062
16	0x3e43acf9	0.19108953
17	0x3df92b18	0.121664226
18	0x3d53c902	0.051705368
19	0x3d796eec	0.0608968
20	0x3d373e4e	0.044737153
21	0xbd8385ff	-0.06422042
22	0x3dc1e41e	0.09467338
23	0x3da10d86	0.078639075
24	0x3d31478c	0.043281123
25	0x3e08b9a3	0.13352065
26	0x3c2b6615	0.01046135
27	0x3e100f5e	0.14068362
28	0x3bb42455	0.005497495
29	0x3e018cc8	0.1265136
30	0x3e2d301e	0.16912887
31	0x3d880e34	0.06643334
32	0x3e0e0390	0.13868546
33	0xbd766310	-0.060153067
34	0x3ddb3ed6	0.107053444
35	0x3da65aa9	0.08122761
36	0xbb232217	-0.0024892145
37	0x3caf230c	0.021379016
38	0xbcffc15e	-0.031220134
39	0x3e1b411d	0.15161557
40	0x3e32ff53	0.17480211
41	0x3dff3c47	0.12462669
42	0x3d939f32	0.072080985
43	0x3d6d9465	0.05800285
44	0x3e3ff6a4	0.1874643
45	0x3de20b96	0.11037366
46	0xbd8e3617	-0.069439106
47	0x3ce61d67	0.028090192
48	0x3d32c82a	0.043647923
49	0x3cf077cc	0.029353999
50	0xbd0a5885	-0.033775825
51	0xbcac5056	-0.0210344
52	0x3c73e7a5	0.014886771
53	0xbb86b591	-0.004111
54	0x3d135383	0.035968315
55	0x3d1e893e	0.038705103
56	0x3e290e01	0.16509248
57	0x3daa2719	0.083082385
58	0x3d4170d9	0.04722676
59	0x3db85a09	0.09001548
60	0x3d228204	0.039674774
61	0x3cfbc645	0.03073419
62	0x3c19dd0d	0.0093910815
63	0x3e0a2f3d	0.13494582
64	0x3e018ea5	0.12652071
65	0x3dd15554	0.10221353
66	0xbcf305ae	-0.029665794
67	0xbcce7fef	-0.025207488
68	0xbce59398	-0.02802448
69	0x3df97e67	0.121823125
70	0x3da406bb	0.08009096
71	0x3ca23120	0.019798815
72	0x3deec03b	0.11657759
73	0xbd5acf0a	-0.053420104
74	0xbcef91ba	-0.029244293
75	0xbd07d719	-0.033164117
76	0x3dd4a008	0.10382086
77	0x3d887ddc	0.06664631
78	0xbd3c15b2	-0.045919128
79	0xbcc5e319	-0.02415614
80	0x3ba17b30	0.004928015
81	0x3def05e6	0.11671047
82	0x3dc7af2a	0.09750207
83	0x3de88586	0.113535926
84	0x3e1f3051	0.15545775
85	0x3d21a8d5	0.03946765
86	0x3e0ce915	0.13760789
87	0x3dc01acb	0.0938011
88	0x3d24a271	0.04019398
89	0x3da27da8	0.07934123
90	0x3cc9d76c	0.024638854
91	0x3e05d9be	0.13071343
92	0xbd36c298	-0.044619173
93	0x3dfd1a5d	0.12358544
94	0xbca65602	-0.020304684
95	0xbb40ccd1	-0.0029418955
96	0x3da749fc	0.08168408
97	0x3de2a390	0.11066353
98	0xbd4a2f47	-0.049361493
99	0x3d248dfc	0.04017447
100	0x3d090324	0.03345026
101	0x3a8df91f	0.001083169
102	0x3e6de69d	0.23232503
103	0x3dd33f07	0.10314756
104	0x3d6639ba	0.056207396
105	0x3d8600c6	0.06543116
106	0xbd50a337	-0.050936904
107	0x3d8bcfbb	0.06826731
108	0x3d90996e	0.070605144
109	0xbd0be93c	-0.034157977
110	0xbd901b4c	-0.070364565
111	0x3e099ae3	0.13437991
112	0xbc6aef42	-0.01433927
113	0xbd2f972b	-0.042868774
114	0x3d2d0a5f	0.04224622
115	0x3ddf21c1	0.1089511
116	0x3d59a398	0.05313453
117	0x3e0ca8ad	0.1373622
118	0x3d61c53e	0.055119745
119	0x3d8590b4	0.065217406
120	0x3b326192	0.00272188
121	0x3dd1b390	0.10239327
122	0xbca24224	-0.019806929
123	0x3db079ae	0.086169586
124	0x3e1b58b0	0.1517055
125	0xbc3a9cc7	-0.011389918
126	0xbcab4b5d	-0.02090996
127	0x3e8da719	0.27666548
128	0x3d499223	0.049211632
129	0x3e02bfba	0.1276845
130	0x3e4271d7	0.18988739
131	0xbd56ec86	-0.05247166
132	0xbd4fefc7	-0.05076578
133	0x3db72e77	0.08944409
134	0x3da5b812	0.08091749
135	0x3cf4dc5f	0.029890237
136	0x3d73e601	0.05954552
137	0x3db33711	0.087507375
138	0xbd05cda3	-0.032666814
139	0x3e314c2b	0.17314212
140	0x3dc1a199	0.094546504
141	0x3dda42e8	0.106572926
142	0x3d94e206	0.07269673
143	0x3d7ccb6d	0.06171744
144	0x3ded9911	0.11601461
145	0x3d2f9db3	0.042875003
146	0xbdc6f842	-0.0971532
147	0x3e2712f9	0.16315831
148	0xbcc5584e	-0.024089959
149	0x3d884856	0.06654422
150	0xbd3fd840	-0.04683709
151	0x3de29435	0.110634245
152	0x3d45adc1	0.048261408
153	0x3d5506ad	0.05200832
154	0xbd2cb2bd	-0.042162646
155	0x3a5e6e71	0.0008485085
156	0xbbbe91be	-0.0058157137
157	0x3cc6f3cd	0.024286175
158	0x3dc8732a	0.09787591
159	0xbb3e5384	-0.0029041478
160	0x3dccb69f	0.0999577
161	0x3e08c290	0.1335547
162	0x3d19e437	0.03757116
163	0x3c53b8f1	0.012922511
164	0x3d9c5025	0.07632474
165	0xbd321ce8	-0.0434846
166	0xbd65fb1e	-0.056147687
167	0x3c5e63bc	0.013573583
168	0x3da9f7c3	0.0829921
169	0xbd1a9f83	-0.03774978
170	0x3d859226	0.06522016
171	0xbc7a4f74	-0.015277732
172	0x3d958066	0.07299881
173	0xbd873161	-0.06601215
174	0x3dd4b2e0	0.1038568
175	0xbcc1250f	-0.023577241
176	0xbd29b7db	-0.041435104
177	0x3e758c8f	0.239794
178	0x3d563137	0.05229303
179	0x3dfc9957	0.12333935
180	0x3c0a5c02	0.008444788
181	0x3d9498ea	0.072557285
182	0x3d4b0000	0.049560547
183	0xbd386290	-0.04501587
184	0x3e0112f7	0.12604891
185	0x3dd8b75f	0.1058185
186	0x3d6f41d3	0.058412384
187	0xbd7dfa6c	-0.0620064
188	0x3ddf3c03	0.10900118
189	0x3d80fd37	0.06298297
190	0x3d24198b	0.040063422
191	0xbc89412f	-0.016754715
192	0x3cf13730	0.02944526
193	0x3e256e9e	0.16155478
194	0xbbcd94ce	-0.0062738424
195	0x3db4d4f4	0.0882968
196	0xbd667c81	-0.05627108
197	0x3dd8c179	0.10583777
198	0x3da52ed3	0.08065572
199	0x3d4c99a8	0.049951226
200	0x3ccedf5d	0.025252992
201	0x3d9bb52c	0.07602915
202	0xbcf42873	-0.029804444
203	0xbc037ce1	-0.008025379
204	0x3da06427	0.078316025
205	0x3ad03fa6	0.0015888109
206	0x3dae2855	0.085037865
207	0xbdb57354	-0.08859888
208	0x3d18b4f9	0.037281964
209	0xbd830ffd	-0.06399534
210	0xbda3d581	-0.07999707
211	0x3d70b926	0.05877032
212	0xbc9e3791	-0.019313606
213	0xbda07555	-0.07834879
214	0xbd933bd6	-0.07189147
215	0x3d79327b	0.060839158
216	0x3d225c8e	0.03963905
217	0x3cfdc7d0	0.030979067
218	0x3ddd152d	0.107950546
219	0xbdd1b6b6	-0.102399275
220	0x3d0f25ed	0.03494828
221	0x3d6e2d09	0.058148418
222	0xbca90196	-0.020630639
223	0x3d20ca8e	0.03925567
224	0x3c141cbf	0.009040057
225	0x3d943b64	0.0723789
226	0xbb99d217	-0.004694234
227	0x3d146002	0.036224373
228	0x3d0a9512	0.03383357
229	0xbd9c498c	-0.076312155
230	0x3d5192b7	0.05116531
231	0x3d6c3872	0.057671018
232	0x3de32d78	0.11092657
233	0x3dd796c6	0.105268046
234	0x3de5dfc4	0.112243205
235	0x3d2c189e	0.042015664
236	0xbcc23a10	-0.023709327
237	0x3d8d23d0	0.06891596
238	0x3c5741c0	0.013138235
239	0xbdcd4d7d	-0.10024545
240	0x3e30a9fe	0.17252347
241	0xbd0d1294	-0.034441546
242	0x3dd8d2aa	0.10587056
243	0xbd802c92	-0.06258501
244	0xbd3d4d26	-0.046216153
245	0x3d2ad099	0.04170284
246	0xbda1f86d	-0.079087116
247	0x3dddfdbe	0.10839413
248	0x3c92b665	0.017909238
249	0x3e08e73f	0.13369463
250	0x3da04f52	0.07827629
251	0xbd2bb5a0	-0.041921258
252	0x3dc0069c	0.09376261
253	0x3be6af66	0.007039952
254	0x3ca959bd	0.020672673
255	0xbd8cd7e8	-0.06877118
