New_project/modelo_simples8.onnx (onnx, 183092 bytes, 5 tensors)

output_layer.weight f4 [14, 100]
-0.3047481 0.24054977 -0.54546666 0.21610303 -0.17133565 0.4418875 -0.09990298 0.100022435
-0.107280634 0.13695838 -0.09081843 0.1047129 0.38853738 -0.27408078 0.1762753 -0.47472465
0.21470028 -0.016327923 0.22243996 0.18294072 -0.13529718 0.065308355 -0.19358712 0.17132501
-0.046771877 -0.16725004 0.030249458 0.1345832 0.40248874 0.2967015 -0.042513072 -0.21652417
0.17571825 -0.1754959 -0.38328534 0.2954804 -0.18643312 -0.29059365 -0.36959496 0.0857464
-0.37440273 0.11730522 0.012170152 0.026395189 0.12545662 -0.27025688 -0.030718738 -0.07246416
-0.088077635 -0.20520939 -0.064545944 0.17939402 0.34426257 0.11643805 0.1712357 0.17836697
-0.2385042 0.077919565 -0.2899903 -0.10202444 0.023655027 -0.13556886 0.20613591 0.16450559
-0.07654798 0.24741146 0.092257366 -0.16885892 0.38324398 -0.18820982 0.13441192 0.09966809
0.18538533 0.0077911555 -0.17375953 -0.06657971 0.21431752 0.48797756 -0.25202942 0.02484009
-0.15918687 -0.24003753 0.22177617 0.008692243 0.49971676 0.33972523 -0.065513864 -0.035010472
0.2770874 0.014929323 0.21881609 0.45912772 0.14107041 -0.16012418 -0.43144867 0.35662654
0.10028111 0.6707629 -0.3178402 0.072303325 0.025784297 0.0033707565 0.112521455 -0.050614625
0.006493902 0.10023352 -0.00035591237 -0.1527029 -0.10654052 0.071640514 -0.17348838 0.069198556
-0.068027474 -0.023342317 0.17177704 -0.06641999 0.022696832 0.07677796 0.029726632 0.21828239
-0.04099156 -0.10328428 0.02876037 -0.07389175 -0.060483966 -0.06505215 0.06170181 0.015342771
0.09960092 0.09742963 -0.20075615 -0.054281175 -0.07497688 -0.0012934682 -0.14008586 0.085864395
0.08929279 -0.0017112569 0.20035937 -0.26386067 0.076499574 0.06915048 0.10026945 -0.10094725
-0.12900472 0.0886338 0.11985691 -0.06377212 -0.19105996 0.00016104567 -0.13053177 -0.092588246
0.0934903 -0.1227836 0.11990168 -0.23080786 0.13717698 0.043338746 -0.03719199 -0.12026374
-0.17553033 -0.116950326 -0.043539926 0.02173351 -0.0779884 0.08638576 0.14238217 -0.14466071
-0.16354047 -0.1268568 -0.030735627 0.13195986 0.09166383 0.045586944 0.08387385 -0.11689313
0.07241118 0.1223867 -0.0828508 -0.07121708 0.06830094 -0.090741225 -0.12758574 -0.10293113
0.0057016066 0.14528653 -0.093471214 0.11847895 0.11126795 0.13301904 0.11830409 -0.15635042
0.089932136 -0.22156003 0.09835021 -0.12130226 0.115998276 0.016965166 -0.0070925364 -0.1543445
-0.74207354 0.35704553 -0.013235597 0.4220858 0.1394963 -0.95798486 -0.034943637 0.13996373
0.030434154 -0.046420757 0.08427577 -0.17567942 0.414414 0.522988 -0.1838286 -0.116551526
0.37379876 -0.18890661 -0.0038460484 0.22626357 0.15594658 0.07991087 -0.21180765 0.27894542
0.115086235 0.2578038 -0.15985428 -0.20475236 0.02336963 -0.2457082 -0.36904654 0.27787903
-0.05720643 -0.6223386 0.0023211895 -0.26004574 0.3378191 0.2866766 0.31768745 -0.2613423
-0.6446671 -0.13783674 -0.13013062 0.3525921 0.062628254 -0.20289636 -0.02121579 0.32798433
-0.39050883 -0.4214812 -0.16534352 -0.070492014 0.5065419 0.07769289 0.38673556 0.108773924
00000000: f107 9cbe ae52 763e b4a3 0bbf 1d4a 5d3e
00000010: 9d72 2fbe 143f e23e ef99 ccbd 90d8 cc3d
00000020: f3b5 dbbd d13e 0c3e 03ff b9bd b873 d63d
00000030: 5fee c63e 5154 8cbe 8381 343e 1c0f f3be
00000040: 64da 5b3e 23c2 85bc 4dc7 633e d054 3b3e
00000050: 588b 0abe 63c0 853d b43b 46be d36f 2f3e
00000060: de93 3fbd 9843 2bbe b6cd f73c 2ed0 093e
00000070: 0113 ce3e 42e9 973e 3022 2ebd 83b8 5dbe
00000080: 7cef 333e 32b5 33be fa3d c4be 3549 973e
00000090: 53e8 3ebe b1c8 94be 8d3b bdbe cf9b af3d
000000a0: b7b1 bfbe b83d f03d 5165 473c b93a d83c
000000b0: b377 003e 1c5f 8abe dda5 fbbc 1768 94bd
000000c0: 0c62 b4bd 6922 52be aa30 84bd 11b3 373e
000000d0: 2f43 b03e 1377 ee3d 6958 2f3e d5a5 363e
000000e0: 723a 74be 4b94 9f3d 9c79 94be 31f2 d0bd
000000f0: 30c8 c13c 90d2 0abe 4b15 533e 2774 283e
00000100: 30c5 9cbd 6e59 7d3e 6ef1 bc3d 5ae9 2cbe
00000110: 8e38 c43e 13ba 40be 47a3 093e c91e cc3d
00000120: a7d5 3d3e f34c ff3b 05ee 31be f15a 88bd
00000130: 0d76 5b3e 32d8 f93e 000a 81be 727d cb3c
00000140: e201 23be 66cc 75be 4b19 633e e969 0e3c
00000150: e0da ff3e 77f0 ad3e 222c 86bd 2467 0fbd
00000160: 66de 8d3e 1f9a 743c 5311 603e ca12 eb3e
00000170: c374 103e 98f7 23be d7e6 dcbe c197 b63e
00000180: 2f60 cd3d 1eb7 2b3f f3bb a2be c413 943d
00000190: 9739 d33c e9e7 5c3b a671 e63d 4851 4fbd
000001a0: ccca d43b 3b47 cd3d c099 bab9 265e 1cbe
000001b0: eb31 dabd 43b8 923d f0a6 31be f9b7 8d3d
000001c0: fd51 8bbd 6338 bfbc 52e6 2f3e 3407 88bd
000001d0: b5ee b93c c33d 9d3d 4485 f33c 6b85 5f3e
000001e0: c4e6 27bd b586 d3bd de9a eb3c 8f54 97bd
000001f0: 09be 77bd 103a 85bd 0abb 7c3d 3f60 7b3c
00000200: 91fb cb3d 3089 c73d 0593 4dbe f055 5ebd
00000210: 7a8d 99bd 9789 a9ba ab72 0fbe acd9 af3d
00000220: 23df b63d 414c e0ba 022b 4d3e bf18 87be
00000230: cfab 9c3d c49e 8d3d 125a cd3d 6fbd cebd
00000240: d019 04be a385 b53d 8a77 f53d f59a 82bd
00000250: 39a5 43be 5ede 2839 1faa 05be e89e bdbd
00000260: d877 bf3d f875 fbbd 038f f53d e558 6cbe
00000270: 1f78 0c3e f883 313d a156 18bd d64c f6bd
00000280: 39be 33be a783 efbd ec56 32bd 790a b23c
00000290: 62b8 9fbd 04eb b03d a2cc 113e f021 14be
000002a0: 2777 27be c0e6 01be 48c9 fbbc 7c20 073e
000002b0: 3fba bb3d 60b9 3a3d 0ec6 ab3d aa65 efbd
000002c0: 504c 943d e1a5 fa3d aead a9bd 43da 91bd
000002d0: 5de1 8b3d 89d6 b9bd d6a5 02be 8ecd d2bd
000002e0: 8bd4 ba3b fec5 143e d66d bfbd 17a5 f23d
000002f0: 73e0 e33d 2536 083e 6a49 f23d 531a 20be
00000300: 572e b83d a2e0 62be d66b c93d 526d f8bd
00000310: 8190 ed3d 88fa 8a3c 8268 e8bb 7c0c 1ebe
00000320: 88f8 3dbf acce b63e 1eda 58bc a11b d83e
00000330: 1ed8 0e3e 7f3e 75bf 0f21 0fbd a752 0f3e
00000340: 0c51 f93c b123 3ebd c698 ac3d 4ee5 33be
00000350: 122e d43e 8be2 053f 913d 3cbe 91b2 eebd
00000360: 8d62 bf3e bc70 41be fc0d 7cbb a3b1 673e
00000370: 76b0 1f3e 4fa8 a33d 1be4 58be efd1 8e3e
00000380: 55b2 eb3d dcfe 833e d7b0 23be 9aaa 51be
00000390: ab71 bf3c ee9a 7bbe abf3 bcbe 2946 8e3e
000003a0: 4a51 6abd 9551 1fbf 191f 183b b724 85be
000003b0: a0f6 ac3e 46c7 923e eea7 a23e a8ce 85be
000003c0: e708 25bf 1325 0dbe f640 05be f486 b43e
000003d0: 3e43 803d 10c4 4fbe bdcc adbc 90ed a73e
000003e0: c6f0 c7be 62cc d7be d04f 29be 1e5e 90bd
000003f0: bbac 013f 731d 9f3d 3402 c63e ddc4 de3d

output_layer.bias f4 [14]
0.21139935 -0.027312214 0.01963653 -0.20309608 -0.2051282 -0.009669036 0.042634174 -0.021474756
0.07132787 -0.09496422 0.023316236 -0.06301743 0.03252871 0.05793332
00000000: 1279 583e ddbd dfbc cadc a03c 6bf8 4fbe
00000010: 200d 52be e06a 1ebc 2ca1 2e3d d4eb afbc
00000020: 5914 923d 9a7c c2bd b101 bf3c 480f 81bd
00000030: d33c 053d 7d4b 6d3d

onnx::LSTM_122 f4 [1, 400, 7]
0.22047468 -0.1957184 -0.042943813 0.017740525 0.08149238 0.17656218 0.09888017 -0.31954253
0.08564933 0.10901748 0.108254395 -0.10078866 0.1549609 -0.07713879 -0.091667436 -0.1990397
0.116902195 0.040254366 -0.05793425 -0.18082832 -0.10122525 0.14068814 -0.03856042 -0.024621706
-0.15399554 0.016148673 0.09237464 -0.045911044 -0.07581294 0.03100598 0.06522678 0.040661015
0.02324344 0.058829978 -0.02468558 -0.22543578 0.19421315 0.15446107 -0.07993114 -0.125217
-0.28070477 -0.19957699 -0.11801341 0.04135091 0.11966873 0.23093261 0.050165296 0.087252386
0.0012845871 -0.23552586 -0.1294499 -0.009725777 0.092937596 -0.061572693 0.048577826 -0.11418525
0.11973953 0.17365372 -0.04984953 0.057767235 -0.009317891 -0.031481285 0.16306391 -0.04582671
0.11532651 0.17523798 0.026454104 0.04720061 -0.11682128 -0.0069831028 -0.10366312 0.0675406
0.0357922 0.037676215 0.06342462 -0.14884202 0.07464792 0.12563047 0.038483668 0.03693427
0.020945156 0.14500238 -0.041363724 0.16031803 -0.1448052 -0.13680257 0.17140038 -0.053375535
-0.04400107 -0.16653113 -0.09429328 0.22216614 0.15576686 0.010507631 -0.038340323 0.11434705
-0.08307861 0.02831895 0.09043451 0.28171352 0.042662304 -0.041294307 -0.029514924 -0.040526304
0.086842775 -0.3839309 -0.086144656 0.14091487 0.03930159 0.0075745047 0.087561205 -0.048505455
-0.13604943 0.034715984 -0.07833121 0.029563343 -0.00030124292 0.08451889 -0.030041914 -0.15397766
0.045417167 0.08977611 -0.0732864 -0.061842576 0.013563589 0.0065401387 0.04446653 -0.083728865
-0.007841296 0.038678117 0.06505348 0.081246585 -0.05050402 -0.5286229 -0.3739472 0.12693407
0.030388938 -0.05417871 0.15750022 -0.11511061 0.041320417 0.10145375 0.035702832 0.08977331
-0.017995633 0.06615061 -0.06930692 -0.096129894 -0.07681325 0.0014564524 0.071501456 0.023566527
0.06846955 -0.078017935 -0.12933078 0.111989126 0.08773359 0.023458224 0.05832946 0.17218556
-0.0047087446 0.083319835 -0.0034931395 -0.08824109 -0.07309069 0.023115614 0.078387834 -0.045025
0.07142675 0.06575046 0.09123927 -0.03959603 -0.03586598 -0.054686815 -0.02004055 -0.03314781
0.051266808 0.003313905 -0.043901127 0.040777527 -0.08104131 -0.05319675 0.23604329 0.14910665
-0.024436966 0.021951782 0.10060642 0.038373083 0.16412334 0.030926034 -0.024290789 0.0948144
0.106288135 -0.003649504 0.0753303 0.0038031212 -0.122648306 -0.3038704 0.031781297 0.0018354232
-0.04332802 0.085105725 -0.14124112 0.10694793 0.16595098 -0.022285493 -0.08599612 0.09456583
-0.19419268 0.11050081 -0.21320462 -0.10022858 0.094107404 -0.06948493 0.023022696 -0.1323849
0.04169242 0.008223428 0.08208603 0.020814741 -0.12821755 -0.13721982 -0.04465667 -0.10769824
0.13531552 0.14679238 0.12217411 0.12516272 0.06540753 -0.08629504 0.05048852 -0.14042832
-0.13902675 -0.052794445 -0.20944406 -0.23403932 0.23977654 -0.16647187 -0.07200201 -0.056933142
0.043076605 -0.09498712 -0.077156655 0.02281819 -0.104244165 -0.59939504 -0.11988513 -0.011946135
0.05264664 -0.1272553 0.05453438 -0.1392845 0.00597737 0.21082585 -0.015477948 0.06768874
00000000: 1dc4 613e 676a 48be dae5 2fbd 9454 913c
00000010: 7ae5 a63d b7cc 343e b081 ca3d 149b a3be
00000020: ea68 af3d 8e44 df3d 7bb4 dd3d 496a cebd
00000030: 12ae 1e3e f1fa 9dbd 23bc bbbd 10d1 4bbe
00000040: 6b6a ef3d c3e1 243d 774c 6dbd 0f2b 39be
00000050: 2f4f cfbd 8d10 103e 88f1 1dbd 76b3 c9bc
00000060: 02b1 1dbe 394a 843c ea2e bd3d 380d 3cbd
00000070: d143 9bbd 4100 fe3c 9e95 853d 2a8c 263d
00000080: 0769 be3c b4f7 703d 6a39 cabc a3d8 66be
00000090: d0df 463e 0b2b 1e3e f0b2 a3bd e338 00be
000000a0: 89b8 8fbe e95d 4cbe 04b1 f1bd 925f 293d
000000b0: e114 f53d 9979 6c3e 207a 4d3d 61b1 b23d
000000c0: 975f a83a b12d 71be 848e 04be de58 1fbc
000000d0: 1156 be3d a633 7cbd 8bf9 463d f5d9 e9bd
000000e0: 003a f53d 48d2 313e 052f 4cbd 569d 6c3d
000000f0: 11aa 18bc 85f2 00bd 3afa 263e cab4 3bbd
00000100: 4e30 ec3d 9671 333e 47b6 d83c 6d55 413d
00000110: ff3f efbd 83d2 e4bb 544d d4bd ba52 8a3d
00000120: d89a 123d 6052 1a3d c4e4 813d 0b6a 18be
00000130: 02e1 983d 46a5 003e 0da1 1d3d 6448 173d
00000140: 2d95 ab3c 817b 143e 026d 29bd 692a 243e
00000150: d047 14be f915 0cbe 9583 2f3e 4ea0 5abd
00000160: 773a 34bd 2387 2abe d61c c1bd 857f 633e
00000170: 5981 1f3e 3328 2c3c be0a 1dbd c92e ea3d
00000180: 1e25 aabd 25fd e73c ba35 b93d c13c 903e
00000190: abbe 2e3d 3824 29bd 48c9 f1bc e9fe 25bd
000001a0: a0da b13d 9792 c4be 9c6c b0bd fd4b 103e
000001b0: b4fa 203d 8d33 f83b 4a53 b33d a8ad 46bd
000001c0: 8b50 0bbe 5932 0e3d 1d6c a0bd d32e f23c
000001d0: 24f0 9db9 3d18 ad3d 761a f6bc 52ac 1dbe
000001e0: 5a07 3a3d 8adc b73d 2e17 96bd a44e 7dbd
000001f0: d139 5e3c a94e d63b 8922 363d 0a7a abbd
00000200: c778 00bc f26c 1e3d c23a 853d 9c64 a63d
00000210: 4edd 4ebd d553 07bf 0276 bfbe 01fb 013e
00000220: 39f2 f83c 7fea 5dbd bd47 213e 1dbf ebbd
00000230: 993f 293d fcc6 cf3d 223d 123d 12db b73d
00000240: 946b 93bc f979 873d c9f0 8dbd c0df c4bd
00000250: 4450 9dbd 6fe6 be3a 5b6f 923d 970e c13c
00000260: c339 8c3d dec7 9fbd 4a6f 04be 8e5a e53d
00000270: abad b33d 762b c03c dfea 6e3d 6951 303e
00000280: d04b 9abb 97a3 aa3d 28ed 64bb bfb7 b4bd
00000290: 92b0 95bd f55c bd3c cd89 a03d 226c 38bd
000002a0: 3048 923d 2da8 863d a8db ba3d 722f 22bd
000002b0: 35e8 12bd 48ff 5fbd 142c a4bc ffc5 07bd
000002c0: 25fd 513d 1a2e 593b abd1 33bd 5606 273d
000002d0: fdf8 a5bd d6e4 59bd 55b5 713e 6aaf 183e
000002e0: 0830 c8bc 39d4 b33c bd0a ce3d 182d 1d3d
000002f0: f30f 283e 9858 fd3c 7afd c6bc 0d2e c23d
00000300: 98ad d93d 842c 6fbb c646 9a3d c93d 793b
00000310: 092f fbbd e794 9bbe 1b2d 023d 9592 f03a
00000320: b978 31bd e94b ae3d 83a1 10be 8407 db3d
00000330: 0eef 293e 1190 b6bc bc1e b0bd bbab c13d
00000340: 72da 46be 404e e23d 5052 5abe a444 cdbd
00000350: 62bb c03d 1d4e 8ebd 189a bc3c e88f 07be
00000360: acc5 2a3d 8fbb 063c b81c a83d ad83 aa3c
00000370: 764b 03be 5a83 0cbe eae9 36bd e590 dcbd
00000380: 2790 0a3e be50 163e 6b36 fa3d a82a 003e
00000390: 62f4 853d 74bb b0bd 0dcd 4e3d 71cc 0fbe
000003a0: 075d 0ebe fd3e 58bd 8178 56be 01a8 6fbe
000003b0: fb87 753e 9a77 2abe ca75 93bd ba32 69bd
000003c0: 1871 303d 9b88 c2bd 4f04 9ebd 36ed ba3c
000003d0: f77d d5bd f471 19bf 5686 f5bd b9b9 43bc
000003e0: 01a4 573d 374f 02be 715f 5f3d 99a0 0ebe
000003f0: d0dd c33b bbe2 573e 3897 7dbc 65a0 8a3d

onnx::LSTM_123 f4 [1, 400, 100]
-0.5565715 0.2648971 -0.30244955 0.18389863 0.057098117 0.18996835 -0.18056265 0.15298347
0.2081484 0.0063710655 0.037232663 -0.10522735 0.09849641 0.3093636 -0.2420799 0.08547907
0.1510631 -0.14388368 -0.14303124 -0.20069465 0.30685958 0.14338402 -0.4244905 0.36102176
0.1284399 0.22022907 0.0016402353 -0.20891583 0.07212272 -0.112128064 -0.09964351 0.006923059
0.23498331 0.059236854 0.09707188 -0.19227895 -0.054302767 0.019915802 -0.38594717 0.12958816
-0.62766266 0.0196849 -0.25353137 0.17112681 -0.012466019 -0.07398146 -0.21281214 -0.014609276
0.33323294 -0.24603772 0.1143725 0.11873521 -0.20036471 0.0868088 -0.10419633 0.16515252
-0.15804453 -0.20946108 0.055080272 -0.0010674321 0.31143135 -0.026338063 0.26588985 -0.27759913
0.36666012 -0.14850728 -0.18977022 0.14655042 -0.10826512 0.048988115 0.042087838 -0.14424337
-0.21571763 -0.028643513 -0.18990105 0.22022767 -0.02688288 -0.25444186 0.14258444 0.043840863
-0.16969475 0.07147999 0.1893926 0.22701856 0.35747042 0.050063327 0.05348488 -0.039925374
-0.08855607 -0.11145223 -0.32515252 0.2326447 -0.13058846 -0.07531062 0.09501592 0.38592273
-0.22569618 0.13755447 -0.32026297 0.20783365 0.20285101 -0.049498025 -0.035573438 0.0011082296
0.09149952 -0.14128149 0.0106256185 -0.00714279 -0.022691855 -0.030367231 -0.08236172 -0.09542036
-0.20080733 -0.14892252 -0.16264166 0.13998173 -0.076637454 -0.018482175 -0.13298324 -0.047005292
-0.03853788 0.021437583 0.024054484 -0.10457547 -0.08937199 0.09718162 0.33546457 -0.016062938
-0.09085832 0.00040928926 0.17715968 0.011126528 -0.11859298 0.019074915 0.00738385 -0.07250979
-0.07142562 0.09636057 0.45342645 0.049523868 0.10792032 0.0560013 -0.067457736 0.051995628
-0.008122716 0.006005832 -0.03178366 0.093548544 -0.017505541 -0.10218038 -0.1281279 -0.09713611
-0.037738696 -0.07822275 0.0073316926 -0.094512664 -0.032695502 -0.043468963 -0.049433414 0.02501885
0.0003356929 0.079911195 -0.047261596 -0.35051593 0.03392182 -0.053652372 0.14416985 0.038650747
0.051547244 0.031285953 -0.0004889662 -0.12590721 0.121154755 -0.11008689 -0.06257639 -0.08706493
0.011583308 -0.25077882 0.0032675937 -0.0005770924 0.04286859 0.0069612656 0.0721696 -0.09766242
-0.37853196 -0.04069314 0.13995814 -0.07739093 0.0110643795 -0.10530799 -0.036094606 -0.031461343
-0.02702139 0.07997505 -0.013377407 0.06033375 -0.14666449 -0.39548004 0.0870063 -0.021017276
0.23511629 -0.101087175 0.10966265 -0.18301097 0.097004384 -0.0035313456 0.05205471 0.026055563
-0.34098542 0.19467287 -0.06168848 0.2648127 0.08864273 -0.08643765 0.2790657 0.27564377
0.054558065 0.0925234 0.14172006 -0.16270402 0.049823437 -0.031733364 0.08383813 -0.09623693
-0.15822585 -0.10869265 0.045727767 0.0382829 -0.48890707 0.041608024 -0.03819286 -0.18003191
-0.3711905 -0.048741642 0.26581416 -0.1391658 0.30523372 -0.036452018 0.4164057 0.09390458
-0.0051519326 -0.22363746 -0.10951429 -0.20686273 0.0818931 -0.09742077 0.2513745 0.014840997
-0.10293925 0.3244515 -0.23436114 -0.2432436 0.070098266 -0.07324218 0.26479873 -0.06848871
00000000: 787b 0ebf 98a0 873e abda 9abe ec4f 3c3e
00000010: b7df 693d 1087 423e 6ae5 38be b3a7 1c3e
00000020: db24 553e 5fc4 d03b 4781 183d 7081 d7bd
00000030: 7cb8 c93d e864 9e3e cbe3 77be a70f af3d
00000040: 49b0 1a3e 3e56 13be c876 12be e682 4dbe
00000050: b31c 9d3e 43d3 123e d256 d9be d8d7 b83e
00000060: c085 033e bb83 613e 2afd d63a 08ee 55be
00000070: 14b5 933d 66a3 e5bd e611 ccbd d4da e23b
00000080: 779f 703e 58a2 723d 9fcd c63d c6e4 44be
00000090: 946c 5ebd 7726 a33c de9a c5be c2b2 043e
000000a0: 80ae 20bf 3a42 a13c ddce 81be de3b 2f3e
000000b0: 463e 4cbc 9783 97bd 6deb 59be bf5b 6fbc
000000c0: 829d aa3e 50f1 7bbe 213c ea3d 722b f33d
000000d0: 682c 4dbe d0c8 b13d e364 d5bd be1d 293e
000000e0: 6dd6 21be f77c 56be da9b 613d 14e9 8bba
000000f0: ee73 9f3e ecc2 d7bc b722 883e 7921 8ebe
00000100: e0ba bb3e 4b12 18be 2053 42be 5011 163e
00000110: 1aba ddbd c3a7 483d 4c64 2c3d 89b4 13be
00000120: 15e5 5cbe cda5 eabc 6c75 42be 5d83 613e
00000130: 7c39 dcbc 3446 82be a801 123e 7a92 333d
00000140: 76c4 2dbe 1a64 923d 22f0 413e 8e77 683e
00000150: 5d06 b73e 340f 4d3d f612 5b3d ca88 23bd
00000160: e35c b5bd 1141 e4bd 647a a6be 6a3a 6e3e
00000170: fbb8 05be 743c 9abd b597 c23d aa97 c53e
00000180: e61c 67be 14db 0c3e 82f9 a3be 58d2 543e
00000190: 2db8 4f3e 71be 4abd 74b5 11bd 0442 913a
000001a0: 1a64 bb3d 18ac 10be 1317 2e3c 110e eabb
000001b0: 45e4 b9bc b3c4 f8bc 43ad a8bd c06b c3bd
000001c0: 70a0 4dbe 257f 18be 898b 26be 5f57 0f3e
000001d0: 19f4 9cbd ee67 97bc c22c 08be 9f88 40bd
000001e0: e5d9 1dbd df9d af3c e90d c53c aa2b d6bd
000001f0: a908 b7bd 2807 c73d 03c2 ab3e 6c96 83bc
00000200: ed13 babd e095 d639 5969 353e 0a4c 363c
00000210: e0e0 f2bd ff42 9c3c 39f4 f13b 0380 94bd
00000220: 9847 92bd b158 c53d 8327 e83e 8ad9 4a3d
00000230: 5405 dd3d 9f61 653d 4827 8abd 5ef9 543d
00000240: 2415 05bc 92cc c43b 952f 02bd 6196 bf3d
00000250: c867 8fbc f243 d1bd f633 03be 4cef c6bd
00000260: e493 1abd 4033 a0bd b23e f03b db8f c1bd
00000270: b8eb 05bd 830c 32bd b17a 4abd 55f4 cc3c
00000280: f0ff af39 7ba8 a33d 6095 41bd d376 b3be
00000290: 9bf1 0a3d 97c2 5bbd 43a1 133e 3f50 1e3d
000002a0: 3423 533d b325 003d f72d 00ba d2ed 00be
000002b0: fc1f f83d 3c75 e1bd 0d28 80bd 194f b2bd
000002c0: eac7 3d3c 1566 80be 2025 563b 0448 17ba
000002d0: fa96 2f3d 541b e43b a8cd 933d 3c03 c8bd
000002e0: f1ce c1be daad 26bd 3051 0f3e 237f 9ebd
000002f0: 5f47 353c b7ab d7bd f0d7 13bd 9cdd 00bd
00000300: f65b ddbc f6c9 a33d e92c 5bbc 8620 773d
00000310: 372f 16be 5c7c cabe 5c30 b23d 6c2c acbc
00000320: 53c2 703e cb06 cfbd d096 e03d 3a67 3bbe
00000330: 3caa c63d 266e 67bb 5237 553d 7a72 d53c
00000340: a495 aebe 5358 473e 0fad 7cbd 8895 873e
00000350: 528a b53d 3906 b1bd b3e1 8e3e 2e21 8d3e
00000360: 4778 5f3d e97c bd3d 101f 113e e29b 26be
00000370: a913 4c3d d8fa 01bd 53b3 ab3d de17 c5bd
00000380: f505 22be 419a debd 0a4d 3b3d 88ce 1c3d
00000390: 0752 fabe 2d6d 2a3d 1e70 1cbd 495a 38be
000003a0: ae0c bebe 51a5 47bd cb18 883e 7b81 0ebe
000003b0: 9847 9c3e b64e 15bd 2133 d53e 0b51 c03d
000003c0: 8bd1 a8bb 3801 65be 0749 e0bd d3d3 53be
000003d0: 92b7 a73d 8a84 c7bd 29b4 803e a727 733c
000003e0: d0d1 d2bd 821e a63e 5efc 6fbe da14 79be
000003f0: ae8f 8f3d ffff 95bd b393 873e cf43 8cbd

onnx::LSTM_124 f4 [1, 800]
0.11415596 -0.18970269 0.16852158 0.052275542 0.0005113081 -0.087833874 -0.43834043 -0.09127437
-0.107761346 -0.23823942 0.07106973 0.062258437 -0.0015063144 0.0124441 0.022013824 -0.21128674
-0.15017939 -0.10850692 -0.15241392 -0.04210736 -0.03249169 0.027081689 -0.20493224 -0.14393319
-0.27804595 -0.03716678 -0.039927382 -0.16322392 -0.024615798 -0.086576365 0.13786757 -0.16473722
-0.23979837 -0.278594 -0.0013184391 -0.24114086 -0.12242947 0.07529258 0.35858303 0.18155679
-0.041310657 -0.09865433 0.068400644 -0.08761819 -0.102612056 -0.1409674 -0.043599255 0.08508502
0.014993483 -0.083043665 -0.10632451 0.058003217 -0.081486076 0.027720023 -0.04873346 0.14949574
0.012793726 -0.07043724 0.033328816 -0.098692626 -0.07878734 -0.06738996 -0.13001588 -0.21955083
-0.107913464 0.054131508 0.08671835 -0.033760022 0.13877887 -0.007018577 -0.13054964 -0.0071747466
-0.14840353 -0.22814727 0.04120554 -0.06653359 -0.12519267 -0.06882381 0.05574992 -0.39628705
-0.039051205 0.005567771 0.027815018 0.037396453 -0.2973656 -0.045375843 -0.22582673 -0.02697814
0.06689518 0.09280123 0.0331276 0.059488118 -0.03250542 0.16141814 0.06704262 -0.008646842
-0.04460195 -0.07688985 -0.22438629 0.15520467 -0.041815422 -0.27915016 0.033881493 0.07676149
-0.029227596 -0.16145165 -0.36491325 0.088423274 0.059043925 -0.2322717 -0.06204833 -0.016572822
-0.083717346 -0.054539118 -0.026842328 -0.14674105 -0.058593217 -0.24115942 -0.06066714 -0.047966294
-0.14462262 0.017260784 -0.122860685 -0.0922818 -0.32188678 -0.076135516 0.007885781 -0.10380731
0.053206753 -0.0025879033 0.05653651 -0.12347 -0.10787431 -0.22160877 0.07827917 -0.1771732
-0.027180187 -0.01930587 0.18145414 0.23468256 -0.02709894 0.015469015 0.09223783 -0.05768138
-0.112301305 -0.16908781 -0.0058285207 -0.09202041 0.12426712 -0.20512938 -0.14075312 -0.014332856
-0.08939788 -0.14427261 -0.09406412 0.15079218 -0.007737919 0.0027264839 -0.05769029 -0.0003554537
0.060715497 -0.1398197 -0.11944724 -0.08914581 -0.07117433 -0.08800405 0.009939085 -0.06337497
-0.04604805 -0.061473243 -0.18106604 0.016238088 -0.10126334 -0.15195891 0.10284054 -0.082698666
-0.03877617 -0.10141797 -0.015360051 -0.39276683 -0.16825205 0.018668698 -0.0140521275 -0.09850495
-0.23161538 -0.05933254 -0.13180773 0.109959364 0.13577244 -0.088707134 -0.0033443987 0.050310478
-0.05579208 0.11685361 -0.0028076712 0.02370716 -0.029452661 -0.053794086 -0.1748955 0.0012832811
-0.09542177 -0.1528733 0.034512613 -0.038714387 -0.09381806 -0.11269704 -0.24483553 -0.035891403
-0.0028307484 -0.07313952 -0.050908778 0.065199815 -0.22443333 -0.17680722 -0.07891794 -0.055444222
-0.008330991 -0.102383256 -0.1440013 -0.13220586 -0.09416788 -0.0455877 -0.08447995 -0.123131014
-0.11057411 0.0060432493 -0.1278805 -0.06565229 -0.056820434 -0.10109714 -0.11595321 -0.09346611
-0.1484674 -0.0035264464 -0.025089663 -0.1661973 0.038242165 0.06466823 -0.008623078 0.0015788026
-0.2556963 -0.105120555 -0.054984603 -0.08489179 -0.10392207 -0.11119742 -0.09781396 0.10849068
-0.036070142 -0.3339126 -0.053479165 0.020254556 8.123715e-05 -0.05843089 -0.13834973 -0.08270016
00000000: 9aca e93d 6c41 42be ec90 2c3e e11e 563d
00000010: 4e09 063a 3fe2 b3bd 286e e0be 0fee babd
00000020: fbb1 dcbd 09f5 73be 028d 913d b402 7f3d
00000030: 866f c5ba 57e2 4b3c 5656 b43c 8d5b 58be
00000040: a0c8 19be e038 debd 6512 1cbe c478 2cbd
00000050: 0216 05bd 6bda dd3c c2d9 51be 3963 13be
00000060: 0a5c 8ebe 323c 18bd e58a 23bd 2c24 27be
00000070: 12a7 c9bc f34e b1bd 282d 0d3e e0b0 28be
00000080: b48d 75be dfa3 8ebe 7acf acba a1ed 76be
00000090: 4dbc fabd ff32 9a3d 3298 b73e 06ea 393e
000000a0: 5d35 29bd 480b cabd a315 8c3d 2a71 b3bd
000000b0: 4526 d2bd c259 10be 2295 32bd 0e41 ae3d
000000c0: 3aa7 753c cc12 aabd aac0 d9bd c894 6d3d
000000d0: 2ce2 a6bd 1a15 e33c bd9c 47bd 6915 193e
000000e0: c79c 513c 6641 90bd cc83 083d 5c1f cabd
000000f0: 425b a1bd bf03 8abd e222 05be efd1 60be
00000100: bc01 ddbd 00b9 5d3d 6499 b13d f347 0abd
00000110: 0c1c 0e3e 17fc e5bb ceae 05be 231a ebbb
00000120: 18f7 17be 709f 69be 24c7 283d c342 88bd
00000130: 8232 00be 7ff3 8cbd 075a 643d 23e6 cabe
00000140: 28f4 1fbd d971 b63b 52dc e33c 062d 193d
00000150: 4e40 98be 05dc 39bd 1f3f 67be 4301 ddbc
00000160: 5700 893d 920e be3d ceb0 073d d0a9 733d
00000170: 6724 05bd cc4a 253e a44d 893d 7cab 0dbc
00000180: 89b0 36bd 6d78 9dbd 85c5 65be f9ed 1e3e
00000190: a646 2bbd c5ec 8ebe 52c7 0a3d 2135 9d3d
000001a0: b66e efbc 9553 25be e9d5 babe 4317 b53d
000001b0: 0bd8 713d a2d8 6dbe 6426 7ebd bac3 87bc
000001c0: 0074 abbd 6964 5fbd 71e4 dbbc 4943 16be
000001d0: 71ff 6fbd 7ff2 76be 1b7e 78bd 4e78 44bd
000001e0: f417 14be 7d66 8d3c 629e fbbd 3efe bcbd
000001f0: 58ce a4be f0ec 9bbd 5d33 013c ed98 d4bd
00000200: 53ef 593d d099 29bb d492 673d d7dd fcbd
00000210: 35ed dcbd 69ed 62be d450 a03d e46c 35be
00000220: fca8 debc 5827 9ebc 1dcf 393e a050 703e
00000230: 99fe ddbc c071 7d3c 30e7 bc3d 5043 6cbd
00000240: 3afe e5bd 5b25 2dbe 2dfd bebb 3275 bcbd
00000250: c37f fe3d 700d 52be 9621 10be 5bd4 6abc
00000260: 3c16 b7bd 33bc 13be b0a4 c0bd 4469 1a3e
00000270: 5f8e fdbb cfae 323b a74c 6cbd 305c bab9
00000280: d0b0 783d e52c 0fbe c1a0 f4bd 1492 b6bd
00000290: d9c3 91bd 783b b4bd 8bd7 223c bcca 81bd
000002a0: e19c 3cbd 5ecb 7bbd 6069 39be bd05 853c
000002b0: 2763 cfbd 1e9b 1bbe 109e d23d eb5d a9bd
000002c0: c3d3 1ebd 3ab4 cfbd b9a8 7bbc bc18 c9be
000002d0: 444a 2cbe 19ef 983c e53a 66bc f7bc c9bd
000002e0: 952c 6dbe ad06 73bd 9bf8 06be 6032 e13d
000002f0: ee07 0b3e 16ac b5bd b32d 5bbb 5c12 4e3d
00000300: 3c86 64bd f250 ef3d e800 38bb 8535 c23c
00000310: b546 f1bc 3057 5cbd ce17 33be c533 a83a
00000320: 7d6c c3bd d18a 1cbe 195d 0d3d fa92 1ebd
00000330: af23 c0bd b5cd e6bd 2ab6 7abe dd02 13bd
00000340: 1484 39bb 2cca 95bd b985 50bd 7b87 853d
00000350: dad1 65be f40c 35be bb9f a1bd 7b19 63bd
00000360: b57e 08bc 50ae d1bd 1475 13be f960 07be
00000370: 17db c0bd 2bba 3abd d303 adbd 1d2c fcbd
00000380: ae74 e2bd 7306 c63b 1bf3 02be b574 86bd
00000390: 8bbc 68bd 040c cfbd e078 edbd 296b bfbd
000003a0: d707 18be f41b 67bb d688 cdbc a02f 2abe
000003b0: d1a3 1c3d c770 843d d047 0dbc d3ef ce3a
000003c0: a0ea 82be 7249 d7bd 8937 61bd bfdb adbd
000003d0: 18d5 d4bd 79bb e3bd af52 c8bd 5d30 de3d
000003e0: 49be 13bd 98f6 aabe f80c 5bbd e2ec a53c
000003f0: dd5d aa38 3b55 6fbd 8dab 0dbe b45e a9bd
