New_project/modelo_peso.pth (torch, 320496 bytes, 8 tensors)

rnn_layer.weight_ih_l0 f4 [512, 7]
00000000: 99f0 e33c 490e 173e 4a70 8f3d 3c99 823d
00000010: 0948 c33c ad75 88bd 9cc3 dc3d e691 1d3e
00000020: 4235 eb3d 0756 c33c c820 87bd 3bb5 d83d
00000030: cb08 d2bc 32a0 e13d 8c2e 70bd 9852 1dbd
00000040: 80ca 693c 7706 a03c 195d 943c bd12 01bd
00000050: 2999 55bd 0221 ba3c 4df1 30bd adae dcbc
00000060: ff0d 17bd 960e a43d 71aa bbbd e225 8c3c
00000070: 2a52 e7bc 8dff c93d 8753 bbbd 4112 343d
00000080: f18f afbd 928e 743d 14e0 91bd e322 d4bc
00000090: 0d77 44bd 9fd0 40bd bfcd b1bd df51 50bd
000000a0: 2767 57bd cc57 14be 45bc e73d 8b55 3abd
000000b0: f1f6 ba3c da9e 323d 7a84 6a3d c52c 02be
000000c0: a28b b13c c4ec f43d d4be 4a3d 5c70 cabb
000000d0: 05e5 ae3d bd64 9cbc 9afe 86b9 7c82 bc3d
000000e0: e98c 8d3d f0f1 863c ad1b 38bd 3962 9fbb
000000f0: 36b1 523d e01d 14bc e28d c9bc 5f83 bc3d
00000100: 741f 63bc 09e0 463d f86e 1ebd 82b4 66bd
00000110: 7477 6cbd fd48 013d 7657 993d 7a12 0bbd
00000120: 12c8 04bd c2b5 8fbd 4ee0 733d 635e c53d
00000130: d71d 053d c183 b9bd 107d b3bc e777 72bd
00000140: 6588 263d 1fe4 7d3c 0261 023d 18c9 c93c
00000150: 068c 1cbd ad4f 2a3e caf9 00bd 6a69 39bc
00000160: f9f0 00bd 27a3 b4bd e3e5 873d 582c 3d3d
00000170: 6eb2 f03c 86e4 09bd 3424 43ba cb1a b13b
00000180: a0c5 9bbd 45fe 63bd f44c c23a 7bcd c83c
00000190: 353f 0fbd 8822 78bd a217 9bbd b87e f9bd
000001a0: 15e5 e8bd 804b c9bd 06c4 e23c 804a 3fbd
000001b0: 7a68 07be 0db4 08be cbe8 9fbd 3f1b f7bd
000001c0: 9c70 a53d 6e0c 74bd e22e 2dbc 4b89 acbd
000001d0: ad48 ccbd 3caa 533d 949f 5cbd e9df babd
000001e0: ba89 2f3d d617 4dbd 0dd4 833d ce78 51bd
000001f0: aa5b dbbd c72a d1bd 6050 4e3d 4c7b ef3d
00000200: 0407 09bd 485b 80bd c75e 293d e965 3dbe
00000210: e077 633c 9958 2abd 4fef 213d ca14 1c3d
00000220: e407 53bd 9142 9a3d 8890 b0bd 6b67 c1bc
00000230: a2ad 573d 3f38 b43d fb61 9e3d f5d3 893c
00000240: 40d1 793d 4250 98bd 8361 c23d 61c9 1f3d
00000250: 0733 f83d eb4c 58bd 445a dbbd d9d5 9dbb
00000260: a36e 00be c188 03bc fb77 50bd f2d1 85bd
00000270: 66e8 2ebd e46a 44bd 8492 91bd aa81 4b3d
00000280: 59b4 c03d 014e f73c d7ce eabc fd03 10bc
00000290: a463 d33b f740 a03c d633 ba3d 3587 ac3c
000002a0: 0d6a f23d 7d54 7dbc 1e25 d83b 4627 d73d
000002b0: 2fd4 7ebb 20af 09be 98a9 f33d 4a87 46bc
000002c0: e182 9bbd 80b1 3abc f2d7 e6bb 96f4 983d
000002d0: bab6 963d fce0 2ebd 272b babc 8ea0 563d
000002e0: 0dd9 443d e4da 3ebc 9ec2 03bb be0b 3ebe
000002f0: 8664 21bd 1620 8cbc 79d7 e13b 2835 203d
00000300: cb4f 6f3c a825 e2bd f4b7 523d 4172 0d3d
00000310: fa63 78bd 58b3 6ebb 1e5c b43d 3882 893d
00000320: ef0f 053d d0ac ea3c 916c 00bd 2de2 043e
00000330: 0c6b 9e3d b1d1 663d 7142 7abd a2f3 ae3d
00000340: 2425 08be 1be0 d43c 21cf 4cbd a58b 0a3d
00000350: 3b5d 0cbd 43b9 fa3c 0cf1 903d 6b4e 2abd
00000360: 8834 2d3d ab1e e73c c585 75bd 7ba9 863d
00000370: f24c 923d b650 45bd df76 4abd 4075 23bb
00000380: 197a 17bd 78ed 813d f535 c2bd 1236 483d
00000390: c91c 8d3d 7111 ccbd 6155 843c aed8 64bd
000003a0: 4b4a bcbd f859 5e3d ea25 93bc 6b70 bb3c
000003b0: 3db5 16bd 78c3 d4bc cb0b a4bd 02e4 2b3d
000003c0: eaf0 0f3c 7573 cb3c 59e2 42bc cffc a73d
000003d0: c0f8 4abd 1afd a4bd 1d0b 7d3d 73eb 30bd
000003e0: 7471 35bd ab83 393d 8678 acbd bf75 b1bd
000003f0: 6328 7f3b 1f66 4dbc 8d52 ccbd dfa7 323d
0.027824687 0.14751543 0.07003839 0.063768834 0.02383806 -0.0666307 0.10779497 0.15387687
0.114847675 0.023844732 -0.065980494 0.10581442 -0.025638958 0.11016883 -0.05863814 -0.038408846
0.014269471 0.019534333 0.018110799 -0.03151201 -0.052148018 0.022720817 -0.043198872 -0.02693876
-0.036878582 0.080105945 -0.091633685 0.017107908 -0.028237421 0.098631956 -0.09146791 0.04396272
-0.085723765 0.05970628 -0.07122818 -0.025895542 -0.0479651 -0.047073957 -0.08681821 -0.05085933
-0.052588608 -0.14486617 0.113152064 -0.045491736 0.022822829 0.043608524 0.057255246 -0.1271239
0.021673027 0.11959222 0.049498394 -0.006177945 0.08539776 -0.019091005 -0.00025748165 0.092045754
0.06911642 0.016472787 -0.04494827 -0.004864004 0.051438533 -0.009040326 -0.024603788 0.092047445
-0.0138624795 0.0485535 -0.038680047 -0.05632449 -0.057731107 0.031563748 0.07487385 -0.033953167
-0.032417364 -0.070170894 0.059540085 0.096371435 0.03249916 -0.09058333 -0.02191022 -0.05919638
0.04065742 0.015496283 0.031830795 0.024632022 -0.038219474 0.16631956 -0.031488217 -0.011316637
-0.03147981 -0.08820181 0.06635644 0.046184868 0.029381957 -0.033665203 -0.00074440544 0.0054048053
-0.07606053 -0.055662412 0.0014823959 0.024512043 -0.03497239 -0.060579807 -0.07572867 -0.12182373
-0.11371819 -0.098288536 0.027681362 -0.046701908 -0.13223448 -0.13349934 -0.078080736 -0.12065744
0.08078119 -0.059582166 -0.01057026 -0.08424624 -0.09974799 0.05167602 -0.053863123 -0.09124739
0.042855956 -0.05007156 0.0643693 -0.0511406 -0.10710843 -0.10213237 0.05036962 0.11693439
-0.033453956 -0.062674105 0.041350152 -0.18495907 0.013883561 -0.0415884 0.039534863 0.038105763
-0.051521197 0.07532228 -0.08621317 -0.023608884 0.052655824 0.087997906 0.07733532 0.016824702
0.060990572 -0.07437183 0.09491255 0.03901041 0.12119108 -0.05280773 -0.10710576 -0.0048167524
-0.12542205 -0.00802821 -0.050895672 -0.065341845 -0.0427021 -0.0479535 -0.07108024 0.049684204
0.094093986 0.030188562 -0.028663082 -0.008790013 0.006451087 0.019562228 0.09091918 0.021060565
0.11836634 -0.015462038 0.0065962216 0.10505538 -0.0038883795 -0.13445711 0.11897582 -0.012117216
-0.075933225 -0.011394858 -0.0070447857 0.07468526 0.07359071 -0.04269503 -0.022725655 0.05239921
0.04805856 -0.011648867 -0.0020105015 -0.18559167 -0.039402507 -0.017105144 0.0068921414 0.039113194
0.0146064265 -0.110423386 0.051444963 0.03453279 -0.06064222 -0.0036422815 0.088066325 0.067142904
0.0324859 0.028646857 -0.031353537 0.12976904 0.07735261 0.05635232 -0.06109852 0.08542563
-0.13295418 0.025985768 -0.05000222 0.03382458 -0.0342686 0.030605918 0.07077226 -0.04157869
0.042286426 0.028212866 -0.059942026 0.065752946 0.071435824 -0.048172675 -0.04942977 -0.0024941713
-0.036981676 0.06344122 -0.09482948 0.04887969 0.06890256 -0.09964264 0.016153993 -0.055870704
-0.09193858 0.05428502 -0.017962415 0.022880754 -0.036793936 -0.025972113 -0.08010062 0.041965492
0.008785466 0.024835328 -0.011894786 0.08202516 -0.049553633 -0.08056088 0.061778177 -0.043193292
-0.04429765 0.045291584 -0.084214255 -0.086650364 0.0038933984 -0.012536555 -0.09976683 0.043617126

rnn_layer.weight_hh_l0 f4 [512, 128]
00000000: d07c bf3d 435d 993c 5da7 a2bd 3958 b1bd
00000010: 99ec 1cbd 9326 5e3d 9f2d b53d 7716 a23b
00000020: aad5 e13d 3a44 20bd 2bc3 0abd 98ac 313d
00000030: 971d 49bd 6b2d d33b feac 8c3d 8607 66bc
00000040: ecdc 36bc 6a1a 333d 3b0e ebbc e7eb afbd
00000050: 7dcc 9d3d ca4b 9d3c 8632 473d f2ad 243d
00000060: aa34 18bd b732 c83d 7671 7b3d 1011 5cbd
00000070: 3344 8dbc 1186 1fbd 0a5a 6e3d 622f 0a3a
00000080: 7d08 963c 9224 4a3b 2d39 c83d b7e5 87bd
00000090: 9577 163c 527e e53d 7cb9 f7bc 53a8 fb3c
000000a0: 682b 5cbd e8d6 b8bc 34da a43d df6e e13d
000000b0: a514 b83d dca9 02bc 43fb 893b 4010 57bc
000000c0: 52ef 37bd b6dc cb3b 0520 233b 27aa 9f3d
000000d0: 565b f3b9 5b6f 133d 4ecb 593c e3db fd3b
000000e0: 479e 17bd 29bb 93bc 68a9 edbd d4b0 8f3d
000000f0: 167d 6c3c 8f5b 8fbd 0241 46be 7001 abbd
00000100: 7fc9 b4bc f647 b43d 1a92 5e3d f4ca 9fbd
00000110: af1c 363d f85f 33be caf9 c8bd ed69 3ebe
00000120: 1528 e9bd 4158 13bc 5204 07be 23d1 813d
00000130: 0729 b2bd ea20 c43c db90 1fbd dcec 6f3c
00000140: 61fd 1ebe 6553 9abd 409c f53c 4eb5 3bbd
00000150: d9f9 993d 050e 83bd e91c 7a3d a53b 82bd
00000160: e09b 253c 68c2 b3bc 88b5 703d b59e 08be
00000170: f4e8 16bd 3634 33bd 27a5 6e3d 1153 473d
00000180: c206 65bd 1843 1bbd 2681 b2bd 07e8 24bd
00000190: c12e f93c 8bb0 9e3c 918e 823d 52a1 06bd
000001a0: 006b ea3d db03 17bd 9d0d 533c 1c99 db3d
000001b0: c90f 28bd f50d 7f3c 0d51 00bd 5c84 f2bb
000001c0: e3de b6bd 7e9c 543d 84cf ac3d 2a98 973d
000001d0: 65b9 643d e681 fe3d 5d22 16bc 6ea2 8eba
000001e0: 1e54 91bc ffa9 be3d 0574 b13d b64e db3d
000001f0: 087c adbc bd75 e73a 4562 983d 950b 833d
00000200: 20b5 9a3b a682 483d eba3 e6bd 1b9e d2bd
00000210: 6b63 81bc 04ed 60bd c35c 143b 51ec adb9
00000220: a7ea 43bb 0578 1c3e 39b4 1b3e fb5a 55bc
00000230: e59f 20bc f0a6 763d 277c 593d 881b acbd
00000240: 0872 c13a be95 89bd 69ab 413d 108b a6bd
00000250: fe0d e23c 05ea 1d3d 60a3 3b3d 49c7 aa3d
00000260: 7556 77bd 87d1 933d 02b0 bfbc 8091 dbbb
00000270: d5d8 aabc 79a7 06be f1e1 e9bd 8aa9 84bd
00000280: a118 bd3d bc26 943d 590c 1f3d 7b26 84bd
00000290: 8214 be3d 1d21 cdbc 4049 bb3d 4cf7 ef3c
000002a0: e815 96bd f3e4 153d dc82 4e3d ff16 d03d
000002b0: 5bf7 893d c743 10bd b860 28bc 6b8e efbb
000002c0: 1ff7 3cbd da67 193d f702 153d 9edb 293d
000002d0: ca1e 0cbd 894e 903d 54e4 5b3c f8fd 523d
000002e0: 6b48 9bbd d634 e43c ad9d 07be 64fe 9d3d
000002f0: 6bc3 e3bd 0cbd acbd d62b c0bd 6638 013c
00000300: 4e5c 97bd 82d1 debc 0904 b2bd cb3e 9a3d
00000310: da90 5abd 7a79 b9bd 5e29 2ebc b9e7 6dbd
00000320: 6471 73bd bd91 3dbd d36c babb a3fc 573d
00000330: f3be 96bc a6f7 14bc d1ee ad3d 4faa 9a3c
00000340: 7646 04be ac8b 803c df18 ccbd 77e6 d93b
00000350: 277d 76bc b026 72bd c3f9 233d 58ab 75bd
00000360: d61a 3bbc ac04 37bd 06a9 67bc f84a a9bd
00000370: aa2e 0ebe 0aa4 073e 84f8 d23d ad8c 253d
00000380: 3281 16be 9c20 34bc f459 16be 47f4 19be
00000390: b91a ea3d ecd6 623d 7945 4d3d 02de d2bc
000003a0: 20fd cc3c 66ac 7fbd ae1b f0bd e031 e43d
000003b0: 087d 41bd 978d 59bd f236 28bd 6102 00bc
000003c0: e12b dabd a7dc a7bd fc48 863d 2aad aa3c
000003d0: 8bbb 893d d7b1 9e3d 1d46 e5bc c3fb 173e
000003e0: f34b 663d 615e 603d c3b3 083d 42f0 0a3d
000003f0: ee73 de3d 7424 2a3d fe52 ae3c cd8f 763d
0.09349978 0.018721228 -0.07942078 -0.08659405 -0.038311575 0.054236006 0.08846592 0.0049465257
0.11027081 -0.039127566 -0.033877533 0.04337749 -0.049100485 0.006444623 0.06868933 -0.01403988
-0.01116107 0.043726362 -0.028693309 -0.08589917 0.07705019 0.019201178 0.048632167 0.04020495
-0.0371596 0.09775298 0.0613875 -0.05372721 -0.017244434 -0.038946215 0.058191337 0.0005271343
0.018314594 0.0030844552 0.097765304 -0.066356115 0.009183784 0.11205734 -0.030239813 0.030719912
-0.053752333 -0.022563413 0.080494314 0.11007475 0.08988313 -0.007975068 0.004210861 -0.013126433
-0.044905968 0.006221379 0.0024890911 0.07796126 -0.00046416622 0.03599487 0.0132931005 0.00774716
-0.03701618 -0.01803358 -0.11604577 0.07016149 0.01443412 -0.06999885 -0.19360736 -0.083498836
-0.022068737 0.08802788 0.054338552 -0.07802382 0.04446095 -0.17517078 -0.098132685 -0.18595095
-0.11384598 -0.008993209 -0.13185242 0.06338718 -0.086992316 0.023941476 -0.038956504 0.014643874
-0.15526344 -0.075354375 0.029981732 -0.045827202 0.07518358 -0.063991584 0.061062727 -0.063590325
0.010107964 -0.021943286 0.05876687 -0.13341792 -0.036843255 -0.043750964 0.05826297 0.048663203
-0.055914648 -0.037905782 -0.08716039 -0.04026034 0.030417802 0.019371292 0.06374849 -0.03286869
0.1144619 -0.03686891 0.012881664 0.10722563 -0.04103068 0.015567292 -0.031327296 -0.0074010324
-0.08929231 0.051907055 0.08438018 0.0740207 0.05584087 0.1242712 -0.009163466 -0.0010882148
-0.017740306 0.09309768 0.08664707 0.10708372 -0.021177307 0.001765899 0.074406184 0.063986935
0.004721299 0.04895272 -0.112617336 -0.102840625 -0.015794476 -0.054913536 0.0022638298 -0.000331732
-0.0029894502 0.15280159 0.15205468 -0.01302218 -0.009803747 0.060217798 0.053096917 -0.08403689
0.0014758715 -0.06718014 0.04728261 -0.08131993 0.027594563 0.038553257 0.045810103 0.08338792
-0.060385186 0.072176985 -0.023399357 -0.0067006946 -0.020855347 -0.13149823 -0.11420048 -0.064776495
0.09233213 0.072339505 0.038830135 -0.06452652 0.09281255 -0.025040204 0.09144831 0.029292725
-0.07328397 0.036595296 0.050417766 0.10160636 0.067366324 -0.035220888 -0.010276966 -0.0073106787
-0.04613411 0.037452556 0.03637978 0.04146921 -0.03420905 0.070462294 0.013421137 0.051511735
-0.07582172 0.027857225 -0.13243742 0.07714537 -0.111212574 -0.08434495 -0.09383361 0.007886982
-0.073906526 -0.02719951 -0.08692176 0.07531508 -0.053360797 -0.09056373 -0.01062998 -0.058082316
-0.05943431 -0.046281565 -0.0056892424 0.052731168 -0.018401599 -0.009092247 0.08492816 0.018880038
-0.12917504 0.0156916 -0.09965681 0.006649788 -0.015044487 -0.059118927 0.040033113 -0.05997786
-0.011419972 -0.04468219 -0.014139419 -0.08266252 -0.13884988 0.1324617 0.10301307 0.040417362
-0.14697722 -0.010994103 -0.14682752 -0.1503459 0.11430878 0.055380747 0.050115082 -0.025740627
0.025023043 -0.06242027 -0.117240295 0.111423254 -0.04723838 -0.053113546 -0.041068025 -0.007813067
-0.106529005 -0.08196383 0.065568894 0.020834524 0.06725224 0.07748764 -0.027987534 0.14842133
0.056224775 0.054777507 0.03337456 0.033920534 0.108619556 0.04153867 0.021279808 0.060195733

rnn_layer.bias_ih_l0 f4 [512]
00000000: 6146 3d3d 57d6 3b3d 68d1 063d 705c 8c3c
00000010: e45c 8cbc 6057 9a3d 7112 543d cf8e df3d
00000020: 41ee 8dbd d9b8 803c dcc2 7c3d 25e2 94bc
00000030: 2f75 063e 9b8a 4cbd 2060 d03d 5c29 d33d
00000040: 2f25 923d 58be 4f3d e1cb 423c 8fb3 d23c
00000050: 239f 0bbd cfad 663d d632 de3b c953 d2bc
00000060: 67ec 023e ea14 823d 2a6d 873d cc83 7c3d
00000070: c507 1c3c 2178 133c 1e04 52bd 4277 73bd
00000080: a1ce e0bc 8aa1 d53d 4b2e 83bc 4ec9 9a3c
00000090: 47f9 05bc c310 a73d b2c8 7abd b29f 3abd
000000a0: fbc9 933d a64e c3bc 2f9e dfbc 30d8 8f3a
000000b0: 64a9 313c 9584 8e3d 6ea5 863d e02c ef3d
000000c0: 0f0e d23d 7ae0 9b3d 0253 043d 95ca bf3c
000000d0: 8584 b23d b5f4 c23d ce5d 08bd 2fcd b2bd
000000e0: b998 d2ba d0dd 393e c752 2abd 91f4 06bd
000000f0: 62a9 c83d 003e 37bd f800 893d 69a6 27bd
00000100: 0b99 f7bb 7f19 63bc 70c0 e13d 95f0 cfbc
00000110: a810 573d df77 ba3d 4e51 63bd 0572 e33d
00000120: 2ca1 583b 2770 3f3c 2003 ef3d 8cd3 b03c
00000130: e01e 8ebd 459f 143b 861d bd3b 14fb c13c
00000140: b6ef 08bd a6c9 4fbd 44f1 bf3c 47be 1f3c
00000150: fcb5 de3d 1230 e63d dc99 1abd 359b 8d3b
00000160: 1dbb 8ebc 5e62 2a3d 1ee0 003e aa1f b8bb
00000170: d65e f83d ea1a 58bd a316 963d 505c 3f3d
00000180: 3236 a23c c2b9 c03d f7ff 973d 0cd4 0f3d
00000190: b6ae d1ba d162 c63d fc1b d93d 9644 85bd
000001a0: 820a b03c 6087 2e3d d90c 59bd 711c 2e3d
000001b0: bec7 9e3d fede d9bc fb24 11bd 3cfd 363b
000001c0: 6c1e a5bd 4538 8fbc d321 093d 91a0 803d
000001d0: 96b2 fa3d 5d81 2c3c 2553 9a3d 374c ddbc
000001e0: 1237 bf3a d040 c83d 504f 70bd 81ca b33d
000001f0: 604b 9e3d 8956 e6bb 9d33 c63d 18b0 e23d
00000200: dcbd c3bd 5b71 263d c8d0 82bc 8cd3 01bd
00000210: 4f45 f5bc 5a99 bdbd dd9b 223d 3254 b8bd
00000220: 36f8 3d3d b441 15bd fb5e b3bc 81bf b5bd
00000230: 91ee 03be 6b8f 5dbd e8ee cabd 16ac 12ba
00000240: d340 45bd cbe0 d5bb 1b29 0e3a 2049 8a3d
00000250: d328 61bc 49c6 a7bd 0d97 7fbc 317c 59bd
00000260: 7f4b 4bbc c7b6 133d 067a c3bd 18b3 d6bd
00000270: 3e7b 9fbd 4449 8a3d 5aaa fcbc f668 833d
00000280: 72b3 8f3d 263f bbbd 3fb2 ecbc e5b3 a33c
00000290: 0219 35bd a78a 963d 92ea f23b 0337 01bd
000002a0: 7839 91bd d727 0abd 1b8e 5a3c 0319 0f3c
000002b0: 81bf 17bd b839 8c3d 34d7 b6bd bccb 93bc
000002c0: 45fc 423c 4ac4 e0bc 2b50 cebc c7cd f3bc
000002d0: 6950 d2bc a494 733d b5a3 093a cac8 96bb
000002e0: 206c 91b8 8f2d 47ba 6243 96bd 5f38 943c
000002f0: e558 b53c d8f0 a9bd 93be e9bd f18a 9e3d
00000300: f238 76bd 992f abbd f47b 01be 422c 283c
00000310: 435a 00be f953 1e3d 73ec 803d 02bf b83c
00000320: 1396 8abc f4c0 423c 28b0 a5bd 89bf a9bd
00000330: 3c25 10be 844b 22bc 74f1 0abe 8f3a a0bd
00000340: 52ef 1a3d b27f 003d 5baf 09be 5e29 713b
00000350: 3648 fdbd 799e 2bbd 557f c9bd 6b03 f2bb
00000360: e53f 513c 116a c53c a81d 40bc 1c71 273c
00000370: 7256 f83c 87b4 6cbd 7ea0 d1b9 c35b afbd
00000380: 97d1 dcbc ab3f 86bd 9b05 59bd 3e99 96bd
00000390: 978c cb3d e085 5a3d e469 91ba 753b 5f3d
000003a0: 0b17 1e3a 3fee 89bd 6799 97bd e2cc b2bc
000003b0: 84de c5bb c5d3 bf3c 97f5 633c 2335 e1bd
000003c0: f7c8 293d 1c8f b3bd 8380 1c3b 50ca babd
000003d0: 5dff 15be 40b8 e43a bb29 84bd da55 45bd
000003e0: 8a7f 5a3c e7dd 9d3c 3269 48bd bae8 1dbd
000003f0: 7120 383d 609b e2bc d502 783d c92f 553c
0.046209697 0.045858707 0.03291455 0.017133921 -0.017134137 0.07536197 0.0517754 0.109159105
-0.06930209 0.015713142 0.06170927 -0.01817424 0.1313064 -0.049936872 0.101745844 0.10310623
0.071359985 0.050718635 0.011889429 0.025720386 -0.03408731 0.0563181 0.0067809625 -0.025674718
0.12785493 0.06351645 0.06612618 0.06164913 0.009523337 0.009000809 -0.051273458 -0.059439905
-0.027442278 0.10431202 -0.016013285 0.018894818 -0.008177108 0.08157494 -0.061226554 -0.045562454
0.07216259 -0.023841213 -0.027297108 0.0010974463 0.0108436085 0.06958882 0.06574522 0.11678481
0.10256588 0.07611175 0.032305725 0.023412028 0.08716682 0.095193304 -0.033292584 -0.08730542
-0.0016067243 0.18151021 -0.04158285 -0.03294808 0.09797932 -0.044736862 0.06689638 -0.040930185
-0.007556086 -0.013861059 0.11023033 -0.025383273 0.05250612 0.09104895 -0.05549746 0.11105732
0.003305505 0.011684454 0.11670518 0.021585248 -0.06939483 0.002267794 0.0057713417 0.023679294
-0.03343173 -0.050729416 0.023430474 0.0097499555 0.108745545 0.112396374 -0.037744388 0.0043214806
-0.017423207 0.041597717 0.12585494 -0.005619009 0.121274635 -0.052760042 0.07328536 0.046718895
0.019801233 0.094104305 0.07421868 0.035114333 -0.0015997502 0.096868165 0.10601041 -0.06507222
0.021489386 0.042609572 -0.052990768 0.042507593 0.077529415 -0.026595589 -0.035435658 0.0027921936
-0.08062443 -0.017482886 0.033479523 0.062806256 0.12241094 0.0105288895 0.0753539 -0.027013881
0.0014588556 0.09777987 -0.05866939 0.08778859 0.077292204 -0.0070293588 0.09677813 0.110687435
-0.09557697 0.040635448 -0.015968695 -0.031695887 -0.029940275 -0.09257765 0.039699424 -0.09000434
0.04637929 -0.036439613 -0.021895876 -0.08874417 -0.12883975 -0.054091852 -0.09908849 -0.0005595101
-0.048157524 -0.0065270416 0.00054229953 0.06752229 -0.013742643 -0.08192117 -0.015599978 -0.053096954
-0.012408136 0.036062982 -0.095447585 -0.10483378 -0.077871785 0.067522556 -0.030842949 0.06416504
0.07016648 -0.09142904 -0.028893588 0.019983241 -0.044213302 0.073506646 0.007413217 -0.031546604
-0.070910394 -0.0337294 0.013339545 0.008733991 -0.037047867 0.068469465 -0.089277655 -0.018041484
0.011900966 -0.027437348 -0.025184711 -0.029761208 -0.025673108 0.059467927 0.00052505295 -0.0046015726
-6.934279e-05 -0.00075980363 -0.07337071 0.018093286 0.022137115 -0.082978904 -0.11413302 0.07741345
-0.0601129 -0.08358688 -0.1264494 0.010264458 -0.12534432 0.0386543 0.06295099 0.022552017
-0.016917264 0.011886824 -0.0809024 -0.082884856 -0.14076704 -0.0099057 -0.1356867 -0.07823669
0.03782589 0.03137178 -0.13445799 0.0036798338 -0.12367289 -0.04189918 -0.0983874 -0.0073856614
0.012771581 0.024098428 -0.011725821 0.0102198385 0.030314658 -0.05778935 -0.00039983162 -0.08562424
-0.026955409 -0.065551125 -0.05298386 -0.073534474 0.09938925 0.05335033 -0.001109418 0.054500062
0.00060306553 -0.06734895 -0.07402306 -0.021826211 -0.006038489 0.02341641 0.013913534 -0.10996463
0.04145142 -0.0876753 0.002388031 -0.09120619 -0.14648195 0.001744993 -0.06453272 -0.048177578
0.013336072 0.01927085 -0.048928447 -0.038552023 0.044952814 -0.02766198 0.060549576 0.013011881

rnn_layer.bias_hh_l0 f4 [512]
00000000: 4e76 313d 932a d73d 2412 173d 3f60 ba3b
00000010: 69ce 58bd b04e 52bd 78f3 753d af8e bf3d
00000020: 0dab 873d 9bca eebc fc9a 3e39 dfd5 c73d
00000030: 6d9c 123e 9505 ae3d 5dc9 89bc 2251 213d
00000040: 939e 733c 1490 2c3d 11ba 4a3d 455b 743d
00000050: adfb 7e3d 225f 473e 784d cc3c 5744 7fbd
00000060: 6fd6 e43c cff3 dd3d b05e d83b 13f2 0cba
00000070: 15ed 6e3d da90 833d 03fb 043b d6b6 b23d
00000080: e362 ff3d 1355 7a3d e5bd 50bc 9c7f 66bc
00000090: b8eb bebb 7530 1cba f6a3 503d 76f0 0a3d
000000a0: 97bc a3bc 79ec c63d d14e fabc 1f6b d23d
000000b0: 30ad b73d c10b abbd 425c 933d 420e f63c
000000c0: a2d9 8bbc dd1b 9c3d a299 3bbd 63cc d8bc
000000d0: bd9b fb3c f1b8 4ebd 7124 d13d d613 efbc
000000e0: e0fe 893c a698 0b3d 0936 25bd a1a0 9ebd
000000f0: 3719 bd3d 52d8 11bd 195b c43d cd47 06bd
00000100: c6fb a83d 0046 45bd 5c5d 9a3c c3c3 863d
00000110: f3bb 5a3b 2ebe 0d3d 3c9e e43c 1a86 323d
00000120: e9c4 993d 6ec4 dc3d baca 733d 2e3a 6e3d
00000130: 10f8 65bd 3be2 f33d 4a1c 00bd 027d 283d
00000140: 920e 41bd 3a82 9b38 4ae5 12bd 8d8b e2ba
00000150: 0772 83bc fb6b 643d 74cd a4bb bf8c e43c
00000160: dae8 05bd 78b3 60bd 71e7 d2bc 0a1a 0539
00000170: 4ed0 1a3d 1bd6 213c dbbf 663d 2d6e 463d
00000180: 5da2 8b3d c586 9e3b d35e 0e3d f99f eebc
00000190: d8e9 3d3d b8c5 793d b95f 1e3e 3c3d 6b3c
000001a0: 57e6 643d f637 503c ee21 0d3c 11c5 81bc
000001b0: e5ad aabc acfd a03d 2422 933d 8453 e53d
000001c0: 4eb0 8c3d e1c1 51bb c239 803d 6f8b 8cbc
000001d0: 06ec b03d 2322 fd3c 1895 8d3c 7ec0 58bd
000001e0: 93d3 2c3d 6df2 053d 8451 6dbd a92d 7d3d
000001f0: 5461 6a3d 92bc cd3d bd0d bb3d 20a1 d73d
00000200: 63b7 403b 35c8 e1bd c4ce 9fbd ed6f 233d
00000210: f893 d4b9 7646 b73c 0786 f7bd bd8c 30bd
00000220: 9add 2abd 2672 c9bd 721e 233d ecfe a1bc
00000230: 7ac8 c3bd d11e 943d 87df 94bd 73dd a53c
00000240: 9cf9 16bd f110 9bbb 9b30 0d3a 8c7f 5c3d
00000250: 8ff4 96bd e4a9 49bc 2cc7 383d 50eb b73c
00000260: 44bb 05be 4090 b4bc 24f3 ccbd cb5d dcbd
00000270: 4cbf 73bd 2e2c 3ebd 64ca 463d 6e45 9dbd
00000280: 248b 8f3d 35ce c63c fd4f 413d ac84 793c
00000290: 08cb 0fbd 80a8 57bd 53be 463d ef4e 5a3b
000002a0: b961 cbbd 31bb cabd a7ed 81bd a494 8ebc
000002b0: 8362 313d 98ab 3f3d 7c93 b8bd 340c 443d
000002c0: 47bf 573d 0644 35bd ab18 c2bc 07b7 db3c
000002d0: 0b86 153d 8dd4 87bd 366e babd f6d8 99bd
000002e0: 68f0 90bd 26cb eebd 803e 34bd a3a0 bebc
000002f0: 3a7e 653d 579a 503c 7538 92bd baa8 043a
00000300: 28ef 03bd c1bc 8cbd dbfd 38bd bec0 943d
00000310: 1633 99bd 7a9e 633d db68 90bd 8990 f43c
00000320: 09d3 bcbd cf0a 5cbd a093 febd d4ce 9dbd
00000330: 4379 13bc 810a 8bbb 489a 9ebd 2110 acbd
00000340: 5e91 3f3c 7844 a2bd ad6f d03c 8a43 2b3d
00000350: eeff 4a3b 0a84 9cbd a8f1 3cbd 41a9 81bc
00000360: d916 05bb a7e8 673b 922a b13c 1e95 c1bb
00000370: 019e c4bb f683 afbd 2396 9bbd 085d 733d
00000380: 9964 d2bd 5be7 bfbd a6c5 953d 874b 983d
00000390: 633d eb3d 9e6d 37bd 98f6 493b a2b2 76bd
000003a0: afb5 90bc 4432 043d 73e2 a0bd 9a52 edbd
000003b0: f5a0 83bd ee54 dabd cc2d efbd 5fe1 c23c
000003c0: b138 d4bb f6f5 c8bc a8d4 78bd 5c31 0fbe
000003d0: 5ecf 5ebd 196c 873d e995 173d 4a96 fe3b
000003e0: 8520 a2bd 4d60 f5bc 1b84 493c 9005 55bd
000003f0: 473b f03c fd8d 90bd 0e47 893d 453b 453d
0.043325715 0.10506167 0.036882535 0.005687743 -0.052931223 -0.051344573 0.060046643 0.093533866
0.06624422 -0.029149344 0.00018177548 0.097575895 0.14317484 0.084971584 -0.01681965 0.039384015
0.01486935 0.04212959 0.049493853 0.059657354 0.062251735 0.19469884 0.024939284 -0.062321033
0.027934281 0.108375184 0.0066030845 -0.0005376648 0.058331568 0.064241126 0.0020291216 0.087262794
0.12470033 0.06111629 -0.012740587 -0.01406851 -0.0058264397 -0.00059581484 0.050937615 0.033920728
-0.019987388 0.09713072 -0.03055516 0.10274338 0.0896858 -0.08351851 0.07195331 0.030036096
-0.017071549 0.07622502 -0.045800813 -0.026464647 0.03071391 -0.050469343 0.10212029 -0.029184263
0.016845167 0.034081124 -0.040334735 -0.07745481 0.09233325 -0.03560669 0.09587688 -0.03278332
0.08251147 -0.04816246 0.018843345 0.06580307 0.0033376187 0.034605198 0.027907483 0.04358492
0.07508261 0.107796535 0.059519507 0.058160953 -0.056144774 0.119083844 -0.03127698 0.04113484
-0.047133036 7.4152325e-05 -0.0358632 -0.0017284021 -0.016045583 0.05576704 -0.0050293747 0.027899144
-0.032692768 -0.054858655 -0.025745125 0.00012693569 0.03779631 0.009877707 0.05633531 0.048444916
0.06818078 0.004837843 0.0347584 -0.029129015 0.04636559 0.060979575 0.15466203 0.014357861
0.05588373 0.012708655 0.0086140465 -0.015841039 -0.020834872 0.07860884 0.07184246 0.1119757
0.06869565 -0.003200643 0.062610164 -0.01715633 0.08638768 0.030900067 0.017283008 -0.05291795
0.04219396 0.0327019 -0.057939067 0.061811123 0.057221726 0.100457326 0.0913348 0.10528779
0.0029406182 -0.110245146 -0.07803109 0.039901663 -0.00040546036 0.022372466 -0.120861106 -0.04310297
-0.041715242 -0.09836225 0.039823957 -0.019774877 -0.09559722 0.0723244 -0.07269197 0.020247197
-0.03685914 -0.004732244 0.0005385966 0.053832576 -0.073708646 -0.0123085715 0.04511182 0.022451073
-0.13059717 -0.02204144 -0.10007313 -0.10760077 -0.059508607 -0.04642885 0.04853286 -0.07679258
0.07008961 0.024268249 0.047195423 0.015229385 -0.035105735 -0.05265093 0.04852135 0.0033311208
-0.099307485 -0.09898985 -0.06344157 -0.017404862 0.04330684 0.046794504 -0.090125054 0.0478632
0.05267265 -0.044254325 -0.023693403 0.026820673 0.036504786 -0.06632338 -0.09103052 -0.07512085
-0.07077104 -0.11659841 -0.044004917 -0.023269957 0.056028582 0.01273211 -0.071396746 0.00050605426
-0.0322105 -0.068719395 -0.04516397 0.07263325 -0.07480447 0.055571057 -0.070512496 0.029854076
-0.09219939 -0.053721245 -0.12430501 -0.07705465 -0.009001079 -0.0042431955 -0.077442706 -0.08401514
0.011692373 -0.07923216 0.025443876 0.041812457 0.00309753 -0.07642372 -0.0461289 -0.015827777
-0.0020307808 0.0035386474 0.021626744 -0.0059076687 -0.006000281 -0.085700914 -0.07596996 0.059414893
-0.10273094 -0.093702994 0.07313089 0.07436281 0.11486318 -0.044782273 0.0030817147 -0.06022895
-0.017664758 0.0322745 -0.07855692 -0.115880206 -0.064271845 -0.1066073 -0.11678657 0.023789106
-0.0064764847 -0.024531346 -0.06074968 -0.13983673 -0.05439698 0.06612415 0.0370082 0.0077693807
-0.07916359 -0.029953146 0.012299563 -0.052007258 0.02932514 -0.07058332 0.06703006 0.048152227

dense_layers.0.weight f4 [64, 128]
00000000: bd19 883d 7600 74bd e7b5 0cbb ce66 353d
00000010: 7a50 073d 560b 8fbb 96ec 7ebd 1a82 643d
00000020: e78e d7bc 1534 c33d 666e 1d3d 7e65 b3bc
00000030: c176 393d ac56 d1bd 0bc8 6cba bb19 bcbd
00000040: 93cb 8b3d 4603 313c 41a2 38bc 162e 463d
00000050: 3f49 0abc 0f44 9a3d bcc7 4ebd 7b3a e73c
00000060: 2a4e fc3d 106a 18bd 1d0c acbc 0afb 65bd
00000070: ce85 f7bd ec39 e93c 3eae 63bd 7013 1bbc
00000080: f47e d1bd 163c cbbc 3cc5 8c3d a588 e5bc
00000090: 7f83 1f3d 2c0d c73d 65eb 9fbd 864b 0c3b
000000a0: 5f71 813d 2e0c 203d 0057 3e3d 085a 053b
000000b0: 8599 bd3c 3d64 cbbb 8f94 d7bd 2a86 87bc
000000c0: 19ad 843d 78f3 28bd a35b 543c a6a4 ab3c
000000d0: 01f8 873d 5533 0dbc b16b 99bc e02a d63c
000000e0: 1177 1cbd ecf1 20bd 3982 e33d d6db 593c
000000f0: 6b5d 583d 15b3 b9bc 4ca6 da3d d380 4e3d
00000100: 8102 86bd eb9f 953d 248b 9d3d a0e6 adbc
00000110: 898a 413d 4aa0 913c 94a1 82bd 9b60 493d
00000120: b702 883c 4452 15bd d897 173e c34d f6bc
00000130: 0791 1e3c 74e3 9c3d 2992 1bbc de29 24bd
00000140: c876 0e3d 2ac6 953c b94c edbc 4668 653d
00000150: 699a 023e 88c2 f63d d088 e33c 1fbc 933d
00000160: 5fc8 e73b 117b 003d 40be d23c 2563 993d
00000170: 6da9 423d 1ce2 293d d435 953d 02ea 033d
00000180: d5e4 5b3d 700d fbbb 3419 ef3d a4c3 613d
00000190: c087 673c 2486 eabd 0c37 bd3c 9832 50bc
000001a0: 34f7 1c3c 2f2d a23d 1ba0 9cbd 1d68 6fbd
000001b0: fdb1 8f3d 51b7 ecbc 0c66 c2bd 298a 99bd
000001c0: 3010 58bd 30a3 ce3d 23c0 8c3c 4306 d63d
000001d0: 694f 2bbd c85e 8dbc e6f0 313c 3cc4 263d
000001e0: bd10 d03d 8361 67bd 997f a83d 9c3a d6bd
000001f0: c87e 463b 47f2 2cbc 8d0c b43c 2fc4 913d
00000200: 2abe 81bd 84da c3bd cf94 44bd 4c10 27bd
00000210: 30a8 193d 031c 283d 8844 af3d 8a0d 9fbc
00000220: 8f38 66bc 1a27 1a3d e931 2f3e 872c eb3b
00000230: bc24 833d cc63 f33d 3d77 083e 8c7b 613d
00000240: 18dc 78bd 6fae 023e a375 c73d db28 533d
00000250: b3ea 5abd f30f 413e e169 ee3c d79f 133e
00000260: 49f5 de3d ba5e 843d 5b24 873d c1ca 983d
00000270: e9e2 d7bc b93d 70bd 6756 a0bb 5a43 0ebd
00000280: b25a b43d 3d6b 9bbd d781 9fbd 3513 8cbd
00000290: 17ba a5bd be6f 8bbd e5f1 2d3d c237 2bbd
000002a0: 2092 39be b2d6 8c3b c5e7 c53d 2fee 43bd
000002b0: 2259 d8bd 8345 76bd 5323 083e 97be 14be
000002c0: 8220 afbc 985d 9fbd 18dd 3bbd 4b8f d1bc
000002d0: 948e 5abc b2a2 a2bd 2962 013e 84af 873d
000002e0: 1dac 2d3d 38f7 13be de79 d53b beb6 bebd
000002f0: 3d1c aabd 9d2a 7dbd cb14 3abd 30b4 c3bc
00000300: ab55 b5bd 5dfb a6bd 5adc 25be 6e2b 28bd
00000310: e200 f1bc 058a 673c 1eb8 b9bd 9e13 dd3d
00000320: 658d fcbc 1c58 003c af90 be3c 32db b93d
00000330: 38c2 473d c6c7 83bd 90b0 c23d 9131 69bd
00000340: 1cec 1dbd e9fb 83bd febc 7bbd 2092 32bb
00000350: 6ae7 ea3d b2f9 583d 420c 053d b060 ab3d
00000360: 4c57 c6bc fad1 813d 6682 b33c ba2d 5fbd
00000370: be03 eebd 62f4 193e a7ab 223e 0afe 11bd
00000380: 5eb6 bcbd 2ef3 983d 5949 0ebd e8f9 39bc
00000390: 2415 40bd 2d0b 75bd a9b4 36bd 75d2 4b3c
000003a0: 9cf0 d8bd 5eea 013e 11fa 11be 6032 553d
000003b0: 0f2d 233c bbaa 64bd 94c9 90bd 0e6f 2e3d
000003c0: c0d2 ed3c 970c 06bb 0ef0 193e 484b e5bd
000003d0: 6990 e4bd cc29 4f3c 1c5d e3bd 35e3 a13d
000003e0: 1b17 e23d 6f73 a2bd 6695 7fbd 56dc fe3c
000003f0: 9156 193d 2921 893d 2d90 393d ca93 53bd
0.06645534 -0.059570752 -0.0021470727 0.044287495 0.033035733 -0.004365365 -0.062237345 0.055788137
-0.026313258 0.09531418 0.038435362 -0.021898981 0.04527927 -0.102216095 -0.0009032494 -0.09184595
0.06825938 0.010804003 -0.011269153 0.048383795 -0.008440315 0.075325124 -0.05048345 0.028226128
0.12319596 -0.037210524 -0.02100187 -0.056147613 -0.12086068 0.028470002 -0.055586092 -0.0094650835
-0.102292925 -0.024808925 0.06873557 -0.028019259 0.038943764 0.09719309 -0.0780857 0.002140732
0.06320452 0.039074115 0.04646969 0.0020347852 0.023144493 -0.0062070177 -0.10526382 -0.016543467
0.06478328 -0.041247815 0.012961301 0.020952534 0.066391 -0.008618196 -0.01872811 0.026143491
-0.038199488 -0.039293215 0.111088224 0.013297042 0.052823465 -0.0226684 0.1067625 0.050415825
-0.06543446 0.073058926 0.076925546 -0.021228135 0.047251258 0.017776627 -0.06378475 0.049164396
0.016602857 -0.036455408 0.14804018 -0.030066377 0.009678132 0.07660571 -0.0094952965 -0.04007899
0.034781247 0.018282969 -0.028967248 0.056007646 0.12754215 0.12048823 0.027775198 0.072136156
0.0070734466 0.031367365 0.025725484 0.074896134 0.04752486 0.0414754 0.072856575 0.03220559
0.053685028 -0.007661514 0.11674729 0.055118218 0.014131486 -0.114513665 0.023097537 -0.012707375
0.009580422 0.07918774 -0.07647725 -0.0584489 0.070163704 -0.028896006 -0.0949212 -0.07497055
-0.052749813 0.10089719 0.017181462 0.10450413 -0.04182378 -0.01725711 0.010860657 0.040714487
0.101594426 -0.05648948 0.08227462 -0.104603976 0.003028797 -0.01055581 0.02197864 0.07117497
-0.06335099 -0.09563163 -0.047993477 -0.040787026 0.03751391 0.04104234 0.08557993 -0.019415636
-0.014051571 0.037634946 0.17108883 0.007176939 0.06403491 0.11884269 0.13326736 0.055049464
-0.060756773 0.12761854 0.09739234 0.051552635 -0.053446483 0.1885374 0.029103221 0.14416443
0.10886628 0.0646338 0.06598731 0.07460547 -0.026353316 -0.058652613 -0.0048931125 -0.0347322
0.08806361 -0.075888135 -0.07788437 -0.06839601 -0.080921344 -0.068084225 0.042467017 -0.04180122
-0.18122149 0.0042980546 0.09663347 -0.04783457 -0.10563876 -0.060124885 0.13294725 -0.1452583
-0.021377806 -0.077815235 -0.04586515 -0.025581023 -0.013339657 -0.07941188 0.12635101 0.06625274
0.04240047 -0.14449775 0.006514772 -0.09312199 -0.08306167 -0.061808217 -0.045429986 -0.023889631
-0.088542305 -0.081534125 -0.16197339 -0.041057043 -0.029419366 0.0141320275 -0.09068321 0.10794757
-0.03082914 0.007833507 0.02326235 0.09075011 0.048769206 -0.06434588 0.09506333 -0.056932036
-0.03855525 -0.064445324 -0.061459534 -0.0027247742 0.1146992 0.052972503 0.032482393 0.08368051
-0.024211548 0.06338878 0.021912765 -0.054486968 -0.116218075 0.15034631 0.15885793 -0.03564266
-0.09214471 0.07468258 -0.03473792 -0.011351086 -0.04689516 -0.05982511 -0.044605885 0.012440314
-0.105927676 0.1268706 -0.14255549 0.052049994 0.009959473 -0.055826884 -0.07069698 0.04258638
0.029031157 -0.0020454281 0.1503298 -0.111959994 -0.111603566 0.0126442425 -0.111017436 0.079046644
0.11039563 -0.079321735 -0.062398337 0.031110924 0.03743607 0.06695778 0.045303512 -0.051654615

dense_layers.0.bias f4 [64]
00000000: 4f70 b43d 4f58 233c c3cb 0bbd 5866 bb3c
00000010: e623 9e3c b78f a9bd b39d 3e3d 010d 05bd
00000020: e05e 51bd 95f2 403c 0996 3fbd 6243 f6bc
00000030: 57f1 7f3c 8b2b fcbc 50ec fc3c a0be 68bd
00000040: 015c 9dbc 1553 383d 2d6c 7a3c 23aa 1ebd
00000050: 8c5e 00bd f88c aabd 970f 69bd 4183 91bd
00000060: 39e4 303c 2abd cdbd 5ae9 c63c ac05 fdbc
00000070: 8522 1a3d 82e3 c13c 4054 63bd 37a3 45bd
00000080: 3b46 63bd bb03 e13c 9c1d 753d 241b 163d
00000090: b96f 863d 97e1 8fbd 9be0 cd3d 39ef ab3d
000000a0: c054 a83c d89d 92bd c25d 08bc 9b13 953d
000000b0: 5032 6fbc b54b 10bc 1f95 303d e9a5 0ebd
000000c0: db48 89bd 10fb e9bc b944 adbc bd02 c63a
000000d0: 3c06 a6bd 54db 3dbd b3ae 54bc b57c 433d
000000e0: 5407 8bbd 6a42 08bc 0913 903d f14f 6dbd
000000f0: 75fc 443d 8811 9fbd 082d f93c 10f5 9ebc
0.08810484 0.009969785 -0.03412987 0.02287595 0.019304227 -0.082793646 0.046537112 -0.032483105
-0.05111587 0.011776586 -0.046773944 -0.030061428 0.015621505 -0.030782482 0.030874401 -0.05682242
-0.01920891 0.04500111 0.01528458 -0.038736474 -0.031340167 -0.08327669 -0.056899633 -0.07105113
0.0107966 -0.10045846 0.024281193 -0.030886494 0.037630577 0.023668054 -0.05550027 -0.048251357
-0.0554869 0.0274676 0.05984269 0.036646977 0.06564278 -0.0702545 0.10052606 0.083952375
0.020548224 -0.071590126 -0.008323135 0.0727913 -0.014599398 -0.008807112 0.043110963 -0.034826193
-0.06703349 -0.028562099 -0.021150934 0.0015107017 -0.08106658 -0.046351746 -0.012981105 0.04772635
-0.06788507 -0.008316616 0.07034881 -0.057937566 0.048092324 -0.07767016 0.03041698 -0.019403964

dense_layers.2.weight f4 [14, 64]
00000000: 9952 d63b ac0a 193e cae9 d4bd a845 023e
00000010: f8e2 cf3d 535b f93d 4b2f e63d 588d 023e
00000020: 3b65 fcbd c5fa 0a3e df6b 1f3d c511 9cbd
00000030: 0a5f 19be 4c22 0bbe 5c12 133d f5b7 c3bd
00000040: 243b 24be 8c5b 28bc 0676 163e 9178 74bd
00000050: 37f0 d1bb 035f c43d 9cb9 e73d 598b cebd
00000060: cf52 7cbd 7b35 2f3e 8a1b d3bc 156a b33d
00000070: a9b7 113e 0d74 cd3d a627 063e 15cb c6bd
00000080: 7b29 8fbd 6dec e3bc 30c6 e63c 51bb 933c
00000090: c514 973d b4ce c5bc 7dcc d1bd 16bc a3bd
000000a0: 89e1 423c 3441 e13d 15b1 153d 7c1b a63b
000000b0: 178c 9a3c 1e37 c0bd 0650 28be d723 a1bd
000000c0: 55af 50bd 0172 03bd 1b95 4c3d c742 ec3d
000000d0: a562 67bd ee81 383d f197 5f3d a838 edbd
000000e0: 442a 393e b36e ec3c dc5e 10be 83ea 1c3e
000000f0: 9b43 d2bd 069d a63c cff6 783d 6eb7 d23d
00000100: 39e5 4d3c 7490 163a e198 0a3d 7d18 36bc
00000110: 4846 17be 0483 babd e46e 463d a3b2 90b9
00000120: 569e 9ebd feb2 60bd 39b2 863d 9e8d 03be
00000130: 253a 1cbe 54f8 59bd 29da 77bc 9630 6e3d
00000140: 4550 ebbd a4f8 0d3b 5599 703c c18d b43d
00000150: a861 dcbd 8ed5 6dbd b9a6 94bb be6e a53d
00000160: 1333 933d eb27 1d3d c47f 823d 3b49 d6bd
00000170: 0fab 893b f9f9 153e 6d60 afbc a684 893d
00000180: 3ba1 0bbd f45d ea3d ebeb 44bc 0559 2a3d
00000190: 87e6 2b3d 5598 d4bc a5c4 c9bd b73e 9cbd
000001a0: ee6a 12be abec a2bd 2adb aabc 8528 6f3d
000001b0: 2b10 073e 9187 04bb b4a5 21be 3362 acbd
000001c0: 1dc2 063e 546d 683d c1d8 fc3d 276d 65bd
000001d0: c1e6 013e 26e3 f83d f51b 6ebb 8c20 083e
000001e0: e919 ec3d baa4 e53c 276a d8bd 38b3 003d
000001f0: 77bf a83b a1dc 123e e3bd f9bc eeb7 0cbe
00000200: fe8c 5dbd 1bcb cfbd 7df0 da3d 9152 00bd
00000210: bd8a 51bd c69a 27be 6d83 143e 7621 883d
00000220: 861d a63d 5615 063c b644 593e ea94 0fbb
00000230: 6cfb 903d 62ab 22be 9805 04be a5ee cebc
00000240: 737e 4c3d 71e6 423d 6ab2 93bd 4521 4ebe
00000250: 7f76 ac3d bcaf 8c3d c767 b53d 0593 613e
00000260: 162c b5bd 2bed 57bd b69a edbd f16f be3d
00000270: 8740 2bbe 687a 78be 4f3e 803c 193c 39be
00000280: c903 7c3e 4cf7 7bbc 5df4 d33d f936 c9bd
00000290: e61e 01be f314 593e 05d2 c53d 079c 4a3e
000002a0: 2eea 3d3d d9f8 583d ac23 6cbb d249 22be
000002b0: c81b 91bd 6afa 1ebe 2f62 d53b d463 a23c
000002c0: 9fba 1cbe cddc 663e 6b1b 73bd b35d ac3d
000002d0: e99f fbbd 7f47 d33d 44fc 823d ae75 94bd
000002e0: 24f6 3d3e c6bd 66bc 4f11 7ebe 4a35 c6bc
000002f0: fca8 9ebc bd73 d03e fba0 113e e2ee 54bd
00000300: c9ac cdbd b7d8 4d3c e3f6 fa3d e0bb c3bd
00000310: a224 35bd ec69 473d 9483 02be 4ff0 843d
00000320: 7825 f43c 86a4 083e 416c e0bd 1049 cf3b
00000330: 5428 9bbd b339 d23d 98ba fbbd 69cc ebbb
00000340: 9a2a f9bd f479 f1bd 5427 c3bb e524 1e3c
00000350: 85c3 0abd feb5 0a3e d953 7abd d28e 8d3b
00000360: 0eed 8b3d 6b30 873d 8ceb c43d 00dc 9dbd
00000370: 949f 743d 0d33 603d a262 f53d 3e70 e33d
00000380: 1730 b8bd faf2 fd3d d01f 15be 05fe d03d
00000390: ea72 b03c f1b1 9dbd 703c babd 3e1d 13be
000003a0: 956e 48bb 6c88 db3d 3103 e9bd 721d 033e
000003b0: 92ad b7bc 7638 973d 1e1c 15be 3036 ef3d
000003c0: 0187 5b3d 606c e1bd 93b8 30bd 1471 d5bd
000003d0: f378 f83d 85a9 7abd bdae 04be 76c2 c83d
000003e0: 7ce4 c13c c555 4c3d 1376 e13d 8ecd bd3c
000003f0: 4260 ddbd dc3d 41bd de01 95bc a281 ac3d
0.006540608 0.14945477 -0.10396154 0.12721884 0.10150713 0.12175622 0.11239489 0.12749231
-0.12323996 0.13572223 0.038921233 -0.07620577 -0.14977661 -0.13587302 0.03590618 -0.095565714
-0.16038185 -0.010275733 0.1469346 -0.059685294 -0.0064068097 0.095884345 0.11314699 -0.10085172
-0.06160241 0.17110245 -0.025769968 0.08760468 0.14230217 0.100319006 0.13101062 -0.097067036
-0.06990334 -0.027822698 0.028170675 0.018033655 0.07377008 -0.024146415 -0.10244081 -0.07994859
0.011894592 0.10998765 0.03654583 0.0050691944 0.018865628 -0.09385513 -0.16436777 -0.07868164
-0.05094846 -0.032091144 0.049946886 0.11536174 -0.05649056 0.045045786 0.054588262 -0.11583072
0.1808253 0.02886138 -0.14098686 0.15323834 -0.10266801 0.020338546 0.06078225 0.10288893
0.012566858 0.0005743571 0.033837203 -0.011114237 -0.14772904 -0.091070205 0.048445597 -0.00027598915
-0.07745044 -0.0548582 0.06576962 -0.12846991 -0.15256555 -0.05321534 -0.015127697 0.058151804
-0.114899196 0.0021663094 0.014684995 0.088161 -0.10760814 -0.05806499 -0.0045364765 0.08077763
0.07187476 0.038368147 0.063720256 -0.10463186 0.0042013 0.14646138 -0.021408284 0.06714754
-0.03408931 0.114437014 -0.012019138 0.041588802 0.041967895 -0.025951544 -0.0985196 -0.076291494
-0.14298603 -0.07955297 -0.020856459 0.05838825 0.13189761 -0.0020222405 -0.15785867 -0.084171675
0.13159986 0.05674489 0.1234603 -0.0560123 0.12685682 0.121527 -0.0036332582 0.13293666
0.115283795 0.02803265 -0.10567122 0.031420916 0.0051497775 0.14341976 -0.030486053 -0.13742039
-0.05408954 -0.10146161 0.10690401 -0.03132874 -0.0511577 -0.16367635 0.1450326 0.06647007
0.081111 0.008183798 0.21217617 -0.0021908828 0.07079205 -0.1588569 -0.12892759 -0.025260279
0.04992528 0.047583047 -0.07211764 -0.20129879 0.08421039 0.06869456 0.088576846 0.2202874
-0.08846299 -0.052716415 -0.116017744 0.09298695 -0.16723834 -0.24265444 0.015654711 -0.18089332
0.24610819 -0.015378784 0.10349343 -0.09824938 -0.12609443 0.21199398 0.09659199 0.19786082
0.04636591 0.052971695 -0.0036032004 -0.15848473 -0.07085377 -0.15525213 0.0065119485 0.019822992
-0.15305565 0.22545166 -0.05935232 0.08416309 -0.1228636 0.10316371 0.06395772 -0.07249008
0.18550926 -0.014083331 -0.2481129 -0.024195332 -0.019367687 0.407133 0.14221565 -0.05198563
-0.10042722 0.012563876 0.12254121 -0.09557319 -0.04422439 0.048685 -0.12745506 0.06491148
0.029803023 0.1334401 -0.10958148 0.0063258484 -0.07576051 0.102649115 -0.12291449 -0.0071959984
-0.12166329 -0.11790839 -0.005955616 0.009652351 -0.03387787 0.13545987 -0.06111512 0.004320004
0.06832324 0.06601032 0.096152395 -0.07707977 0.059722498 0.054736186 0.11981703 0.11105393
-0.089935474 0.1239986 -0.14562917 0.102047004 0.02153917 -0.07699955 -0.09093559 -0.14366624
-0.003058349 0.1071938 -0.11377562 0.12804201 -0.022421632 0.07383816 -0.14561507 0.11680257
0.053595547 -0.11006999 -0.043144774 -0.104219586 0.12132444 -0.061196823 -0.12957282 0.098027155
0.02366852 0.049886484 0.11008849 0.023169305 -0.10809375 -0.047178134 -0.018189367 0.08423163

dense_layers.2.bias f4 [14]
00000000: 1831 ca3d d5a6 55bd 0948 a5bb 02af 10bc
00000010: eb22 11bc 1b7a 1d3c 9c39 bebc bba2 dd3b
00000020: 85e7 d3bc 3fa9 823d 04e4 07bd 5906 863c
00000030: 78b1 44ba ecc2 583d
0.09872645 -0.052161057 -0.0050439877 -0.008830788 -0.008858423 0.009611632 -0.02322083 0.0067637837
-0.025867233 0.063799374 -0.033176437 0.016360449 -0.00075032515 0.052920267
