New_project/modelo_simples9.onnx (onnx, 183092 bytes, 5 tensors)

output_layer.weight f4 [14, 100]
00000000: e0c6 3a3d fddd 1bbd 4798 033d 606f 1abd
00000010: 8735 7a3d 475b 48bd b313 e43c 7315 263c
00000020: ad8e 233d e7b3 59bd f71c 4e3d c0be 2ebd
00000030: e3ff 10bd 73f9 6fbd 3a4e 383d fd2d 71bd
00000040: 1d9b 4bbd 5742 4fbd bd5a a0bd c046 09bc
00000050: 4d6b 25bc 30bb bfbd 0d5c 3cbd 83e8 a4bd
00000060: fad3 933d 3a35 113d 13db c7bd 3dfb c7bd
00000070: da7c 9b3c 33c9 78bd 2acc 673d dbab bc3d
00000080: 8056 7b3c 1ad6 6bbc daa6 0bbc b7c7 1e3d
00000090: edf7 b6bd 50d1 8bbd 6d12 8e3c 6d5b eabc
000000a0: 3dbc 76bd 2040 b8bd 30a8 33bd 451b c2bd
000000b0: e79b cbbb 0087 b3bb 8365 2cbd e3af 913d
000000c0: f201 803d 2834 b5bd f79b 6ebd 1ae4 60bc
000000d0: b33d a03b ad60 693d 15a0 be3d baac c4bc
000000e0: cdd2 d2bb 3f35 903d f749 8b3d aff8 82bd
000000f0: 85f3 ba3d 3034 c33d 2df2 a93c 6b81 88bd
00000100: 9d97 4bbd 0d42 32bd f303 3b3c 40c3 8e3c
00000110: 33a1 7ebc c763 4dbd 3d66 4bbd 007a 343c
00000120: 6dc5 24bd edde 0d3d 671c 1e3c 3dc9 aabd
00000130: da8b 92bd 329c 91bd 9a07 773d d783 a2bd
00000140: faa6 fdbc b7f4 003d fdd6 43bd 0f72 873d
00000150: ebd9 b6bd 9a93 24bb e099 89bc 332d 2bbb
00000160: 2023 cdbc 1ad9 5a3d 6a8d 563d 339d a8bd
00000170: 1a36 6cbd 6a5f 05bd 0aff aabd e240 a0bd
00000180: 5a6b 2cbc 70cd 5dbd 806c 4e3c 3d04 35bd
00000190: 00cd ffbb 0768 c43d 12f2 9f3d cd53 11bd
000001a0: 6abd 3dbd cdee f03b 70d4 613d 07ac 163d
000001b0: f01d 003d cf7b 9ebd 7d75 9f3d cd54 003b
000001c0: 5aa8 61bd 032f 09bd a335 b63d 5a8a 073d
000001d0: b356 593d 2a97 43bd 5af6 02bc a341 4a3d
000001e0: 4d68 26bd add1 eabc 6ad9 7a3d 4316 8e3d
000001f0: 77dc aebd 5abb ccbc 637c 40bd bb03 c5bd
00000200: 40bb 95bd fadc 31bd d0bb 853d 330b 7d3c
00000210: a53f cb3d 3b9e ab3d f300 0bbc e748 75bc
00000220: b39d dabc bdce 4b3d 9ab3 bb3c 3359 e5bb
00000230: 67fb 843b 5382 a9bc c0e8 9dbc cb88 923d
00000240: f7e7 a03d 7374 4b3d 20f2 0bbd 87c3 f03c
00000250: b39e d33b 3010 b03d f05f 38bd 0281 ab3d
00000260: 4dc8 c6bd cd88 6abd c0ae f1bc 723d a93d
00000270: 2ac0 413d fa77 c83c efa7 923d e210 8c3d
00000280: 5a55 1e3c a703 18bc da3f 62bc 18d3 c23d
00000290: 3a5d c83d e0f7 5f3d ef83 9c3d e5b3 a73d
000002a0: da06 29bd 43de 863d e0aa 0d3d 1a40 73bc
000002b0: 0057 773c 57c2 7bbd f76a 14bd 9853 a9bd
000002c0: b05a bfbd 873c 543d 5261 963d 3a7a 22bd
000002d0: 235b 01bd 809a 6cbc 27e3 2e3c 2018 db3c
000002e0: 9abd d63a fa71 f5bc 2d46 b0bd 17a3 5d3d
000002f0: 6f14 803d 10df 44bd 5fcf 99bd d80e 9a3d
00000300: 8d48 51bd ea34 5f3d f381 42bc c098 88bd
00000310: f36b 783d d385 3dbd ddd3 6e3d 7de2 92bd
00000320: 9f0c 9fbd 17f8 6c3d 88be 923d 80cf 703c
00000330: 939d b83c 9a2f ed3c 2743 613c cd88 083d
00000340: 278c 1bbc 5bdb c3bd 404e 54bc cd58 93bc
00000350: d364 ca3d 6da9 443d cf12 983d ca87 6d3d
00000360: 6db5 e63c 5044 1d3d 659c 99bd 5066 0d3d
00000370: 6056 86bc bd93 bd3d e552 c4bd 1041 633d
00000380: 072c 0d3d d301 8abc eaff 23bd 0da8 3dbc
00000390: c700 bebc 355a 9f3d 2d6b 5b3d a0e9 e73c
000003a0: fb7d babd 38d2 833d 7769 0bbd 1a87 433d
000003b0: afc2 b3bd 7a09 c4bd bb92 93bd 7d9b 4cbd
000003c0: dd0d 9cbd 8735 ecbc 4d6f e53b c70d 27bd
000003d0: 0093 9dbd d391 9b3d 8856 c9bd 93b1 863d
000003e0: 874b 9c3c 2da5 15bd a04d 1cbd 479a 543d
000003f0: 5a0d df3c edf1 f6bc 3022 2fbd ef8e a5bd
0.04559982 -0.0380535 0.032127645 -0.03770387 0.061086204 -0.048915174 0.027841425 0.01013695
0.039930988 -0.053150084 0.05032059 -0.042662382 -0.035400283 -0.058587503 0.044996478 -0.05888175
-0.049708474 -0.050600376 -0.07829807 -0.0083786845 -0.010096383 -0.09361875 -0.045986224 -0.080521606
0.07218166 0.03545115 -0.09758582 -0.09764717 0.018980432 -0.060738754 0.05659119 0.09212466
0.015340447 -0.0143943075 -0.008523667 0.03876468 -0.08934007 -0.068270326 0.01734277 -0.028608048
-0.06023811 -0.08996606 -0.043861568 -0.094778575 -0.0062136534 -0.0054787397 -0.042088997 0.07113626
0.06250371 -0.08847839 -0.05825421 -0.013726259 0.0048901676 0.056976963 0.09307877 -0.024008144
-0.006433821 0.07041406 0.06801217 -0.06395089 0.09128479 0.09531438 0.020745361 -0.066653095
-0.049705137 -0.043520022 0.011414516 0.017427087 -0.015541363 -0.050143983 -0.04965805 0.011015415
-0.040227342 0.034636427 0.009650326 -0.083391644 -0.07155581 -0.0710987 0.060309984 -0.07935303
-0.03096341 0.03148338 -0.04781245 0.06613552 -0.08928283 -0.0025112391 -0.016797006 -0.002611947
-0.025041163 0.0534297 0.052380957 -0.08233108 -0.057668783 -0.032561697 -0.08349426 -0.078248754
-0.0105236415 -0.054151 0.012599111 -0.044193495 -0.0078064203 0.09590154 0.07809843 -0.03548031
-0.046323217 0.007352686 0.055134237 0.03678515 0.03127855 -0.07738458 0.07786081 0.0019581795
-0.055092193 -0.0334921 0.08896949 0.033090927 0.0530612 -0.047751583 -0.007993305 0.049379002
-0.040626813 -0.028664434 0.0612425 0.0693784 -0.08538144 -0.02499168 -0.046993624 -0.09619852
-0.07311106 -0.04342363 0.06529963 0.015444565 0.099242486 0.083797894 -0.008484113 -0.014970995
-0.026686525 0.049757708 0.02291279 -0.0069991588 0.00405829 -0.020692026 -0.019276023 0.071549974
0.07856744 0.0496716 -0.034166455 0.02939011 0.0064581274 0.085968375 -0.045013368 0.08374216
-0.09706173 -0.05725937 -0.029502273 0.08263673 0.047302403 0.024471272 0.07160937 0.06839158
0.009663904 -0.009278215 -0.013809169 0.09512919 0.097834066 0.05467975 0.07642352 0.08188609
-0.0412663 0.06585362 0.034586787 -0.014846826 0.015096426 -0.061464634 -0.036234822 -0.08267897
-0.09343469 0.051815536 0.07342781 -0.039667346 -0.031581055 -0.014441133 0.0106742745 0.026744902
0.001638341 -0.029961575 -0.08607135 0.054110613 0.062538974 -0.04806429 -0.07510256 0.075223625
-0.05109458 0.054493822 -0.011871803 -0.0666976 0.060649823 -0.046270203 0.058307517 -0.071721055
-0.07766079 0.057853784 0.07165247 0.014697909 0.022536075 0.028953362 0.0137489205 0.03333359
-0.009493864 -0.09563323 -0.012958109 -0.01798668 0.09882512 0.04801314 0.074254625 0.057990827
0.028162682 0.038395226 -0.07500533 0.0345214 -0.016398609 0.092566945 -0.095861234 0.05548197
0.034465816 -0.016846573 -0.04003898 -0.011575711 -0.02319373 0.077808775 0.053569008 0.028309643
-0.0910606 0.064365804 -0.034036126 0.047736265 -0.08777367 -0.0957212 -0.07205721 -0.049952973
-0.07619832 -0.028834118 0.0070017935 -0.040784623 -0.07694054 0.07596173 -0.09830958 0.06576838
0.019078983 -0.036534477 -0.038159966 0.051904943 0.027228046 -0.030144656 -0.042757213 -0.08083903

output_layer.bias f4 [14]
00000000: 23a0 c03d daab afbd 2fde a4bd cd3c fcbb
00000010: f71f 23bd 7383 503d f267 b43d 4d33 593d
00000020: 7a69 643d 3a05 afbc 781f b13d e792 eebc
00000030: eb07 94bd 0a37 44bd
0.09405544 -0.085777 -0.08050191 -0.0076976777 -0.039825406 0.05090661 0.088088885 0.05302744
0.055764653 -0.021364797 0.0864858 -0.029122783 -0.07228073 -0.04790405

onnx::LSTM_122 f4 [1, 400, 7]
00000000: 675b 64bc aadd 91bd 2ad3 813d c2a0 8fbd
00000010: 274b a93c 60c7 b5bd 83ef 9ebd 4575 c73d
00000020: c3b8 2abd 3256 9b3d 37bf c03d c393 213d
00000030: 2506 b03d a28d a13d 73eb 9fbd 9088 543d
00000040: 6233 c63d 2229 a6bd b3c3 50bd d5bf a8bd
00000050: cdc9 273c 5a3a db3c 9a60 ea3b 9320 533d
00000060: 2ab9 56bd b37f 033c 27b7 243c 0010 65bd
00000070: 270e e9bc 771d c6bd ba94 a0bc fd71 493d
00000080: 1a11 95bb c769 833c 20ad 033d 17a6 a4bd
00000090: 3a76 b83c 153b 9f3d a21d 95bd 0de9 7d3c
000000a0: e0a6 77bd d836 b13d cf4d a4bd 2ad1 663d
000000b0: 9ddd 07bd d011 37bd 6a3c 46bd 405b 66bd
000000c0: 30f9 b2bd 6afb 193d e737 4bbc e286 963d
000000d0: 4da5 5b3c 9ad9 afbc 6701 bebc 5adb 103c
000000e0: e2cd 9b3d c012 563c ab3f c5bd a0ef 98bc
000000f0: cac8 983d fa52 6e3d 9da8 6b3d 1af0 48bd
00000100: ad0b 4abd a7d6 6b3d 1dbb 6f3d 5557 b0bd
00000110: a820 a1bd 93ce 823c 833f a6bd 3bdc 8fbd
00000120: e08c 803d e045 843d 532c 28bd 8d1f 6cbc
00000130: 2060 703d 75df b1bd bb96 aa3d b35c 6abc
00000140: a86b 94bd bd7a b33d cd22 b63d 5a67 1dbd
00000150: 1a7b f63c ad36 d4bc cdf0 9d3c b348 223c
00000160: ca21 53bd b755 633d 80c2 fc3c 6a9d 5abd
00000170: 7392 983d 2d6a b3bd 1ace 4bbd 1500 ac3d
00000180: 3090 9dbd b3ec cc3b a370 503d dd56 963d
00000190: 520a 823d d377 a7bc 3302 053d 2563 92bd
000001a0: 67cb cb3d 0d64 1d3c 2d33 82bd df45 88bd
000001b0: 6b6c b23d c706 a8bc fa60 c63c 9a62 893b
000001c0: 2228 843d 0b68 8a3d 9d04 6abd 1f89 b13d
000001d0: e0ec af3d 4d93 8a3b 4a9d b2bd e7ee 21bd
000001e0: 8dbb b83c 83b8 a0bd 4033 07bc 3aae 2dbd
000001f0: 87d1 b9bc 0750 81bd 33e6 3e3b 526f 9d3d
00000200: ef87 b0bd 13d4 8dbc ed93 38bd 18fc abbd
00000210: cd25 94bb b368 fc3c f7f6 643d 8089 a9bd
00000220: a811 8ebd aa6b 443d 6d56 c63c aac2 cc3d
00000230: ed76 8cbc 5f24 c0bd 73ed 77bd c7ea 95bc
00000240: 3331 9a3a cd58 fd3c c845 c3bd d5a8 cc3d
00000250: 8889 923d dd50 00bd d378 e83c 374e 24bd
00000260: 878f b83d 80e2 cb3c e700 c93c 1d2d b33d
00000270: 03f9 72bd 47d0 12bd b343 4abd 0f00 c5bd
00000280: 653e c5bd 33f7 a2bc 40bf be3c cd98 413b
00000290: 2794 d7bc f0e2 5e3d ed22 ac3d e77f 763c
000002a0: 9ae1 2abc 2795 2dbd cd9a 7bbd 7fd7 a73d
000002b0: e7f8 5cbd 0ab9 b03d 4d87 513d 2730 c23d
000002c0: dd9c c2bd 8d57 63bd f317 523c 5a32 f43c
000002d0: a75e 28bc dd01 84bd 72a4 bdbd 3386 af3b
000002e0: c759 943c 7385 0fbd 1a87 cc3d 67fe cbbd
000002f0: b337 a93c bb19 923d f77e bb3d 2bf7 b1bd
00000300: 98bc a4bd 9a99 37bd 8706 e53c cdcc cabb
00000310: 53fd 0abd 1aca 033d 255c a03d 9a38 303d
00000320: e3a9 a2bd 7057 373d 07f3 243d 7a5a 84bc
00000330: a030 b93c ed6a 983c 8341 a73d 831f c3bd
00000340: fd03 6f3d 0022 cabd 1ab8 613c 332a 2cbc
00000350: f512 853d ba21 e43c 0d87 0e3d fd9a 853d
00000360: 7ae5 a8bd 8d50 a73d 93dc 82bc ad19 6ebd
00000370: 15c8 8bbd cdb8 b3bb cd3b 01bd a773 c03d
00000380: 00bd 11bc 1dce 36bd 3de7 bf3d 005f 36bb
00000390: 522c c83d 43a8 5cbd fd1d 53bd 908c 27bd
000003a0: f323 093d c78f 78bd 78f5 a43d c23e 823d
000003b0: 8098 4a3d f0bf cc3d 0b34 813d 6569 b7bd
000003c0: 4db5 743d c828 94bd 4a4a 12bd 181c c2bd
000003d0: ebec be3d 806f b8bc 1369 93bc 139d debc
000003e0: da8f 783c e7d1 27bc ab9f 87bd 9a7b c3ba
000003f0: 2739 e83c fa95 8d3c 9a86 27bc 0036 f83b
-0.013937808 -0.07122357 0.063391045 -0.07013084 0.020665718 -0.088759184 -0.07760527 0.09739164
-0.04168011 0.075848 0.09411471 0.039447557 0.08594922 0.078883424 -0.0780858 0.05188805
0.09677769 -0.08113314 -0.050967883 -0.08239714 0.010240984 0.026761223 0.007152629 0.051544737
-0.05242268 0.008026051 0.010053433 -0.055923462 -0.028449131 -0.09673589 -0.019602168 0.049180973
-0.004549158 0.01604165 0.032147527 -0.080394916 0.022517312 0.07774941 -0.07281043 0.015497458
-0.06046188 0.08653039 -0.08022653 0.05635182 -0.03317033 -0.04469472 -0.04839746 -0.056239367
-0.08738935 0.037593283 -0.012403465 0.073499456 0.01340611 -0.021466065 -0.023194028 0.00884136
0.076076284 0.013065994 -0.09631284 -0.01866895 0.074601725 0.0581846 0.05753385 -0.049057104
-0.04932754 0.057577755 0.058528055 -0.08610407 -0.07867557 0.015967643 -0.08117583 -0.070244275
0.0627687 0.0645864 -0.041057896 -0.014411819 0.058685422 -0.08685199 0.08329531 -0.014304328
-0.07247096 0.08763645 0.088933565 -0.03842864 0.030087996 -0.025904978 0.019279862 0.009905028
-0.051545896 0.055501666 0.030854464 -0.053372778 0.07449808 -0.08760486 -0.0497571 0.08398453
-0.07693517 0.0062538027 0.05088867 0.073407866 0.06349625 -0.020442879 0.0324728 -0.071478166
0.09950905 0.0096063735 -0.06357417 -0.06653952 0.08712085 -0.020511044 0.024216164 0.0041926624
0.06452967 0.06758126 -0.057133306 0.08668732 0.08590102 0.0042289854 -0.08721407 -0.039534476
0.022550369 -0.07847693 -0.008251965 -0.042402484 -0.022682918 -0.06314092 0.0029128909 0.07687248
-0.08619677 -0.017313039 -0.045062948 -0.083976924 -0.0045211078 0.030811643 0.055899587 -0.08278179
-0.069369614 0.04795424 0.024211133 0.09998067 -0.017146552 -0.09381937 -0.060529184 -0.018300427
0.001176393 0.030926133 -0.09534794 0.0999314 0.07155138 -0.031327117 0.028377926 -0.040113654
0.09011751 0.024888277 0.024536563 0.08748839 -0.059319507 -0.03584316 -0.04938097 -0.09619152
-0.096310414 -0.019893264 0.023284554 0.002954054 -0.026315762 0.054415643 0.08405099 0.015045143
-0.010429764 -0.04237857 -0.061426926 0.081953995 -0.05394831 0.086290434 0.051154424 0.094818406
-0.095025755 -0.055503417 0.012823093 0.029809166 -0.010276473 -0.06445668 -0.09259881 0.005356574
0.018109215 -0.035039376 0.09986706 -0.09960633 0.020656442 0.07133814 0.09155076 -0.08689722
-0.08043784 -0.04482422 0.027957214 -0.006188965 -0.033932995 0.03217516 0.07830075 0.04302273
-0.079425596 0.04476112 0.04027083 -0.016156424 0.022606194 0.018605674 0.08166792 -0.09527495
0.058353413 -0.09869766 0.013776803 -0.010508108 0.064977564 0.027848113 0.034796763 0.06523702
-0.08246894 0.08169661 -0.015974319 -0.058129955 -0.06825272 -0.0054846765 -0.03155117 0.09397059
-0.008895159 -0.04463016 0.09370277 -0.002782762 0.097740784 -0.053871404 -0.05154227 -0.040905535
0.03348155 -0.06068399 0.08054632 0.06359626 0.04946184 0.09997547 0.063087545 -0.08955649
0.059743214 -0.07234341 -0.03571538 -0.09478015 0.09322532 -0.022514105 -0.01799444 -0.027174508
0.015171016 -0.010242916 -0.06622251 -0.0014914155 0.028347565 0.017283428 -0.010224963 0.0075747967

onnx::LSTM_123 f4 [1, 400, 100]
00000000: b08d 7e3d 73b7 f93c 275f 66bc bbb9 c2bd
00000010: 32e5 b3bd d380 26bd baa9 db3c 87d3 2c3d
00000020: 63ea bbbd e324 c63d c306 63bd 9337 6d3d
00000030: da35 863c b3b8 dabb c2d1 9fbd f5a3 c2bd
00000040: 9737 00bd ba82 7a3d c0d4 0c3c a3db 92bd
00000050: f026 15bd 63e7 08bd 677a 723d 8d42 2abd
00000060: 67ff 09bb 5a9c 123d 7d53 afbd cd5f c8bc
00000070: e86e 9e3d 937c a33c 9aa1 4e3c e80f c23d
00000080: a0d5 7f3d 40f7 fbbc f3c7 b8bc c5bf b93d
00000090: cdfc 57ba 3376 a3bb 283b c53d 304b 6bbd
000000a0: 876c b8bc 0a19 91bd 1d2f b5bd 00f9 753c
000000b0: 40fe 963d 8df5 a4bd 601f aabd 2075 49bd
000000c0: cd7c 333a e724 adbb 0afb 5c3d 02e1 b5bd
000000d0: 1aad 7cbd 60ed f83c 7a47 c03d e7bf 2e3d
000000e0: 83b3 223d 9a03 a13c 400b 583d da30 d5bc
000000f0: 679f f1bc 5d90 57bd d347 c73c e7d0 93bb
00000100: 1b49 81bd 8d15 2dbc ea68 0bbd 4d9c d43b
00000110: b2e1 90bd faab ca3c 3d09 6f3d 1a8b 10bd
00000120: aaa5 b1bd cdca b7bc fd55 c83d 0dc1 2d3d
00000130: a311 083d 0704 7f3d 6006 a63c 207a d23c
00000140: 428c a03d 1566 873d fa97 a03c 8b8a be3d
00000150: 7ad5 ab3c 13bf a93d 3333 71b8 9ad5 34bd
00000160: 430d 383d 4dec 50bd 2dd6 3fbd 1f51 9c3d
00000170: 57a5 4f3d 3d8b 34bd 6787 263c a792 053c
00000180: 33d6 df3c 9351 87bc c752 8ebd c7ff a9bc
00000190: 0d09 203d 8d6c 9f3d 5ad0 663c d3d0 3a3d
000001a0: 1aab 76bc 53c4 253d 929e 8cbd ca1e 9e3d
000001b0: 0a71 9e3d a719 9cbc 90aa 4b3d 9af5 cbbc
000001c0: 6a3b 9dbd d3c9 223d 8a2a 3b3d 6d81 24bd
000001d0: 9372 473d 724b 933d 1343 c43d 3f7c bbbd
000001e0: 23e1 c4bd b583 aa3d 0704 a93c 10d2 733d
000001f0: 6004 d93c 18a6 813d 486e 83bd da1e 03bd
00000200: 5a6f 6fbc 003f a2bd 2faa a5bd e7f1 6d3c
00000210: 87c4 0e3d 5a7b c23c 3387 1cba 9a99 c5b6
00000220: 6fd7 c63d 0780 9abc 65ca b73d 2dad dc3c
00000230: 00f6 6f3c 3730 76bd cd4a 21bb e78c 9abd
00000240: 9a8c be3b fa3d f3bc 4a6e 3ebd ca7d 66bd
00000250: 1a70 cbbd edb3 783d 1a4a 993b 9207 a9bd
00000260: 47d9 5fbd 8d46 0d3d cd22 a6bc c0d6 6c3d
00000270: 6773 9dbb 8dbf e1bc 2d9f 943d 5275 9fbd
00000280: 63ad b6bd 7bc4 9e3d 6720 7c3b b0b7 803d
00000290: 4d5c 9f3c 9062 773d b810 bbbd 9044 973d
000002a0: ad8d a6bd 33da 203c 6383 233d 679f 3f3b
000002b0: 8022 2d3d 53b2 a5bc da36 18bc c079 af3c
000002c0: 4fa3 c33d 67ae 413a 50b0 2cbd 37d6 253d
000002d0: 001e 42bd ed75 cf3c 93c2 483d 4d81 19bc
000002e0: 3d27 3abd a869 803d cdbe 7dbb 476c 76bd
000002f0: 95c6 c6bd 2a75 94bd b326 e2bb 6714 dabb
00000300: a7c2 b9bc 4d4e e33c 2a27 8a3d c707 b3bd
00000310: 1de5 853d 37a9 a9bd dd94 8fbd 33fb babd
00000320: 5d0d 0dbd 83da 11bd 10c8 403d 979f b3bd
00000330: 8d06 903d f31e 66bc 7da8 923d ed1d f23c
00000340: 9aa1 c5bc ef4f c73d 9f32 95bd 5bf3 a43d
00000350: 876d 83bc e7ad 73bd 77d5 713d 9a67 5f3c
00000360: b792 8f3d 331f 543b 1054 57bd c5fa 9b3d
00000370: 9ad1 c63c e005 85bd 4d96 efbb 48a6 9abd
00000380: 8daf 2f3d c340 1e3d ff3e a83d a7fe 653d
00000390: 2395 6e3d 77a5 0d3d 00fa 12bb fa45 023d
000003a0: badc 0f3d ba8b 363d b55c c0bd 6057 6dbd
000003b0: 4743 85bd 678d 363b 9aa6 30bc 1377 413d
000003c0: cd7c 5d3d 7aa1 593d 5a6f 5abd 9a1e 80bc
000003d0: e019 903d 4d9e 21bc 1507 c03d 6a6f 8fbd
000003e0: 2f5c cbbd 1064 69bd 53ef 1fbd 3b00 cc3d
000003f0: 1a0b 5ebd 60a0 48bd 389c 8e3d 6736 e63a
0.062146842 0.030482983 -0.014060772 -0.095080815 -0.0878395 -0.0406502 0.02681433 0.042193916
-0.09175565 0.09675004 -0.05542637 0.057914328 0.0163831 -0.00667485 -0.0780368 -0.095039286
-0.031303015 0.061159827 0.008595645 -0.07170799 -0.036414087 -0.033423793 0.059198763 -0.041567374
-0.0021056773 0.03579364 -0.08560846 -0.024459744 0.077359974 0.019956863 0.012611771 0.0947569
0.062459588 -0.030757546 -0.02255628 0.0906978 -0.00082392694 -0.0049884557 0.09630424 -0.05744475
-0.022512687 -0.07084854 -0.08846877 0.0150129795 0.07372713 -0.080546476 -0.083067656 -0.049183965
0.0006846905 -0.00528394 0.053950347 -0.088808075 -0.06168852 0.030386627 0.09388633 0.04266348
0.039721977 0.019655038 0.052745104 -0.02602427 -0.029494954 -0.05262791 0.02432624 -0.004510987
-0.06312772 -0.01056422 -0.0340356 0.006488359 -0.07074298 0.024740208 0.05835842 -0.035288908
-0.08674176 -0.02243557 0.09782026 0.042420436 0.033219945 0.0622597 0.020266712 0.025693
0.07839252 0.066112675 0.019603718 0.09303769 0.020975817 0.08288398 -5.750656e-05 -0.04414902
0.044934522 -0.051006604 -0.046835113 0.0763266 0.05069479 -0.0440781 0.010164118 0.00815264
0.027323818 -0.01651839 -0.06949382 -0.020751847 0.03907113 0.07784376 0.014087761 0.045609307
-0.015055442 0.040470432 -0.068661824 0.07720716 0.07736404 -0.0190552 0.049723208 -0.024897385
-0.07677348 0.039743256 0.045694865 -0.040162493 0.04869325 0.071921244 0.09583106 -0.091545574
-0.09613254 0.083259024 0.020631803 0.059526503 0.026491344 0.06330508 -0.06417519 -0.032011844
-0.014613951 -0.079221725 -0.080891006 0.014523006 0.03485539 0.02374046 -0.0005971074 -5.888939e-06
0.097090594 -0.018859876 0.089741506 0.026938045 0.014646053 -0.060104575 -0.0024611235 -0.07546406
0.005815101 -0.029692639 -0.0464919 -0.056272306 -0.09933491 0.060718466 0.004678023 -0.08253397
-0.05465057 0.03449111 -0.020280266 0.05782199 -0.004805017 -0.027557159 0.07256923 -0.07786049
-0.0891979 0.077523194 0.0038471462 0.062850356 0.019453192 0.06039673 -0.09134048 0.07386124
-0.08132491 0.009817648 0.039920222 0.0029239298 0.04226923 -0.020226633 -0.009290421 0.02142036
0.09552633 0.00073883537 -0.042160332 0.040487494 -0.04739189 0.025324786 0.049013685 -0.009369207
-0.045447577 0.06270152 -0.0038718462 -0.060161855 -0.09705845 -0.0724891 -0.006901586 -0.006655264
-0.022675825 0.027747298 0.06745751 -0.08741718 0.065378405 -0.08284228 -0.07010815 -0.09129944
-0.034436572 -0.03560878 0.047065794 -0.08770674 0.070324995 -0.014045465 0.07161043 0.029555285
-0.02412491 0.09732043 -0.07285046 0.08054229 -0.016043438 -0.059492018 0.059041467 0.01363554
0.070104055 0.003236723 -0.052570403 0.0761619 0.024269868 -0.06495261 -0.0073116184 -0.07551247
0.042892028 0.03863598 0.082151406 0.05615106 0.058247697 0.034581628 -0.0022426844 0.031805016
0.03512261 0.044566847 -0.093926825 -0.057944655 -0.06506973 0.0027855278 -0.010781908 0.0472327
0.054074097 0.05313251 -0.05332885 -0.015639592 0.07036185 -0.009864402 0.09376351 -0.070036724
-0.09929692 -0.056980193 -0.039046597 0.099609815 -0.054209806 -0.04898107 0.0696339 0.0017563821

onnx::LSTM_124 f4 [1, 800]
00000000: fa43 96bc 5772 423d d386 18bd 3356 a33d
00000010: 528d 9a3d d39d 153d 9a65 363a 2d54 86bd
00000020: 1541 a9bd da34 ad3c 90ff 383d 63ab 953d
00000030: 2701 2fbd 9d77 083d 676a 123c c08d ddbc
00000040: 4015 29bd 80fa abbc 28e6 8cbd f7fa 7a3d
00000050: e76c c6bc ff8d 89bd d2a9 b0bd 4bd8 bdbd
00000060: b874 a7bd c8cf 823d 8207 96bd 0004 61bb
00000070: 57cd 443d ade9 4bbd 377a 723d f36c c8bc
00000080: c050 5bbc 00fd 2a3d 80ef 903b 6a4d 5ebd
00000090: 9fcd b7bd cd96 0bbd b79e b4bd c7d2 8ebd
000000a0: 332b 6cba 6b45 b2bd 8321 833d f3f9 95bd
000000b0: f31d a93c db16 ab3d a7e2 aebd 575b 163d
000000c0: 4a44 7c3d b3cb c63d 38c2 833d b769 103d
000000d0: 9a19 d438 27c5 bfbd 4d7f 853c 5aac 2a3c
000000e0: dde7 143d face 0dbd 67fe 28ba c0af 08bd
000000f0: 501d 683d 3dca 003d e39f 0abd e72f 99bd
00000100: 4206 b93d e327 7f3d 0f4e ac3d 0d0e 9cbd
00000110: 68be 83bd b0ac 2d3d e0fe cebc e363 463d
00000120: f891 c3bd 3b45 bc3d eb02 b6bd ad3d ac3c
00000130: 00e7 ab3d da2e a4bc b8af 8f3d f7ad c4bd
00000140: 2adc c83d 0a6e 3cbd 40ef aa3d 4775 eabc
00000150: b704 0fbd a3e5 59bd c2de a13d e0f5 d63c
00000160: 0d0a a23c b21d c9bd 4d73 373c 5393 be3d
00000170: 8d21 933c f025 18bd 1d4d 5d3d 9acd 6abc
00000180: 8d7a 4ebc a7e5 d5bc 338f b43c f37b c33c
00000190: cad7 76bd 5dfb 54bd e770 923d 6bad cbbd
000001a0: 70b5 323d 6dba 8d3d 6b10 c23d 47a3 ac3d
000001b0: 2761 71bd 1d08 9f3d 4718 343d 83b3 6e3d
000001c0: c3ef 9c3d cdf7 b8bc da64 883d 57ba 4dbd
000001d0: c035 133d df43 953d ea85 66bd 5aee 883d
000001e0: 8011 77bc 654a ae3d 0fde a43d 8d2f c8bd
000001f0: 50ce c73d 4041 79bd 8acb 25bd 7de4 243d
00000200: 9d4e 033d dd3d c63d 138c a43d fadc f0bc
00000210: 6dde c0bd bbdc a3bd 73bd 21bc 50eb 8d3d
00000220: b388 813b 574a b93d 3341 5bbb 9aef 94bc
00000230: fd7f 95bd 0acb 8f3d e7dd 60bc 1a6a fabb
00000240: 0704 88bc fa10 9e3c 0786 203d f352 13bd
00000250: 05ab b0bd 0055 b03c cd69 e33c a054 9dbd
00000260: 5826 c53d 33ff b5ba 5391 52bd 1d36 39bd
00000270: a785 1b3c c07e 2dbd c075 183c 93e9 8e3d
00000280: f89c b2bd 9ab3 553b 9ac6 643b 3b7d 97bd
00000290: 1a89 b43d 6dbb c13c 7d06 183d b301 c83d
000002a0: 87a8 8ebc 48bc c2bd 0f35 8ebd 4017 ddbc
000002b0: d07c 483d dadc 84bc 008b afbb e3ae 7d3d
000002c0: 5853 a33d eafe c0bd da4e 39bd d796 0b3d
000002d0: fa7c d0bc b7b9 113d fa95 95bd e7c7 303d
000002e0: 6dc8 8abd 87b9 d33c 9ad0 03bc 870e b73c
000002f0: 0f83 c2bd c0a6 603d 43d9 783d a707 c9bd
00000300: b33f f53b 8afc 603d da68 1fbc 0031 90bc
00000310: 4d1c 95bc da0f b23d c53a bc3d 0094 8cbb
00000320: cda0 32bc 7ae3 7bbd aa54 893d 78b3 b33d
00000330: 78ae b43d bd62 ab3d 07a7 f9bc e0d6 88bc
00000340: 8dc1 6fbd 1204 9f3d afc6 843d 3f85 98bd
00000350: 739f 72bc 0790 c7bd d38d afbd e235 88bd
00000360: 6356 b8bd b330 9d3b 201b 9dbd 4d6f 9c3b
00000370: 225c 99bd 551a a33d 73f9 bd3c ca7d 3e3d
00000380: 0382 93bd 133c 99bd b5c8 9e3d 1ba9 b9bd
00000390: 870d a8bd d761 23bd 404f 31bd fa40 793d
000003a0: 0dc5 c9bd 8065 a6bb f3aa 6fbc 076d a9bc
000003b0: 67af b4bb 000e f13b 2b89 8d3d 8d3a ba3c
000003c0: c7e4 b33d f547 a63d 8037 1dbc efc4 89bd
000003d0: 8d5f 7dbd f3cf 6abd cd42 133d b306 c53b
000003e0: 00eb 6c3d 20f8 74bd f3e4 933c 27fb 693c
000003f0: 4849 b23d faa9 8b3d 6afe 4e3d 9daf c23d
-0.01834296 0.047472324 -0.037237953 0.079754256 0.07546486 0.036527466 0.0006957889 -0.06559024
-0.082643665 0.021143366 0.0451656 0.0730808 -0.04272571 0.033317197 0.008936501 -0.02704513
-0.04128003 -0.020993471 -0.06879836 0.061274495 -0.02422185 -0.06716537 -0.08626141 -0.0926977
-0.08176559 0.063872874 -0.07325651 -0.003433466 0.04804739 -0.049783397 0.059198584 -0.024466014
-0.0133859515 0.041745186 0.004423082 -0.054273047 -0.08974766 -0.03407936 -0.08819335 -0.06973796
-0.0009009123 -0.08704647 0.06402876 -0.07323065 0.020644164 0.08353969 -0.08539324 0.036708202
0.061588563 0.09706821 0.06433529 0.035257068 0.000101137164 -0.09363776 0.016296053 0.010417068
0.036353935 -0.034621216 -0.00064466003 -0.033370733 0.05666858 0.03144287 -0.033843886 -0.0747984
0.09034397 0.0622939 0.08413326 -0.076198675 -0.064328015 0.042401016 -0.025268018 0.048435103
-0.09549326 0.09192892 -0.08887275 0.021025503 0.08393669 -0.020041872 0.070159376 -0.09603494
0.09807618 -0.04600338 0.083464146 -0.028620375 -0.034916606 -0.053197514 0.07903816 0.02624029
0.019780183 -0.09820117 0.011196923 0.093054436 0.017960334 -0.037145555 0.05402862 -0.014331246
-0.012602461 -0.026110483 0.022040939 0.023862815 -0.060264386 -0.05199753 0.07150441 -0.09945186
0.043630064 0.069203235 0.09475788 0.0842958 -0.058930542 0.07765219 0.043968465 0.058276664
0.076629184 -0.022579098 0.06659861 -0.050226536 0.035939932 0.07288336 -0.056280054 0.06686087
-0.015079856 0.085102834 0.08050167 -0.097746946 0.09756148 -0.060853243 -0.040477313 0.040256966
0.032057393 0.09679768 0.080345295 -0.029402245 -0.09417424 -0.08001085 -0.009871828 0.06929648
0.0039530634 0.09047382 -0.003345561 -0.018180657 -0.072998025 0.070211485 -0.013724781 -0.007642043
-0.016603483 0.019295204 0.03919032 -0.03596778 -0.086263694 0.021524906 0.02776041 -0.076821566
0.09626454 -0.0013885259 -0.051408123 -0.045217622 0.009492314 -0.042357206 0.009305418 0.069781445
-0.08721346 0.0032608272 0.0034908415 -0.07396933 0.088152125 0.023648942 0.037115563 0.09765949
-0.017414344 -0.09508568 -0.06943714 -0.026988626 0.048947155 -0.016218591 -0.0053571463 0.061934363
0.07974881 -0.09423621 -0.045241214 0.0340794 -0.025450218 0.035577502 -0.073039964 0.04315939
-0.067765094 0.025845302 -0.00804534 0.022345794 -0.09497654 0.054846525 0.060754072 -0.09815913
0.0074844 0.05492834 -0.009729588 -0.01760149 -0.018201971 0.0869443 0.09190897 -0.004290104
-0.010902596 -0.061496235 0.067056015 0.08774465 0.0882234 0.08368442 -0.030475153 -0.016704023
-0.058534194 0.07764448 0.064832084 -0.0744729 -0.0148085235 -0.09744268 -0.08571973 -0.06650902
-0.09000852 0.004797065 -0.07671189 0.0047740103 -0.07488276 0.07964007 0.023190236 0.04650668
-0.07202532 -0.074821614 0.077531256 -0.090654574 -0.08205705 -0.03988823 -0.04328847 0.060852982
-0.098520376 -0.0050780177 -0.01462816 -0.020681871 -0.0055140737 0.0073564053 0.06910928 0.022732997
0.0878387 0.081191935 -0.009595752 -0.06727015 -0.061858702 -0.057327222 0.035952378 0.0060127615
0.0578413 -0.059806943 0.018053507 0.014281071 0.087053835 0.0681953 0.050535597 0.09506152
