New_project/modelo_simples12.onnx (onnx, 183092 bytes, 5 tensors)

output_layer.weight f4 [14, 100]
0.0037140816 -0.08223125 -0.027475134 0.082397625 0.047436967 0.15234467 0.007612494 -0.029706195
0.1252559 0.1431951 0.13499604 -0.03192515 0.1040246 0.066063166 0.08267938 -0.02274809
0.10695966 -0.0816643 0.07602773 -0.08064665 0.057124536 0.09148148 0.08729038 -0.022785483
-0.06583051 0.011955337 -0.117565244 -0.08128977 0.052888125 -0.10206418 -0.11953935 -0.08468077
-0.03381205 -0.07037788 0.13433118 0.1302213 -0.014792505 0.16776247 -0.077309005 0.06391257
0.040058393 0.095602736 0.036967892 -0.15294226 0.05804032 -0.09284905 -0.050177068 0.073893405
0.08477657 0.07118604 0.062024567 0.02264647 0.18665946 -0.22340344 -0.045303974 0.012719897
-0.024017006 0.020252682 -0.109304056 0.05671287 0.13543625 -0.05497512 -0.111616455 0.12408142
-0.10366099 0.11042103 0.09972085 -0.020148477 0.014308169 0.040445365 0.13429019 0.11708828
0.005723532 -0.096856765 -0.113520734 0.038619 -0.14667849 0.054595552 -0.07337936 -0.004410734
-0.0725071 0.14374469 0.0019888182 0.15459588 0.07239365 -0.076691575 0.05547634 0.031018479
-0.06308081 -0.06701072 -0.028696986 -0.08304328 -0.051396172 -0.024696944 -0.020033024 0.018233232
-0.095467746 -0.11266448 -0.015756296 -0.025485724 -0.06778082 -0.04494251 -0.070621684 -0.039370302
-0.020574335 0.029159585 0.07761086 0.11282542 -0.08954747 0.03952551 0.0492019 -0.07605504
0.088671885 -0.11828013 -0.04479705 -0.024159282 0.0414685 0.006234223 0.08761576 -0.06512973
-0.1341172 0.018460484 0.00223849 -0.11025082 -0.05344844 -0.015344917 -0.094202176 0.095880315
-0.1386619 -0.072354 -0.064086966 0.07883782 0.06527981 0.062540255 0.10690524 -0.026152834
0.12124092 0.05534199 -0.14183287 -0.04489138 0.11340932 -0.080461934 -0.034280974 -0.012707427
-0.03289031 0.020394137 -0.043918695 -0.14136899 0.054637045 -0.02889191 0.1363207 -0.09095327
-0.016667413 -0.070165016 -0.03880609 -0.07679811 0.013803051 -0.08914906 -0.088593945 -0.109977715
0.1115142 -0.11969809 0.024806706 0.09953963 -0.06847221 -0.05000635 -0.10188658 0.12791845
0.058231592 0.057698414 0.016039718 -0.10591403 -0.03910856 0.08443428 0.008183663 -0.062427226
-0.044812992 0.080388196 0.04632992 0.074700765 0.12333781 0.030609421 -0.002833337 0.03461425
0.17528087 0.08704135 0.1463193 -0.047375694 0.075583525 0.10328456 0.06472857 0.034207318
0.006575089 -0.08587894 0.12501256 0.073453546 -0.13824052 -0.11289911 -0.13949084 0.1025357
-0.1572741 -0.061173636 0.0027998819 -0.018037584 -0.1750267 -0.06541441 -0.097784236 -0.021362027
0.04005837 -0.1656609 -0.0910108 0.07627373 -0.10000706 0.010065296 -0.055759467 -0.06325715
0.0024639664 -0.03357897 -0.022706004 -0.20622712 0.004868207 0.12596142 0.012562303 -0.12514676
-0.11593345 0.08872698 0.028607372 0.0014247375 0.024288587 0.07432154 -0.009903613 0.11938596
0.039280977 0.09199969 0.17441244 -0.008888355 -0.058379415 -0.044822786 0.20211358 0.110960364
-0.11733163 0.01959982 0.09599314 0.081322856 0.022599645 -0.1384486 -0.014800481 0.07614183
-0.1315205 0.04082683 -0.057698514 0.07499285 0.10461478 -0.027825566 -0.20046535 0.05566442
00000000: f367 733b dc68 a8bd 8813 e1bc 16c0 a83d
00000010: 444d 423d 3e00 1c3e 3a72 f93b 685a f3bc
00000020: 1543 003e bca1 123e 673c 0a3e f2c3 02bd
00000030: d90a d53d 204c 873d cf53 a93d 345a babc
00000040: ab0d db3d 9d3f a7bd 6db4 9b3d 122a a5bd
00000050: 6bfb 693d a45a bb3d 4cc5 b23d 9fa8 babc
00000060: 25d2 86bd 51e0 433c 0cc6 f0bd 407b a6bd
00000070: 38a1 583d 0607 d1bd 0cd1 f4bd 1d6d adbd
00000080: 817e 0abd 4722 90bd 1d8e 093e bc58 053e
00000090: 435c 72bc edc9 2b3e 2f54 9ebd 98e4 823d
000000a0: 4514 243d 5ecb c33d a56b 173d e59c 1cbe
000000b0: b0bb 6d3d a527 bebd 7886 4dbd 6d55 973d
000000c0: 579f ad3d fdc9 913d 790d 7e3d 1785 b93c
000000d0: a823 3f3e dfc3 64be a990 39bd 1d67 503c
000000e0: 50bf c4bc f4e8 a53c ceda dfbd c14b 683d
000000f0: cdaf 0a3e 972d 61bd 2b97 e4bd 661e fe3d
00000100: 374c d4bd 6c24 e23d 723a cc3d 6b0e a5bc
00000110: cf6c 6a3c 0aaa 253d 5e83 093e fbcb ef3d
00000120: 778c bb3b d75c c6bd 8f7d e8bd f52e 1e3d
00000130: e332 16be 969f 5f3d eb47 96bd eb87 90bb
00000140: 9a7e 94bd cf31 133e d556 023b 624e 1e3e
00000150: 1f43 943d 7910 9dbd 293b 633d 771a fe3c
00000160: 8330 81bd eb3c 89bd f115 ebbc 9812 aabd
00000170: cb84 52bd 3f51 cabc 4c1c a4bc dc5d 953c
00000180: 9884 c3bd a3bc e6bd 5913 81bc 70c7 d0bc
00000190: acd0 8abd a315 38bd 1aa2 90bd c142 21bd
000001a0: 828b a8bc 15e0 ee3c 71f2 9e3d 0411 e73d
000001b0: aa64 b7bd 80e5 213d ee87 493d bfc2 9bbd
000001c0: 9b99 b53d da3c f2bd 1d7d 37bd b0e9 c5bc
000001d0: e0da 293d 7448 cc3b e46f b33d bc62 85bd
000001e0: 0556 09be 713a 973c a1b3 123b 2fcb e1bd
000001f0: c0ec 5abd 3f69 7bbc 12ed c0bd e65c c43d
00000200: 63fd 0dbe 552e 94bd 0740 83bd b975 a13d
00000210: 6cb1 853d 1b15 803d 22f1 da3d 783e d6bc
00000220: 294d f83d 48ae 623d a33c 11be 06e0 37bd
00000230: 2543 e83d 3ac9 a4bd 356a 0cbd d032 50bc
00000240: fdb7 06bd 9b11 a73c 17e4 33bd 08c3 10be
00000250: 18cb 5f3d baae ecbc a797 0b3e b545 babd
00000260: 198a 88bc adb2 8fbd 22f3 1ebd 5448 9dbd
00000270: 3126 623c c893 b6bd be70 b5bd ff3b e1bd
00000280: 8f61 e43d 4624 f5bd 6f37 cb3c 6fdb cb3d
00000290: 283b 8cbd 75d3 4cbd e9a9 d0bd 0efd 023e
000002a0: 4084 6e3d 2c55 6c3d ba65 833c 74e9 d8bd
000002b0: 4c30 20bd e1eb ac3d c514 063c b1b3 7fbd
000002c0: d48d 37bd 91a2 a43d 71c4 3d3d b7fc 983d
000002d0: 8998 fc3d 9cc0 fa3c 82af 39bb acc7 0d3d
000002e0: d47c 333e bc42 b23d bad4 153e 040d 42bd
000002f0: 89cb 9a3d db86 d33d 6a90 843d f91c 0c3d
00000300: d873 d73b 4ce1 afbd 4b03 003e d06e 963d
00000310: ec8e 0dbe a637 e7bd b0d6 0ebe 3dfe d13d
00000320: 760c 21be 3591 7abd 397e 373b 8ec3 93bc
00000330: 333a 33be fdf7 85bd 1a43 c8bd 6bff aebc
00000340: 3f14 243d 03a3 29be df63 babd 6735 9c3d
00000350: 80d0 ccbd e9e8 243c 0a64 64bd f78c 81bd
00000360: 7f7a 213b 1a8a 09bd f101 babc 342d 53be
00000370: 7b85 9f3b 08fc 003e 1ed2 4d3c 7926 00be
00000380: 846e edbd 7eb6 b53d 025a ea3c 42be ba3a
00000390: dcf8 c63c e435 983d c342 22bc a080 f43d
000003a0: 17e5 203d 556a bc3d 2d99 323e 77a0 11bc
000003b0: 411f 6fbd 1998 37bd ddf6 4e3e 303f e33d
000003c0: 914b f0bd cd8f a03c 0d98 c43d 998c a63d
000003d0: e422 b93c 78c5 0dbe b77d 72bc 3ff0 9b3d
000003e0: 4fad 06be 093a 273d 4755 6cbd da95 993d
000003f0: 4640 d63d 71f2 e3bc ca46 4dbe 6000 643d

output_layer.bias f4 [14]
0.017884597 0.034163993 -0.020486105 0.022501288 -0.08172923 -0.05577654 -0.042859487 -0.030179543
0.03288484 0.12025339 -0.086297296 0.08771027 0.0018843013 -0.023942042
00000000: b882 923c 8bef 0b3d 7ad2 a7bc 9f54 b83c
00000010: a861 a7bd f175 64bd 6e8d 2fbd 173b f7bc
00000020: 41b2 063d 6947 f63d a3bc b0bd 71a1 b33d
00000030: a9fa f63a 1a22 c4bc

onnx::LSTM_122 f4 [1, 400, 7]
0.031950388 0.011192042 0.09703486 0.023825303 0.10546735 -0.11398052 0.07798739 -0.020629697
0.20570223 -0.075639926 -0.2146483 -0.22977743 0.06534875 -0.16551773 0.045544837 -0.009701155
-0.039596725 0.039030835 -0.08715739 0.08277817 -0.12602349 0.036722574 0.02894326 -0.12141901
-0.120854594 -0.08491276 -0.03366971 -0.07186949 -0.0031537244 0.119131714 -0.13885789 -0.15087403
-0.117759235 0.06657151 -0.07093539 0.12987505 0.13049167 0.074479766 0.12298045 0.097711265
0.054053884 -0.006615918 -0.008156708 -0.070818014 -0.0063281837 0.20365655 0.25546414 -0.033301193
0.05071734 0.051944252 0.12605707 -0.014675716 -0.15434608 0.029165635 -0.13615894 -0.06375258
-0.013841549 -0.1170076 -0.002228101 0.1581322 0.0739765 -0.030671664 -0.048436288 -0.020795772
0.13637596 -0.04168259 0.015607746 0.057633895 -0.104345515 -0.022990355 0.024694808 -0.06019218
0.035389856 -0.014639318 -0.022014013 -0.117381394 -0.04478618 0.016514992 -0.1176107 0.0463689
-0.013267819 0.020541742 0.014530904 0.038840163 0.08756465 0.07893172 0.007986732 0.05451668
0.050429754 0.021922087 0.017147793 -0.0801185 -0.08660852 -0.029724862 0.010600477 -0.09603904
0.05877953 -0.06737926 0.11075075 0.013339776 0.027447658 0.071775965 -0.021317929 -0.07831065
0.099653006 0.028344676 0.017871901 0.051697776 -0.026883882 0.009118834 0.059505943 -0.033792306
-0.042339895 -0.068638794 0.032812234 0.010085662 0.016110895 -0.009349573 -0.14666389 0.019406894
-0.11435555 0.013404786 -0.15957184 -0.060243033 -0.06306178 -0.01108629 -0.024918368 0.07335766
0.07637701 -0.011176636 0.013557138 0.021524277 0.054714456 -0.07025409 0.077739224 -0.08808649
0.0093923295 -0.0097133955 -0.049196705 0.012095648 -0.024137216 -0.12887688 0.033322994 0.07609514
-0.10199985 0.017154943 0.068998545 -0.015068061 0.13211861 0.12997104 0.13976069 0.085869595
-0.16551773 -0.047907848 0.04467247 -0.046944574 0.061137486 0.021199683 0.0064850133 0.051108915
0.06538729 0.053103488 0.19736966 -0.1731259 -0.106436886 -0.09006802 -0.022743475 0.036774855
0.068814404 -0.028279092 -0.09178108 -0.06696382 0.053675123 -0.057368416 -0.11415345 0.0856672
-0.018862804 -0.03778752 -0.026873222 -0.04332537 -0.00033549417 0.09423686 0.06648586 0.11284476
-0.06775596 0.062000874 0.054127276 -0.06756856 -0.06801744 0.075439885 0.115119904 0.08850677
0.07671902 0.014528442 -0.06162696 -0.018836148 0.03531635 0.05626255 0.08596643 0.14194798
0.060158454 -0.1810117 -0.006636983 -0.008402695 0.05895395 -0.08734134 0.090505406 0.037862916
-0.098076075 0.07016501 0.15243635 -0.03388051 0.081260584 0.061408307 0.061937556 0.0075393883
-0.015319806 0.04252265 -0.016229326 0.09576254 0.069209814 0.053343024 -0.077764414 0.04446343
0.03130908 0.028662369 0.009985229 0.14441328 0.09939256 -0.1652938 -0.00095498987 0.105074316
-0.088905305 -0.0537259 0.07433703 0.052678946 0.033730395 -0.045466673 0.16097748 0.14266841
-0.11001082 -0.12698734 -0.0028106626 -0.024292279 0.05786174 0.035914376 -0.099639505 0.027020501
-0.08619277 -0.020606404 0.13226458 -0.0025370356 0.031974044 -0.03746755 0.0688125 0.049656168
00000000: 69de 023d d45e 373c 36ba c63d 482d c33c
00000010: 44ff d73d 9e6e e9bd dab7 9f3d 9cff a8bc
00000020: 9ba3 523e 1be9 9abd c4cc 5bbe c64a 6bbe
00000030: 91d5 853d 7b7d 29be 398d 3a3d 98f1 1ebc
00000040: 2d30 22bd ccde 1f3d 937f b2bd 9a87 a93d
00000050: 4d0c 01be 696a 163d 6a1a ed3c 88aa f8bd
00000060: 9d82 f7bd bee6 adbd 40e9 09bd 5030 93bd
00000070: b7ae 4ebb 54fb f33d c330 0ebe b97e 1abe
00000080: c12b f1bd a556 883d 9346 91bd f7fd 043e
00000090: 9c9f 053e d988 983d 2ddd fb3d d81c c83d
000000a0: 9b67 5d3d 58ca d8bb b7a3 05bc 0909 91bd
000000b0: a75c cfbb 588b 503e 32cc 823e d566 08bd
000000c0: fcbc 4f3d 7fc3 543d 1b15 013e 6a72 70bc
000000d0: e60c 1ebe c5ec ee3c 406d 0bbe b690 82bd
000000e0: aac7 62bc aea1 efbd 5505 12bb 68ed 213e
000000f0: fe80 973d 2443 fbbc 2165 46bd e55b aabc
00000100: 24a6 0b3e 5dbb 2abd a2b7 7f3c 8511 6c3d
00000110: 1ab3 d5bd 4556 bcbc c44c ca3c 138c 76bd
00000120: f4f4 103d c0d9 6fbc bb56 b4bc a865 f0bd
00000130: b771 37bd 734a 873c e1dd f0bd 51ed 3d3d
00000140: 4461 59bc 2847 a83c 0713 6e3c dd16 1f3d
00000150: 1855 b33d f4a6 a13d c8da 023c e24c 5f3d
00000160: 6e8f 4e3d f395 b33c 8779 8c3c 2b15 a4bd
00000170: cf5f b1bd 8e81 f3bc a0ad 2d3c 1eb0 c4bd
00000180: cec2 703d 23fe 89bd 4ad1 e23d 138f 5a3c
00000190: e9d9 e03c 47ff 923d f0a2 aebc 5661 a0bd
000001a0: e016 cc3d 1833 e83c 1868 923c 0cc1 533d
000001b0: 963b dcbc 2967 153c 81bc 733d cd69 0abd
000001c0: 996c 2dbd 7f92 8cbd 1f66 063d 553e 253c
000001d0: fffa 833c f42e 19bc 0f2f 16be 35fb 9e3c
000001e0: 3e33 eabd bf9f 5b3c cd66 23be 66c1 76bd
000001f0: 8926 81bd 45a3 35bc 9b21 ccbc 8a3c 963d
00000200: 8d6b 9c3d 361e 37bc c21e 5e3c ae53 b03c
00000210: 441c 603d 60e1 8fbd be35 9f3d b166 b4bd
00000220: 49e2 193c ef24 1fbc 7c82 49bd d32c 463c
00000230: 69bb c5bc 4df8 03be b17d 083d c5d7 9b3d
00000240: 4ce5 d0bd 8688 8c3c 1c4f 8d3d 07e0 76bc
00000250: 1a4a 073e 2117 053e 6d1d 0f3e 66dc af3d
00000260: 7b7d 29be 053b 44bd 7bfa 363d f448 40bd
00000270: 4d6b 7a3d f5aa ad3c 3c80 d43b 9557 513d
00000280: c6e9 853d 0b83 593d 461b 4a3e ea47 31be
00000290: 95fb d9bd 9575 b8bd 8650 babc 3ba1 163d
000002a0: 91ee 8c3d 8ea9 e7bc b8f7 bbbd 5424 89bd
000002b0: 72da 5b3d 25fb 6abd 49c9 e9bd 4972 af3d
000002c0: 2b86 9abc 16c7 1abd 3b25 dcbc f175 31bd
000002d0: 44e5 afb9 41ff c03d bd29 883d 271b e73d
000002e0: a3c3 8abd a1f4 7d3d 90b4 5d3d 6361 8abd
000002f0: ba4c 8bbd 3a80 9a3d fcc3 eb3d 0a43 b53d
00000300: dd1e 9d3d b408 6e3c 8d6c 7cbd 444e 9abc
00000310: e1a7 103d 8f73 663d 2b0f b03d d05a 113e
00000320: b668 763d 225b 39be 0c7b d9bb 75ab 09bc
00000330: b279 713d 04e0 b2bd e65a b93d 2516 1b3d
00000340: 1cdc c8bd acb2 8f3d 4618 1c3e 4ac6 0abd
00000350: f36b a63d 4787 7b3d 3cb2 7d3d f90c f73b
00000360: ecff 7abc 3b2c 2e3d 5df3 84bc 271f c43d
00000370: e0bd 8d3d 377e 5a3d f342 9fbd 491f 363d
00000380: f33d 003d 58cd ea3c 1699 233c 13e1 133e
00000390: 548e cb3d c742 29be 4958 7aba 3431 d73d
000003a0: fc13 b6bd b00f 5cbd 033e 983d e1c5 573d
000003b0: e228 0a3d 433b 3abd 48d7 243e ab17 123e
000003c0: 5a4d e1bd f808 02be 1833 38bb 9a00 c7bc
000003d0: 6f00 6d3d f41a 133d cc0f ccbd 195a dd3c
000003e0: d685 b0bd c3ce a8bc 5e70 073e 6544 26bb
000003f0: 37f7 023d 9377 19bd 91ed 8c3d 4464 4b3d

onnx::LSTM_123 f4 [1, 400, 100]
-0.029384073 -0.1627062 0.19989836 0.1137454 -0.094351135 0.092744 -0.002274445 0.16010262
-0.013926836 0.04287532 0.004895813 0.13134815 0.13502842 0.17993796 -0.008025751 0.14359534
-0.19423613 -0.15840441 0.08648323 -0.034507323 0.1655692 -0.05746062 0.1471415 -0.0052185147
-0.025877355 -0.027569842 0.057260264 0.14885731 -0.0579461 0.03141673 -0.07361131 -0.041529056
-0.03271697 -0.09008543 -0.03120022 0.15229894 0.06350242 -0.11066 0.013082311 -0.098600015
0.0438541 -0.0142393345 0.12461661 -0.020473575 -0.015978051 -0.04018512 0.031169314 0.13836332
0.06587715 0.09581675 -0.07475028 -0.025141466 0.096790805 0.18448448 0.059922304 0.02637251
-0.025750617 0.023218274 -0.14940219 0.098147966 -0.015299771 0.10897557 -0.08996762 0.017180199
-0.013759815 0.04774898 -0.08087995 -0.20741437 0.104747124 0.05797361 0.095553964 0.12518917
0.10210874 -0.17331427 -0.017084297 0.09336097 0.053502418 -0.02086565 -0.06695097 0.028296197
0.08183177 -0.030643975 -0.05366806 0.039947562 -0.050389323 -0.038312826 0.02389971 -0.03886013
-0.052815884 -0.04165838 0.0590809 0.08934629 0.091620326 0.08255308 0.10201154 0.12136233
0.020652404 -0.020165361 0.20552495 -0.03578558 -0.113634765 -0.10092589 -0.06797817 0.12208482
0.005670698 -0.012148579 -0.09265235 0.08901317 0.06017915 -0.058512606 -0.055182893 0.0059756953
0.012450904 -0.026612164 0.026828667 0.06281424 0.0058906353 -0.07996074 0.015176681 0.019085053
0.09273647 0.026886335 -0.055487864 -0.2168692 -0.083267316 0.058898576 -0.14587778 -0.0085504055
-0.086533464 -0.008069057 0.050087098 0.080958515 0.0051001417 -0.06495482 0.09066452 0.019745965
-0.0398294 -0.025816087 0.050733905 -0.01093676 -0.035407323 -0.026664447 0.10502467 0.038761966
-0.07608441 -0.011780009 -0.057778478 -0.060098182 0.06980785 0.06747216 0.041335274 -0.00775075
0.09561957 -0.04878374 -0.14763689 0.10998211 -0.016530452 -0.049762983 -0.04362703 0.02322686
0.058783293 0.11451397 0.02135636 0.008417778 -0.12480312 0.009007925 -0.005372946 0.033816814
-0.04140715 0.111992605 0.14912783 -0.05142911 -0.058156904 0.019354135 0.020299438 0.107069135
-0.05399964 0.023857906 -0.05714564 0.0025196702 -0.072815634 -0.018823031 0.054868348 0.0016481378
0.21857293 0.114149705 0.108673304 -0.012439763 -0.12922293 -0.14728758 0.03879023 0.0627293
-0.03142175 -0.029673837 0.023738971 -0.008940793 -0.06999185 -0.011584034 -0.051793832 -0.09409068
-0.039823722 -0.068585135 0.033260018 0.06307279 0.013166938 0.077467 0.065255314 -0.0041256263
-0.013705829 -0.075884454 -0.03739614 0.00024475236 0.058509983 -0.016747402 0.0006058734 0.11370579
-0.02606117 -0.065957695 0.048738375 -0.08511173 -0.0574085 0.053066343 -0.021425137 0.120596945
-0.11170747 -0.07526136 -0.030952727 0.0037411302 0.061929613 0.015560327 -0.036577415 -0.070045665
-0.072803 -0.113774896 0.0908452 0.041528378 -0.036254384 -0.02732688 0.009454167 0.04843982
-0.043411914 0.054409638 0.090769775 -0.091782734 -0.04994003 -0.094062485 -0.021402016 0.14036395
0.059958406 -0.04658486 -0.1101289 -0.047516234 -0.08053398 0.07215519 0.0675254 0.113696665
00000000: deb6 f0bc 749c 26be 28b2 4c3e 59f3 e83d
00000010: 2b3b c1bd 91f0 bd3d db0e 15bb f1f1 233e
00000020: 622d 64bc 089e 2f3d 0e6d a03b 2180 063e
00000030: e444 0a3e a841 383e 717e 03bc a80a 133e
00000040: d6e5 46be c434 22be 1f1e b13d 8d57 0dbd
00000050: f98a 293e d45b 6bbd 43ac 163e 1300 abbb
00000060: bffc d3bc 26da e1bc bd89 6a3d 0d6e 183e
00000070: e458 6dbd d4ae 003d 87c1 96bd 5f1a 2abd
00000080: 3b02 06bd b67e b8bd 9b97 ffbc 41f4 1b3e
00000090: 8f0d 823d b6a1 e2bd 3057 563c ceee c9bd
000000a0: 5ba0 333d 194c 69bc fe36 ff3d 33b8 a7bc
000000b0: 67e4 82bc 2799 24bd ca56 ff3c 1daf 0d3e
000000c0: 99ea 863d 923b c43d ad16 99bd 7af5 cdbc
000000d0: 423a c63d 80e9 3c3e 1771 753d 290b d83c
000000e0: f5f2 d2bc 4034 be3c e3fc 18be cd01 c93d
000000f0: e4ab 7abc 952e df3d f240 b8bd 7dbd 8c3c
00000100: d970 61bc 6f94 433d 63a4 a5bd 6f64 54be
00000110: a985 d63d bc75 6d3d ccb1 c33d 9731 003e
00000120: 631e d13d 4c79 31be 5ef4 8bbc 0934 bf3d
00000130: 5a25 5b3d 71ee aabc 971d 89bd 6dcd e73c
00000140: 6a97 a73d 1309 fbbc 0ad3 5bbd 0ea0 233d
00000150: 0965 4ebd e9ed 1cbd 53c9 c33c cd2b 1fbd
00000160: 7855 58bd faa1 2abd d0fe 713d 30fb b63d
00000170: 70a3 bb3d 9711 a93d 6deb d03d d08c f83d
00000180: 3b2f a93c d431 a5bc 2275 523e e693 12bd
00000190: 58b9 e8bd 3cb2 cebd 2438 8bbd 9b07 fa3d
000001a0: 43d1 b93b d50a 47bc 84c0 bdbd 894c b63d
000001b0: 6a7e 763d eaaa 6fbd 7507 62bd c4cf c33b
000001c0: e0fe 4b3c c101 dabc cbc7 db3c c1a4 803d
000001d0: 3b06 c13b 75c2 a3bd 9da7 783c 4258 9c3c
000001e0: 9eec bd3d bb40 dc3c 3e47 63bd f612 5ebe
000001f0: 0e88 aabd a23f 713d fc60 15be 0017 0cbc
00000200: 7538 b1bd 1434 04bc 2128 4d3d 94cd a53d
00000210: 171f a73b 0807 85bd 52ae b93d 4ac2 a13c
00000220: 2724 23bd 427c d3bc 5bce 4f3d 1930 33bc
00000230: 4507 11bd 666f dabc 2d17 d73d dec4 1e3d
00000240: 25d2 9bbd f000 41bc 20a9 6cbd 8329 76bd
00000250: 6bf7 8e3d d82e 8a3d 2d4f 293d 01fa fdbb
00000260: 31d4 c33d 75d1 47bd 202e 17be 4d3e e13d
00000270: df6a 87bc 45d4 4bbd 42b2 32bd 4246 be3c
00000280: c0c6 703d 4d86 ea3d 88f3 ae3c b8ea 093c
00000290: c798 ffbd fa95 133c 8a0f b0bb 8083 0a3d
000002a0: 8b9a 29bd 615c e53d f7b4 183e 55a7 52bd
000002b0: ef35 6ebd 908c 9e3c 024b a63c 1047 db3d
000002c0: ba2e 5dbd a871 c33c 8c11 6abd 0d21 253b
000002d0: 5d20 95bd c232 9abc a2bd 603d 5406 d83a
000002e0: 95d1 5f3e 52c7 e93d 1c90 de3d 26d0 4bbc
000002f0: 0453 04be 8ed2 16be 81e2 1e3d 3878 803d
00000300: 18b4 00bd 8c16 f3bc 3b78 c23c 677c 12bc
00000310: e357 8fbd f6ca 3dbc c525 54bd 9db2 c0bd
00000320: 331e 23bd 5d76 8cbd a83b 083d 4f2c 813d
00000330: 24ba 573c 05a7 9e3d 94a4 853d 4330 87bb
00000340: 6a8e 60bc 4f69 9bbd b22c 19bd 1b52 8039
00000350: 2aa8 6f3d d931 89bc 7ad3 1e3a 95de e83d
00000360: 3c7e d5bc d414 87bd e4a1 473d 0f4f aebd
00000370: 2d25 6bbd 185c 593d c583 afbc 88fb f63d
00000380: e3c6 e4bd a122 9abd 9390 fdbc c02d 753b
00000390: e8a9 7d3d bef0 7e3c 33d2 15bd 1a74 8fbd
000003a0: bd19 95bd d002 e9bd 0c0d ba3d a919 2a3d
000003b0: 7a7f 14bd 9fdc dfbc a7e5 1a3c d568 463d
000003c0: b1d0 31bd a4dc 5e3d 81e5 b93d 96f8 bbbd
000003d0: eb8d 4cbd d5a3 c0bd 4853 afbc 91bb 0f3e
000003e0: f296 753d c4cf 3ebd 438b e1bd 62a0 42bd
000003f0: 00ef a4bd 1ac6 933d c24a 8a3d ccd9 e83d

onnx::LSTM_124 f4 [1, 800]
-0.01966227 0.11255468 0.0048098704 0.11513935 0.012975645 0.03369162 0.12032017 0.05464045
0.0035448088 0.074318826 0.038688947 0.05027711 0.04986939 0.0584969 0.02082445 -0.030622454
0.082091376 -0.04946147 0.10003893 -0.10312119 0.089232326 -0.05096232 -0.033883993 0.20354265
0.13298462 0.11829056 -0.047704987 0.062641524 0.0103121195 0.08153952 0.087239996 0.029005907
0.032020114 0.10424359 0.058727875 0.08642377 -0.02796586 0.093986295 0.01255257 -0.009369694
0.026007004 0.042658776 -0.030633746 -0.06293251 -0.007332231 -0.020212721 0.11429384 0.15059781
-0.0044226726 0.0075981976 0.10724567 -0.075319275 0.01191612 0.15214908 -0.017242197 0.13931437
-0.06216233 -0.0013568624 -0.028973892 0.07456598 0.078912936 0.006917318 -0.091034286 0.13971402
0.09857726 -0.026746945 0.0065429285 0.1451328 0.033445504 -0.05974522 -0.029793145 0.19182158
0.14454429 0.097026944 -0.014592756 -0.01844195 0.0060820957 0.071006946 0.0011942771 0.04666859
0.07409663 0.045877703 -0.018139867 0.015388461 0.1661479 0.055275045 0.06028021 0.070687614
-0.02743693 0.09667906 -0.047250587 0.070592746 0.08417173 0.06658844 0.03856268 0.07938678
-0.010561146 0.0322361 0.0017654449 0.0288664 0.040878072 -0.01123687 0.068285845 -0.0030311872
0.03742125 -0.05394868 -0.010203084 0.025990281 0.12676115 0.12101105 -0.0029695893 0.06594131
0.08753053 0.009939263 0.06549286 0.03284376 0.06326078 0.055257607 0.0476614 -0.014552416
0.09734436 -0.013582365 0.074453935 0.08940037 -0.04708425 0.11328797 -0.047860563 -0.026607918
0.09967701 0.12752604 0.0124408975 0.036724973 -0.011508315 0.03991291 0.051150903 -0.0060169892
-0.007536745 0.09516274 0.13703911 0.11318143 0.0023468677 -0.031188007 -0.025624828 -0.048326362
-0.057075728 0.05898808 -0.022780126 0.108382195 0.07476327 0.12810469 0.04771317 -0.0383899
-0.029472113 0.030816482 -0.10174634 0.07541623 -0.014214054 -0.018088523 -0.066577785 0.017272366
0.05941697 -0.025869733 0.061651696 0.124344096 0.101163566 -0.06457017 0.036297984 0.046301637
-0.06199651 0.0814988 -0.017114714 0.011735746 0.057434067 0.07472676 -0.041479822 -0.015941747
0.015000499 -0.0143583855 0.04651601 -0.022186847 0.08877636 -0.016367713 0.04176228 0.122020155
0.09802266 0.013492604 -0.028357139 0.0811493 0.075619005 0.024858208 0.12795916 -0.030702984
-0.016598653 0.019963618 -0.051355742 0.100822896 0.018751996 -0.020589394 -0.033900112 -0.031760264
0.10862327 -0.057231747 0.07336564 0.037041843 0.00842639 0.034838222 -0.07400124 0.025658866
-0.0070429207 -0.076265074 0.08655233 -0.03213985 -0.028602103 0.09264626 0.068069495 0.08832886
-0.072813414 -0.0047672843 0.055634625 0.060615875 0.007183837 -0.09550854 -0.10827329 0.20446192
0.0953544 -0.050948262 0.077218354 -0.01987493 0.018604362 0.049226698 0.09855431 -0.041881744
0.08000633 0.032237384 0.032717485 -0.014784165 0.0027518098 -0.01829267 0.11148658 0.038458664
0.055019196 0.050558753 0.08974199 -0.07439714 0.037813254 0.08538273 0.018605713 0.110752344
0.024806192 -0.060242094 0.08985441 -0.07251951 -0.029735994 0.11698098 0.09367597 -0.0142780095
00000000: c512 a1bc 1183 e63d 1e9c 9d3b 2ece eb3d
00000010: cd97 543c 3900 0a3d 6c6a f63d aace 5f3d
00000020: 0650 683b 7834 983d 4d78 1e3d 5fef 4d3d
00000030: d843 4c3d 729a 6f3d 0998 aa3c f1db fabc
00000040: 861f a83d 1c98 4abd 36e1 cc3d 3431 d3bd
00000050: 70bf b63d debd 50bd f1c9 0abd 7c6d 503e
00000060: 1f2d 083e 5242 f23d 4e66 43bd 334a 803d
00000070: 2af4 283c 31fe a63d e2aa b23d cc9d ed3c
00000080: 8627 033d aa7d d53d a48c 703d f2fe b03d
00000090: a918 e5bc e37b c03d 4ba9 4d3c 5883 19bc
000000a0: a40c d53c f8ba 2e3d 9ff3 fabc c3e2 80bd
000000b0: 3643 f0bb 2695 a5bc e412 ea3d 5036 1a3e
000000c0: 11ec 90bb 4dfa f83b 9ea3 db3d fe40 9abd
000000d0: d43b 433c f8cc 1b3e 823f 8dbc 6da8 0e3e
000000e0: ed9d 7ebd bfd8 b1ba a85a edbc 0cb6 983d
000000f0: 1b9d a13d abaa e23b 2f70 babd 3111 0f3e
00000100: e0e2 c93d 691c dbbc 1066 d63b b19d 143e
00000110: 27fe 083d 67b7 74bd c110 f4bc e06c 443e
00000120: 6b03 143e 10b6 c63d 7416 6fbc 9313 97bc
00000130: 514c c73b 176c 913d 4a89 9c3a 9027 3f3d
00000140: f9bf 973d 42ea 3b3d 0f9a 94bc e21f 7c3c
00000150: ad22 2a3e 1668 623d 62e8 763d abc4 903d
00000160: 6ac3 e0bc acff c53d d589 41bd ee92 903d
00000170: 3a62 ac3d 855f 883d e7f3 1d3d 8995 a23d
00000180: a808 2dbc 000a 043d 8066 e73a 3a79 ec3c
00000190: c46f 273d d91a 38bc 73d9 8b3d e2a6 46bb
000001a0: 0647 193d 4bf9 5cbd d62a 27bc 92e9 d43c
000001b0: adcd 013e a4d4 f73d 719d 42bb 3d0c 873d
000001c0: 3543 b33d 4ad8 223c 1f21 863d 2e87 063d
000001d0: de8e 813d cd55 623d 9a38 433d 426d 6ebc
000001e0: 7b5c c73d 9188 5ebc 4e7b 983d 8b17 b73d
000001f0: 6adb 40bd 8603 e83d 7009 44bd d9f8 d9bc
00000200: 7623 cc3d 3096 023e e8d4 4b3c ed6c 163d
00000210: 5f8d 3cbc b87b 233d 9c83 513d 2a2a c5bb
00000220: cdf6 f6bb afe4 c23d fb53 0c3e aacb e73d
00000230: e8cd 193b fe7d ffbc 29eb d1bc ddf1 45bd
00000240: 3dc8 69bd 7c9d 713d 639d babc 7cf7 dd3d
00000250: 7c1d 993d e02d 033e e36e 433d ba3e 1dbd
00000260: 806f f1bc d972 fc3c 6360 d0bd d373 9a3d
00000270: 10e2 68bc 622e 94bc ef59 88bd c77e 8d3c
00000280: 355f 733d c3ec d3bc 7d86 7c3d 1ea8 fe3d
00000290: d82e cf3d 5e3d 84bd 32ad 143d c9a6 3d3d
000002a0: 0df0 7dbd d8e8 a63d 2834 8cbc 4947 403c
000002b0: fc3f 6b3d 580a 993d bfe6 29bd 4498 82bc
000002c0: a7c4 753c 6f3f 6bbc 9287 3e3d 31c1 b5bc
000002d0: 61d0 b53d 9515 86bc ed0e 2b3d b4e5 f93d
000002e0: 1bc0 c83d 1510 5d3c 3b4d e8bc 9b31 a63d
000002f0: 23de 9a3d 71a3 cb3c ba07 033e d384 fbbc
00000300: e6f9 87bc be8a a33c 665a 52bd 3c7c ce3d
00000310: c99d 993c 17ab a8bc d8da 0abd 0d17 02bd
00000320: e175 de3d d66b 6abd ba40 963d 30b9 173d
00000330: d70e 0a3c 86b2 0e3d f68d 97bd 8b32 d23c
00000340: 4dc8 e6bb dd30 9cbd 5942 b13d 13a5 03bd
00000350: f54e eabc 53bd bd3d 0568 8b3d c3e5 b43d
00000360: 331f 95bd e136 9cbb 22e1 633d 5a48 783d
00000370: 6466 eb3b fb99 c3bd 63be ddbd 775e 513e
00000380: 2b49 c33d 20af 50bd a824 9e3d c0d0 a2bc
00000390: 2d68 983c efa1 493d d8d6 c93d 318c 2bbd
000003a0: 5cda a33d 590b 043d c502 063d 4839 72bc
000003b0: b557 343b 82da 95bc 1353 e43d d586 1d3d
000003c0: cf5b 613d b216 4f3d a6ca b73d 875d 98bd
000003d0: 12e2 1a3d 24dd ae3d 026b 983c 20d2 e23d
000003e0: 5b36 cb3c 6ac0 76bd 9705 b83d 1c85 94bd
000003f0: e698 f3bc b993 ef3d 30d9 bf3d 50ee 69bc
