New_project/modelo_simples11.onnx (onnx, 183092 bytes, 5 tensors)

output_layer.weight f4 [14, 100]
000000 fb 96 e3 bd 52 d0 26 be 7d e3 11 bd 69 fe 8d bd
       -0.111127816 -0.16290405 -0.03561734 -0.069332905
000010 6a 7c 25 bc 0c 7d 32 3e ac ea 62 bd 9f 0f 10 be
       -0.010100463 0.17430514 -0.05539958 -0.14068459
000020 8c d3 f9 bd 74 ac 54 be 5f 23 4e 3c eb c7 33 be
       -0.121985525 -0.2076891 0.012581675 -0.17556731
000030 ee 97 07 3d 5e 51 48 bd 60 17 d4 3d 3c c7 c9 bc
       0.033103876 -0.048905723 0.10356021 -0.024631135
000040 62 d8 9f 3d fd 94 97 3d dc a2 02 3e db 4c e0 3d
       0.078049436 0.07401464 0.12757438 0.10952159
000050 97 91 1d be a3 ba 48 be 5d 5d 28 3d c7 58 2c 3e
       -0.1538757 -0.19602446 0.041104663 0.16830741
000060 d7 35 05 3e 61 96 05 be b3 6a f2 bc 8c 3c 2b 3e
       0.1300882 -0.13045646 -0.029591894 0.16722316
000070 b2 61 02 be 5e 68 59 be ee 37 2c b9 d7 39 3e 3e
       -0.1273258 -0.21231219 -0.00016424034 0.18576752
000080 6a 74 97 be 9a 54 0e be 7d 05 11 be 5c 41 39 3e
       -0.29581004 -0.1389946 -0.1416225 0.18091339
000090 d2 86 9a be 6f 82 73 3e f3 0d 36 3d c6 91 2f 3d
       -0.30180985 0.23780225 0.044446897 0.04286363
0000a0 ab 57 a7 bc 3f 02 2b be a2 6d 1e 3d 2b 32 f1 3c
       -0.020427546 -0.16700076 0.038678773 0.029442867
0000b0 89 2e 1a bd 91 8e 3a 3e 9f 36 22 bd 4b ed 44 be
       -0.037642036 0.18218447 -0.039602872 -0.19231145
0000c0 60 f8 b2 bd 1e 52 25 3e 31 34 0d 3e ec 6d 11 3e
       -0.0873878 0.16144606 0.1378944 0.14202088
0000d0 36 e0 39 be f4 9b 73 be 74 94 d5 bd d1 0f 03 be
       -0.18151936 -0.2378996 -0.10428706 -0.12799002
0000e0 ce 88 d9 3d 19 aa 95 3d dd a9 0e be b4 32 8e 3e
       0.106217965 0.07307834 -0.13931985 0.27773058
0000f0 6d bb 29 3e c4 71 89 bd 87 64 29 be dc b6 3a 3d
       0.16575404 -0.06711152 -0.16542254 0.045584545
000100 ff dd fd 3c 50 7c 8e 3e 64 67 4a 3e 53 a5 c6 bd
       0.030989645 0.27829218 0.19766003 -0.09699502
000110 9c ac 21 3d 70 a0 d8 3d 3b c0 56 3e 0b 3d 25 3e
       0.039471254 0.10577476 0.20971768 0.16136567
000120 2b 71 8f 3d 81 54 9d bd 22 1a 60 3d dd 26 84 3b
       0.07004007 -0.076821335 0.054712422 0.004032953
000130 ee d3 a5 be 1a 2c 6d bd c0 cd 00 bc bf a0 6c 3d
       -0.32388252 -0.057903387 -0.007861555 0.057770487
000140 02 41 86 ba 40 bb 19 3e f4 af 54 3e 07 0a ec bc
       -0.0010242763 0.15012836 0.20770246 -0.028813375
000150 b3 93 58 3e 84 2c dd bd 07 28 67 bd 0b 68 1b 3d
       0.21150093 -0.10799506 -0.056434657 0.03794102
000160 32 c7 17 bb d0 4f 0b 3e 84 ac 86 bd c6 a0 51 be
       -0.00231595 0.13604665 -0.065758735 -0.20471486
000170 e9 d6 96 bd 43 07 87 bd e4 0f 96 bc 44 0c af 3d
       -0.073652096 -0.06593182 -0.018318124 0.08547261
000180 ae 31 fb bd 00 89 31 3e 6a d5 5d 3e 74 55 81 3d
       -0.12265335 0.17337418 0.21663442 0.06315127
000190 cb 61 96 3d fd 68 a8 bd 0f 4e 3e 3e b0 ea 95 3d
       0.07342871 -0.0822315 0.18584464 0.07320154
0001a0 f8 49 31 be e3 27 ea bd d8 20 d7 bd 00 f0 96 3d
       -0.17313373 -0.11433389 -0.10504311 0.07369995
0001b0 53 94 09 be 4f 1a ef bd 5b 18 a4 3d 4c 6b b7 3c
       -0.13435487 -0.1167494 0.08012458 0.02239003
0001c0 2f 44 d4 bd d5 4e fd bd 75 a5 af 3b 41 69 e1 3d
       -0.103645675 -0.12368552 0.0053603 0.11006404
0001d0 b6 e8 29 3e 92 74 a0 bd 48 f4 00 3e 34 6b 3b 3d
       0.16592678 -0.07834734 0.12593186 0.045756534
0001e0 9e fb 03 bb 55 10 0c 3e 3e cf da 3c 0a 29 90 3d
       -0.002013899 0.13678105 0.026710149 0.070390776
0001f0 95 67 82 3d 25 5b 12 be 91 91 0f 3e 09 66 e2 3d
       0.06367413 -0.14292581 0.14020373 0.11054618
000200 bb 35 bf 3b 7e 1b 96 bd 7d 18 1c 3e 1c 97 a3 bd
       0.0058352626 -0.073294625 0.15243717 -0.07987806
000210 6c f8 a9 bd f5 71 f6 3d 53 50 67 3c 87 bb 40 3d
       -0.08299336 0.12033454 0.014118272 0.04705384
000220 5f 8c 11 be 39 c6 de bc 80 d3 19 3e 26 9c 93 3d
       -0.14213704 -0.02719413 0.15022087 0.07207517
000230 26 30 94 bd 9c 45 89 3d 8b cf d0 bd 0f a0 09 be
       -0.07235746 0.0670273 -0.10195836 -0.13439964
000240 71 1e dc 3d 31 71 ad bd 5c 83 a6 3c c7 61 5c be
       0.10747994 -0.08468855 0.020326309 -0.21521674
000250 5c 84 b6 3c 02 43 dd 3b 1e 10 27 3e 97 3d 68 bd
       0.02227991 0.0067523727 0.16314742 -0.05669936
000260 01 51 e9 bd 7f 3d f2 bd 9b 0b cd bd c5 29 dc 3d
       -0.113924034 -0.11828136 -0.10011979 0.107501544
000270 6c 39 51 3d af e3 c5 3d 18 7d 18 bd 53 1e 9e bd
       0.051080152 0.09662568 -0.037228674 -0.07720628
000280 5a 04 85 bd cb 3c 2c 3d 74 f9 d1 bd fc 98 14 be
       -0.064949706 0.042050164 -0.102526575 -0.14511484
000290 82 9f de bd b3 a9 18 3d fb 1d 60 3d 0c 3b e7 3d
       -0.108702675 0.037271213 0.05471609 0.11290559
0002a0 77 5d 8d 3d 80 59 95 bd ca 91 b3 bd 26 4e e3 3c
       0.06902593 -0.072924614 -0.087680414 0.027747225
0002b0 47 13 0f 3c 6e 51 d5 3d 3c ae 29 3e ab 37 8d 3d
       0.008732623 0.10415922 0.16570371 0.068953834
0002c0 c1 e2 4c 3e 9f 67 dd 3d 02 2a 3d bd 27 ff eb bc
       0.20008375 0.1081078 -0.04618264 -0.02880819
0002d0 3b 94 cd 3d c4 46 31 3e 39 40 ab 3d 6a 79 4a be
       0.10038038 0.17312151 0.08361859 -0.19772878
0002e0 ad e3 dc 3d 11 46 fd 3d 94 23 5f bd d0 d6 39 bd
       0.10785613 0.1236688 -0.05447729 -0.045370877
0002f0 1c d8 7e 3c 16 35 a1 bc 0c ac 01 3e 11 1c 12 be
       0.015554454 -0.019678634 0.12663287 -0.14268519
000300 bf 88 91 3c 12 ee fc bd d1 32 84 3d 96 12 89 3d
       0.0177654 -0.12350096 0.06455005 0.06692998
000310 f8 2c 3b 3e b2 95 0a 3d ba 33 a9 3d b3 38 a5 3d
       0.18278873 0.033834167 0.08261819 0.08067455
000320 78 9f c1 3b 41 07 1a be 0d bb 1e 3c ba c1 d2 bd
       0.0059089027 -0.1504183 0.009688151 -0.10290857
000330 21 fa 9a bd 18 a8 3f 3e 6b 39 ba 3d 60 c1 ff 3d
       -0.075672396 0.18716466 0.09092983 0.12488055
000340 62 44 a2 3e 93 f5 1e 3c 90 4c 94 be d6 d7 8d 3d
       0.31692797 0.009702104 -0.28964663 0.06925933
000350 cb 6f 23 3c 27 a8 37 3e 0a 84 f9 be 6e b0 7e be
       0.009975384 0.17935239 -0.4873355 -0.2487199
000360 20 97 a4 bd e7 e2 27 3e 0e 0b b1 be 3f b7 54 be
       -0.08036637 0.1639515 -0.34578747 -0.20773028
000370 4a c2 52 3e 33 8c 32 be 27 dc db 3e fa 29 0d bd
       0.20581928 -0.17436294 0.429414 -0.03446386
000380 69 6d 75 3b 26 10 16 bc 07 0d e1 bc 1c c4 b9 bb
       0.0037449247 -0.0091591235 -0.027472032 -0.00566913
000390 3e 0f 95 be 5b 67 30 bc 49 ff 29 3c 52 d4 49 bd
       -0.2911319 -0.010766829 0.010375806 -0.04927475
0003a0 4e ac 6d be c6 9e 9d be ef 26 67 3d f6 47 12 be
       -0.2321026 -0.30785197 0.056433614 -0.14285263
0003b0 37 0a e1 3d db ec 63 3c 04 a9 d3 be 8d 7e 40 3e
       0.109882765 0.013911451 -0.41339886 0.18798275
0003c0 39 5b 8e be 07 66 82 3d ee 52 c4 3d 8c c0 09 3e
       -0.27803972 0.063671164 0.0958613 0.13452357
0003d0 83 94 d1 bd b9 d0 37 3e 60 11 e0 bb e1 b9 8e 3b
       -0.102334045 0.17950715 -0.0068380088 0.0043556546
0003e0 1e 2a 58 3e 14 34 8e 3e 76 d6 a1 be 0a d0 bc 3d
       0.21109816 0.27774107 -0.31608933 0.09219368
0003f0 7a d3 e1 bd 8b f8 41 bf ec 89 d8 3d e6 0e 76 bc
       -0.11026664 -0.7576987 0.105731815 -0.0150182005

output_layer.bias f4 [14]
000000 e9 0d 54 3e 19 54 12 3d a3 80 69 bd f6 6d d8 bd
       0.20708431 0.035724733 -0.057007443 -0.105678484
000010 1f 17 3c 3d fb e5 08 bd 0b e7 a1 bd 84 6a 47 3d
       0.045920487 -0.03342245 -0.07905396 0.048685566
000020 7c 83 4d be df 21 27 3e ec 09 7c be 75 1a 88 3c
       -0.20069689 0.16321515 -0.2461316 0.016614178
000030 f7 9d 85 be 5a 17 5c bd
       -0.2609708 -0.053733207

onnx::LSTM_122 f4 [1, 400, 7]
000000 2d 6d 30 bd b0 45 03 be 2e 7a 2f 3d 2c d7 8a 3c
       -0.04307287 -0.12819552 0.04284113 0.016948305
000010 91 59 a2 bc 38 38 2e 3d 04 31 23 3e dc e1 f6 bd
       -0.0198181 0.042534083 0.15936667 -0.12054798
000020 50 b2 84 bc 1c 49 06 3e f5 34 24 3c 25 f1 7a bc
       -0.016198307 0.13113827 0.010022392 -0.015316282
000030 82 40 aa 3c c6 68 90 3c 9e 94 0d 3d a2 69 e2 bc
       0.020782713 0.017628085 0.03456556 -0.02763826
000040 67 34 4f 3d 3b f0 ce bc 8a 34 98 3d 55 e0 64 bc
       0.050587084 -0.025261035 0.07431896 -0.013969501
000050 3c 81 4f bd 8e 90 e4 bc 10 0a 0d bc 53 78 02 3e
       -0.050660357 -0.02790096 -0.008608356 0.12741213
000060 1a 85 3b bd 39 9e b8 3d 09 fb 83 bd 1f 36 1e 3d
       -0.045781232 0.090145536 -0.064443655 0.038625833
000070 ca ac 71 3d d0 ca b6 bd b6 30 55 bc fd 0a 22 3e
       0.059002675 -0.08925402 -0.013012102 0.15824504
000080 cc 53 49 3d 11 75 bf 3d 6a 59 3f bd 7a df cd 3c
       0.04915218 0.093485005 -0.04671613 0.025130976
000090 d3 fb aa bd 03 15 9f bc 95 0b f8 bd 0a 15 85 bd
       -0.08348813 -0.019419199 -0.12111584 -0.064981535
0000a0 b9 57 b1 bc 5d 68 ac 3c e4 e3 84 bd 09 9a 9c bc
       -0.021648275 0.021045858 -0.06488779 -0.019116418
0000b0 94 fa b4 bd ec 31 b7 bd 66 8c 14 3d ef 5a c8 bd
       -0.088368565 -0.08945069 0.036266707 -0.09782969
0000c0 5b 14 25 3c 06 e8 64 be fa f9 ea 3d b2 04 f9 3d
       0.010075654 -0.22354135 0.114734605 0.12159099
0000d0 47 3a 42 bd de ad 5d be 84 02 98 bd e8 c1 18 be
       -0.04741886 -0.21648356 -0.07422355 -0.1491772
0000e0 82 fc 2e bc 77 90 24 bd dc 8e 1e bd 6a 10 52 3d
       -0.01068032 -0.040176835 -0.03871046 0.051285185
0000f0 81 90 aa bd a9 0e 44 be 51 03 0d be db 19 1e be
       -0.08328343 -0.19146217 -0.13770796 -0.1543955
000100 5a 1e 3d 3e 20 35 09 be 8b 15 29 bb 4f 41 89 bc
       0.1846861 -0.13399172 -0.0025800194 -0.016754774
000110 06 34 0d be b7 a4 22 bd 63 02 3c be ef 57 31 be
       -0.13789377 -0.039707866 -0.18360285 -0.173187
000120 f7 1f cd bd 2b 6c a4 3d c0 60 b4 3d 5e e3 52 3d
       -0.100158624 0.08028444 0.08807516 0.051486365
000130 81 0e c1 3c e5 af d4 be 84 79 7b be bc d3 f2 3d
       0.023566486 -0.41540447 -0.24558073 0.118567914
000140 6d 41 a2 3e 54 06 4b 3e 66 c3 3a bd be 75 95 3e
       0.3169054 0.19826633 -0.045596503 0.29191393
000150 74 55 41 3d ec 04 8d 3c 13 fc 03 3e a1 43 d0 3c
       0.047200635 0.017214261 0.12889127 0.025422873
000160 83 c8 d0 3c aa b4 dd bc 78 cf 67 3d d0 dd e8 bd
       0.025486236 -0.027063686 0.056594342 -0.113704324
000170 84 11 b6 3d 21 78 5e 3d 75 5b 90 bd 20 01 9c bd
       0.088900596 0.054313783 -0.07048694 -0.07617402
000180 8e 65 2b 3d 94 1d 97 3d b9 01 77 3d 53 1c 4a be
       0.041844897 0.073786885 0.060304377 -0.19737367
000190 c2 e6 38 3d b1 e6 48 3c 7d 69 2a 3d 8f 2c 9f bc
       0.045141943 0.012262032 0.041604508 -0.019430427
0001a0 67 bf 90 3b 8e 4a 5a bd fe 5a 3a 3d 14 86 5b 39
       0.004417348 -0.053293757 0.045496933 0.00020935416
0001b0 a5 71 18 be 09 79 c6 bd a6 a3 4b be 01 70 30 be
       -0.14887102 -0.096910544 -0.19886646 -0.17230226
0001c0 80 5b d7 bd 73 a2 ed 3d b1 6d 05 3e f8 b5 dd 3c
       -0.10515499 0.1160325 0.13030125 0.027064309
0001d0 02 92 03 3e 0d 23 c1 bd f6 b5 97 3d 8d a7 d7 bd
       0.12848666 -0.094305135 0.07407753 -0.10530005
0001e0 9e 24 32 be 4e 46 38 bd d6 dc 6f bd f7 d0 d0 3a
       -0.17396781 -0.044988923 -0.058560215 0.0015931417
0001f0 8d 7a 93 3d db d7 01 3d 69 fd e2 3d 83 57 66 3d
       0.07201109 0.031699996 0.110834904 0.0562358
000200 1c 89 10 3e 46 bb 25 3d 6c 31 1a bd 0b 6a 3a ba
       0.14114803 0.0404618 -0.03764479 -0.00071111385
000210 84 87 57 bd ea ad de 3d 5b 76 86 3d d3 b0 0c 3e
       -0.052619472 0.10873015 0.06565543 0.13739328
000220 27 0a 8e 3d 14 42 01 bd 00 c6 9c 3d 2d 60 97 3b
       0.0693553 -0.031557158 0.07654953 0.0046196193
000230 d7 d4 a1 bd 04 9a f4 bd fd 85 16 bd 9e 17 e8 3c
       -0.07901924 -0.11943439 -0.036748875 0.028331574
000240 8a 06 f9 3d 7f ad d1 bc 41 88 57 3d 5f fd 0d 3d
       0.1215945 -0.025595425 0.052620176 0.03466546
000250 fb d3 a8 bd e2 5f 4e bd 48 d9 33 bc ad ee a0 3b
       -0.08243557 -0.05038441 -0.010977097 0.004911265
000260 25 82 24 bd 19 61 35 3c fc 5f f3 bc ab b4 d8 bd
       -0.040163178 0.011070513 -0.029708855 -0.10581335
000270 d0 35 60 bd 3e 88 c6 3d b1 02 b8 bd f0 ad dc 3d
       -0.05473882 0.09693955 -0.08984888 0.107753634
000280 02 56 1f be 5c c5 a5 bc 88 90 0e 3c d1 77 d4 bd
       -0.15560153 -0.02023571 0.008701451 -0.10374416
000290 f6 3c e3 bd 0a 2b 0f bd f2 54 e3 3d c4 2f af bd
       -0.11095612 -0.034953155 0.111001864 -0.085540324
0002a0 7d b8 7c bd 0f 3c 09 3e 84 1b 82 bd dd d3 11 3e
       -0.06169938 0.13401817 -0.063529044 0.14240976
0002b0 d0 4a dc ba f8 e2 11 bd fd 62 68 3c 14 5e d3 3d
       -0.0016806964 -0.035616845 0.014183757 0.10320678
0002c0 29 fa 03 3e 1d f3 2c bc 93 b5 cb bd de a6 2c bd
       0.12888397 -0.01055601 -0.09946742 -0.042151324
0002d0 5e 9e 42 bd 7f 79 3f bb fa 67 a2 bd 42 e6 dd bd
       -0.047514312 -0.0029216704 -0.07929988 -0.10834934
0002e0 7b 24 2a bc f4 6f 4d 3d 7e 3f 70 bd 63 ea 49 3d
       -0.010384674 0.050155595 -0.0586543 0.049295794
0002f0 f1 b9 b6 bd 77 4f d9 bc 83 a1 50 3d 2a a9 93 3d
       -0.08922184 -0.02652715 0.05093528 0.0721
000300 40 3b f0 3c 89 7e 8b 3c 20 93 7c bd 62 d9 e6 bc
       0.029325128 0.01702811 -0.061663747 -0.028179828
000310 3c e6 3c bd e3 88 d6 bd c3 42 cd bc 1e d5 19 3d
       -0.046118006 -0.10475328 -0.025056249 0.03755676
000320 39 0e 19 3d 5c f6 17 3e 35 7f 60 3e 53 2d 6e 3d
       0.03736708 0.14840072 0.21923526 0.058148693
000330 1e bf 80 3d 8f a6 87 3d 33 a9 ea 3d d2 54 13 3e
       0.06286453 0.066235654 0.114580534 0.14387825
000340 d0 4b e2 bb ee 00 06 3e 96 2d 55 3d a7 e8 eb 3c
       -0.00690601 0.13086292 0.052045427 0.02879746
000350 81 68 36 3c 95 dc 99 3b 75 fb 82 3d 72 82 30 3e
       0.011133314 0.004695485 0.06395618 0.17237261
000360 bb 54 0b 3c f6 a5 c8 bd 0e c5 88 bd 54 fc 5f 3e
       0.008504088 -0.097972795 -0.0667821 0.218736
000370 6c a5 09 bd 98 f0 e1 3d 4d 0e e1 bc 71 eb 69 bd
       -0.033605024 0.11032218 -0.02747264 -0.0571093
000380 8e 50 75 bc 63 16 d1 3d f1 cc 72 be 82 52 09 be
       -0.014972819 0.10209348 -0.23710991 -0.1341038
000390 a6 4f e7 3b 86 04 e8 bd 6d 50 b4 3d 7f aa 5a bd
       0.0070590554 -0.11328988 0.088044025 -0.053385254
0003a0 5c 31 2f 3e fd ca d4 3d 98 38 b6 bd e9 5a 35 be
       0.17108673 0.103902794 -0.08897513 -0.1771046
0003b0 d7 c0 43 be f3 3f 67 be f4 87 e5 bd e2 3b 3b 3d
       -0.19116531 -0.22582988 -0.112075716 0.045711406
0003c0 3c b5 00 3e 03 fa 3c bd 0a e9 1a 3b e2 8a 92 3c
       0.12569135 -0.046136867 0.0023637437 0.01788849
0003d0 06 b7 6d ba 6c 54 fd bc 66 61 18 bd f5 7e a7 3c
       -0.0009068105 -0.030924045 -0.03720226 0.02044628
0003e0 da 24 03 3e de 7f 71 bc 8b 58 42 ba 38 a8 2a bd
       0.12807027 -0.014739959 -0.00074137066 -0.041664332
0003f0 25 73 70 3d 47 d4 35 3e ea a6 29 be 12 4a 2e bd
       0.05870356 0.17756759 -0.16567579 -0.042551108

onnx::LSTM_123 f4 [1, 400, 100]
000000 14 3a 16 3e 49 3d 1f 3e 6d ff 76 bd 0f b5 5e 3d
       0.14670593 0.15550722 -0.060302187 0.05437189
000010 1f 54 19 bd 5f b9 61 bd 56 3d c0 bd be 2f 88 bd
       -0.03743374 -0.055108424 -0.09386699 -0.06649731
000020 48 43 30 bd fe 77 5a 3e 8d 84 09 3e c5 0b 01 be
       -0.043032914 0.21334836 0.1342947 -0.12602146
000030 8c 0a 10 3e 12 ae 0c 3e c7 65 af bb 3f 5d 8e 3c
       0.14066523 0.13738278 -0.005352709 0.017378448
000040 20 d1 e5 3d 4c 62 3e bd 7b ac f6 3c 2e 3e 37 3d
       0.11221528 -0.046480462 0.030111542 0.044737034
000050 62 3e 14 3e 79 e5 3a 3d 14 f9 d5 bd 60 90 9f 3d
       0.14476922 0.045629 -0.104478985 0.07791209
000060 5c 6c dd bd 9f ee b0 3d 1d bc 97 bd 03 a7 51 3d
       -0.108116835 0.08639263 -0.07408927 0.051184665
000070 2b ad 24 3e 79 97 53 3e 6f 05 a8 bc 37 73 96 bd
       0.16081683 0.20663251 -0.020510403 -0.07346194
000080 43 2f 67 bc 01 c8 30 bd 99 47 81 bd e1 c1 ab 3b
       -0.014110389 -0.04315949 -0.06312484 0.005241618
000090 37 4a 51 3c 67 1c a0 bb b9 e5 fa bc 70 db c7 bc
       0.012774042 -0.0048861983 -0.030627118 -0.024396628
0000a0 86 97 de bd ae 92 13 bd d5 2f 08 bd ef 8c 01 bc
       -0.108687446 -0.036028557 -0.03324874 -0.007907136
0000b0 55 75 81 3d 7c 71 ad 3c e9 99 8a 3d dd aa 1b be
       0.063212074 0.021172278 0.06767637 -0.15201898
0000c0 60 44 5a bc 51 1e 0e be a3 2b 9f 3d 0b 74 ee bd
       -0.013321966 -0.13878752 0.07771995 -0.11643227
0000d0 93 59 85 bb 1d 59 d6 3d 16 e4 56 bc a4 4f b9 3d
       -0.004069516 0.10466216 -0.013115903 0.09048393
0000e0 ef 95 28 bd be 18 d4 bd e4 49 02 be 06 4b c6 bb
       -0.041158613 -0.10356282 -0.127235 -0.006051424
0000f0 9c a2 33 bd a1 b5 ab 3d c6 34 b2 bd 8a b9 21 b9
       -0.04385625 0.08384252 -0.08701472 -0.00015423275
000100 6b c4 95 3c 2a 14 50 be eb 30 8f 3d 05 6b e1 3c
       0.018282136 -0.20320192 0.06991752 0.027516851
000110 6f 32 76 bd c5 55 9e bc 74 67 f1 bd 5f 33 7c 3d
       -0.06010669 -0.019328007 -0.1178731 0.06157243
000120 10 81 33 bc 3b c4 32 3d ef 25 9c 3d 5b 70 9e bd
       -0.010956064 0.04364417 0.07624423 -0.07736274
000130 c1 c3 8b 3c 99 4c ae 3b d3 a5 e5 bc ee ec 2b bd
       0.017061116 0.0053191897 -0.028033173 -0.041974
000140 da 2b c7 3d fe 68 17 bd 76 7d 21 3b e1 dd 69 bd
       0.09725161 -0.036965363 0.002464143 -0.057096366
000150 ac 1f 5b bc 07 82 aa 3d 06 e1 2f 3d 1c 7c 64 3e
       -0.01337425 0.08325582 0.04293921 0.22312969
000160 44 5d 54 bd e4 12 10 3d aa c0 d8 3d e0 b7 4a 3b
       -0.051846758 0.035174266 0.10583623 0.0030932352
000170 97 59 15 be fb df 9d 3d de 42 8e 3d b4 06 b5 3d
       -0.14584957 0.077087365 0.06946348 0.08839169
000180 aa c3 0a 3e 71 d0 e6 bc f1 bf 85 3b b9 9c c9 bd
       0.13551202 -0.028175564 0.004081719 -0.098443456
000190 97 d2 26 3d 07 b9 bf 3d c4 a7 31 3e d9 6a 14 3d
       0.040728178 0.09361463 0.17349154 0.03623471
0001a0 66 1a 85 3d 25 1c 1a 3c ce 1e f1 3d 8f 43 73 3e
       0.06499176 0.009406124 0.11773454 0.2375624
0001b0 7e c4 83 3d 22 7a e9 3d 77 f7 e7 3c f5 fa 14 3d
       0.06433962 0.11400248 0.028316243 0.036372144
0001c0 83 ea 86 bd c6 88 91 3d b5 f8 06 3e 79 be e2 3d
       -0.06587698 0.071061656 0.13180812 0.11071486
0001d0 7d 2c c8 3d 75 ec 04 bb cc c1 53 ba ec a9 b5 bd
       0.097741105 -0.002028254 -0.0008077889 -0.08870301
0001e0 c5 c8 af 3c 37 77 36 3d 5a 21 b8 bc dc ac 3b be
       0.021458039 0.044547286 -0.02247684 -0.1832766
0001f0 3c ba 0c 3d 06 c0 10 bd 46 a4 b2 3b 27 9a e6 bb
       0.034357294 -0.035339378 0.005451712 -0.0070374194
000200 02 bd e1 3d de 8b 34 3d e3 5b 62 bd 14 03 4c bd
       0.110223785 0.0440787 -0.05526341 -0.049807623
000210 ab 3a 90 bc 2a 13 0b 3e 1a c3 53 3c b5 41 1d 3c
       -0.0176061 0.1358153 0.012924934 0.009598185
000220 a8 91 41 bd bb b5 a5 bd 36 a2 08 3e df 9e 11 be
       -0.04725805 -0.08091303 0.13343129 -0.14220761
000230 27 3c 15 3e 71 01 dd 3c bd 7b df 3d 8c 4c 83 bd
       0.14573728 0.026978226 0.10912273 -0.064110845
000240 f1 42 bb bd c1 7b b5 bd 8e f2 23 bd 50 44 1e 3e
       -0.091436274 -0.08861495 -0.04002624 0.15455747
000250 2b ad 34 3e 59 ab ea bc f0 a9 16 3d 64 98 84 3c
       0.17644183 -0.028646158 0.03678316 0.016185947
000260 ad 1f ed 3d e1 22 87 3d 69 fa bf 3d 81 a2 58 3d
       0.11578307 0.065984495 0.09373934 0.05288935
000270 eb 2c 06 bd ac 57 01 3d 4f b9 11 3e 45 4a 27 be
       -0.03275768 0.03157775 0.14230846 -0.16336925
000280 04 c4 20 be bc 90 e5 3c ea 45 8d 3c 25 13 76 bd
       -0.15699774 0.028023116 0.017245252 -0.06007685
000290 b3 2b df 3d d7 19 d9 bd d1 ba e1 3c 1c 9c 4c 3d
       0.10897007 -0.10600632 0.027554901 0.049953565
0002a0 87 14 1b 3c 85 dc 9a bd 7f e4 01 be b8 cf 76 bd
       0.009465343 -0.07561592 -0.1268482 -0.06025669
0002b0 3a b7 c1 bd 37 4c 69 bd 3e 5c 2f 3c 4b d1 17 3e
       -0.09458776 -0.05695745 0.010703145 0.14825933
0002c0 e7 8a c7 3d 6d f1 12 3e 15 cc 88 3d 0c be 18 be
       0.097432904 0.14349909 0.066795506 -0.14916247
0002d0 ad d4 53 3d a8 c9 e4 3d 58 a0 87 bd aa a8 a9 3d
       0.051716495 0.111712754 -0.0662238 0.08284123
0002e0 5c 68 bf 3c f8 45 c3 3d 1b 09 9d 3b 5a e3 b9 3d
       0.023365192 0.0953483 0.004792345 0.09076567
0002f0 e4 d2 eb bb d3 c0 1e be a2 69 e7 3d ee 6a a0 bd
       -0.007196771 -0.15503244 0.11299445 -0.07832895
000300 e9 33 99 bb ee b0 7f bd 51 44 aa bd da 1f 2b bb
       -0.0046753776 -0.062424593 -0.083138116 -0.0026111514
000310 22 ce e8 3d c6 95 9e be aa 50 8e 3c 31 0a a5 3c
       0.11367442 -0.30973643 0.017372448 0.020146461
000320 4b b2 b6 bd fe 90 2e be 3c 6e 3c bc d0 5f fa 3d
       -0.089207254 -0.17047498 -0.011500891 0.12225306
000330 0a 2c d0 3d 57 bf aa 3d 2b 3f 87 3d 90 e7 b6 3d
       0.1016465 0.083372764 0.06603845 0.08930886
000340 03 ef 21 bd 9f 47 71 bd c6 12 30 bd 05 27 04 3e
       -0.03953458 -0.058906194 -0.042986654 0.1290551
000350 38 b0 51 be ee a0 c5 bc 91 87 b1 3d 22 e7 3b 3e
       -0.20477378 -0.024124589 0.08668435 0.18349889
000360 63 a6 17 3e 60 eb b1 3b 13 67 36 3d d8 45 3e 3e
       0.14809565 0.00542967 0.044531893 0.18581331
000370 29 41 ce 3c 9a 7a 71 bd d2 91 c5 bc b8 d1 6a bd
       0.025177555 -0.058954813 -0.024117384 -0.05732891
000380 74 51 11 bd 39 5b e5 bd 29 8a 09 bd 1f 14 d1 3d
       -0.03547807 -0.1119904 -0.033579025 0.10208916
000390 96 3a 2c 3c 0b ee 1a be f0 3f 1b bc 5f 17 13 bc
       0.010512015 -0.15129869 -0.009475693 -0.00897774
0003a0 43 7c 50 be 28 34 46 3e d3 a5 97 3d ab ad cf 3c
       -0.20359902 0.19355834 0.07404675 0.025351366
0003b0 f6 70 41 be 39 3b 78 3b 0c 82 1d 3e 78 31 e8 bc
       -0.18890747 0.0037877096 0.1538164 -0.028343901
0003c0 c2 94 82 3d 48 12 b9 3c 76 0e b4 3b 32 82 fa bc
       0.063760296 0.022591725 0.005494888 -0.03057966
0003d0 12 31 2e be fb 97 10 3e 9e 1d c1 bc d9 6d 3a bd
       -0.17010906 0.14120476 -0.023573693 -0.045514915
0003e0 e1 fc 7d 3d 87 fd 78 3d fd 9b d1 bd a8 84 14 bd
       0.062008742 0.060788658 -0.102348305 -0.036259323
0003f0 b6 02 8f 3c 6b fb 42 3e 52 20 19 bd 17 0a 29 bd
       0.017457347 0.19041221 -0.03738434 -0.041269388

onnx::LSTM_124 f4 [1, 800]
000000 71 80 35 be 13 b4 39 3d 02 91 8d 3d 06 30 bc bd
       -0.17724778 0.045337748 0.06912424 -0.09188847
000010 cc f2 4e 3e 73 32 e2 3d bd 1a 82 3d 34 8a e7 bd
       0.20209807 0.11044779 0.06352756 -0.11305657
000020 03 a3 67 bd 07 de da bc 23 9f f6 ba b1 60 bd bd
       -0.056551944 -0.026717199 -0.0018815737 -0.09246958
000030 a2 d1 67 3d f1 75 d2 bd d8 59 a1 bb 72 dc 8b bd
       0.056596406 -0.10276402 -0.0049240403 -0.06829156
000040 cc e8 3f bd 73 1f 56 be f5 fc 54 3d 2a 6e 02 3d
       -0.04685287 -0.20910434 0.05199905 0.031843342
000050 90 50 a1 bc ca 27 b3 3d 3b d1 f0 3d 83 44 5e bc
       -0.019691736 0.087478235 0.117586575 -0.013566139
000060 60 e5 38 3d 44 fc 13 3d 9e bd da 3d 37 9d 56 bd
       0.045140624 0.03612925 0.10680698 -0.052396026
000070 3f 1b ff bc d6 b2 c5 3c ac 12 9d bd 0e 20 18 3c
       -0.031140922 0.024133127 -0.07669577 0.009284986
000080 dc 05 a3 bd 3a de 31 3d 84 0b f4 bd 5e bb eb bb
       -0.07960102 0.043424822 -0.11916259 -0.007193967
000090 2f 13 ae 3d 1a a5 1c bd d2 d2 a9 3c 08 d3 f9 bc
       0.08499753 -0.03824339 0.02073041 -0.030496135
0000a0 a9 cf 96 bd 80 29 0a 3e 07 f7 c6 bc d4 1a 0e bd
       -0.07363827 0.13492393 -0.024287714 -0.034693554
0000b0 f2 ee 67 bd 26 15 85 3d bb be f3 bc c2 71 23 3e
       -0.05662436 0.06498174 -0.029754033 0.15961364
0000c0 b7 e0 6d 3d 0f df 7a bd eb 61 91 3c a6 b5 1f 3d
       0.058075633 -0.06124788 0.017746886 0.038991593
0000d0 e9 92 bf bd 75 90 31 3e dc 24 5a bd 5f 52 b8 bd
       -0.09354193 0.17340262 -0.053257808 -0.09000086
0000e0 52 53 f9 3a ec ee 27 3d 95 84 c6 bd 2e d1 fb bd
       0.0019022024 0.040999338 -0.09693257 -0.12295757
0000f0 ad 29 9d bd f3 5b 1c bc 04 52 c7 bd 8e 9d 83 bc
       -0.07673965 -0.009543407 -0.0973244 -0.016066339
000100 cd 37 96 bd 78 3b d6 3d b7 54 58 3d 75 df bf 3d
       -0.07334862 0.104605615 0.052815165 0.09368793
000110 97 2e 74 bd 7d eb d7 3d 06 a4 7c 3d 24 42 33 3d
       -0.059614744 0.10542963 0.061679862 0.04376425
000120 4e 2f 10 bd aa d3 c8 bd e6 26 16 bc e2 bf 9c bd
       -0.035201363 -0.09805997 -0.009164548 -0.07653786
000130 63 ff fb 3d 6e 99 fb 3b 24 b5 b2 3c 5d 94 28 bd
       0.123045705 0.0076782024 0.02181489 -0.041157115
000140 da 78 35 bd d1 7f 5e 3d fb 33 1a bc b1 18 6f 3d
       -0.044304706 0.054321114 -0.009411807 0.058373157
000150 21 ac b6 bb cc fc 84 3c e0 c1 db bd ca f3 80 3d
       -0.0055747186 0.016233824 -0.10730338 0.06296499
000160 06 5a 39 bc c2 8f c9 bd cf 97 87 bd 8d cd 45 bd
       -0.011312967 -0.09841873 -0.06620752 -0.04829173
000170 12 1f ec bc d1 51 0b 3c f1 8b e6 bd 33 18 e2 3c
       -0.02882341 0.008503393 -0.112571605 0.02759943
000180 79 3f 46 ba 9c fb 92 be d2 78 2a bd f8 da 2a bd
       -0.0007562559 -0.28707588 -0.04161913 -0.04171273
000190 29 91 54 bd fe 0c b9 bd a0 28 71 3d 6b a1 1a be
       -0.051896248 -0.09035681 0.058876634 -0.15100639
0001a0 1a 35 8f 3e 08 7a f1 3d a3 a7 5d bc b6 9d b7 bc
       0.279702 0.11790854 -0.013528737 -0.02241407
0001b0 a9 78 79 3c 0a ad eb bc c4 7b 56 3d 15 3e 25 be
       0.0152265215 -0.028769035 0.052364126 -0.16136964
0001c0 8d 18 19 bd 38 06 0e be 5f 6a 79 3d 2d 95 ec bd
       -0.03737693 -0.1386956 0.06089246 -0.115518905
0001d0 a0 c9 ca 3d db 18 99 bd 84 12 b7 3c f8 74 01 bd
       0.09901738 -0.07475444 0.022347696 -0.03160569
0001e0 4c 1b 09 be 8f 1e 79 3d 1f 9d 14 3e 32 27 70 3d
       -0.13389319 0.06082016 0.14513062 0.05863113
0001f0 84 31 a9 bd 2d bf 08 be 5e f5 13 bc 78 51 90 3d
       -0.082613975 -0.13354178 -0.009030668 0.07046789
000200 f4 ac 1d be 34 01 b3 bc e6 b6 6e bb d7 75 18 bd
       -0.15398008 -0.02185116 -0.0036424934 -0.037221756
000210 9e 1e f5 ba fd 9b 4f 3e 35 f9 99 bd c5 9c 8c bc
       -0.0018701141 0.20274349 -0.075182356 -0.017164597
000220 4f 3c a2 bd dc 88 b4 bd 51 5a 96 3d 4d 0e 50 3d
       -0.07921659 -0.08815166 0.07341445 0.05079489
000230 6b 6b 01 be fa 53 1f 3e bb 21 7c bd e4 70 a8 3d
       -0.12638633 0.15559378 -0.061555605 0.08224657
000240 53 78 26 bd 75 a6 a8 3d f6 7b a8 bd 25 fe 3f 3e
       -0.040642094 0.08234874 -0.08226769 0.18749292
000250 54 16 47 bd 00 6a 74 3b 53 50 4e 3d 24 d8 aa 3c
       -0.048605278 0.0037294626 0.050369572 0.020855017
000260 b9 4e f7 bb 55 f6 7c 3e eb 0c cb 3d 0b 16 a1 bd
       -0.0075472263 0.24703343 0.09914573 -0.078655325
000270 4b a6 46 3d 0f 8f db 3c 8f 73 b8 bd 0e 55 f7 bd
       0.048498433 0.026801614 -0.09006416 -0.1207677
000280 c6 f4 e8 bd 5a 14 64 bd a2 3c c2 bc 12 b1 19 3c
       -0.11374812 -0.05568347 -0.023710553 0.009380596
000290 71 63 66 bd 9f 36 ab bc bd a3 07 3e 96 b4 f3 3d
       -0.05624718 -0.020900069 0.13246055 0.118996784
0002a0 1e a9 14 be 7c 7e db 3d aa 66 a9 3d e5 d5 bd 3b
       -0.14517638 0.10717484 0.08271535 0.0057933205
0002b0 1e 1a a3 bc 41 bf a3 3d 7f 21 7f 3d 7b 10 8b 3c
       -0.019909915 0.07995463 0.062287804 0.016975632
0002c0 77 a0 6c 3e 51 97 c2 bb 59 11 7d 3d 4e f1 68 bd
       0.23108087 -0.0059384485 0.061784122 -0.05687075
0002d0 6d 55 93 3d cb 85 91 b8 85 0c 07 bd c7 2f ea 3b
       0.07194028 -6.93906e-05 -0.032970924 0.007146809
0002e0 3c 3a c5 bd 9f 21 f1 3c 3a 3c 44 be b3 7b d3 3d
       -0.09630248 0.029434977 -0.191636 0.10326328
0002f0 65 31 8f bd 8e f4 c4 bc dc dd 86 3d 48 98 c4 3d
       -0.06991843 -0.024042394 0.06585285 0.09599358
000300 7c 87 f4 bc 6f 2f 03 bd 20 a8 15 be 89 d2 f8 3c
       -0.02984976 -0.032027658 -0.14614916 0.030373828
000310 9f ce 9b 3c e4 a8 35 be da d4 28 bd 25 df 60 be
       0.019019423 -0.17740208 -0.041218616 -0.21960123
000320 81 f5 a4 3c 4e fe fe bd ab 0a a8 3d 32 08 10 be
       0.020136597 -0.124508485 0.0820516 -0.14065626
000330 fe e8 97 bd 00 4c 4e bd 53 88 85 bd 68 28 38 bd
       -0.074174866 -0.050365448 -0.065201424 -0.04496041
000340 9b e8 2c bd 39 c2 43 3d 06 d5 30 bc 78 11 d4 bc
       -0.042214017 0.047792647 -0.010792976 -0.025887236
000350 f4 bb 7c 3c 68 01 11 be e0 71 46 3d fe e4 39 be
       0.015425671 -0.14160693 0.048448443 -0.1815376
000360 7c 7b a3 bd 80 02 12 be c1 bf a0 bd b3 76 01 bd
       -0.07982537 -0.14258766 -0.07849074 -0.03160734
000370 08 7b e6 bd aa 72 16 3e 70 a0 71 3d 2c 3e 81 bd
       -0.11253935 0.14692178 0.058990896 -0.063106865
000380 5a e8 6b bd 51 64 ca bd 2d 2e 2c 3d 73 90 79 3d
       -0.057594635 -0.09882415 0.042036224 0.060928773
000390 a3 0e 41 bd ba b2 eb bd be de be be c9 b3 02 bd
       -0.0471331 -0.11508699 -0.37279314 -0.031909738
0003a0 60 70 0c bd e5 e5 69 bd e0 29 0d be 05 28 a6 ba
       -0.034286857 -0.05710401 -0.13785505 -0.0012676722
0003b0 04 21 d3 3d 3d 8f bf 3c 60 85 da bb 1d ca f4 bd
       0.103090316 0.023383731 -0.0066687316 -0.119526125
0003c0 58 90 a2 3c 72 d2 02 be 51 09 20 bc cb 2e de bd
       0.01984422 -0.12775591 -0.009767846 -0.10848769
0003d0 00 15 2a bd fe bb 63 3d 37 b8 c3 bc eb 5e a8 3c
       -0.041523933 0.055599205 -0.023891551 0.020553073
0003e0 11 4b 58 3c 93 06 fe bd 13 ba e2 3d 81 1a 6c 3d
       0.013201491 -0.12403598 0.11070647 0.057642464
0003f0 ac 32 be 3b f9 f3 77 3e d3 ff 1e 3d 2f 2f 2f bb
       0.0058043804 0.24214162 0.03881819 -0.0026731004
