New_project/modelo_simples15.onnx (onnx, 183092 bytes, 5 tensors)

output_layer.weight f4 [14, 100]
0	0x3e422346	0.18958768
1	0x3e1df0fc	0.1542396
2	0xbd380bae	-0.044933014
3	0xbc3bd19b	-0.011463548
4	0x3cbb3dd8	0.022856638
5	0x3d081660	0.033224463
6	0xbc801478	-0.01563476
7	0x3e23a396	0.15980372
8	0x3e6af97f	0.22946738
9	0xbdfece9e	-0.12441753
10	0xbdc4b5fc	-0.09605023
11	0xbd7ffcb7	-0.062496867
12	0x3d4bb4b3	0.049732875
13	0x3de50e7f	0.111844055
14	0x3aea43ca	0.0017872986
15	0xbdbef443	-0.09323933
16	0xbe612232	-0.219857
17	0x3df0790f	0.1174184
18	0x3e6eac32	0.23307875
19	0x3d159020	0.0365144
20	0xbe8f83f9	-0.28030375
21	0x3e0c6480	0.13710213
22	0xbe49c4d6	-0.19703993
23	0xbdd8db76	-0.10588734
24	0x3c0cd7c1	0.008596362
25	0x3d5785f4	0.052617982
26	0x3d9648a7	0.07338076
27	0xbdd26535	-0.1027321
28	0xbda98519	-0.082773395
29	0xbd34a90c	-0.04410653
30	0xbd1c71b1	-0.038194362
31	0x3ddfb1d1	0.10922588
32	0x3eacc433	0.33743438
33	0x3d56c3f2	0.05243296
34	0xbdb84d90	-0.08999169
35	0x3c97faf7	0.018552287
36	0x3de0997f	0.10966777
37	0xbccf5e08	-0.025313392
38	0x3aef1dee	0.0018243173
39	0x3dbe4c81	0.09291936
40	0x3d0a9890	0.0338369
41	0x3e869e4b	0.26292643
42	0xbd92cc1f	-0.07167839
43	0x3e393eae	0.18090317
44	0x3e6214dd	0.22078271
45	0x3cdae415	0.026720086
46	0x3d4b95da	0.049703456
47	0xbd9333f7	-0.07187646
48	0xbe8510c7	-0.25989363
49	0x3e1baed2	0.15203407
50	0x3e519627	0.20467435
51	0x3d6d812d	0.05798452
52	0x3d6302e2	0.05542267
53	0x3d590ea2	0.05299247
54	0xbe17f63c	-0.14840025
55	0x3b07794d	0.0020671666
56	0xbe2f1e16	-0.1710132
57	0xbd2f5754	-0.042807892
58	0xbd27e042	-0.040985353
59	0xbda65a4e	-0.08122693
60	0x3cb0a73a	0.021564115
61	0x3dfade6b	0.12249454
62	0x3e893542	0.26798445
63	0x3b9ad53b	0.004725126
64	0xbd672ccb	-0.056439202
65	0xbd685cb6	-0.05672904
66	0x3c805bc2	0.015668754
67	0x3e35a2be	0.17737862
68	0xbd581e36	-0.052763186
69	0xbdf16385	-0.1178656
70	0xbb96cb1f	-0.0046018506
71	0x3db6be72	0.08923043
72	0xbe38e826	-0.18057308
73	0xbe1433d6	-0.14472899
74	0xbe20f817	-0.15719639
75	0x3dc97552	0.0983683
76	0xbe346fbc	-0.17620748
77	0xbda6d636	-0.08146326
78	0x3e320419	0.17384376
79	0xbddff24b	-0.109348856
80	0x3bd4f37d	0.0064987526
81	0xbdc7f70c	-0.09763917
82	0x3e5fc20c	0.21851367
83	0x3bb17831	0.0054159393
84	0x3d11630f	0.03549486
85	0x3df95a89	0.12175471
86	0xbe4a8002	-0.19775394
87	0x3d92d905	0.071702994
88	0xbe4109d8	-0.18851411
89	0xbd55103b	-0.05201743
90	0x3dfdf592	0.124003544
91	0x3e1cc037	0.15307699
92	0xbe0bd7b1	-0.13656498
93	0xbc9e5fe5	-0.019332835
94	0xbd317499	-0.043324087
95	0xbe05f184	-0.13080412
96	0xbdd818ec	-0.105516285
97	0xbc723c2e	-0.014784856
98	0x3e9396c6	0.28825969
99	0x3e24df36	0.16100773
100	0x3da2bb97	0.07945936
101	0xbd7b32e1	-0.06132782
102	0xbe0f5cd2	-0.14000252
103	0xbd14afd9	-0.036300514
104	0x3e6b59f6	0.22983536
105	0x3d112dfb	0.03544424
106	0x3d3a00e0	0.04541099
107	0x3d7ca9b6	0.061685286
108	0xbd9fdb24	-0.0780547
109	0x3e1fdc69	0.15611424
110	0x3e15cdfc	0.14629358
111	0x3dc7d87a	0.097580865
112	0xbc3e225c	-0.011604872
113	0xbe096560	-0.13417578
114	0x3ba0c840	0.004906684
115	0xbc857467	-0.016290857
116	0xbcb4f41c	-0.022089057
117	0xbe2f0119	-0.17090262
118	0x3de44230	0.11145437
119	0x3e472180	0.19446373
120	0xbdddb079	-0.10824675
121	0x3e72af9c	0.23699802
122	0xbc86fa37	-0.016476734
123	0xbe35a0a7	-0.17737065
124	0xbdae09de	-0.08497976
125	0x3e028588	0.1274625
126	0x3c6c1bf4	0.014410961
127	0xbde3d1a9	-0.11123974
128	0xbd3cbeba	-0.04608033
129	0xbe2da68e	-0.16958067
130	0x3ccc77a7	0.024959398
131	0x3d8e48f0	0.069475055
132	0x3de3680f	0.11103832
133	0xbe2aa70a	-0.16665283
134	0x3e4295c7	0.19002448
135	0xbb978fec	-0.004625311
136	0xbcf7ba06	-0.03024007
137	0xbd0ed4be	-0.034870856
138	0x3d2b488d	0.041817237
139	0x3dc483b4	0.09595433
140	0xbe02c528	-0.12770522
141	0x3df5e1df	0.12005972
142	0xbe1a9a8e	-0.1509802
143	0x3c2b01d7	0.01043745
144	0xbbabde56	-0.0052450104
145	0xbd859c91	-0.06524003
146	0xbdbdcceb	-0.092676006
147	0xbca14af5	-0.019689063
148	0x3cd0bc81	0.02548051
149	0xbdb59ce3	-0.088678144
150	0x3db26087	0.087098174
151	0x3da4511a	0.080232814
152	0xbd89b748	-0.06724411
153	0x3dfb9be0	0.1228559
154	0x3c863af4	0.016385533
155	0x3d3c68c0	0.045998335
156	0xbcdddd3a	-0.027083028
157	0xbe0bf4e0	-0.13667631
158	0x3d57cf68	0.052688032
159	0x3cb742f6	0.022370797
160	0xbd636069	-0.055511866
161	0xbdc901b4	-0.09814778
162	0x3ccbb7a8	0.024867848
163	0x3d85760c	0.06516656
164	0x3d5619fd	0.052270878
165	0x3e06a355	0.13148244
166	0x3dd26900	0.102739334
167	0xbcb6041e	-0.02221876
168	0xbd9f8efa	-0.077909425
169	0x3d20bb99	0.039241407
170	0x3dff41b2	0.12463702
171	0x3e1715de	0.14754435
172	0x3d4d6170	0.05014175
173	0x3e1fe0af	0.15613054
174	0xbd70ce81	-0.058790687
175	0x3e1aa5a6	0.15102252
176	0x3e1b3a55	0.1515897
177	0xbe0352cc	-0.12824553
178	0xbddce1f2	-0.10785283
179	0x3dd3d9c3	0.10344269
180	0xbd8bbd1c	-0.06823179
181	0xbdad07ae	-0.084487304
182	0x3daae19e	0.08343814
183	0x3d4b52b0	0.049639404
184	0xbe1f95d2	-0.15584496
185	0xbe15a923	-0.14615302
186	0x3e4ae38b	0.19813363
187	0xbda816dc	-0.08207485
188	0xbe071ffc	-0.13195795
189	0x3d473a49	0.04863957
190	0xbd21439b	-0.039371114
191	0x3ccfc1c3	0.025360947
192	0xbe480524	-0.19533211
193	0xbe0bf639	-0.13668145
194	0x3db98939	0.09059376
195	0xbe8a2122	-0.26978403
196	0x3d029f80	0.031890392
197	0x3d61c213	0.055116724
198	0x3e3f6e7b	0.18694489
199	0xbe1aea86	-0.15128526
200	0xbe4062f8	-0.18787754
201	0xbcc2b337	-0.023767097
202	0x3e6df1f9	0.23236836
203	0xbdc56f58	-0.09640378
204	0x3d348df9	0.04408071
205	0x3dd9fbc4	0.106437236
206	0x3cfb8346	0.030702244
207	0xbe937ff0	-0.28808546
208	0x3ed5ed85	0.41782776
209	0xbc88cd99	-0.0166996
210	0x3eb17a12	0.34663445
211	0xbc89a4b5	-0.016802171
212	0x3dbc0cf6	0.091821596
213	0xbdfd2187	-0.123599105
214	0x3d38c1b4	0.045106605
215	0xbe7c7df8	-0.24657428
216	0x3db16caf	0.08663308
217	0x3da8dd13	0.082452916
218	0x3e3f69cd	0.18692704
219	0x3e1a772c	0.15084523
220	0x3d5ca517	0.05386838
221	0x3e7a1b94	0.24424583
222	0x3b91eec0	0.00445351
223	0xbd9729cf	-0.07381021
224	0xbe4e5502	-0.20149615
225	0x3ccadb0b	0.024762651
226	0xbe83e332	-0.25759274
227	0x3c328d93	0.010898012
228	0x3c64d00e	0.01396562
229	0xbe1accd7	-0.15117203
230	0xbe11cc5a	-0.1423811
231	0xbe6fefd0	-0.23431325
232	0x3e0518ba	0.12997714
233	0xbdcb0298	-0.09912604
234	0x3e2094fc	0.15681833
235	0x3d992d03	0.074792884
236	0xbe17adca	-0.14812389
237	0xbafcaf03	-0.0019278232
238	0x3d0f2e6c	0.03495638
239	0x3d03c0f3	0.032166433
240	0x3aa60dbe	0.001266889
241	0xbe1a78e0	-0.15085173
242	0x3e4c5452	0.1995404
243	0x3e30d42b	0.17268436
244	0x3ddb366d	0.1070374
245	0xbdfd6890	-0.12373459
246	0xbd0dbf02	-0.034605987
247	0xbb415a5e	-0.0029503326
248	0x3bdd0af2	0.0067456895
249	0x3d0db234	0.034593776
250	0x3d8ed735	0.06974641
251	0x3bcf6c14	0.0063300226
252	0x3e06f4a5	0.13179262
253	0xbe22ae25	-0.15886743
254	0x3dd446d0	0.10365069
255	0xbdb4761f	-0.08811592

output_layer.bias f4 [14]
0	0x3cf4114a	0.0297934
1	0xbd6530b6	-0.055954657
2	0xbe26a767	-0.16274796
3	0x3db525c9	0.088450976
4	0x3d10ef43	0.035384428
5	0x3d4a0306	0.04931929
6	0xbbc1835b	-0.0059055514
7	0x3d06c09e	0.032898538
8	0xbd900322	-0.070318475
9	0x3db6fa9e	0.0893452
10	0xbd95d9b1	-0.07316912
11	0x3db15b64	0.086600095
12	0xbd97e292	-0.07416262
13	0x3c8182ba	0.015809406

onnx::LSTM_122 f4 [1, 400, 7]
0	0x3d7032cd	0.058642197
1	0xbd92c79d	-0.071669795
2	0xbdd6f446	-0.1049581
3	0xbd8010a5	-0.06253175
4	0x3c68cade	0.014208524
5	0xbd0d5a22	-0.034509785
6	0x3d9d4050	0.07678282
7	0x3c9f58d0	0.019451529
8	0xbd4ba3ac	-0.049716637
9	0xbe0d3ca5	-0.13792665
10	0x3b878403	0.00413561
11	0xbd57dcac	-0.052700683
12	0xbd701ea6	-0.05862298
13	0x3d6bfd21	0.05761445
14	0xbd285d4f	-0.04110461
15	0xbda39a6f	-0.0798844
16	0xbdb92d0d	-0.09041796
17	0xbdb2b60a	-0.087261274
18	0x3d1aeb82	0.037822254
19	0xbd9ac996	-0.07557981
20	0xbd3a837a	-0.045535542
21	0x3d3cd56d	0.046101976
22	0x3d331a01	0.04372597
23	0xbdb04a43	-0.08607914
24	0x3e189d8a	0.14903846
25	0x3e18cc23	0.14921622
26	0x3db2e2b1	0.08734644
27	0xbcb22509	-0.021746175
28	0x3d53bdeb	0.05169479
29	0x3dfd619e	0.123721346
30	0xbd7b1941	-0.06130338
31	0xbe0ba051	-0.13635375
32	0xbd0fe7af	-0.03513306
33	0xbd2f18e3	-0.042748343
34	0xbdb12665	-0.08649901
35	0x3ca84584	0.02054096
36	0x3d8008cb	0.06251677
37	0xbde5b784	-0.112166435
38	0x3ad2ee0f	0.0016092676
39	0xbdad8342	-0.08472301
40	0xbb9ab2a6	-0.0047210036
41	0x3cb018cc	0.0214962
42	0x3c894abe	0.016759273
43	0x3dd63f26	0.10461263
44	0x3cac9a00	0.021069527
45	0xbd02cea1	-0.031935338
46	0xbc06dabf	-0.008230864
47	0x3cc5b9eb	0.024136504
48	0xbcb4cd51	-0.022070559
49	0x3dde705f	0.10861277
50	0xbd05c62e	-0.032659702
51	0xbb206c2f	-0.0024478545
52	0x3dca05ec	0.09864411
53	0x3dba6744	0.091017276
54	0xbd6a932b	-0.057269257
55	0x3e07105b	0.13189833
56	0xbcfc2cdc	-0.03078311
57	0x3d9e35b8	0.0772509
58	0x3d995390	0.074866414
59	0x3dd1845f	0.10230326
60	0x3cbbd59c	0.022929005
61	0xbe483159	-0.19550075
62	0xbe1cea44	-0.1532374
63	0x3e1195ac	0.14217252
64	0x3d514863	0.051094424
65	0xbdb5fa4f	-0.08885633
66	0x3c4d651c	0.012536313
67	0xbc66ab0b	-0.014078866
68	0x3dc652f5	0.096837915
69	0x3d9a7c30	0.07543218
70	0x3c4a2328	0.0123374835
71	0xbcae3f7a	-0.021270502
72	0x3cb96bfe	0.022634503
73	0x3e25f8d0	0.16208196
74	0xbcd29c99	-0.025709437
75	0xbd7d391a	-0.061822034
76	0xbd9ea504	-0.07746318
77	0xbc214c54	-0.009844858
78	0xbc9512ed	-0.018197501
79	0xbe40ac13	-0.18815641
80	0x3d5e3c92	0.054256983
81	0x3e051bfe	0.1299896
82	0x3d47ed32	0.04881019
83	0xbc986e2e	-0.018607225
84	0x3a893f94	0.0010471218
85	0xbcdceb38	-0.02696763
86	0xbd8d697a	-0.06904884
87	0x3d96a6ed	0.07356057
88	0xbd192c1a	-0.037395574
89	0x3b2c66e4	0.0026306445
90	0xb977f511	-0.0002364705
91	0xbc8839f9	-0.016629206
92	0xbd214c8d	-0.039379645
93	0xbaf751a2	-0.0018868933
94	0x3d395e5c	0.045256004
95	0xbdb5136a	-0.088415936
96	0x3da4ecc9	0.08052976
97	0xbc9e9e16	-0.01936249
98	0xbd15eb8a	-0.03660158
99	0x3c3f4822	0.011674913
100	0xbd45b340	-0.04826665
101	0x3cd4e464	0.025987811
102	0xbd62fe73	-0.055418443
103	0xbb4baf43	-0.0031079806
104	0x3c487001	0.012233735
105	0x3dfa139c	0.122107714
106	0xbd5cafd2	-0.053878613
107	0xbd7b8397	-0.06140479
108	0xbd931dc0	-0.07183409
109	0xbd24c0ee	-0.040223055
110	0x3d71cd83	0.059033882
111	0xbe027ca5	-0.1274286
112	0xbcd26e1d	-0.025687272
113	0x3e073d48	0.1320697
114	0xbd33db53	-0.043910336
115	0x3dbe2932	0.09285201
116	0x3dcb8b53	0.09938683
117	0x3ba86260	0.0051386803
118	0xbda79300	-0.08182335
119	0x3c0bb822	0.008527787
120	0x3dcdfdb3	0.10058155
121	0x3d1ab623	0.037771355
122	0x3c513834	0.0127697475
123	0x3d4eb8bd	0.05046915
124	0xbb6a9500	-0.0035794377
125	0xbd749a6a	-0.059717573
126	0xbd886721	-0.06660295
127	0x3d8f500d	0.0699769
128	0xbd596d57	-0.05308279
129	0x3e855b77	0.26046345
130	0x3da8113c	0.08206412
131	0xbe283950	-0.16428113
132	0x3cb52efa	0.022117127
133	0xbd242d4a	-0.040082254
134	0xbda7f8dd	-0.08201764
135	0x3ddce7a0	0.107863665
136	0xbce1df20	-0.027572215
137	0xbd33cdfe	-0.04389762
138	0xbe170be4	-0.1475063
139	0xbb73feee	-0.0037230807
140	0xbd829cce	-0.06377564
141	0x3e04b59d	0.12959905
142	0x3d48a419	0.04898462
143	0x3de8efc9	0.113738604
144	0x3d7e51e2	0.06208981
145	0xbc880e34	-0.016608335
146	0x3cbfc3f2	0.023408864
147	0xbcb6c0e7	-0.02230878
148	0x3bc3413e	0.005958705
149	0xbdff9336	-0.1247925
150	0xbc709ca7	-0.014685786
151	0x3e327d65	0.17430647
152	0x3da0160c	0.07816705
153	0x3d24e55c	0.040257797
154	0x3aee2366	0.0018168509
155	0x3c041554	0.008061726
156	0xbc4bc9ac	-0.012438219
157	0xbca3fa96	-0.02001695
158	0x3c606e3d	0.013698158
159	0x3b7ffa43	0.003905908
160	0x3b96684c	0.00459007
161	0x3d7e6ffd	0.06211852
162	0xbd03615c	-0.03207527
163	0x3c97e7f9	0.01854323
164	0xbe165452	-0.14680603
165	0x3c9dfbea	0.019285161
166	0x3c8084c1	0.015688302
167	0x3d68cadc	0.056834087
168	0x3e35d241	0.17755987
169	0x3d395ed6	0.04525646
170	0x3cbb36af	0.022853224
171	0x3d76bece	0.06024056
172	0x3e08c6ed	0.13357134
173	0x3e1f237d	0.15540881
174	0x3e253b4d	0.16135903
175	0x3d5c54df	0.053791877
176	0x3c7c3307	0.015393025
177	0xbe3bf562	-0.18355325
178	0x3d6b6f5b	0.057479244
179	0x3b3e54a3	0.0029042147
180	0x3df9352f	0.12168347
181	0x3d8c604a	0.06854303
182	0x3d394242	0.045229204
183	0xbb389e94	-0.0028170692
184	0xbd19b02c	-0.037521526
185	0xbd92d670	-0.07169807
186	0xbd5b03f5	-0.05347057
187	0x3d0bdf27	0.03414836
188	0x3c26b121	0.010174067
189	0x3d6e6cf8	0.05820939
190	0x3d6c6c34	0.057720378
191	0xbd1503ed	-0.036380697
192	0x3ce66007	0.028121961
193	0x3cbe63a5	0.023240874
194	0xbda85db4	-0.082209975
195	0x3c99f997	0.018795772
196	0x3d2455e3	0.04012097
197	0xbca3f0ac	-0.020012222
198	0xbd5ac4ea	-0.053410448
199	0xbc9b956f	-0.018992154
200	0xbdfdd968	-0.123949826
201	0x3d890dd6	0.06692092
202	0xbd7bd020	-0.06147778
203	0x3b57a4d9	0.0032904653
204	0x3e0e943e	0.13923737
205	0xbe59757b	-0.21236221
206	0xbb95d343	-0.0045723035
207	0xbd21a031	-0.03945941
208	0xbd98c2a2	-0.07458998
209	0x3d28faec	0.041254923
210	0x3dd13285	0.10214714
211	0xbcd6d6c6	-0.026225459
212	0xbdee9db1	-0.11651171
213	0xbd53f792	-0.051749773
214	0x3cf2b12d	0.0296255
215	0x3dddd6ee	0.1083201
216	0x3c1e860d	0.009675515
217	0x3a334df2	0.0006839923
218	0xbd766ca4	-0.0601622
219	0x3de110ff	0.1098957
220	0x3de7ac99	0.11312217
221	0x3c70e975	0.014704098
222	0xbd1f7662	-0.038931258
223	0x3a88796c	0.0010412163
224	0x3d412c14	0.047161177
225	0xbd4782cf	-0.048708733
226	0x3d4286eb	0.04749195
227	0x3d8e4008	0.06945807
228	0x3e0f92f5	0.14020903
229	0xbd48884a	-0.0489581
230	0x3dde2640	0.10847139
231	0x3dbdf79c	0.09275743
232	0x3c8cb8cf	0.017177967
233	0xbd3d42b7	-0.046206202
234	0x3e417c70	0.18895125
235	0x3e35fec2	0.17772964
236	0xbe12dd4c	-0.1434223
237	0x3cd45452	0.025919113
238	0x3db3dfa1	0.08782888
239	0xbe163167	-0.14667283
240	0x3e0f7748	0.14010346
241	0xbe0eb0fe	-0.13934705
242	0xbe0def52	-0.13860825
243	0xbd1b49f2	-0.037912317
244	0xbe24b6ec	-0.16085404
245	0xbd071eb5	-0.03298827
246	0xbdc63185	-0.09677414
247	0x3a4d355a	0.00078280794
248	0x3dc55ec1	0.096372135
249	0x3e05f0d6	0.13080153
250	0xbc867208	-0.016411796
251	0x3dd0a4f5	0.10187713
252	0xbdc9df1d	-0.098570086
253	0xbc151146	-0.009098357
254	0xbe0aed66	-0.13567123
255	0x3d50ef66	0.05100956

onnx::LSTM_123 f4 [1, 400, 100]
0	0x3d7ff503	0.06248952
1	0x3cd9a46b	0.026567658
2	0xbd1c7f2c	-0.038207218
3	0xbd99c1e0	-0.07507682
4	0xbe32f62b	-0.17476718
5	0xbd0e4fbf	-0.03474402
6	0xbdcf8fbd	-0.10134838
7	0xbe0640f5	-0.13110717
8	0x3e18e4be	0.14931008
9	0xbdec611b	-0.11541959
10	0x3c8710e2	0.016487543
11	0xbd7800cc	-0.060547635
12	0x3d75c07b	0.059998017
13	0xbdb08aed	-0.08620248
14	0xbd0597bf	-0.03261542
15	0xbd88a788	-0.06672579
16	0xbd79fe2d	-0.061033417
17	0x3d4541aa	0.048158325
18	0x3be65f42	0.0070303986
19	0x3d8443d8	0.06458253
20	0xbd0dd0a8	-0.03462282
21	0xbc12be27	-0.008956469
22	0xbe203cf4	-0.15648252
23	0x3df04125	0.11731175
24	0xbe0e15c4	-0.1387549
25	0x3dceb9d1	0.100940354
26	0x3d55f8ed	0.052239347
27	0xbd56e6f2	-0.05246634
28	0xbdd0f795	-0.102034725
29	0x3c558d1d	0.013034132
30	0xbd5b04ba	-0.053471304
31	0x3cf21658	0.02955167
32	0xbc0adad8	-0.008475028
33	0xbd259944	-0.04042937
34	0x3d788596	0.060674272
35	0xbc5d0386	-0.01348961
36	0x3d0b53cd	0.034015466
37	0x3c8271fc	0.015923493
38	0xbdde1978	-0.108447015
39	0xbd89130a	-0.066930845
40	0x3dd21112	0.10257162
41	0xbd35bc9a	-0.044369318
42	0xbca79dfa	-0.020461071
43	0xbd9678dc	-0.07347271
44	0x3d21ae9a	0.039473154
45	0xbdfb70b4	-0.12277356
46	0x3ddca9f6	0.10774605
47	0x3d8b88a6	0.06813173
48	0x3d4dc881	0.050240044
49	0x3d2a35ea	0.041555323
50	0xbdc23e76	-0.0948457
51	0xbc55a9f0	-0.013041005
52	0x3dae73e3	0.085181974
53	0xbd582dc4	-0.05277802
54	0xbd2f564d	-0.042806912
55	0xbb7c5bce	-0.0038506868
56	0x3cfeee87	0.031119598
57	0xbc3e1795	-0.011602302
58	0xbd4a7b52	-0.049434014
59	0x3cd57a9f	0.026059447
60	0x3e48713a	0.19574443
61	0x3d8141df	0.06311392
62	0xbd4f64ca	-0.05063323
63	0x3c8ba318	0.017045543
64	0x3d1fd4ae	0.039021187
65	0x39b1b1fa	0.00033892674
66	0x3de495f8	0.11161417
67	0x3e1edc9b	0.15513842
68	0xbd38c2cf	-0.04510766
69	0x3be204ac	0.0068975296
70	0x3d3ec018	0.046569914
71	0xbb665178	-0.0035143774
72	0x3aabc6fd	0.0013105568
73	0x3c073bae	0.008253975
74	0x3c8abde3	0.016936248
75	0xbc94ce87	-0.018164886
76	0x3d8eaafe	0.06966208
77	0xbda0c3ce	-0.07849847
78	0x3da013f3	0.07816305
79	0xbe063e12	-0.13109615
80	0x3cdb13ac	0.026742779
81	0xbc0d3a69	-0.008619883
82	0xbcc03ea4	-0.02346737
83	0xbcdc9582	-0.02692676
84	0xbd6cc561	-0.057805423
85	0xbdd8269b	-0.105542384
86	0x3db56c08	0.08858496
87	0x3c4a9d14	0.012366552
88	0x3d2e3bdb	0.04253755
89	0xbcbe8b5a	-0.023259807
90	0xbd99ebe5	-0.075156964
91	0x3dc91f26	0.09820394
92	0x3c99305c	0.018699817
93	0xbcb8d96a	-0.022564609
94	0xbc281d69	-0.010260918
95	0x3e05f3c6	0.13081273
96	0x3dca359b	0.09873506
97	0x3d41fd06	0.047360443
98	0xbd3c1d3f	-0.04592633
99	0x3e190ed8	0.14947069
100	0x3d531823	0.05153669
101	0xbd39c2c4	-0.04535176
102	0xbd551129	-0.05201832
103	0xbe27935a	-0.16364804
104	0x3e2aa4d6	0.16664442
105	0x3d6bb31c	0.05754386
106	0xbb64205c	-0.0034809327
107	0x3cddc51f	0.027071534
108	0xba517b80	-0.000799112
109	0xbc65e11d	-0.014030722
110	0x3e0a4a42	0.1350489
111	0xbd0f3eb0	-0.034971893
112	0x3d1815ed	0.037130285
113	0x3cf3aebc	0.029746406
114	0x3da7d1ab	0.08194288
115	0xbd9347e9	-0.0719145
116	0x3d12bd37	0.03582498
117	0xbd65f136	-0.05613824
118	0x3e1ed070	0.155092
119	0x3c9d6450	0.019212872
120	0xbd9965f4	-0.07490149
121	0x3dbac5b6	0.091197416
122	0x3da73b10	0.08165562
123	0xbda94b91	-0.08266366
124	0xbb267de1	-0.002540462
125	0x3e2e2dfe	0.17009732
126	0xbca677b9	-0.02032076
127	0x3d1e889a	0.038704492
128	0x3c2f0b15	0.0106837945
129	0x3c1d5f6e	0.009605272
130	0x3b97bb69	0.0046304953
131	0x3d4c065c	0.049810752
132	0x3ac305d6	0.0014879059
133	0xbd65b19a	-0.056077577
134	0x3cce5d73	0.025191044
135	0x3e10816b	0.14111869
136	0x39d463e1	0.00040510207
137	0x3cea9b3f	0.02863848
138	0x3dc63efe	0.096799836
139	0xbc355e68	-0.0110698715
140	0x3d4da923	0.05021013
141	0xbbd9c507	-0.006645802
142	0xbdb2f338	-0.087377965
143	0xbd0c5b43	-0.03426672
144	0x3dc11049	0.09426934
145	0x3deeded3	0.11663594
146	0x3c38ddac	0.011283319
147	0xbde67bc3	-0.112540744
148	0xbd865146	-0.065584704
149	0x3d01bd2d	0.031674553
150	0x3e01d5c6	0.12679204
151	0xbc3e0495	-0.011597772
152	0xbd41312f	-0.047166046
153	0x3da23a30	0.07921255
154	0xbdf00d03	-0.11721232
155	0x3d9779d3	0.07396283
156	0x3cff1530	0.031138033
157	0xbc9a2f43	-0.018821364
158	0x3dd95aec	0.10613045
159	0x3dd236ba	0.102643445
160	0xbde1a48f	-0.11017715
161	0x3dabb3af	0.08383881
162	0x3d4987b2	0.049201675
163	0x3d0f7afe	0.035029404
164	0xbd0607c5	-0.032722253
165	0x3cfc2d8d	0.030783439
166	0x3c057581	0.008145691
167	0x3d64df58	0.05587706
168	0xbcaf39b7	-0.021389825
169	0x3ba1c937	0.0049373168
170	0x3db97031	0.09054602
171	0x3d51e719	0.051245783
172	0x3d9a65d0	0.075389504
173	0xbe019a8a	-0.12656608
174	0xbcafa342	-0.021440152
175	0xbda32453	-0.07965913
176	0xbdb77ca2	-0.08959319
177	0xbd6d2239	-0.057893965
178	0xbb4964b2	-0.0030730185
179	0x3d1518d2	0.036400624
180	0x3c01d9b3	0.007925439
181	0xbd8f074a	-0.06983812
182	0xbd26eb58	-0.040751785
183	0x3d64f73d	0.055899847
184	0xbd6f1638	-0.0583708
185	0x3d48fcdf	0.04906928
186	0xbcb68798	-0.022281453
187	0x3d13367e	0.03594064
188	0xbc92305b	-0.017845323
189	0xbd6a8f36	-0.057265483
190	0x3e07774d	0.13229103
191	0xbdb612b8	-0.08890289
192	0x3c910ea5	0.017707178
193	0xbdc52cb3	-0.09627666
194	0xbb932794	-0.004490802
195	0x3dc4819b	0.09595033
196	0x3c2c85ac	0.010529917
197	0xbc64e73c	-0.013971146
198	0xbd9c397a	-0.0762815
199	0xbd36c84f	-0.044624623
200	0xbdb4e431	-0.088325866
201	0x3d955fd5	0.07293669
202	0xbd3e0705	-0.046393413
203	0xbe3b98c7	-0.18319999
204	0x3c1a40ea	0.009414891
205	0x3cf789a4	0.030217
206	0x3dc4587d	0.0958719
207	0x3dce46bb	0.100720845
208	0xbc01e6ee	-0.007928593
209	0xbd5fcbb4	-0.054637626
210	0xbd0d9217	-0.03456315
211	0x3c801b18	0.01563792
212	0x3d3296ee	0.04360097
213	0x3b895583	0.004191102
214	0x3e0b469d	0.13601156
215	0xbd75b64b	-0.0599883
216	0xbc72070e	-0.01477219
217	0xbe40824f	-0.18799709
218	0x3c496403	0.012291911
219	0xbd8dbe46	-0.069210574
220	0x3d79ac77	0.06095549
221	0xbc592e76	-0.013255706
222	0xbd4b6df9	-0.049665425
223	0x3d2188cc	0.0394371
224	0xbb9d4774	-0.0047997776
225	0x3d874060	0.066040754
226	0xbd6d4bc0	-0.05793357
227	0x3c5ad510	0.013356462
228	0x3dc62fa8	0.096770585
229	0xbbcde1c3	-0.0062830164
230	0x3c3f3c6f	0.011672123
231	0x3e0c6c61	0.13713218
232	0xbd1fcc5a	-0.039013244
233	0xbd8dfb57	-0.06932705
234	0xbe0da01b	-0.13830607
235	0x3dd282c6	0.10278849
236	0xbb8074a2	-0.0039201537
237	0xbc91b1a5	-0.017784903
238	0xbbec8825	-0.007218378
239	0x3cbf17a2	0.023326699
240	0x3cc22410	0.023698837
241	0x3d3b5633	0.045736503
242	0x3d90533b	0.07047125
243	0x3dea6e19	0.11446781
244	0xbdd24c4f	-0.10268461
245	0x3e1c660e	0.15273306
246	0xbcac6616	-0.021044772
247	0xbdee8afa	-0.116476014
248	0x3b289bab	0.002572755
249	0x3d276c79	0.040874932
250	0x3c6396b1	0.013890908
251	0xbc882756	-0.01662032
252	0x3d1ba619	0.0380002
253	0x3e454f4e	0.19268534
254	0xbe397f9f	-0.1811509
255	0x3ce3a9cc	0.027790926

onnx::LSTM_124 f4 [1, 800]
0	0xbbb45822	-0.0055036703
1	0x3df7af02	0.12093927
2	0x3de8d7e8	0.11369306
3	0x3e12bba7	0.14329396
4	0x3e7e510d	0.24835606
5	0x3e0ee57c	0.13954729
6	0x3d56e948	0.052468568
7	0xbd48ffba	-0.049072005
8	0x3e903a2d	0.28169385
9	0x3d985b22	0.07439257
10	0x3dde4a36	0.10853998
11	0xbccede88	-0.025252596
12	0x3d1dbeaf	0.03851193
13	0x3dd78847	0.1052404
14	0xbb0bdcec	-0.0021341396
15	0x3dcdf7ae	0.10057007
16	0xbc406f0f	-0.011745228
17	0x3c1ceacc	0.009577464
18	0x3e1420dc	0.1446566
19	0x3cb7dd77	0.02244447
20	0xbcd0cc5e	-0.025488075
21	0x3e37810d	0.17920323
22	0x3cb2829d	0.021790797
23	0x3b1eb615	0.0024217416
24	0x3e134602	0.14382175
25	0x3d7943fa	0.060855843
26	0xbc9d31d2	-0.019188795
27	0x3e06bb9c	0.13157505
28	0x3cec2ffc	0.028831474
29	0x3b730227	0.003708014
30	0xbd37c827	-0.044868615
31	0x3df5a457	0.11994236
32	0x3da06aa7	0.07832842
33	0xbcd634f0	-0.02614829
34	0x3e19fbd5	0.15037473
35	0x3db8744e	0.09006558
36	0xbd1c64b3	-0.03818197
37	0x3e0fcd10	0.14043069
38	0x3aa4c63b	0.0012571284
39	0x3dbc2114	0.09185997
40	0x3e0e655f	0.13905858
41	0x3d9564df	0.0729463
42	0x3e0865bc	0.13320059
43	0x3da50641	0.080578335
44	0x3e0276c8	0.12740624
45	0x3e1d015e	0.15332553
46	0x3dd17cfc	0.10228917
47	0x3dcb7cee	0.09935938
48	0x3d92aa5f	0.07161402
49	0xbd8794a5	-0.066201486
50	0x3d642146	0.055695795
51	0x3d07156f	0.032979425
52	0xbd417794	-0.04723318
53	0x3ce79d50	0.028273255
54	0x3e34f405	0.17671211
55	0x3d1ba6ad	0.03800075
56	0xbc9fa4b8	-0.019487724
57	0x3dafe6fd	0.085889794
58	0x3d491a56	0.04909738
59	0x3ddb8ab5	0.10719816
60	0x3da1aaa9	0.07893879
61	0xbd52bfb0	-0.05145234
62	0x3dc9b409	0.09848792
63	0x3c296efe	0.010341404
64	0x3d694c99	0.056957815
65	0x3d301c5f	0.042995807
66	0x3d83b17c	0.06430337
67	0xbcc65436	-0.024210077
68	0xbd89ed64	-0.06734732
69	0xbb94dfcd	-0.0045432807
70	0x3d29ec2d	0.041485
71	0x3b9858c8	0.0046492554
72	0x3dc58466	0.096443936
73	0xbcc3fd42	-0.023924474
74	0x3e03944b	0.12849538
75	0x3d81fb0d	0.06346712
76	0xba75572c	-0.0009358998
77	0x3d0b261d	0.033971895
78	0x3d2ee9a0	0.04270327
79	0x3dfa8c9c	0.1223385
80	0x3cd178ef	0.025570361
81	0xbc86c06e	-0.01644918
82	0x3ca1f307	0.019769205
83	0xbc4c6614	-0.012475509
84	0xbda40538	-0.08008808
85	0x3d45c247	0.04828098
86	0x3db327a1	0.08747793
87	0x3de91606	0.11381154
88	0x3d4539a7	0.048150685
89	0x3d6c49af	0.057687458
90	0xbce546a3	-0.027987784
91	0x3d9e7c84	0.07738593
92	0x3be2b716	0.006918798
93	0xbd083982	-0.03325797
94	0x3d9af7e3	0.07566812
95	0x3df56ea4	0.11983994
96	0x3d186d16	0.037213407
97	0xbbc7890d	-0.006089336
98	0x3cb6de64	0.022322841
99	0xbd2fb278	-0.04289481
100	0xbc78109a	-0.015140677
101	0x3deff40e	0.117164716
102	0x3e049647	0.12947951
103	0x3b9d54d9	0.0048013744
104	0x3d87d334	0.06632081
105	0x3df91941	0.1216302
106	0xbd056168	-0.032563597
107	0x3e1461cd	0.14490433
108	0x3e9941d5	0.29933038
109	0x3d54855d	0.051884998
110	0x3d379b24	0.044825688
111	0xbc9b9f0b	-0.018996736
112	0xbd178b4f	-0.03699809
113	0xbacfe91b	-0.0015862318
114	0x3d542162	0.05178965
115	0xbbf56c7a	-0.007489738
116	0xbbdb3198	-0.0066892616
117	0xbd16274c	-0.03665857
118	0x3e15a7b5	0.14614756
119	0x3d873608	0.066021025
120	0x3dd04a9c	0.101704806
121	0x3def32b2	0.11679591
122	0x3c86a6ab	0.016436895
123	0x3d9820af	0.07428109
124	0x3dd167e0	0.10224891
125	0x3d313e0f	0.043272074
126	0xbd2f5fda	-0.04281602
127	0x3d13aff9	0.036056492
128	0x3bf8659f	0.0075804736
129	0xbbb15d84	-0.0054127593
130	0x3e018afb	0.12650673
131	0x3dfd0559	0.123545356
132	0x3d444bf9	0.047924016
133	0xbd26f47d	-0.040760506
134	0x3e1b2743	0.15151696
135	0x3d8ae219	0.06781406
136	0x3cc2ae42	0.023764733
137	0xbcd07961	-0.025448503
138	0x3db6823c	0.08911559
139	0x3ded554d	0.115885355
140	0x3d8fbf5e	0.07018922
141	0x3d5a348f	0.05327278
142	0x3d33804a	0.043823518
143	0x3e155932	0.14584807
144	0x3dc74e12	0.097316876
145	0xbc084a99	-0.008318567
146	0x3dd39f08	0.10333067
147	0xbaf49dd7	-0.0018662763
148	0xbd1ef452	-0.03880722
149	0xbd78b4a1	-0.060719136
150	0x3d6e215b	0.05813728
151	0xbc3bae50	-0.011455134
152	0x3db363dc	0.08759281
153	0x3ca26820	0.019825041
154	0x3df0f8f2	0.117662326
155	0x3c5755ed	0.013143045
156	0xbd134434	-0.035953715
157	0x3db25467	0.08707505
158	0x3e12357a	0.14278212
159	0x3b378933	0.002800536
160	0x3e41bd6b	0.18919913
161	0x3e016cad	0.12639113
162	0x3e0f2004	0.13977057
163	0x3ddfbcee	0.10924707
164	0x3c5c5abc	0.013449367
165	0x3dce0f06	0.10061459
166	0x3d5c3098	0.05375728
167	0x3dc9266c	0.098217815
168	0x3d8f8315	0.07007424
169	0x3d491cca	0.04909972
170	0xbc1d6ba2	-0.009608181
171	0xbcb29eaf	-0.021804182
172	0x3bae1b73	0.005313331
173	0x3dfb535c	0.12271759
174	0x3e3769c1	0.17911436
175	0x3d69063c	0.05689071
176	0x3d81f1e1	0.06344963
177	0x3e10237e	0.14076039
178	0x3ddbebdf	0.10738348
179	0x3dac533d	0.08414314
180	0x3db4beec	0.08825478
181	0x3d144622	0.036199696
182	0x3dcc96ac	0.09989676
183	0xbd231590	-0.039815485
184	0x3d208075	0.039185006
185	0x3b8baca3	0.0042625233
186	0x3c6ef5b8	0.014584951
187	0x3d6d2de1	0.05790508
188	0x3d920123	0.07129123
189	0x3df45fd9	0.11932344
190	0x3c927d47	0.017882003
191	0x3da8a684	0.08234885
192	0x3e0c8f1f	0.13726471
193	0x3d658ff4	0.056045488
194	0xbc7a1847	-0.015264577
195	0x3e4983dc	0.19679207
196	0xbca0d9f3	-0.019635176
197	0x3d802cb8	0.062585294
198	0x3e199217	0.14997135
199	0xbd080b97	-0.033214178
200	0xbcb72d44	-0.022360452
201	0xbd28aa2a	-0.041177906
202	0x3ca76788	0.02043511
203	0x3d98470e	0.074354276
204	0x3df5b030	0.11996496
205	0x3ddebb3e	0.10875557
206	0xbc013d82	-0.0078882
207	0xbd0f6fab	-0.035018604
208	0xbda10888	-0.07862955
209	0x3df737f4	0.12071219
210	0xbda77dea	-0.08178313
211	0xbd343992	-0.044000216
212	0xbcb242e2	-0.021760408
213	0x3d3ad184	0.045609966
214	0xbd57af31	-0.05265731
215	0xbc0c49b2	-0.008562492
216	0x3cc21637	0.023692233
217	0xbd1be0e7	-0.03805628
218	0xbdf72b93	-0.12068858
219	0xb9b42744	-0.0003436153
220	0x3db8b845	0.090195216
221	0x3d9bfee4	0.07616976
222	0x3d5158c0	0.05111003
223	0xbce36c18	-0.027761504
224	0xbda81880	-0.08207798
225	0x3dbea65a	0.09309073
226	0xbd83afcb	-0.06430014
227	0x3d3d846b	0.04626886
228	0xbc9a8b79	-0.018865334
229	0x3df7feb8	0.121091306
230	0x3da548ae	0.08070503
231	0x3d88d297	0.06680792
232	0x3b244238	0.0025063884
233	0x3d5b7639	0.053579543
234	0xbd89723b	-0.06711241
235	0x3c43c5d8	0.011949025
236	0xbd193e3f	-0.037412878
237	0xba93cee5	-0.0011276869
238	0x3d8a9440	0.06766558
239	0x3cd940c4	0.02652014
240	0xbbd46ce7	-0.0064827087
241	0x3e353cf7	0.17699037
242	0x3de8c637	0.113659315
243	0x3d59be8f	0.053160246
244	0x3d8aaaaa	0.06770833
245	0x3dac341d	0.08408377
246	0xbdc33482	-0.095314994
247	0xbc277169	-0.01021991
248	0xbd1fe7dc	-0.039039478
249	0xbd69ac8b	-0.057049315
250	0xbd500cf6	-0.05079361
251	0xbc6e2e32	-0.014537381
252	0x3d89ab16	0.06722085
253	0xbd206cd6	-0.039166294
254	0xbdb630ed	-0.088960506
255	0x3d191e58	0.037382454
