New_project/model.pth (torch, 726632 bytes, 8 tensors)

rnn_layer.weight_ih_l0 f4 [800, 7]
0.061606172 0.047993965 0.088388935 0.045566693 -0.027640624 -0.07729974 0.035613135 0.037961755
-0.04359112 0.02029035 -0.058525134 -0.017006857 -0.045511942 -0.07091384 -0.05900342 -0.014060857
0.028830325 0.0927819 0.048892494 -0.07854202 0.007663994 -0.07278727 -0.12509863 -0.01449833
-0.074369244 -0.025246736 -0.013669586 -0.07539563 0.16009252 -0.17372486 -0.09695503 0.07698976
0.15697573 0.20626178 0.18326554 0.09589347 0.13028556 -0.027920965 -0.02648694 0.025769135
-0.008150207 -0.005329334 0.16199327 -0.039663132 -0.050766494 -0.06566847 0.049680334 0.25213373
0.08549128 0.08639079 0.025824634 0.0028904818 0.05732906 -0.0051777004 -0.15641227 -0.0029896894
0.0817723 0.055678003 0.004377107 0.041304376 0.080110036 -0.10486951 0.094329625 0.05554784
-0.047231585 -0.07220862 0.0143651925 0.039705366 0.119968876 0.026317427 0.024724104 0.021520838
0.0837942 0.005519408 0.060785636 -0.03283052 -0.056095883 0.043257777 -0.010444041 0.007769386
0.005273089 -0.032626506 -0.059860777 0.010757127 -0.016534703 -0.0619353 -0.016932203 -0.059314646
-0.026803046 0.09921935 -0.0222611 -0.0958934 -0.012814699 -0.02916255 -0.026236152 0.028316421
0.06160131 -0.036164153 0.15837404 -0.03943085 -0.12596376 -0.06171116 0.07273862 0.08787396
0.07152419 0.033812355 -0.039156955 -0.0051635434 0.043726187 -0.010191221 -0.037092462 0.14170718
0.030938685 0.011984914 0.02339902 0.045494787 -0.034425605 -0.085155785 -0.044529025 -0.0737134
-0.06590897 0.05283215 -0.04818751 0.0034666082 0.02943426 0.0154132815 0.05051763 0.08685166
0.041190814 -0.05228751 -0.016455272 0.042269383 0.10924266 0.011679328 0.07464848 0.06518765
0.027604057 0.013539302 -0.114470385 0.045859426 -0.008396091 -0.012150929 -0.04082229 -0.066884734
-0.024029573 0.018870201 -0.078344546 -0.013215164 -0.0065014334 0.05305811 0.07887172 0.051863912
-0.042722438 0.008321235 -0.028424533 -0.06813166 -0.060105175 -0.041898865 -0.012736101 -0.07226038
0.032841314 0.028646557 0.032620415 0.046501707 -0.038735114 -0.017184969 0.028731497 -0.051216543
0.07664848 0.113165915 -0.040532604 -0.016003363 0.076924466 -0.13180387 0.0181008 -0.2387285
0.077777125 0.091227435 -0.07803751 -0.18638334 -0.30107298 -0.2629271 0.022880547 0.06948848
0.019571414 -0.0061831214 0.0076170373 -0.0100220125 -0.019127846 -0.17689028 -0.009499473 0.007382395
-0.09456746 -0.060941465 -0.14341623 -0.1667731 0.022742884 0.02530564 0.063007265 -0.080184385
-0.07235468 -0.021373942 -0.08651224 0.069301754 0.02217647 0.07688337 0.009476224 -0.015550457
-0.020421665 0.0017596632 -0.29890522 -0.01941277 0.027677689 0.0064556855 0.053625125 -0.2347169
-0.043265022 0.022882203 0.010546735 0.009578993 0.016636312 0.096655674 -0.1210365 0.09709579
-0.014084878 0.020075807 -0.007092584 -0.050832037 -0.055932306 -0.06152274 -0.049718935 -0.06989533
0.10910815 0.017133059 -0.052604284 -0.040961344 -0.07933874 -0.11811293 0.06403797 0.1031001
0.06857912 -0.010473567 -0.0324065 -0.13477705 -0.036362663 0.035943516 -0.032452803 -0.09619348
-0.028247397 -0.010308307 0.07384179 0.10900254 -0.017317278 -0.0714299 -0.052130416 -0.098387815
00000000: c156 7c3d 5295 443d 4205 b53d 24a4 3a3d
00000010: 976e e2bc 534f 9ebd 14df 113d c97d 1b3d
00000020: 9a8c 32bd f337 a63c 0db8 6fbd f751 8bbc
00000030: bb6a 3abd 463b 91bd 92ad 71bd 825f 66bc
00000040: 932d ec3c 7004 be3d 7f43 483d a3da a0bd
00000050: 3e22 fb3b 7e11 95bd db19 00be 678a 6dbc
00000060: e74e 98bd 3ed2 cebc 66f6 5fbc 0669 9abd
00000070: 4bef 233e eee4 31be 5c90 c6bd cfac 9d3d
00000080: 3fbe 203e 4a36 533e f6a9 3b3e cc63 c43d
00000090: 9469 053e 82ba e4bc 24fb d8bc cb19 d33c
000000a0: 7288 05bc b2a1 aebb 90e1 253e cf75 22bd
000000b0: 87f0 4fbd 317d 86bd 9b7d 4b3d ac17 813e
000000c0: 0d16 af3d a8ed b03d 2f8e d33c 3d6e 3d3b
000000d0: e0d1 6a3d b3a9 a9bb 8a2a 20be aaee 43bb
000000e0: 3c78 a73d 9e0e 643d d66d 8f3b c72e 293d
000000f0: bb10 a43d d3c5 d6bd e42f c13d 2286 633d
00000100: e875 41bd 1de2 93bd fc5b 6b3c 18a2 223d
00000110: 3eb2 f53d a597 d73c 348a ca3c 784c b03c
00000120: 4b9c ab3d 26dc b43b 5cfa 783d 4c79 06bd
00000130: ccc4 65bd 112f 313d 7c1d 2bbc 5596 fe3b
00000140: e0c9 ac3b 5fa3 05bd 9330 75bd a93e 303c
00000150: c973 87bc deaf 7dbd 67b5 8abc eaf3 72bd
00000160: 1092 dbbc 8433 cb3d e95c b6bc c263 c4bd
00000170: bef4 51bc 4de6 eebc 33ed d6bc d7f7 e73c
00000180: a851 7c3d dd20 14bd ce2c 223e 3e82 21bd
00000190: a5fc 00be d7c4 7cbd fcf7 943d 43f7 b33d
000001a0: 467b 923d d37e 0a3d 0b63 20bd f132 a9bb
000001b0: 3b1a 333d 14f9 26bc 44ee 17bd b01b 113e
000001c0: 2073 fd3c 5f5c 443c 4daf bf3c be58 3a3d
000001d0: dd01 0dbd 2866 aebd 1164 36bd 0df7 96bd
000001e0: 48fb 86bd 8666 583d 4460 45bd 0930 633b
000001f0: 1e20 f13c fd87 7c3c 93eb 4e3d 48df b13d
00000200: b3b7 283d 6e2b 56bd 35cd 86bc a922 2d3d
00000210: 9eba df3d a75a 3f3c 4de1 983d 1a81 853d
00000220: e721 e23c f3d3 5d3c 736f eabd 18d7 3b3d
00000230: c28f 09bc b114 47bc 4635 27bd ddfa 88bd
00000240: abd9 c4bc ae95 9a3c 1b73 a0bd 6a84 58bc
00000250: fa09 d5bb 7653 593d 7f87 a13d 416f 543d
00000260: b9fd 2ebd ca55 083c 91da e8bc 9d88 8bbd
00000270: d830 76bd 259e 2bbd 14ab 50bc 40fd 93bd
00000280: 9d84 063d 2fac ea3c fc9c 053d 9378 3e3d
00000290: b6a8 1ebd 7ec7 8cbc 515e eb3c 70c8 51bd
000002a0: e1f9 9c3d 88c3 e73d 8405 26bd 7c19 83bc
000002b0: 938a 9d3d 98f7 06be 2148 943c 3e75 74be
000002c0: 9d49 9f3d 73d5 ba3d 21d2 9fbd 46db 3ebe
000002d0: 3d26 9abe 619e 86be fc6f bb3c fa4f 8e3d
000002e0: 3b54 a03c c89b cabb 5798 f93b 5e33 24bc
000002f0: 00b2 9cbc ba22 35be ada3 1bbc 05e8 f13b
00000300: 96ac c1bd c29d 79bd b4db 12be 91c6 2abe
00000310: 494f ba3c c64d cf3c f409 813d b637 a4bd
00000320: b12e 94bd 6818 afbc 542d b1bd 14ee 8d3d
00000330: 6eab b53c 0775 9d3d 2a42 1b3c 58c7 7ebc
00000340: 564b a7bc 80a4 e63a 1b0a 99be 8807 9fbc
00000350: 52bc e23c 378a d33b 05a6 5b3d a159 70be
00000360: aa36 31bd 7573 bb3c 36cc 2c3c 35f1 1c3c
00000370: e048 883c 69f3 c53d fce1 f7bd 28da c63d
00000380: 43c4 66bc 0576 a43c e868 e8bb 4135 50bd
00000390: 4619 65bd 45ff 7bbd 15a6 4bbd 4825 8fbd
000003a0: 1874 df3d a15a 8c3c 9777 57bd 15c7 27bd
000003b0: 597c a2bd 31e5 f1bd 5726 833d 2526 d33d
000003c0: 3673 8c3d 5399 2bbc aebc 04bd ff02 0abe
000003d0: 04f1 14bd 8239 133d 3bed 04bd 1601 c5bd
000003e0: 1667 e7bc 2ce4 28bc 5d3a 973d b93c df3d
000003f0: f7dc 8dbc d749 92bd b486 55bd 8d7f c9bd

rnn_layer.weight_hh_l0 f4 [800, 200]
-0.086386144 0.08242938 -0.03742025 0.0057227784 -0.057621773 0.06239046 -0.16666435 -0.06585575
-0.04213264 0.082124434 0.038048316 0.11578082 0.09640859 -0.016277527 -0.063485876 -0.05096595
-0.0005189596 -0.090965234 0.03527565 0.064050704 -0.030605372 -0.016055176 -0.080100164 0.05251554
0.08531676 0.055471048 -0.07241957 -0.050110865 -0.019848136 0.027875694 -0.036539372 0.029616296
-0.051516656 -0.050746 0.03683756 0.012473128 -0.08307286 0.0326836 0.039728656 -0.07453143
0.0544367 -0.050760787 -0.08578157 0.08843393 -0.013399769 -0.030317672 -0.09150294 -0.048456825
0.0063087237 0.102377966 -0.13326558 0.079015754 -0.038442805 0.07564602 0.07834605 -0.104887925
-0.021561867 -0.047108974 -0.03530552 -0.047744557 0.0044506863 0.054700695 -0.023222012 0.02831519
-0.04901464 -0.022486733 0.06861091 0.08769177 -0.076683596 0.028391864 0.083050534 0.007997326
0.02055491 -0.022418182 -0.05527087 -0.035046462 -0.021858413 -0.0038997242 0.05967175 0.051095974
0.13053294 -0.0064655845 0.10202554 -0.111334026 -0.082999215 -0.0008199154 0.06300044 -0.000120847275
-0.02700687 -0.01521601 0.073347844 0.06703011 -0.06670781 0.009847799 -0.011656289 -0.09772979
0.05869968 0.047182348 0.07142461 0.03997471 -0.06979767 0.05749388 -0.044993304 0.027712002
-0.06662463 0.036203533 0.034693096 -0.046065643 -0.044763867 0.042873163 -0.041497104 -0.010718289
-0.0092271 -0.0038282257 -0.00020016187 0.067455515 -0.12684207 0.047077544 0.04726557 0.024231488
-0.023210615 -0.08976288 -0.056204516 -0.014106158 -0.021860844 -0.040313136 0.017431231 -0.011811381
0.029050142 0.035050288 -0.005686026 0.051031426 -0.035877217 -0.11063956 0.02710542 0.06227197
0.015995804 -0.036902864 -0.052883472 -0.022218555 0.0047787987 0.04566757 -0.07086947 -0.026186869
0.09589238 -0.061471198 -0.005644544 -0.024858199 0.030389624 -0.003980581 -0.11353222 0.008004376
-0.08540405 0.046259392 0.008715572 -0.0027949226 0.0009608077 0.060983095 -0.0051612523 0.079822145
-0.020899033 0.034348134 0.05489703 -0.002785294 0.047364775 0.06331938 -0.06740646 -0.025656007
0.028178817 -0.020646762 -0.18634291 0.052011866 -0.08386639 0.063396946 -0.13857688 -0.024915257
-0.0032789207 -0.0022871937 -0.09364449 -0.04319112 0.09023526 -0.09768972 0.027272908 0.035520207
0.032542113 0.06354496 0.062735304 0.09707425 0.08645901 -0.12912057 -0.014379167 -0.0061894353
0.084474675 -0.058830295 0.08014056 -0.059945744 -0.017058223 0.05728801 -0.1131315 0.07377673
-0.06482266 0.068559766 0.07366513 0.065460175 -0.042494304 -0.11321364 -0.059123408 0.002524928
-0.071406506 -0.0065687154 -0.022018999 0.06167957 -0.018342799 -0.08168801 -0.04555443 0.0054120193
-0.003138656 -0.059434738 0.08023691 -0.069493674 -0.069030136 0.109844044 -0.0469269 0.0046723727
-0.01139466 0.059220165 0.029867822 -0.08143869 -0.039152477 -0.056803104 -0.04785641 -0.08687928
-0.024852239 0.081069924 0.010951552 0.101300776 0.05982118 -0.00071578706 0.009022249 -0.10246176
-0.075026676 0.029703632 -0.036681768 -0.026108142 0.034221485 -0.014451336 -0.043232143 0.070336014
-0.12787242 0.10487327 -0.06518173 0.032805376 0.043444976 0.06889092 0.051827785 -0.072530486
00000000: 38eb b0bd bcd0 a83d fa45 19bd 2586 bb3b
00000010: cf04 6cbd 248d 7f3d 0faa 2abe 61df 86bd
00000020: 4693 2cbd db30 a83d 8dd8 1b3d 7f1e ed3d
00000030: de71 c53d 7358 85bc e204 82bd acc1 50bd
00000040: ca0a 08ba fb4b babd 337d 103d 042d 833d
00000050: 1eb8 fabc 2586 83bc 8e0b a4bd 891a 573d
00000060: 8eba ae3d 9c35 633d b650 94bd 0d41 4dbd
00000070: 8f98 a2bc 915b e43c 4faa 15bd e09d f23c
00000080: 2103 53bd 0adb 4fbd fbe2 163d 175c 4c3c
00000090: 1b22 aabd 3ddf 053d 84ba 223d efa3 98bd
000000a0: 04f9 5e3d 8bea 4fbd 3fae afbd d91c b53d
000000b0: b48a 5bbc c45c f8bc e565 bbbd aa7a 46bd
000000c0: 69b9 ce3b 8aab d13d c676 08be 03d3 a13d
000000d0: 3476 1dbd 4dec 9a3d e573 a03d 7bcf d6bd
000000e0: 83a2 b0bc 57f5 40bd 859c 10bd cc8f 43bd
000000f0: 10d7 913b d60d 603d 173c bebc 42f5 e73c
00000100: 93c3 48bd 1936 b8bc e083 8c3d be97 b33d
00000110: 4a0c 9dbd 0e96 e83c 6616 aa3d 3707 033c
00000120: c562 a83c 56a6 b7bc b563 62bd e18c 0fbd
00000130: 6a10 b3bc 8492 7fbb 5d6a 743d 034a 513d
00000140: 6daa 053e 41dd d3bb c4f2 d03d 1803 e4bd
00000150: 7efb a9bd 97ef 56ba 6006 813d 636f fdb8
00000160: 833d ddbc 924c 79bc 6537 963d 1547 893d
00000170: 1b9e 88bd aa58 213c 05fa 3ebc 8e26 c8bd
00000180: 136f 703d 4742 413d 1147 923d 86bc 233d
00000190: 15f2 8ebd b47e 6b3d e64a 38bd 4804 e33c
000001a0: 7e72 88bd 284a 143d 591a 0e3d 54af 3cbd
000001b0: 515a 37bd c59b 2f3d def8 29bd c39b 2fbc
000001c0: 432d 17bc f8e2 7abb 8be2 51b9 1e26 8a3d
000001d0: e3e2 01be 62d4 403d 8b99 413d 1d81 c63c
000001e0: 3024 bebc 9ad5 b7bd b536 66bd 841d 67bc
000001f0: 8315 b3bc 631f 25bd f1cb 8e3c 8684 41bc
00000200: 90fa ed3c e490 0f3d d851 babb 5406 513d
00000210: fdf3 12bd fe96 e2bd 300c de3c e510 7f3d
00000220: a209 833c 7527 17bd 579c 58bd b003 b6bc
00000230: 7897 9c3b eb0d 3b3d 0324 91bd d885 d6bc
00000240: 3963 c43d 39c9 7bbd def5 b8bb 6ca3 cbbc
00000250: a9f3 f83c 896f 82bb 9583 e8bd c924 033c
00000260: 52e8 aebd 7d7a 3d3d c2cb 0e3c 052b 37bb
00000270: b7de 7b3a 69c9 793d b91f a9bb cb79 a33d
00000280: 7334 abbc a1b0 0c3d b5db 603d 7b89 36bb
00000290: 9101 423d 97ad 813d 660c 8abd 8c2c d2bc
000002a0: 43d7 e63c 6623 a9bc add0 3ebe 650a 553d
000002b0: 24c2 abbd 42d6 813d 19e7 0dbe 151b ccbc
000002c0: 29e3 56bb bee4 15bb afc8 bfbd 2ce9 30bd
000002d0: 44cd b83d 8c11 c8bd 6f6b df3c a37d 113d
000002e0: e14a 053d dc23 823d 5e7b 803d ddce c63d
000002f0: 6c11 b13d 2f38 04be 9996 6bbc bfd0 cabb
00000300: 0f01 ad3d 09f8 70bd bc20 a43d ab89 75bd
00000310: b0bd 8bbc d5a6 6a3d 7db1 e7bd 4118 973d
00000320: bec1 84bd 1069 8c3d bedd 963d fc0f 863d
00000330: 820e 2ebd 8edc e7bd 632b 72bd 4379 253b
00000340: 933d 92bd 613e d7bb 3061 b4bc b7a3 7c3d
00000350: a343 96bc 0b4c a7bd 4897 3abd 4f57 b13b
00000360: e9b1 4dbb d771 73bd 4053 a43d b352 8ebd
00000370: ac5f 8dbd eaf5 e03d 6c36 40bd b41a 993b
00000380: abb0 3abc d890 723d 5dad f43c 54c9 a6bd
00000390: 595e 20bd 5faa 68bd 1505 44bd c4ed b1bd
000003a0: ec96 cbbc fd07 a63d 236e 333c c876 cf3d
000003b0: 0e07 753d a8a3 3bba 0ed2 133c 79d7 d1bd
000003c0: 96a7 99bd 0855 f33c 9f3f 16bd bee0 d5bc
000003d0: d42b 0c3d 4cc5 6cbc 3014 31bd 540c 903d
000003e0: fdf0 02be ccc7 d63d 007e 85bd ee5e 063d
000003f0: 5cf3 313d af16 8d3d 5f49 543d dd8a 94bd

rnn_layer.bias_ih_l0 f4 [800]
0.038133986 0.052557196 0.11495383 0.05403667 0.04059838 0.05328255 -0.022134867 0.053624947
0.05873082 -0.05354012 -0.058368452 0.0027123503 0.027290216 0.009245626 0.040918812 0.021360362
-0.011598812 0.14372583 -0.00063533057 0.04508475 -0.01118469 -0.041129533 0.005762843 0.08371692
0.05609471 0.059363503 -0.050971538 0.00075632345 0.009502259 0.05060125 -0.059504207 0.054437082
0.07806703 0.10942371 -0.036689147 0.0872779 0.04815385 0.056648854 0.012594959 0.10022274
0.067763045 0.048468042 -0.0023873348 -0.024173044 -0.0053616385 0.05574543 0.024904994 0.13166542
0.037143607 0.023948943 0.11867974 0.016471457 -0.021508193 -0.0025485873 0.014206853 -0.005099585
-0.04686725 0.12797421 0.03936073 -0.02318248 -0.01409334 0.021871272 -0.010387121 0.0015863129
0.05155625 0.09151862 0.02466674 -0.0020873854 0.017590875 0.07942891 0.064591266 -0.04275705
0.005578481 0.046798177 0.023631673 -0.01487951 0.05581062 0.041033052 -0.030399967 0.054247558
-0.008392796 0.061743744 0.036023073 0.014542022 0.017170122 0.0675347 0.03881124 0.04776914
0.01274359 -0.006886308 -0.041793033 0.031170743 0.013280859 0.015385488 0.06850906 0.023960002
-0.021101508 -0.0035498869 0.042745437 0.07749399 0.071868464 -0.007610993 0.056366313 -0.09301366
0.037643135 -0.014197978 0.01017742 0.02386082 -0.051687643 0.0360309 0.0863259 0.063668184
-0.003353096 0.082281426 -0.055174675 0.046839837 0.11756048 0.05914999 0.041910335 0.0097186975
0.09168931 0.09513192 0.020313857 0.0012602635 -0.0367952 -0.04578073 0.008258404 0.0841363
0.014190286 -0.009065432 0.07629393 -0.046789117 0.016886596 -0.02295798 0.04580382 0.04618525
0.0907188 0.100512095 -0.038993485 0.099573925 0.07375315 0.010390294 0.0035459574 0.013096929
0.02596544 0.005955693 0.08828717 0.06467799 -0.00062335125 0.038528185 -0.006186603 0.051509373
0.04837819 -0.009454623 0.013143124 -0.021610405 -0.002594898 0.044231936 0.08307376 -0.047166724
-0.017392186 0.029098019 0.05434222 -0.041111995 -0.055172253 -0.005619563 -0.06628208 0.026850034
0.010676012 0.08082252 0.08894064 -0.051620148 0.060711145 0.020068368 0.006816169 0.06472702
-0.02578784 -0.061179414 -0.011369513 -0.05835204 0.030814093 -0.017372789 -0.035179105 0.04077784
0.026347894 0.0208578 -0.03960618 0.08307756 0.079321325 0.04852874 -0.070026964 0.009798784
-0.052209217 0.037907828 0.047864184 -0.014827262 0.04090021 0.059446804 0.06782017 0.004894
-0.036982626 -0.021996407 -0.07142738 0.030301707 -0.09024176 -0.03470729 -0.08863118 0.026722794
-0.05369665 -0.029500676 -0.07713519 0.049937617 -0.0064011198 -0.024410196 -0.029769445 0.035058744
-0.015997035 0.057500646 0.040477958 0.06727726 0.050884936 -0.01667943 -0.039949335 0.0589468
0.014252709 -0.009841547 -0.03221703 -0.042673204 -0.03366232 -0.04206699 0.0020553386 -0.054251004
-0.05342526 -0.06779236 0.00081863673 -0.07559131 -0.025332222 -0.09151744 0.04014685 -0.0995446
-0.06549706 0.058966376 0.01389146 -0.023417769 -0.052322753 0.040887114 -0.06007587 0.09770592
-0.02415373 0.036821716 0.037953366 -0.11781667 -0.075476274 -0.01523932 -0.06731472 0.04060146
00000000: 6232 1c3d 3746 573d ea6c eb3d 8e55 5d3d
00000010: 7d4a 263d ce3e 5a3d 2e54 b5bc d5a5 5b3d
00000020: ba8f 703d e34c 5bbd c213 6fbd b0c1 313b
00000030: bb8f df3c f77a 173c 7c9a 273d edfb ae3c
00000040: f208 3ebc dd2c 133e 508c 26ba c9aa 383d
00000050: fd3f 37bc 7177 28bd 3bd6 bc3b c773 ab3d
00000060: 91c3 653d 2527 733d 88c7 50bd 0244 463a
00000070: 5daf 1b3c 4243 4f3d afba 73bd 6bf9 5e3d
00000080: 9be1 9f3d 8a19 e03d 5c47 16bd c1be b23d
00000090: f93c 453d a108 683d 165b 4e3c 9441 cd3d
000000a0: 5ac7 8a3d 6d86 463d d574 1cbb 8c06 c6bc
000000b0: afb0 afbb 5255 643d 8f05 cc3c 4dd3 063e
000000c0: e523 183d 9330 c43c 5d0e f33d 26ef 863c
000000d0: f331 b0bc 3306 27bb dcc3 683c 6b1a a7bb
000000e0: e0f7 3fbd ac0b 033e b838 213d 2fe9 bdbc
000000f0: c1e7 66bc 622b b33c be2e 2abc d4eb cf3a
00000100: a52c 533d 1d6e bb3d e711 ca3c 84cc 08bb
00000110: bd1a 903c a0ab a23d 6d48 843d 0422 2fbd
00000120: b1cb b63b 72af 3f3d 3697 c13c 30c9 73bc
00000130: ad99 643d 4612 283d 5a09 f9bc b032 5e3d
00000140: f081 09bc 02e7 7c3d ee8c 133d a941 6e3c
00000150: 5ba8 8c3c a24f 8a3d 89f8 1e3d 93a9 433d
00000160: 7eca 503c 8aa6 e1bb 2c2f 2bbd c959 ff3c
00000170: f697 593c 6a13 7c3c 7a4e 8c3d c447 c43c
00000180: 12dd acbc 38a5 68bb d715 2f3d 2bb5 9e3d
00000190: c62f 933d a365 f9bb 5de0 663d f27d bebd
000001a0: b02f 1a3d a39e 68bc 32bf 263c c477 c33c
000001b0: 6cb6 53bd 2395 133d a2cb b03d 7764 823d
000001c0: 9ebf 5bbb 2a83 a83d d7fe 61bd 21db 3f3d
000001d0: 8dc3 f03d 4347 723d 2caa 2b3d 2c3b 1f3c
000001e0: 9bc7 bb3d 86d4 c23d 3f69 a63c 6d2f a53a
000001f0: 90b6 16bd 9384 3bbd 424e 073c a74f ac3d
00000200: 607e 683c 2d87 14bc fe3f 9c3d f2a5 3fbd
00000210: c255 8a3c 6012 bcbc c99c 3b3d bf2c 3d3d
00000220: c7ca b93d 49d9 cd3d a2b7 1fbd 6aed cb3d
00000230: e40b 973d 0d3c 2a3c 4b63 683b 8094 563c
00000240: 79b5 d43c f927 c33b e7cf b43d e575 843d
00000250: 6568 23ba bbcf 1d3d fdb8 cabb 7efb 523d
00000260: 3528 463d 90e7 1abc 4256 573c 4e08 b1bc
00000270: 2a0f 2abb 8c2c 353d 9322 aa3d e531 41bd
00000280: 0f7a 8ebc f85e ee3c f395 5e3d 0d65 28bd
00000290: 4dfc 61bd 5024 b8bb e6be 87bd 9af4 db3c
000002a0: 71ea 2e3c 4786 a53d 8326 b63d a66f 53bd
000002b0: 40ac 783d 6b66 a43c 2b5a df3b 9a8f 843d
000002c0: 0541 d3bc 4497 7abd 3247 3abc 8c02 6fbd
000002d0: d66d fc3c 6151 8ebc f717 10bd aa06 273d
000002e0: 8ad7 d73c fadd aa3c 173a 22bd 9124 aa3d
000002f0: 3873 a23d 12c6 463d 4c6a 8fbd 148b 203c
00000300: 55d9 55bd 3d45 1b3d 3c0d 443d 0bee 72bc
00000310: fb86 273d 7e7e 733d 4de5 8a3d d95d a03b
00000320: 187b 17bd cf31 b4bc 8548 92bd 493b f83c
00000330: acd0 b8bd 3b29 0ebd 4484 b5bd c3e9 da3c
00000340: 05f1 5bbd 67ab f1bc 0ef9 9dbd 638b 4c3d
00000350: 7cc0 d1bb e4f7 c7bc 0ddf f3bc c299 0f3d
00000360: 370c 83bc cc85 6b3d 37cc 253d a9c8 893d
00000370: b96c 503d 4da3 88bc eaa1 23bd 3372 713d
00000380: 3284 693c 713e 21bc 01f6 03bd 19ca 2ebd
00000390: 80e1 09bd 704e 2cbd dcb2 063b 4d36 5ebd
000003a0: 72d4 5abd b9d6 8abd c899 563a 9ecf 9abd
000003b0: 8585 cfbc 7f6d bbbd 0671 243d 0ade cbbd
000003c0: 5323 86bd ba86 713d 0299 633c 9fd6 bfbc
000003d0: 6250 56bd 3f79 273d 1e12 76bd 0b1a c83d
000003e0: 0bde c5bc 5ed2 163d fd74 1b3d de49 f1bd
000003f0: 4e93 9abd 57ae 79bc 4ddc 89bd b74d 263d

rnn_layer.bias_hh_l0 f4 [800]
0.006381901 0.04894543 0.047428437 -0.008313663 0.1002891 0.097106956 -0.046025783 0.06827103
-0.013213705 0.04361869 0.007985714 0.046551157 -0.028217664 0.057945732 0.01043897 0.08539627
0.0712051 0.16055201 0.06146924 0.02050238 0.040932655 -0.04141057 -0.0018406198 0.07663537
0.07199553 -0.06408814 -0.049154863 0.01525443 -0.05480755 0.022270966 -0.0600955 0.0038545916
0.074809514 0.12451051 -0.0027311244 0.0080557475 -0.00037857267 0.10195122 0.07631032 0.0627027
0.09915164 0.06967798 -0.023815056 0.04063988 0.036166426 -0.009566755 0.079180725 0.037988074
0.07673313 -0.02872047 0.036802765 0.04347899 0.0070939064 -0.04235193 0.06799643 -0.005104182
0.07834968 0.035770025 -0.06542553 0.021495095 0.08833934 0.0113363955 -0.043574106 -0.03317546
0.06287794 0.054135364 0.021070482 -0.013609416 0.075475425 0.08993837 0.06818683 -0.04528361
-0.057102352 0.016812816 0.03797553 0.014610438 -0.040894557 0.036713712 0.029434387 0.009936397
-0.048664447 0.05827938 -0.02169396 0.1096782 -0.048055537 0.065687 0.10970921 -0.03874256
0.059639603 -0.035839148 0.024030656 0.054790303 0.008020505 0.019269468 -0.022508517 -0.044262744
0.025627315 -0.04282416 0.071449846 -0.032988757 0.050173312 -0.021701414 0.0008632867 -0.01634035
0.030944934 -0.016156146 0.08677695 -0.045119237 -0.002618412 0.010279635 -0.018311288 0.044075973
-0.07057462 0.058226217 -0.065187946 0.030804588 0.0012607551 0.0019679682 -0.030959388 0.028851328
-0.03540908 0.087146476 -0.031495377 0.0150781935 0.008863182 0.036459114 0.053108443 0.04442293
0.007481789 0.071782224 0.07264991 -0.020286178 0.09029339 0.017600019 0.06900703 0.08574606
0.06869099 0.043680336 0.07990063 0.018222377 0.06046219 0.0072774696 0.06589151 -0.032966502
0.10309952 -0.025149142 0.080486484 -0.0411761 0.023809846 0.008940464 0.04998767 0.13118869
0.05122048 0.037034083 0.11830493 -0.024728049 0.0075130556 -0.006986271 -0.009601044 0.009903588
0.040991083 0.04085221 0.07117215 0.07156086 0.051340554 0.09772442 -0.06436141 0.09353531
0.06647459 -0.004050595 0.0727037 0.062092237 0.07700842 0.06605965 0.021634316 0.043614756
-0.027456125 0.027855277 0.026945917 -0.00054499164 -0.0147410985 -0.02757557 0.0015294814 0.076008245
-0.060514797 -0.020166434 0.028269134 -0.025699131 0.05729577 0.07704489 -0.042435676 0.0024031007
-0.067506075 -0.00013992227 0.013624747 -0.015181084 -0.02224288 -0.009276917 0.003926017 -8.116175e-05
-0.061198592 0.027259665 0.005227124 -0.0035514957 -0.016130924 -0.08603365 -0.07347653 -0.0048894547
-0.004991383 -0.078860134 -0.036734216 -0.062198456 0.072918065 -0.070386216 -0.09976008 0.039253063
-0.08472492 0.017623112 0.062477063 -0.057670847 0.024941744 0.038995076 0.039920874 0.051743697
0.046634827 -0.04472396 -0.014799612 0.03395341 -0.02757772 -0.05295188 0.003154897 -0.033667993
-0.00785496 0.021717293 0.023200134 -0.089946404 -0.04519938 -0.09235073 0.019519484 -0.09204723
-0.04126915 0.052279413 0.035992235 -0.0411206 0.0019988015 0.049852904 0.05048909 0.06531104
-0.069850504 0.017784217 -0.0130874375 -0.0070144217 0.0005059634 -0.0182448 -0.07045288 -0.023080528
00000000: 441f d13b 017b 483d 5244 423d 0836 08bc
00000010: 5f64 cd3d 03e0 c63d 8885 3cbd afd1 8b3d
00000020: 4c7e 58bc 83a9 323d 83d6 023c 6dac 3e3d
00000030: bb28 e7bc 8158 6d3d 3708 2b3c 3de4 ae3d
00000040: fbd3 913d bf67 243e 2bc7 7b3d 9bf4 a73c
00000050: 00a9 273d 219e 29bd f440 f1ba 01f3 9c3d
00000060: 6472 933d a540 83bd 9c56 49bd b7ed 793c
00000070: e27d 60bd 9a71 b63c b326 76bd 519d 7c3b
00000080: bb35 993d 5eff fe3d aafc 32bb 41fc 033c
00000090: 2a7b c6b9 cdcb d03d 9648 9c3d 466a 803d
000000a0: 0410 cb3d 54b3 8e3d cb17 c3bc 0176 263d
000000b0: 3f23 143d e1bd 1cbc 8129 a23d 6299 1b3d
000000c0: 4226 9d3d 3147 ebbc 7fbe 163d 0717 323d
000000d0: 0074 e83b 3879 2dbd b641 8b3d fb40 a7bb
000000e0: cc75 a03d 9783 123d d2fd 85bd 7b16 b03c
000000f0: 42eb b43d 4abc 393c c37a 32bd fee2 07bd
00000100: 26c6 803d 0bbd 5d3d 019c ac3c 07fa 5ebc
00000110: dc92 9a3d 9c31 b83d 89a5 8b3d 4e7b 39bd
00000120: 28e4 69bd 08bb 893c 3b8c 1b3d 9e60 6f3c
00000130: 0d81 27bd 1e61 163d 6220 f13c 45cc 223c
00000140: 5f54 47bd 5cb6 6e3d 88b7 b1bc f79e e03d
00000150: e2d5 44bd e886 863d 39af e03d 85b0 1ebd
00000160: a848 743d 12cc 12bd f0db c43c cc6b 603d
00000170: 7068 033c 01db 9d3c c863 b8bc da4c 35bd
00000180: 60f0 d13c 6368 2fbd 4c54 923d 381f 07bd
00000190: 8882 4d3d 2ac7 b1bc 314e 623a 33dc 85bc
000001a0: 3b80 fd3c e559 84bc 1db8 b13d f3ce 38bd
000001b0: aa99 2bbb ea6b 283c 8e01 96bc 0289 343d
000001c0: 6d89 90bd 9d7e 6e3d 4281 85bd e759 fc3c
000001d0: ec3f a53a 07f9 003b 8b9e fdbc 9f59 ec3c
000001e0: 1d09 11bd da79 b23d 4c01 01bd 870a 773c
000001f0: e136 113c 2756 153d 3d88 593d d1f4 353d
00000200: cc29 f53b 8f02 933d 7ac9 943d 332f a6bc
00000210: beeb b83d ea2d 903c 8f53 8d3d a19b af3d
00000220: ddad 8c3d 27ea 323d f1a2 a33d 1847 953c
00000230: 34a7 773d d777 ee3b 21f2 863d e207 07bd
00000240: d725 d33d 9305 cebc 19d6 a43d 45a8 28bd
00000250: de0c c33c 067b 123c dfbf 4c3d 5456 063e
00000260: 91cc 513d 0db1 173d db49 f23d 7a92 cabc
00000270: 1430 f63b 17ed e4bb b24d 1dbc a942 223c
00000280: 44e6 273d a654 273d b4c2 913d 808e 923d
00000290: 794a 523d be23 c83d eacf 83bd 718f bf3d
000002a0: d423 883d dbba 84bb ade5 943d 6e54 7e3d
000002b0: 97b6 9d3d 484a 873d 733a b13c 63a5 323d
000002c0: abeb e0bc c030 e43c afbd dc3c c5dd 0eba
000002d0: a684 71bc 29e6 e1bc e178 c83a 36aa 9b3d
000002e0: 5dde 77bd 1434 a5bc ac94 e73c fc86 d2bc
000002f0: f8ae 6a3d b6c9 9d3d 08d1 2dbd 577d 1d3b
00000300: a040 8abd 19b8 12b9 553a 5f3c 15ba 78bc
00000310: b336 b6bc 36fe 17bc d1a5 803b 6235 aab8
00000320: 60ab 7abd a94f df3c 4b48 ab3b 36c0 68bb
00000330: 0025 84bc 6932 b0bd dd7a 96bd b837 a0bb
00000340: c18e a3bb 6c81 a1bd 9e76 16bd cfc3 7ebd
00000350: 1156 953d a626 90bd 034f ccbd d2c7 203d
00000360: 4284 adbd 585e 903c f3e7 7f3d 4438 6cbd
00000370: a152 cc3c 4db9 1f3d 1284 233d 33f1 533d
00000380: 2904 3f3d 7930 37bd 127a 72bc bb12 0b3d
00000390: acea e1bc 12e4 58bd 63c2 4e3b 73e7 09bd
000003a0: 17b2 00bc 77e8 b13c 350e be3c d235 b8bd
000003b0: fc22 39bd 6122 bdbd 53e7 9f3c 4283 bcbd
000003c0: d709 29bd f022 563d 986c 133d 136e 28bd
000003d0: 53fe 023b 8f32 4c3d a6cd 4e3d cbc1 853d
000003e0: c80d 8fbd 35b0 913c b16c 56bc 3cd9 e5bb
000003f0: a1a2 043a 1e76 95bc 9949 90bd 6013 bdbc

dense_layers.0.weight f4 [64, 200]
0.03065844 0.02294468 -0.023568809 0.071299665 -0.012073488 0.07913897 -0.04702298 -0.00071497733
0.009872281 -0.014616446 0.013535469 0.050056517 0.07232282 -0.033436988 -0.017950188 -0.013017212
-0.0736303 -0.07393212 -0.0018288123 0.026317347 -0.064239696 0.03944181 0.008925728 0.020214874
-0.05135013 -0.0056848354 -0.065196544 0.011271798 -0.02080096 -0.06861931 -0.08230269 0.049083885
0.046650752 -0.08320729 -0.058426265 -0.06558681 -0.032184046 -0.020288004 -0.03407423 -0.081829414
0.08251515 -0.00689342 -0.024828179 0.051425572 -0.03141157 0.07312814 -0.00916927 -0.028712265
0.0028528506 0.06618894 -0.0037585727 0.056283735 -0.030515205 0.008227573 0.048976287 -0.06213262
-0.017787611 -0.044317387 0.07429679 0.037273854 0.03336173 0.08217375 -0.002245897 -0.05417623
0.003320986 0.016454173 -0.0653626 -0.009259309 -0.030060953 0.005548545 0.057346407 -0.077389345
-0.060942527 0.043223336 -0.010702488 0.046521243 0.022807239 -0.0103601925 -0.017439146 0.040547777
0.006812565 -0.077873856 -0.01400246 -0.05528049 -0.0054591214 0.04836833 -0.046619255 -0.06943201
-0.06747682 -0.08787723 0.09682017 0.05337452 -0.062107395 -0.07554312 0.06249792 0.021643827
0.04550427 0.061889026 0.064724594 0.0075870818 -0.0666888 -0.025843147 -0.0035131457 0.037495904
-0.06910783 0.034888767 -0.009682165 -0.022181308 -0.026395084 -0.057690702 -0.055630695 -0.018324522
-0.039358173 0.012199796 0.03600554 -0.06949662 -0.009061133 -0.07218272 -0.04060382 0.04484795
0.06302978 0.012016165 -0.04961556 0.021443093 0.0012935989 0.032906286 0.04340258 0.06418733
-0.01141413 0.0509334 -0.021389777 -0.08307419 0.018366622 -0.026177993 0.019913016 0.0061667296
0.017114097 -0.07436424 0.03883736 -0.024346603 0.0599654 0.043058097 -0.054892387 0.05326637
-0.024579944 0.06849739 0.009832601 0.032568187 -0.05093272 -0.00707713 0.03429278 0.09684059
0.05815883 0.046263855 0.07381325 -0.018755248 0.012844309 -0.060712717 0.012857966 0.032394204
0.0005070381 -0.03167424 0.053048983 -0.088775836 -0.006222248 0.052617785 -0.009769928 0.06555066
0.04295168 0.0018482668 -0.015678516 -0.040578622 -0.10565243 -0.042256653 0.083384916 -0.07853961
0.042480525 0.046839133 0.00091027253 -0.05092689 -0.023721728 -0.07517056 0.004729703 0.061190214
-0.019741155 -0.050572503 0.066183075 0.031404298 0.05953186 -0.05257377 -0.019216696 -0.06356969
0.037902392 0.024115987 0.038897518 -0.0666937 -0.015694289 -0.014407875 0.052816708 -0.043291718
-0.048179638 0.009338723 0.011943978 -0.016121725 -0.0750197 -0.06733232 -0.0031124733 -0.017706735
-0.054460824 -0.043195475 -0.07862719 -0.034735475 0.048500527 0.07188339 0.04401344 -0.02543507
0.0333788 0.16100311 0.06238663 -0.020225564 0.028091967 -0.00032983485 -0.042873807 -0.02953841
-0.064054325 -0.06881331 0.021118525 0.009042017 0.0662455 -0.014072386 0.013196566 -0.084811725
-0.04659219 -0.008191911 -0.012025585 0.026791584 0.07995676 0.033422053 0.05905981 -0.03329993
-0.0049374606 -0.05139392 0.02241289 -0.06660726 0.06753951 -0.05477055 0.09053137 0.02045636
-0.0521247 0.008151944 0.053345323 0.029515442 -0.05281217 -0.060861446 -0.070797816 0.00415987
00000000: 6927 fb3c 7bf6 bb3c 6013 c1bc 8f05 923d
00000010: e1cf 45bc 9d13 a23d 2b9b 40bd 516d 3bba
00000020: 59bf 213c d179 6fbc dfc3 5d3c 1008 4d3d
00000030: fd1d 943d 39f5 08bd 460c 93bc 2546 55bc
00000040: 7ccb 96bd b969 97bd c2b4 efba 7a97 d73c
00000050: 1a90 83bd bc8d 213d 373d 123c aa99 a53c
00000060: 8454 52bd db47 babb c485 85bd 59ad 383c
00000070: c666 aabc 4888 8cbd 508e a8bd 2f0c 493d
00000080: dc14 3f3d 9568 aabd 6150 6fbd 6152 86bd
00000090: 6bd3 03bd 0733 a6bc 6b91 0bbd 2e96 a7bd
000000a0: b4fd a83d 33e2 e1bb 7764 cbbc 9fa3 523d
000000b0: 6ba9 00bd 35c4 953d b53a 16bc fc35 ebbc
000000c0: e4f6 3a3b 118e 873d 6352 76bb c689 663d
000000d0: 06fb f9bc f1cc 063c 5c9b 483d c67e 7ebd
000000e0: 53b7 91bc 2686 35bd ea28 983d 78ac 183d
000000f0: 4fa6 083d b64a a83d e62f 13bb e5e7 5dbd
00000100: e6a4 593b e7ca 863c d4dc 85bd 5bb4 17bc
00000110: 6342 f6bc 92d0 b53b 11e4 6a3d 4e7e 9ebd
00000120: df9e 79bd f40a 313d 7d59 2fbc 0f8d 3e3d
00000130: 3fd6 ba3c ccbd 29bc 8adc 8ebc 6d15 263d
00000140: f03b df3b 547c 9fbd 936a 65bc cc6d 62bd
00000150: 6ee2 b2bb df1d 463d d5f3 3ebd 5f32 8ebd
00000160: 4931 8abd faf8 b3bd a749 c63d 3e9f 5a3d
00000170: 5364 7ebd 5ab6 9abd d2fd 7f3d 654e b13c
00000180: af62 3a3d 597f 7d3d 548e 843d 0e9d f83b
00000190: 2394 88bd 02b5 d3bc ce3c 66bb 4e95 193d
000001a0: 6888 8dbd 86e7 0e3d f2a1 1ebc 93b5 b5bc
000001b0: 813a d8bc 164d 6cbd 03dd 63bd 4f1d 96bc
000001c0: 0936 21bd a7e1 473c 8c7a 133d 3e54 8ebd
000001d0: 2575 14bc 89d4 93bd 3150 26bd 7cb2 373d
000001e0: c215 813d 73df 443c af39 4bbd 6da9 af3c
000001f0: fa8d a93a bec8 063d e7c6 313d a674 833d
00000200: 5502 3bbc 8a9f 503d 9d39 afbc cd22 aabd
00000210: 9975 963c 3b73 d6bc 9f20 a33c 4712 ca3b
00000220: dd32 8c3c 474c 98bd ec13 1f3d 8772 c7bc
00000230: 479e 753d b05d 303d d7d6 60bd d62d 5a3d
00000240: e15b c9bc 5c48 8c3d eb18 213c 3866 053d
00000250: d49e 50bd 45e7 e7bb 9676 0c3d 5c54 c63d
00000260: f437 6e3d 2b7f 3d3d 672b 973d 9ba4 99bc
00000270: f070 523c e6ad 78bd 38aa 523c c9af 043d
00000280: c0ea 043a d9bc 01bd e449 593d 1bd0 b5bd
00000290: 00e4 cbbb bf85 573d 0c12 20bc 6d3f 863d
000002a0: 1aee 2f3d 8b41 f23a 3b70 80bc c535 26bd
000002b0: 4d60 d8bd 5015 2dbd b6c5 aa3d 60d9 a0bd
000002c0: 0f00 2e3d 64da 3f3d 5b9f 6e3a b798 50bd
000002d0: 1254 c2bc 06f3 99bd a0fb 9a3b 97a2 7a3d
000002e0: 34b8 a1bc 1d25 4fbd fe8a 873d cba1 003d
000002f0: aed7 733d 9857 57bd 556c 9dbc d330 82bd
00000300: 8a3f 1b3d e48e c53c 0153 1f3d b596 88bd
00000310: 4f91 80bc 020f 6cbc 5556 583d a852 31bd
00000320: 0358 45bd 7101 193c adb0 433c b511 84bc
00000330: eea3 99bd 87e5 89bd a3fa 4bbb b70d 91bc
00000340: 5012 5fbd bded 30bd 4b07 a1bd c946 0ebd
00000350: 7da8 463d 9937 933d 7047 343d 355d d0bc
00000360: 35b8 083d 00de 243e 1f89 7f3d 15b0 a5bc
00000370: 2021 e63c afed acb9 729c 2fbd 89fa f1bc
00000380: ea2e 83bd feed 8cbd c200 ad3c f824 143c
00000390: b9ab 873d dd8f 66bc 6936 583c c5b1 adbd
000003a0: 74d7 3ebd 5d37 06bc f606 45bc 067a db3c
000003b0: 5fc0 a33d 90e5 083d b3e8 713d 8265 08bd
000003c0: 6cca a1bb 6e82 52bd 3d9b b73c 6369 88bd
000003d0: 2852 8a3d 1657 60bd 8368 b93d 1994 a73c
000003e0: b680 55bd bb8f 053c a080 5a3d 5eca f13c
000003f0: 9351 58bd da49 79bd 72fe 90bd 854f 883b

dense_layers.0.bias f4 [64]
0.05366593 -0.062388245 -0.03975944 -0.016656762 0.019681877 0.017390842 0.007012877 0.02360941
0.036314793 -0.038775597 -0.04776408 0.036345363 0.012766707 0.01962659 -0.04184713 -0.004336703
0.04292182 -0.043323312 0.020920265 0.04669468 -0.061131448 -0.0063531827 0.015416809 -0.05885301
0.027005328 0.049646918 0.023397822 0.026374836 -0.03784661 -0.03973048 -0.033120204 -0.048513416
0.073901035 -0.016536226 0.059707735 0.012570043 -0.0006097701 -0.04105408 -0.058992032 0.04278289
0.060317535 0.044988826 0.006934748 0.029215332 0.051746916 0.057555106 0.051162485 0.056117497
-0.07630534 0.022574065 0.06913532 -0.008204905 0.032041937 0.004162307 -0.01920045 -0.049050365
0.0028281207 0.039075095 0.03892261 -0.04836301 -0.027470175 -0.034051232 -0.053001665 -0.04777387
00000000: ced0 5b3d d18a 7fbd cbda 22bd c373 88bc
00000010: e33b a13c 3d77 8e3c 47cc e53b 8568 c13c
00000020: d2be 143d 29d3 1ebd 45a4 43bd e0de 143d
00000030: 732b 513c f1c7 a03c e567 2bbd e71a 8ebb
00000040: cace 2f3d c973 31bd fa60 ab3c ec42 3f3d
00000050: f864 7abd 5c2e d0bb c996 7c3c db0f 71bd
00000060: 473a dd3c 915a 4b3d caac bf3c 0a10 d83c
00000070: 0c05 1bbd 6ebc 22bd 0da9 07bd 01b6 46bd
00000080: 6d59 973d fb76 87bc 1990 743d 95f2 4d3c
00000090: fbd8 1fba 5328 28bd a1a1 71bd 1d3d 2f3d
000000a0: 850f 773d 3446 383d e23c e33b fe54 ef3c
000000b0: 93f4 533d e7be 6b3d c18f 513d 76db 653d
000000c0: f945 9cbd 3fed b83c d296 8d3d de6d 06bc
000000d0: 683e 033d f663 883b 434a 9dbc 09e9 48bd
000000e0: fe57 393b 350d 203d 516d 1f3d 4b18 46bd
000000f0: 2209 e1bc 4e79 0bbd 4618 59bd 89ae 43bd

dense_layers.2.weight f4 [14, 64]
0.08398303 -0.009837784 -0.18308763 -0.027531007 -0.15142454 0.15300505 0.09748456 0.2099764
0.07307478 0.118909 0.17007925 0.17010477 -0.20016897 0.1448371 0.008728938 0.06814712
-0.1182306 -0.056165926 -0.039125275 -0.08633617 -0.10226643 0.04550958 -0.14171895 -0.25357682
-0.27383968 0.035412584 -0.11548592 0.029761003 0.03060159 0.13173728 -0.2525899 -0.20736852
0.019105995 0.08709827 0.06764059 0.097858295 -0.15411337 -0.15451305 -0.1802341 0.16537029
0.19092526 -0.25326368 -0.11611249 0.22784403 -0.15446667 0.013781782 -0.14516827 -0.15519492
-0.11624853 -0.21930176 0.110467315 0.25078183 0.026529174 0.014437769 0.15314242 0.16216016
-0.086105 -0.043755077 -0.069408245 -0.07250634 -0.13026226 -0.27536568 -0.036867518 -0.16264907
-0.14163889 0.13950159 -0.13922438 0.04355425 0.0957302 0.12445215 0.07933672 0.014078016
-0.15074186 0.04504038 0.020374605 0.07298894 0.13672113 -0.09599278 -0.022664687 -0.09256441
0.10048704 -0.043785296 -0.0028890087 0.069408126 0.025479658 0.026274696 -0.10094492 0.028820982
0.15694843 -0.13379042 0.11182598 0.0069307284 -0.02291664 0.14279838 -0.06832774 -0.104521684
-0.13318062 -0.08590819 0.0123247 -0.0038176342 -0.091764 -0.005728679 -0.115665376 -0.1397692
-0.0048263976 -0.09573321 -0.10785762 0.082952194 -0.03527061 0.1178194 -0.06599415 0.08685973
0.11538343 -0.15121536 -0.041546244 -0.058130696 0.095967084 0.065060146 0.04912977 -0.0070118792
-0.14755924 -0.06020247 0.044262994 -0.00971422 0.10463193 0.04722033 0.124929264 0.051116377
-0.1833895 -0.031046629 0.17878184 -0.05939553 -0.15683676 -0.28766552 -0.10781041 -0.013664024
-0.115116745 -0.08184657 -0.13854825 -0.34973365 -0.06362521 -0.13208422 -0.36969343 0.17622702
0.022281164 -0.0690421 -0.20534553 -0.10157351 0.0073797177 0.1465262 -0.09972172 -0.1034498
0.03246084 -0.055004943 -0.03419899 0.13881914 0.028746173 0.23200294 -0.12077971 -0.3370948
0.057108685 -0.108299635 -0.082451835 -0.03682853 0.1323688 0.26733503 -0.027919263 0.16444123
-0.37268215 0.22849752 -0.2972698 -0.16489165 -0.22790344 -0.19349316 -0.38238007 -0.11500125
0.381935 -0.09766874 0.18526809 -0.12819354 0.17088619 -0.22685823 -0.07030058 -0.14112072
-0.044269543 0.09663142 0.08621295 -0.025792116 -0.096858315 -0.013126375 -0.18980025 0.13677661
-0.13269597 0.028827393 -0.06675893 0.107978456 0.13836582 0.016408006 -0.009260178 0.019439125
0.024092695 -0.011592572 0.14709468 0.018118875 -0.009471543 -0.087895155 -0.10841161 -0.22232005
-0.09614243 0.14136909 -0.009677446 -0.057850428 0.03729835 0.115686305 0.037670154 0.12427917
0.19070885 -0.077715 -0.16933881 -0.13141693 -0.0073351413 -0.021419533 0.14612862 0.1253699
0.19471304 0.20299627 0.17813285 0.32259583 -0.15336289 0.023826772 -0.020916361 -0.11258732
-0.012957956 -0.23016478 0.09068272 0.007094947 -0.3557255 -0.15340027 0.038022127 -0.11707648
0.12853684 -0.21836163 0.04046472 0.2197118 0.25745234 0.22648357 0.22896819 0.10745681
-0.05839184 -0.005957915 0.011836093 0.23583467 0.001522714 0.053698678 -0.12835138 0.2745664
00000000: 4bff ab3d a82e 21bc 537b 3bbe b588 e1bc
00000010: 090f 1bbe 5bad 1c3e fca5 c73d 0e04 573e
00000020: 3ba8 953d 9086 f33d 4129 2e3e f22f 2e3e
00000030: 18f9 4cbe 2d50 143e d203 0f3c b890 8b3d
00000040: e322 f2bd 3e0e 66bd d341 20bd 05d1 b0bd
00000050: 1071 d1bd 4168 3a3d c61e 11be d2d4 81be
00000060: b734 8cbe c90c 113d e283 ecbd 59cd f33c
00000070: 30b0 fa3c 23e6 063e 7753 81be 6a58 54be
00000080: 2d84 9c3c 9460 b23d 2687 8a3d ee69 c83d
00000090: e5cf 1dbe ab38 1ebe 4a8f 38be d456 293e
000000a0: e981 433e c7ab 81be 63cc edbd f24f 693e
000000b0: 832c 1ebe fccc 613c fea6 14be 6beb 1ebe
000000c0: b613 eebd a490 60be b03c e23d 7a66 803e
000000d0: b653 d93c 648c 6c3c 5ed1 1c3e 500d 263e
000000e0: d157 b0bd 8638 33bd e925 8ebd 347e 94bd
000000f0: 7863 05be bbfc 8cbe 6502 17bd 7a8d 26be
00000100: c909 11be 81d9 0e3e d690 0ebe f165 323d
00000110: 320e c43d c5e0 fe3d 4a7b a23d 7ba7 663c
00000120: 135c 1abe 437c 383d a5e8 a63c 3a7b 953d
00000130: a000 0c3e dd97 c4bd 4bab b9bc 6992 bdbd
00000140: 26cc cd3d 3658 33bd 8655 3dbb d925 8e3d
00000150: b7ba d03c 083e d73c 36bc cebd fb19 ec3c
00000160: 17b7 203e 5b00 09be 0505 e53d 2a1b e33b
00000170: adbb bbbc bd39 123e 6aef 8bbd 770f d6bd
00000180: 8060 08be a2f0 afbd 8aed 493c 4631 7abb
00000190: c4ee bbbd a4b7 bbbb f8e1 ecbd a81f 0fbe
000001a0: c226 9ebb c60f c4bd 75e4 dcbd d7e2 a93d
000001b0: ea77 10bd 4c4b f13d f127 87bd 84e3 b13d
000001c0: 264e ec3d 33d8 1abe 652c 2abd 741a 6ebd
000001d0: 648a c43d 413e 853d 4c3c 493d e8c3 e5bb
000001e0: c519 17be dd96 76bd 1d4d 353d 6428 1fbc
000001f0: 4449 d63d 1b6a 413d eada ff3d 685f 513d
00000200: 75ca 3bbe 8055 febc 9612 373e ba48 73bd
00000210: d199 20be e548 93be b4cb dcbd 12df 5fbc
00000220: 54c2 ebbd 2d9f a7bd 98df 0dbe 4a10 b3be
00000230: ef4d 82bd 1641 07be 7548 bdbe db74 343e
00000240: fd86 b63c f265 8dbd 1946 52be c605 d0bd
00000250: 8fd1 f13b f70a 163e e73a ccbd 7ddd d3bd
00000260: a8f5 043d dd4c 61bd 3d14 0cbd 9b26 0e3e
00000270: 187d eb3c 2e92 6d3e 5a5b f7bd b197 acbe
00000280: ccea 693d 33cc ddbd 82dc a8bd 83d9 16bd
00000290: b08b 073e 23e0 883e f0b6 e4bc 4863 283e
000002a0: 32d0 bebe 41fb 693e bf33 98be 5bd9 28be
000002b0: 855f 69be 1223 46be 52c7 c3be c685 ebbd
000002c0: fc8c c33e 8c06 c8bd ebb6 3d3e 2b45 03be
000002d0: cafc 2e3e 864d 68be c0f9 8fbd f381 10be
000002e0: fb53 35bd b2e6 c53d 6a90 b03d fd49 d3bc
000002f0: a75d c6bd 0210 57bc ff5a 42be 2b0f 0c3e
00000300: 74e1 07be 6d27 ec3c e8b8 88bd cf23 dd3d
00000310: c5af 0d3e 156a 863c 00b8 17bc cd3e 9f3c
00000320: 0b5e c53c c5ee 3dbc fd9f 163e 096e 943c
00000330: 882e 1bbc 6002 b4bd e806 debd dea7 63be
00000340: 53e6 c4bd 0fc3 103e 278e 1ebc 92f4 6cbd
00000350: 28c6 183d f1ec ec3d 054c 1a3d 1486 fe3d
00000360: 2e49 433e 0b29 9fbd 2767 2dbe 2992 06be
00000370: a05b f0bb 0478 afbc bea2 153e f860 003e
00000380: db62 473e 41de 4f3e 7568 363e 482b a53e
00000390: 290b 1dbe 5d30 c33c ca58 abbc 2e94 e6bd
000003a0: 9b4d 54bc 51b0 6bbe ddb7 b93d bb7c e83b
000003b0: a721 b6be f614 1dbe 17bd 1b3d cbc5 efbd
000003c0: 299f 033e 319a 5fbe 56be 253d 21fc 603e
000003d0: cbd0 833e 4feb 673e a376 6a3e 5112 dc3d
000003e0: 482c 6fbd 9d3a c3bb 2cec 413c a57e 713e
000003f0: ce95 c73a 25f3 5b3d 8b6e 03be f893 8c3e

dense_layers.2.bias f4 [14]
0.059831794 0.10062948 0.06971309 -0.08293507 -0.074358895 0.037735015 -0.053670876 0.0662573
0.0056690876 -0.05558273 -0.023198089 0.053907573 0.012058909 -0.08217321
00000000: 2f12 753d d416 ce3d bdc5 8e3d ddd9 a9bd
00000010: 7a49 98bd 0890 1a3d fed5 5bbd e8b1 873d
00000020: c1c3 b93b b7aa 63bd eb09 bebc 30ce 5c3d
00000030: bb92 453c 6e4a a8bd
