New_project/modelo_simples13.onnx (onnx, 183092 bytes, 5 tensors)

output_layer.weight f4 [14, 100]
000000 d8 92 3a 3d eb 34 20 3c ed 79 44 3d db 9c 5b bd
       0.045550197 0.009778242 0.04796784 -0.053616386
000010 89 d1 cf 3b 48 29 02 be 84 b1 a7 3d 47 91 76 bc
       0.006342117 -0.1271106 0.08188155 -0.015049285
000020 21 ee 84 bd 0a e4 97 bd 05 54 6a 3c 5c 68 52 be
       -0.06490732 -0.07416542 0.014302258 -0.20547622
000030 25 7c a6 bd 86 b0 0c be e4 54 96 3d 4e a7 9a bd
       -0.081291474 -0.13739213 0.0734041 -0.07551442
000040 7e 9a 80 bd 35 0b b3 3c 17 e9 bb 3a d1 20 1f 3e
       -0.06279467 0.02185593 0.0014336434 0.15539862
000050 bc 4d a2 bc 64 33 d1 bd ab 14 55 be dc 60 e4 3d
       -0.019812457 -0.1021488 -0.20808665 0.11151287
000060 e4 02 9b bd f3 f7 1a bd 78 9c cc 3d a7 bb 21 be
       -0.07568911 -0.03783412 0.099907815 -0.1579424
000070 c2 f0 26 3d 5f d2 73 3d 3f 5e 2c bd 27 c9 86 bc
       0.04075695 0.059526797 -0.042082068 -0.016453339
000080 cf 34 cf 3d 6a d9 69 bc ac 73 24 3e d9 ed ed bd
       0.10117494 -0.014273027 0.1605975 -0.116176315
000090 b2 53 fe bd 2b d8 02 bd f3 57 af 3e 57 08 fe 3c
       -0.12418307 -0.031944435 0.34246787 0.031009836
0000a0 51 64 b2 3d 4c e4 2f 3c de 63 31 3e 52 87 43 bd
       0.0871054 0.010735583 0.17323253 -0.047736473
0000b0 d1 66 93 3d 88 95 3b 3e 5a 29 00 3e 6d 9a 01 3d
       0.07197345 0.1831876 0.12515774 0.031641413
0000c0 7f 65 94 bc 8b f4 a7 3d c1 f6 19 3d 8c fd 38 3e
       -0.018114803 0.0820094 0.03758884 0.1806547
0000d0 ad 22 21 3e f3 17 66 bd 31 e5 e3 3d db d5 03 3e
       0.15735884 -0.056175184 0.11127699 0.12874548
0000e0 35 f6 1f bd 06 55 ff bd ba ef 97 3c b9 2f b2 3d
       -0.03905316 -0.12467389 0.018546928 0.087005086
0000f0 09 f4 b9 bd 4f a3 ca bd a6 71 a5 3d 7c 7e cf bc
       -0.09079749 -0.0989443 0.08078317 -0.025328867
000100 13 19 96 3d 86 fa 5d 3c 04 e4 4c bd 64 a1 df 3c
       0.07329001 0.013548499 -0.05002214 0.027298637
000110 9c 43 04 3e d1 ee 47 bc 89 8d a4 bd 1a f7 aa bb
       0.12916416 -0.012202934 -0.08034808 -0.005217445
000120 22 76 01 3e 74 67 ac 3d 46 98 27 be 26 e0 27 3d
       0.1264272 0.084181696 -0.16366681 0.04098525
000130 69 e6 6d bb 99 8c 71 3d 68 e8 c9 3c c1 8e a3 3d
       -0.0036300665 0.058971975 0.024646953 0.079862125
000140 62 64 b4 bd 52 d8 ba bd c0 38 20 bd 95 90 ec bd
       -0.08808209 -0.09123291 -0.03911662 -0.11551014
000150 a8 cc 01 be a3 0d 50 3d dc 12 91 3c c7 c1 49 bc
       -0.12675726 0.050794255 0.017709188 -0.0123142665
000160 ee d5 41 bc 12 80 40 3e d8 42 56 3e 3e 60 e7 3d
       -0.01183079 0.18798855 0.20923936 0.112976536
000170 1c f1 af 3d ee 61 84 bb 5f 16 7f bc e9 cb a6 bd
       0.0859091 -0.0040399944 -0.0155692985 -0.081443615
000180 c0 d9 be 3c 5d dc 12 3d 58 c0 ed 3d 25 e4 91 bd
       0.02329719 0.035854686 0.11608952 -0.07123593
000190 cf b1 19 3d 55 e9 bd 3d 19 97 01 bd 4d f3 92 3c
       0.037523087 0.0927302 -0.03163824 0.01793828
0001a0 91 3c 08 3e d6 5d 77 bd 97 6f 4a bd 7e 17 cb 3d
       0.13304354 -0.060392223 -0.049422827 0.0991659
0001b0 18 5b 2d 3e c8 9f f0 3d a4 0e 0d 3c 1e fb b3 bb
       0.16929281 0.11749226 0.008609448 -0.005492582
0001c0 d1 fb 6c 3d f9 b5 6a bd 46 ca ae bd 87 ee f6 3d
       0.05785734 -0.05730245 -0.08534674 0.12057214
0001d0 fb b9 06 3d 2c e6 4c bd 69 e9 6e 3d 58 58 60 bd
       0.03289221 -0.050024197 0.058328066 -0.05477175
0001e0 63 13 bd 3d f3 41 2a 3d e2 37 0c bd 9e b7 ac bd
       0.09232213 0.0415668 -0.03423298 -0.0843346
0001f0 3f 9b 0b bb 24 0a f2 3b 82 12 3e 3d b9 ae bc 3d
       -0.002130225 0.0073864628 0.04640437 0.09213013
000200 8d b9 c9 bc 64 91 60 3d 06 db 19 be 86 db 12 3e
       -0.02462461 0.054826155 -0.15024957 0.14341554
000210 2e 98 20 3e 38 d5 8c 3d cd 47 a0 bd 51 90 f9 bd
       0.15683052 0.06876606 -0.07826195 -0.12185729
000220 57 98 46 3d e1 3d 5f bd 00 aa 31 3d 4d 4b b6 3d
       0.048485126 -0.05450237 0.043375015 0.08901081
000230 05 c8 39 3d 47 bc f4 bb bf 71 ab 3d 95 22 91 3c
       0.04535677 -0.0074687335 0.08371305 0.017716685
000240 a0 73 f5 3c 41 6e 5d bd e6 5a b8 3d 38 02 a8 bb
       0.02996236 -0.054060224 0.090017125 -0.0051272176
000250 f8 09 98 3d 84 2b 68 3d 4a 74 03 bc 72 15 aa 3d
       0.074237764 0.056682125 -0.008023331 0.083048716
000260 4d 2d e0 3d ca df a0 bb 96 1d 13 3d da 8c 07 bb
       0.109461404 -0.0049094902 0.035916887 -0.002068332
000270 3e 74 88 bd 9d 4d 44 be 44 1e b1 3d 56 88 07 3e
       -0.066627964 -0.19170232 0.08648351 0.13235602
000280 0a 01 f0 3d f3 fb 9e 3b e8 08 26 3d 3e 5e 1e 3d
       0.11718948 0.004851812 0.040535837 0.038664095
000290 34 fc 0a 3e 70 2d 1f 3e 7c 78 d8 bd 1d db bb bd
       0.1357277 0.15544677 -0.105698556 -0.09172652
0002a0 56 e4 f7 3d ca 96 b3 3d 89 54 d9 3c 4c 82 82 bc
       0.121040985 0.08768995 0.026529567 -0.015931271
0002b0 44 0b 46 3d d3 10 44 bd 32 a2 67 bd 20 76 0b be
       0.048350587 -0.047867607 -0.056551166 -0.1361928
0002c0 9f 45 05 3e 43 e4 5c bd 63 e8 ec bd 06 09 17 bc
       0.1301484 -0.053928625 -0.11567762 -0.00921846
0002d0 4e ce c2 bd e2 76 44 be 68 2a 0c be 2e 58 a0 bd
       -0.09512006 -0.19185975 -0.13688052 -0.07829319
0002e0 6b 91 40 3b 4f 87 00 be 18 97 d6 3d c0 ad 1b bd
       0.002938355 -0.12551616 0.104780376 -0.038007498
0002f0 a0 c9 c9 3d a0 dc c0 bd d3 5d 50 3d f6 ce bf 3d
       0.0985291 -0.09417081 0.050870728 0.093656465
000300 4a 34 33 bd 0f 6d 96 3d db d4 b6 bd 15 b7 1d 3e
       -0.04375104 0.0734502 -0.08927318 0.15401872
000310 ca 26 8b bd 41 96 4e 3d 4f 7a dc bc 6b 95 65 bc
       -0.06794508 0.050436262 -0.02691379 -0.014012675
000320 32 58 99 3d a1 39 82 3d e3 8d b4 3c 27 10 d8 3c
       0.07487525 0.06358648 0.022040313 0.02637489
000330 98 94 e0 3c 0a c0 03 be 06 33 2e bc d5 7a 50 be
       0.027414605 -0.12866226 -0.010632282 -0.20359357
000340 b1 e2 ae 3d 17 fe 0e bd 14 00 98 3d 44 c1 69 3d
       0.08539332 -0.034910288 0.0742189 0.057069078
000350 c1 37 2b be 6b 32 94 3e e9 0f 14 3d 64 b5 0c 3e
       -0.16720487 0.28944716 0.036147986 0.1374107
000360 6c 3a 16 3e f7 11 08 be 78 0a fd 3d ae 52 27 3e
       0.14670724 -0.13288103 0.123555124 0.16340134
000370 47 19 d3 bd 95 46 86 3c a4 b3 08 be 37 01 b5 3c
       -0.10307556 0.016391078 -0.13349777 0.022095306
000380 1e cf 3e 3e 5f a4 4e 3e c8 58 02 be 83 f2 28 bd
       0.18633696 0.2017989 -0.1272918 -0.041246902
000390 38 6f 4f be 8f 67 15 3e 18 9c 17 3e 1f 8e b0 bc
       -0.2025727 0.14590286 0.14805639 -0.021552144
0003a0 57 d2 e3 bd 4d 77 9e bb 58 c0 66 bd ae d6 4a bd
       -0.111241035 -0.004835999 -0.056335777 -0.04952114
0003b0 20 c3 94 bd 10 e7 72 3c 08 09 7d 3e 81 8a 68 bd
       -0.0726378 0.014825597 0.24710476 -0.056772713
0003c0 e7 39 66 be 4a 96 83 3e bf e7 54 be f3 34 9f 3d
       -0.22483025 0.257006 -0.20791529 0.07773771
0003d0 4c 89 4a be 07 48 ca bb 6f c7 99 bc 60 ec 8d 3b
       -0.19778937 -0.006173137 -0.018771855 0.0043311566
0003e0 03 36 31 bc 90 a2 ca bd bd 3e 08 be 76 05 ce 3d
       -0.0108161 -0.098942876 -0.13305183 0.10059635
0003f0 5b 1d a3 bd dd 9d bb bd 2b 95 dd bd f8 ea 4c 3e
       -0.079645835 -0.091609694 -0.10819467 0.20011508

output_layer.bias f4 [14]
000000 3c ec 2a bd 38 cc 2b bd 7d 0d 8f bc 47 46 f0 bd
       -0.041729197 -0.041942805 -0.017462486 -0.11732154
000010 e0 8e 2c 3c 82 67 36 bd fe 7b 4b 3c 52 1e 56 bd
       0.010532111 -0.044532306 0.012419699 -0.05227501
000020 01 b4 03 be b1 0b 66 3d 26 73 5c bd f8 3a f5 3c
       -0.12861635 0.056163494 -0.05382075 0.029935345
000030 1b 1b 7b bc bf a2 9d 3d
       -0.015326287 0.07697057

onnx::LSTM_122 f4 [1, 400, 7]
000000 f1 03 8a 3c a6 b0 92 3b e4 9d 0e 3d fd d6 d4 bd
       0.016847583 0.0044766245 0.034818545 -0.10392568
000010 89 e5 eb bd ce 1d ca 3c e1 06 9c 3c 86 ed 0c 3e
       -0.1151839 0.024672415 0.019046249 0.13762483
000020 ad 23 19 3e 4f 3b 02 be 9c 04 7e 3e 05 04 83 3e
       0.14955015 -0.12717937 0.24806446 0.25589004
000030 67 12 d1 bd 6b 87 16 3e d2 e4 86 3d c1 44 68 3c
       -0.10208588 0.14700095 0.06586613 0.014176548
000040 16 64 da 3d d0 76 07 3e df 20 1b 3e 6d 72 7f bd
       0.10663621 0.13228917 0.15149258 -0.062364984
000050 b7 95 ab 3d ca d5 fe 3d b2 45 b8 b9 56 c9 02 be
       0.08378165 0.12443121 -0.00035147142 -0.12772116
000060 e1 12 a7 bd 43 eb cf bd c6 9d 45 3b 3c 4a 13 3c
       -0.08157898 -0.101522945 0.0030153855 0.008989867
000070 a4 af af 3c 92 4d c8 3d de f6 77 bd dd c1 b1 3d
       0.021446057 0.0978042 -0.060538165 0.086795546
000080 b8 d2 88 3d de 28 9b 3d d7 1d 35 3e b0 57 fe bc
       0.066808164 0.07576154 0.17687164 -0.031047672
000090 d1 ce 48 bd c5 b9 b3 bd df 14 1a be 3f 8d d4 bd
       -0.04902536 -0.08775667 -0.15047024 -0.10378503
0000a0 e9 cd 16 bd 11 cd f0 bd 6a e7 2b bd 62 41 ec bb
       -0.036817465 -0.11757863 -0.04196874 -0.0072099427
0000b0 4c d2 ae bd f7 04 77 bd 35 29 15 be 82 2e 11 bc
       -0.08536205 -0.06030747 -0.145665 -0.008861186
0000c0 29 cb a7 bd 11 7f a7 3d b5 eb 32 3e a3 2c 5a 3d
       -0.081930466 0.08178533 0.17472728 0.053265225
0000d0 16 27 be bb df c7 1d 3d fb 19 e1 bc ba 64 76 3c
       -0.0058029993 0.03852069 -0.027478209 0.0150386635
0000e0 51 5f ee 3d 1c 2c 95 be dc fd a7 3d 82 de 3f 3d
       0.11639274 -0.29135215 0.08202717 0.04684306
0000f0 74 c2 e5 3d da f3 e9 3d d3 85 1e 3d c4 c1 8f 3d
       0.112187296 0.11423464 0.038701843 0.0701938
000100 08 e1 17 be 61 3f ba bd e9 d1 fa bc ec 6d de 39
       -0.14831936 -0.0909412 -0.030617671 0.00042425038
000110 60 5a 84 3c 61 fb f8 bc fd b3 d2 3c 6e 80 19 bd
       0.016156375 -0.030393304 0.02572059 -0.037475996
000120 f1 38 32 bd 7d 22 76 3d 90 f8 f8 3d ec f0 b5 bd
       -0.043511335 0.060091484 0.121567845 -0.08883843
000130 77 73 3c 3d 88 c7 5c 3d 67 3d d7 bd 6e b0 bb bd
       0.046008553 0.053901225 -0.105097584 -0.09164511
000140 f1 fd d8 3c 59 6d 73 bc be 3e 38 bd 71 02 bb bd
       0.026488276 -0.0148576135 -0.04498171 -0.09131325
000150 70 c8 23 3d a5 3e 12 bd 3f 5b 53 bd 7e 68 c7 bd
       0.039986074 -0.035704274 -0.05160069 -0.09736727
000160 96 4b 84 3d 77 12 b5 3d 20 67 77 bd ff d4 a3 bd
       0.064597294 0.088414125 -0.060401082 -0.0799961
000170 ae 55 fc bd a7 cb b7 bd 8c c7 0c bb e2 02 fe bd
       -0.123210296 -0.089743905 -0.0021481244 -0.124028936
000180 78 33 ed bc f9 ac 83 bd 58 c5 be 3d 71 7c 71 3d
       -0.028955206 -0.06429476 0.09314984 0.058956567
000190 29 78 04 bd ca 7f 0a 3e 46 99 de bc 82 6c 38 3c
       -0.032341156 0.1352531 -0.027172696 0.011256339
0001a0 7e 0d c7 3b dd ad da 3c 1e f4 06 be 76 c7 6a bd
       0.0060746064 0.026694233 -0.13179061 -0.057319127
0001b0 08 93 8a 3d d9 e0 35 bc 37 35 84 bc c5 fd e2 bd
       0.06766325 -0.011100971 -0.016138656 -0.11083559
0001c0 f0 4d 85 bd 92 8e 9b 3c 3b a2 4e bd 86 96 65 bd
       -0.06509006 0.018988881 -0.050447684 -0.056051753
0001d0 82 45 74 3d b3 b4 8f 3d f6 dc 5f 3d 5e 5c 38 3c
       0.0596366 0.070168875 0.054654084 0.011252491
0001e0 25 06 34 3d c2 d4 41 bd 8a ef 59 be 5a f3 7c bd
       0.043951172 -0.047322042 -0.21282783 -0.061755516
0001f0 b8 70 d8 bd 1e 6c 1b be 27 11 97 3d 11 7c e5 3b
       -0.105683744 -0.15177962 0.073763184 0.0070033153
000200 c5 a1 00 bd 2a ad d1 bd 0b 16 1e 3d c0 6f 9b 3d
       -0.031404275 -0.102381065 0.03859524 0.07589674
000210 e1 f1 19 3d 3a fb 33 bd 84 a0 5e 3d 66 1b 28 bc
       0.03758419 -0.04394076 0.0543523 -0.010260439
000220 7c 86 a7 3d 36 24 9b bc bd 79 84 3d 75 75 66 3d
       0.08179948 -0.018938165 0.06468532 0.05626436
000230 82 fd 8a 3a 80 99 a0 bd cb 99 35 3d 9d e9 01 be
       0.0010604116 -0.07841778 0.04433612 -0.12686773
000240 3d 94 32 3c 3c de a2 3d df ec ff bd 08 4d aa 3d
       0.010899601 0.07952544 -0.124963515 0.08315474
000250 82 01 8b be 40 f0 c5 bd 31 30 45 3e bd 50 27 3e
       -0.27149588 -0.09664965 0.19256665 0.16339393
000260 4a b1 b5 bb 4d 8b 4d 3e e3 16 2c 3e 31 2d 06 bc
       -0.005544816 0.2007267 0.16805606 -0.008189485
000270 51 22 33 be df 49 cb 3d 52 03 e1 3d 76 db 60 bd
       -0.1749356 0.09926199 0.109869614 -0.054896794
000280 32 11 fa 3d 1d d8 c7 3d 61 f1 75 3d b5 65 68 bd
       0.12210311 0.09758017 0.06004465 -0.05673762
000290 22 b0 2e bd c9 3a 6c bc 0b 05 94 bd 29 5a 46 3d
       -0.042648442 -0.014418312 -0.07227524 0.048425827
0002a0 42 38 11 bd 19 b4 00 3d c5 31 54 bd 14 5b 53 bd
       -0.035454042 0.031421755 -0.051805276 -0.05160053
0002b0 93 bf f7 3c 08 15 b4 bc eb 1c 86 39 f1 c8 2a 3d
       0.030242717 -0.021982685 0.00025580017 0.04169554
0002c0 27 1b 3e 3c 91 8a 89 3d c8 fd 62 3d c6 a4 c3 3d
       0.011603153 0.067158826 0.055417806 0.095529124
0002d0 25 33 81 bd 39 d1 df bc 95 7e ba 3d 3c 5c 40 bd
       -0.06308583 -0.027321445 0.09106175 -0.04696296
0002e0 36 b5 2d 3d 89 85 9c 3d 09 f2 15 3d 15 25 3b bd
       0.042409144 0.07642657 0.036607776 -0.04568966
0002f0 b3 1f 63 3c f9 de 8c 3c 25 43 bb bd 8e 73 97 3b
       0.013862538 0.017196165 -0.09143666 0.0046219295
000300 c0 6d c4 3c bb f0 a0 3d f9 4d e5 bd 21 df 50 3c
       0.023978114 0.07858416 -0.11196513 0.012748511
000310 b4 da 9d 3d c0 62 28 bd 06 d1 a8 bc f2 a9 d2 3c
       0.0770773 -0.0411098 -0.020607483 0.025715802
000320 d4 66 61 bd a8 38 40 bc 5d 01 e0 3d 58 61 65 bb
       -0.055029705 -0.011732258 0.1093776 -0.0035000648
000330 35 11 9d 3d 0c 67 ab 3c 20 48 d6 3c ea b9 07 3e
       0.076692976 0.02092316 0.026157439 0.13254514
000340 72 70 4c 3d 97 95 cc bc 33 ec be 3c 74 6f 13 3e
       0.049911924 -0.024973674 0.023305988 0.14397985
000350 05 e8 c5 bd 21 8f 96 3d 64 5f 8d 3d 78 e1 68 bd
       -0.09663395 0.073515184 0.0690296 -0.05685565
000360 17 08 ba 3d 77 cb 29 3c 6a dc a5 3d 2c d4 03 3e
       0.09083574 0.010363451 0.08098681 0.12873906
000370 60 d0 f1 3d 94 eb 53 3d 9e 04 05 be 33 3d 0d bd
       0.118073225 0.051738337 -0.12990043 -0.034482192
000380 89 12 4b 3d 8e 3f 13 bd a7 3e 67 bd 60 90 7c 3d
       0.049578223 -0.035949282 -0.056456234 0.061661124
000390 5e 5e 0a 3e 4c 02 70 bd ce 36 3b bd 0d 2d 41 3c
       0.1351256 -0.05859594 -0.045706563 0.011790526
0003a0 b9 43 9e bd 11 01 f6 bd b2 da b3 bd 93 9c 2f be
       -0.07727761 -0.12011922 -0.08781947 -0.17149572
0003b0 fa 8c 16 3c 1a e7 ca bd 3c fb 1d bc 79 30 32 be
       0.009188885 -0.099073604 -0.0096424185 -0.17401303
0003c0 5f bf eb bd c0 6b 91 bc d3 31 f4 3c 34 78 1d bd
       -0.115111105 -0.017751575 0.029808914 -0.038444713
0003d0 c6 48 26 3c 09 77 f8 bb 4f 44 22 3e aa 7b 21 3c
       0.0101491865 -0.0075825495 0.1584637 0.009856144
0003e0 68 b8 f7 3d 00 97 e8 3d 5a 7c 35 bd bb c1 c5 bc
       0.120957196 0.11356926 -0.044308044 -0.02414023
0003f0 1c ee 06 3e ac 25 03 be 21 b4 f7 bd 5b 6e e7 3a
       0.13176769 -0.1280734 -0.12094904 0.001765679

onnx::LSTM_123 f4 [1, 400, 100]
000000 56 53 a0 3d 13 7c 03 3e 04 59 0f 3d 55 55 79 3d
       0.07828395 0.128403 0.034997 0.060872395
000010 3a cc 65 bc a9 63 ff bd 85 bd 22 3d 62 c7 73 3d
       -0.014025742 -0.124701805 0.03973152 0.05951632
000020 a5 7a 46 3d f4 c9 51 3d a3 8c a0 bd a5 8c 24 3d
       0.048456807 0.051217988 -0.07839324 0.04017319
000030 26 21 29 3c 47 90 77 bb 5d d2 58 bd a0 33 dd bc
       0.010322845 -0.0037775205 -0.052934993 -0.027002156
000040 4c 5f 80 3c ae dd df 3c 5e bd b4 3c 42 29 36 bd
       0.015670441 0.027327385 0.022062954 -0.04447294
000050 e0 6d ec bb 47 35 5e 3c c8 a1 9a bd e9 20 ec bb
       -0.0072152466 0.013562507 -0.075503886 -0.0072060716
000060 c4 63 f8 bc 4a f6 08 bd ab e2 61 3d 3c 2c f0 bd
       -0.03032101 -0.033438005 0.055147808 -0.11727187
000070 df 7b ad bc 0a d5 a5 3d 5f e2 13 be f1 d8 31 3e
       -0.02117723 0.080972746 -0.14441822 0.17367913
000080 c2 4a 66 bd 8e e0 99 bd 0b cf 34 3d 67 52 d6 bc
       -0.05622364 -0.075135335 0.044142764 -0.02616234
000090 0a 94 54 bd d3 ea 90 bc 39 af 33 bd 2b 6b 51 bd
       -0.051898994 -0.017690098 -0.043868277 -0.051127594
0000a0 be a2 8a bd b0 86 81 3d 7c 37 31 bb 01 06 71 bd
       -0.06769322 0.06324518 -0.0027041128 -0.058843616
0000b0 ee b7 00 3b 6a 99 95 3a da dd 90 b9 27 03 03 3c
       0.001964088 0.0011413519 -0.00027631113 0.007996357
0000c0 59 9f be bc f8 76 a0 bb ed f0 7e 3d d5 78 31 3d
       -0.023269342 -0.0048969947 0.062241483 0.043328125
0000d0 04 d7 09 3d 68 37 d6 3d b8 56 af bd ef 5e 8b 3c
       0.03365232 0.10459787 -0.08561462 0.017013041
0000e0 d2 32 cb bc 42 92 8c bd 78 1b 16 bd 3f 2c 19 bc
       -0.024804506 -0.06863834 -0.03664729 -0.009348928
0000f0 c4 48 d0 3c 5c c9 ca bd 09 26 36 bc 02 19 f6 bd
       0.025425322 -0.099016875 -0.011117467 -0.120164886
000100 8b f2 21 3c de 92 9a bc e4 a7 58 bd 52 1e e9 3d
       0.009884487 -0.01886886 -0.052894488 0.11382736
000110 2e ee 94 bd a7 dd 42 3d aa ab 24 be df b4 f0 3c
       -0.07271992 0.047574665 -0.1608111 0.029383121
000120 4c 8c 65 3d 6c 40 af 3c dc e2 b0 bc fb 38 63 3d
       0.056042 0.021393023 -0.02159255 0.055474263
000130 c3 58 1d bc 95 2e be 3d b7 d2 52 3d 0b 8d eb 38
       -0.009603682 0.092862286 0.051470485 0.000112319445
000140 b8 a9 e3 bd f7 fa d7 3d b3 e3 ac bd cb de 61 3c
       -0.11116356 0.105459146 -0.08441868 0.013786028
000150 bd bc a0 3d 9a 12 db 3c a8 5d 9f 3b 8b 97 85 bd
       0.07848499 0.026742268 0.0048634596 -0.06523045
000160 35 3b 71 3d cc 17 38 3d fb 6a fb 3d 13 46 ab 3d
       0.058894355 0.04494457 0.12276264 0.08362975
000170 d8 e8 01 3e a0 fe cc bd bd e6 03 be 66 f8 da 3d
       0.12686479 -0.10009503 -0.12880988 0.106919095
000180 f9 ce 55 3d 81 5d d0 3c 3a 83 7d 3d 4a d3 63 3c
       0.052199338 0.025435211 0.061892726 0.013905356
000190 de a2 83 3d 99 37 8a bd 3e 3c c2 3a dd 0b d6 3c
       0.06427549 -0.06748886 0.0014818979 0.026128704
0001a0 35 f5 7c 3c 4b f0 ec bc 0a ea e7 3d 81 c0 ce bc
       0.015439321 -0.028923174 0.11323936 -0.025238277
0001b0 35 e2 9b 3d 7b 13 b7 bd 8e d0 12 3c 47 cd 8b 3d
       0.07611505 -0.089392625 0.008960856 0.06826263
0001c0 6d 6f d8 3b 4e ed 20 3e cf b6 0a 3a 5c 8e b0 3d
       0.00660508 0.15715525 0.0005291523 0.08620903
0001d0 f7 fe 86 3c 94 50 81 3c 3f e0 27 3d 97 5d cd bd
       0.016478999 0.015785493 0.040985342 -0.100276165
0001e0 dc 25 01 bc bc 56 91 3d a6 8f 02 3d 53 6a 2a bd
       -0.007882562 0.070966214 0.031875275 -0.041605305
0001f0 54 63 df bc 43 5e 91 3d 41 c9 88 3d c0 a1 1d bc
       -0.027269043 0.07098057 0.06679011 -0.009621084
000200 ba a5 28 bd a6 07 c2 bd bb dc ed bd bf d0 12 3d
       -0.041173674 -0.09474115 -0.116143666 0.035843607
000210 1e 4b a3 3d 22 c1 83 bd 2b 7f 64 3d 79 5f fb bd
       0.07973312 -0.064333215 0.05578534 -0.12274069
000220 76 1b 3d bd 38 eb 3d 3d 9b ae 1a bd e5 b9 04 3e
       -0.046168767 0.0463669 -0.037764173 0.12961538
000230 ad 5a 14 bd 44 8f 80 3d db e2 e0 3b 7f 05 8e bd
       -0.036219288 0.06277326 0.006862981 -0.06934642
000240 95 2d 5d bd 6c 06 cc 3d 6e 16 73 3d 80 43 b3 3a
       -0.05399855 0.099621624 0.059347562 0.0013676733
000250 3d 54 12 bd 59 25 d2 bd f4 79 a3 bd 1f 0a 6d 3c
       -0.035724867 -0.1026103 -0.07982245 0.014467745
000260 97 4d 24 ba 0d b5 d6 bb a5 fb 01 bd 10 f4 40 3d
       -0.00062676653 -0.0065523447 -0.031734128 0.047107756
000270 0f 6d 57 bd d2 9c c0 bd 68 28 51 3d e9 23 30 3a
       -0.05259424 -0.09404911 0.051063925 0.0006719218
000280 cb 3a a6 bc 8c 53 53 3c 0c fc 0c 3d a8 51 d6 3c
       -0.020291707 0.012898337 0.034420058 0.026161984
000290 74 1f 6c 3d e4 25 e4 3d b7 90 a3 3c 5c d1 96 3c
       0.057647184 0.111400396 0.019966466 0.018410377
0002a0 53 fd 79 3c 44 d1 cf bd 65 07 ba 3d a2 43 6e bd
       0.015258151 -0.10147336 0.09083442 -0.05816997
0002b0 ae 45 3b bc 5d 51 e6 bc 5f df d6 3c d3 44 79 3d
       -0.011430187 -0.028114969 0.026229559 0.06085665
0002c0 c4 9a f5 3c 2d b8 cd bd 17 6e a5 bb c6 af 89 bd
       0.029981025 -0.10044894 -0.005048524 -0.06722979
0002d0 6d 3c a5 bc e6 fc 03 be 98 cf 85 3d fb bd 3b bd
       -0.020170415 -0.12889442 0.06533736 -0.045835476
0002e0 a6 45 d5 bc fd 4f 85 bd cc 91 84 bd 68 97 d6 bc
       -0.026034188 -0.06509397 -0.06473121 -0.026195243
0002f0 e3 f7 03 bd 4f 1b 23 3d f3 3a d7 3d 7d ea 27 be
       -0.032218825 0.039820965 0.105092905 -0.16398044
000300 5d 3f db 3c 7f 85 c9 3b 43 9a 5a 3c ed 81 10 3d
       0.026763612 0.006149947 0.013342443 0.035280157
000310 cc 8e 40 3d 76 d5 9d 3c 47 73 fb bd 1b 2e 34 bd
       0.04701118 0.019266825 -0.12277847 -0.043989282
000320 cd bc 2e bc aa 93 25 3a 3c d1 dd bc 12 58 ae bd
       -0.010665131 0.0006316254 -0.02707731 -0.08512892
000330 3f 05 bc 3c 70 9a a1 3b 4a ab 70 bd b4 d2 85 bd
       0.02295172 0.0049317405 -0.058757104 -0.06534329
000340 d3 23 85 bd 17 21 aa bd 77 58 9e 3d 82 a1 11 bd
       -0.065009736 -0.08307093 0.07731717 -0.035554416
000350 f4 f2 89 bd 2d 3e 2b bd ec 63 0d be 91 74 e5 3b
       -0.06735793 -0.041807342 -0.13807648 0.007002421
000360 3b a6 de bd 24 41 e1 bd 35 3d a8 bc 00 f1 da bd
       -0.1087155 -0.10998753 -0.020536998 -0.10690498
000370 75 0c d4 bd bc 8d b1 bd 49 49 99 bc 53 68 1e bd
       -0.103539385 -0.08669612 -0.018711703 -0.03867371
000380 fd ea 9a bd d8 dd 9b bd e1 58 6e 3c 4b 0b 09 3e
       -0.07564352 -0.07610673 0.014547558 0.13383214
000390 c3 f1 75 bd 19 ce 34 3d 13 90 5e 3d fb 1e 51 bd
       -0.060045015 0.044141863 0.05433662 -0.051054936
0003a0 74 3a 9f bd 97 a1 f5 bd fc 00 92 3c 04 66 ef bc
       -0.07774821 -0.119937114 0.017822735 -0.02922345
0003b0 96 11 7a bd 27 a4 46 bd 2f c7 e6 bd 7a 45 06 bd
       -0.061051928 -0.04849639 -0.1126846 -0.0327811
0003c0 42 20 24 bc 37 62 b2 bd b3 69 9c bc b0 2d aa bd
       -0.0100174565 -0.08710139 -0.01909337 -0.083094954
0003d0 c1 53 f1 3b c0 a3 71 bd a5 9c ec 3c f6 e3 0a 3e
       0.0073647206 -0.058994055 0.028883288 0.13563523
0003e0 07 b6 c5 3d 49 4c c4 3c 57 e1 6d bd cc 9b 7e bd
       0.096538596 0.023962157 -0.05807623 -0.0621603
0003f0 92 b6 eb 3b 11 d8 3e bd 74 e6 83 bd 04 f7 a6 bd
       0.007193395 -0.046592776 -0.0644044 -0.08152583

onnx::LSTM_124 f4 [1, 800]
000000 63 f1 5f 3d c9 3d 82 3d 4f cd d8 3d 96 b5 e8 3c
       0.054673564 0.06359441 0.105860345 0.0284069
000010 1b 82 ce 3d 6b cc 25 3d 22 fb 3b 3e 0f 80 9e bb
       0.100834094 0.04047815 0.18357518 -0.004837043
000020 c7 a4 14 3e 14 f9 fa bb 1c d6 ef 3d 02 e3 5b 3b
       0.14515983 -0.007659087 0.1171076 0.0033552055
000030 e4 44 a4 3d cc f8 f3 3d e5 5f 19 bd e9 ed 24 3d
       0.08020952 0.119126886 -0.037444968 0.04026595
000040 50 e6 bf 3d 84 91 05 3e 3f c7 d4 3d 44 06 2e 3d
       0.093701005 0.13043791 0.10389566 0.042486444
000050 a3 80 a2 3c f1 6a 9d 3d 35 4a d0 3d 3e f6 b0 3d
       0.01983673 0.07686413 0.10170404 0.08640717
000060 75 a2 ac bd 58 04 80 3d 78 c4 f5 3d 60 48 dd 3b
       -0.08429424 0.062508285 0.12000364 0.0067530125
000070 f8 ff 8a 3c 98 e6 da bc 38 ab 14 3d f6 30 08 3e
       0.016967759 -0.026721284 0.0362961 0.13299927
000080 9e 62 28 3e d7 00 03 3e a1 f0 2e 3d 1f 06 05 bd
       0.1644387 0.12793289 0.04270995 -0.03247654
000090 98 1d 52 bd e4 8b db 3d 90 7c 0d bc b1 b5 b9 bb
       -0.051297754 0.107200414 -0.008635655 -0.0056674113
0000a0 d1 18 70 3b 5a 29 b7 3d d7 93 e3 3b 81 ab 9c 3d
       0.0036635885 0.08943434 0.006945114 0.07649899
0000b0 14 e3 7f 3d db ca 9c 3d 6b 42 23 bd 90 4c 0b bd
       0.062472418 0.07655879 -0.039858263 -0.034008563
0000c0 d1 0b 29 3a 42 3b c0 3d 9e 8c 38 bd d6 a5 56 3d
       0.0006448599 0.093863025 -0.045055978 0.052404247
0000d0 7b 75 3f 3c 15 76 e8 bc 78 65 d7 3d 9c 4d 27 3e
       0.011685724 -0.028376618 0.105174005 0.163382
0000e0 7e e6 bc 3d 57 a7 29 3e fa 1e 2c bd 54 c7 10 3e
       0.092236504 0.16567741 -0.04202173 0.14138538
0000f0 92 8e 63 bd f8 77 fd 3a eb b3 14 3e ee 86 88 bd
       -0.055555888 0.0019338122 0.14521758 -0.06666361
000100 8c 3b 55 3a 8f 34 be 3d c2 e9 a9 3d 1d c7 a1 3d
       0.00081341784 0.092873685 0.08296539 0.07899306
000110 0b 68 d3 bc e7 d0 d7 bc 6a 9d 50 3d 5d 7d 3d 3c
       -0.025806447 -0.02634473 0.05093137 0.0115655335
000120 e1 13 dc bc 0b 59 dc bc 5f 7c 93 bc 24 a6 15 3d
       -0.026864948 -0.026897928 -0.01800364 0.036535397
000130 12 f9 d0 3d 7a b4 a6 3d a9 65 2b 3e 64 df 85 3d
       0.102037564 0.08139892 0.16737999 0.06536749
000140 33 45 39 3d 31 8d 3c 3e 7f e6 2c 3e 64 15 ff 3d
       0.04523201 0.18413235 0.16884802 0.12455252
000150 43 1b 8e 3c 20 aa 64 3e 2a c8 dd 3d 3c a6 2b bd
       0.017346984 0.22330523 0.10829194 -0.04190658
000160 6b 5d c0 3d d4 55 c9 3d 84 e7 df 3d 7a 23 70 3c
       0.09392818 0.098308235 0.1093283 0.014656896
000170 58 ec de bc 98 e8 48 bd df a9 ca bc 31 d3 11 3e
       -0.027212307 -0.049049944 -0.024739204 0.1424072
000180 89 30 7d bd 2f 9d 69 3d fd a6 ce bc 6c b2 01 3e
       -0.061813865 0.057034668 -0.02522611 0.12665719
000190 5a 9d 05 3e 47 46 07 bd b0 1e 1f 3b 31 93 1f 3d
       0.13048306 -0.033026006 0.0024279766 0.038958732
0001a0 1b 09 85 bb b7 37 33 3d 16 d2 b1 3d fd 07 eb 3d
       -0.0040599233 0.043754306 0.08682649 0.11476133
0001b0 05 44 59 3d 9a e8 1b 3e ed 2d 0d 3e 40 f8 42 3d
       0.053043384 0.15225449 0.1378705 0.04760003
0001c0 3f 65 86 3d 4e a3 cc 3b 93 9d 9f 3d 98 e7 0e 3d
       0.0656228 0.0062450534 0.07793727 0.034888834
0001d0 a5 f5 64 bd 1e 78 8d 3d 5a e0 08 3d e5 7d 93 3d
       -0.055898327 0.06907676 0.033417083 0.07201747
0001e0 00 bd 31 3d df 28 31 3e 45 49 92 3d 50 4f 64 3d
       0.043393135 0.17300747 0.07142881 0.0557397
0001f0 f2 b9 80 bb 66 8f c3 3d 95 57 09 3e cd 01 89 3c
       -0.0039284164 0.095488355 0.13412316 0.016724491
000200 dd 2e ae 3d 2a 47 40 bd 5b 09 b6 3d 73 d0 19 bd
       0.08505032 -0.046942867 0.08888503 -0.03755231
000210 15 ba 05 3e e9 00 20 3d 3e 8d c2 3d 2b 98 25 3b
       0.13059266 0.039063368 0.09499596 0.00252677
000220 99 a1 9f 3c 36 e6 d5 3d e1 a7 11 3e 32 4c 0f 3e
       0.019486235 0.104443 0.14224197 0.1399391
000230 37 cf 7f 3d 0d 8d b2 3d a9 3c c9 3d ea eb 4c bb
       0.062453475 0.087183096 0.09826023 -0.0031268545
000240 09 54 0e 3e 81 1d cd bc 72 f4 e7 3d 5c c1 de bc
       0.13899244 -0.025038483 0.11325921 -0.02719181
000250 7d ff 6f bc 4a 44 7b bb 0b fb e0 3d b7 59 f3 3d
       -0.0146483155 -0.0038340264 0.10985383 0.11882346
000260 3a a9 a4 3d 01 76 94 3d 42 fc 00 3d 1e b6 16 3c
       0.0804009 0.0724907 0.03149057 0.009198694
000270 f0 17 34 bd 8e 24 5d 3d ad 39 9c 3a 13 5b af bc
       -0.04396814 0.05398994 0.0011919044 -0.021405732
000280 8a b5 dc 3d 57 80 20 3e b0 2a 8e 3d 29 84 b3 3c
       0.10776813 0.15673958 0.06941736 0.021913605
000290 d5 65 8e 3c 84 e0 a0 3d 9f 69 17 3e 6e 67 0d 3e
       0.017382542 0.07855323 0.14786385 0.13808987
0002a0 18 29 35 3d a5 72 f9 3c 5a 08 4c 3c 33 d4 fd 3d
       0.044228643 0.030450175 0.012453163 0.123939894
0002b0 2c bc 4f 3d f2 ca ba 3d 67 a9 53 bb 10 8f 8e 3d
       0.050716564 0.0912074 -0.0032297017 0.06960881
0002c0 2b 99 18 bd a4 36 0a bd 9f 08 9c 3d 37 00 43 3d
       -0.037255447 -0.033743516 0.07618832 0.047607627
0002d0 c2 2e ae 3d f5 fc 8c 3d f8 d1 e0 3d d1 18 19 3d
       0.08505012 0.06884185 0.10977548 0.037377182
0002e0 b5 2c db 3d 6a c0 a9 3d c4 8b b1 bb bb 65 d2 3d
       0.107018866 0.08288653 -0.0054182727 0.1027331
0002f0 50 68 02 3b 3d 11 08 3e 69 53 28 3e 5a bc db 3d
       0.00198986 0.13287826 0.16438068 0.107292846
000300 0b 51 04 3e a0 2b d9 bc 2f fb 70 bc b3 ae ae 3c
       0.1292154 -0.02651006 -0.014708324 0.021323537
000310 0c ec ea 3b 8f 76 aa 3d 98 80 d8 3d bc 18 41 bd
       0.0071692523 0.083233945 0.10571402 -0.04714273
000320 ea aa ef 3d 01 b8 9e 3d bd 44 b8 3d 76 83 30 3d
       0.11702521 0.0774994 0.08997486 0.04309412
000330 fb 87 c5 3c 15 e7 63 bc 38 4b 07 bd 27 c0 69 bd
       0.024112692 -0.013910075 -0.03303072 -0.057068016
000340 bb 95 eb 3d 37 7c ea bb 3d 03 30 3d 91 f2 b1 3d
       0.11503168 -0.007155921 0.04297184 0.08688844
000350 c4 6f 28 3c 95 02 9b 3d 00 27 85 ba 8d cb 69 3d
       0.010280553 0.07568852 -0.0010158718 0.057078887
000360 fe 63 8a 3c ab b9 83 3d 5c 4a 0a bd d8 d4 60 3b
       0.016893383 0.06431898 -0.03376232 0.0034306552
000370 c5 8d 61 bc a8 88 1e bd 99 3c b7 3c dc 84 76 3d
       -0.013766711 -0.038704544 0.022367762 0.0601853
000380 35 c7 33 3c 44 ad b2 bd 71 e9 05 3c 8d 22 85 bb
       0.010972788 -0.08724454 0.008173333 -0.0040629567
000390 bd 90 a1 3d 82 c2 84 bc b2 59 e7 3d d3 b7 ff 3a
       0.07888935 -0.01620603 0.11296405 0.001950974
0003a0 b5 e5 06 3e e0 62 64 bd fa 11 3f bd 3e 12 8b 3d
       0.13173564 -0.055758357 -0.046648003 0.06790589
0003b0 48 df 65 bd 8c ea b9 3d 6c 91 a0 bd c9 51 77 3d
       -0.05612114 0.090779394 -0.07840237 0.06038073
0003c0 55 96 e0 bc 90 56 bd 3c d3 05 bd bb f0 17 c0 bd
       -0.027415434 0.023112565 -0.0057685166 -0.09379566
0003d0 de 0c ab 3d 5f 22 39 bd d8 2d 90 bd c3 aa 22 bd
       0.083520636 -0.045198794 -0.07039994 -0.039713632
0003e0 46 8e 94 bd ea 53 c6 bc 97 8c ae 3d c6 51 65 bc
       -0.07253699 -0.024209935 0.08522909 -0.013996547
0003f0 45 57 a1 bc 68 1c ef 3d 0b c8 57 3d 53 4c 81 bc
       -0.019694934 0.1167534 0.05268101 -0.015783465
