New_project/modelo_peso2.pth (torch, 320508 bytes, 8 tensors)

rnn_layer.weight_ih_l0 f4 [512, 7]
0.11503661 0.19178574 0.09035402 0.08440262 0.058441173 -0.14713079 0.15960006 0.1781685
0.13226315 0.033982642 -0.051708892 0.13453884 -0.020340208 0.14062113 -0.07892673 -0.0516919
0.013317758 0.01775221 0.012900777 9.35733e-05 -0.06264072 0.047226034 -0.032507338 -0.016511371
-0.027834943 0.091441356 -0.11423886 0.030805502 -0.014802952 0.12415712 -0.08042276 0.054013427
-0.078963965 0.026950737 -0.06446379 -0.028416801 -0.037088614 -0.04240952 -0.08161724 -0.050426226
-0.073106624 -0.14789864 0.12993485 -0.04894427 0.025977347 0.04445692 0.059597872 -0.15208283
0.027124465 0.09776099 0.05131239 -0.009078718 0.07928214 -0.031571753 0.012870984 0.07492062
0.11906305 0.047068126 -0.019810377 0.020361487 0.08110334 -0.06393441 0.008980515 0.08851018
-0.0024018658 0.05202483 -0.031879757 -0.054336585 -0.05324226 0.029438207 0.052463684 -0.04137876
-0.031661805 -0.072582416 0.04787132 0.11217233 0.015860245 -0.069882244 -0.016559616 -0.04720311
0.052483954 0.03046919 0.015400934 0.04480836 -0.046895515 0.18466789 -0.004687469 0.01082368
-0.016534658 -0.11985606 0.07241295 0.08298756 0.054124914 -0.021807825 0.009472098 0.021178365
-0.14733022 -0.035157148 -0.0103944065 0.026261091 -0.02064728 -0.049887076 -0.069543175 -0.09778432
-0.114108354 -0.14052428 0.029979363 -0.03519778 -0.12538263 -0.14398025 -0.1145888 -0.1460394
0.09330053 -0.04838164 -0.0055080354 -0.078493744 -0.093524106 0.05512442 -0.046196133 -0.100899756
0.050108004 -0.04051121 0.0694982 -0.04970522 -0.13024732 -0.104805134 0.16026838 0.16887853
-0.003533478 -0.0290838 0.100144684 -0.2568043 0.09420464 -0.033309385 0.03795171 0.045310717
-0.044012606 0.08338597 -0.09756163 -0.015727257 0.12049965 0.13080253 0.10056631 0.043177094
0.12338537 -0.10896308 0.19114657 0.02473867 0.12628631 -0.028229713 -0.08397037 0.020188745
-0.14058664 0.007926382 -0.05827853 -0.06398477 -0.044745967 -0.050882064 -0.07635029 0.05003122
0.08461582 0.0073495563 -0.044419684 -0.0057825306 0.0077068275 0.009625545 0.09474454 0.00026146986
0.16966695 -0.0027039617 0.014542253 0.11311077 0.0127609875 -0.15255506 0.14486867 0.0010820057
-0.06402806 -0.008430852 -0.0021118557 0.08047955 0.06318468 -0.035491366 -0.04420145 0.078816354
0.068123095 -0.0010374263 -0.00053150236 -0.24450678 -0.047857627 -0.09247437 -0.030743673 0.0592467
0.038649593 -0.12669586 0.09351271 -0.011627997 -0.052531503 -0.0018871396 0.09011492 0.07545796
0.043440036 0.0387803 -0.022169419 0.1882848 0.07905016 0.053786412 -0.06610307 0.085843675
-0.16133705 0.035165794 -0.035228673 0.042442463 -0.01692907 0.048778057 0.09048809 -0.048520513
0.060120687 0.04362567 -0.037072156 0.08717683 0.08863732 -0.03225689 -0.073638 0.012305879
-0.042451665 0.06032093 -0.10103818 0.038596846 0.059394468 -0.092788145 0.009237892 -0.047483906
-0.08905684 0.06115316 -0.010868076 0.02906207 -0.052243073 -0.021544086 -0.089991845 0.037851427
0.010016057 0.025464552 -0.014058392 0.11033082 -0.05550674 -0.051068727 0.07305444 -0.040768497
-0.040323097 0.051898513 -0.09535076 -0.07454228 -0.0069368724 0.00075205683 -0.0917236 0.04710395
00000000: 5098 eb3d 7b63 443e 870b b93d 48db ac3d
00000010: 0360 6f3d 74a9 16be 336e 233e ce71 363e
00000020: fe6f 073e 6231 0b3d b4cc 53bd 8dc4 093e
00000030: 82a0 a6bc fcfe 0f3e 56a4 a1bd e3ba 53bd
00000040: ba32 5a3c 156d 913c c85d 533c c83c c438
00000050: c749 80bd 1670 413d 6a26 05bd db42 87bc
00000060: 1b06 e4bc 9b45 bb3d 10f6 e9bd d25b fc3c
00000070: 1588 72bc 1746 fe3d b0b4 a4bd 2f3d 5d3d
00000080: dcb7 a1bd cbc7 dc3c 9705 84bd 5aca e8bc
00000090: 3bea 17bd 9bb5 2dbd f126 a7bd bb8b 4ebd
000000a0: edb8 95bd be72 17be a40d 053e c979 48bd
000000b0: 72ce d43c 7618 363d e61c 743d 9abb 1bbe
000000c0: 2034 de3c ea36 c83d f12c 523d e7be 14bc
000000d0: ad5e a23d 6251 01bd d2e0 523c fb6f 993d
000000e0: 54d7 f33d 82ca 403d 5f49 a2bc 22cd a63c
000000f0: 8219 a63d 0bf0 82bd 0323 133c d344 b53d
00000100: 9f68 1dbb fd17 553d 5994 02bd 0a90 5ebd
00000110: 8e14 5abd 6528 f13c 29e4 563d c67c 29bd
00000120: cfaf 01bd 17a6 94bd b814 443d 9bba e53d
00000130: 58ed 813c 6c1e 8fbd 08a8 87bc 0c58 41bd
00000140: 6af9 563d 869a f93c 3354 7c3c f988 373d
00000150: 8315 40bd 9419 3d3e 5799 99bb ce55 313c
00000160: b173 87bc 1877 f5bd 3e4d 943d 62f5 a93d
00000170: 16b2 5d3d 53a6 b2bc dc30 1b3c 407e ad3c
00000180: bcdd 16be f100 10bd 4d4d 2abc 8021 d73c
00000190: 7c24 a9bc 6456 4cbd a76c 8ebd 2543 c8bd
000001a0: a4b1 e9bd 99e5 0fbe 4897 f53c 8c2b 10bd
000001b0: 4e64 00be 8f6f 13be 88ad eabd 5a8b 15be
000001c0: 5914 bf3d d42b 46bd c07c b4bb 54c1 a0bd
000001d0: 9189 bfbd 25ca 613d 2838 3dbd 88a4 cebd
000001e0: 0d3e 4d3d 15ef 25bd 1355 8e3d b397 4bbd
000001f0: 8e5f 05be 13a4 d6bd 651d 243e 7eee 2c3e
00000200: ec91 67bb 2641 eebc a818 cd3d da7b 83be
00000210: 5dee c03d 6c6f 08bd 4173 1b3d bb97 393d
00000220: 9046 34bd 43c6 aa3d 64ce c7bd 73d6 80bc
00000230: 85c8 f63d 19f1 053e b6f5 cd3d 77da 303d
00000240: 78b1 fc3d 0928 dfbd edbb 433e c0a8 ca3c
00000250: 3351 013e 0042 e7bc a8f8 abbd de62 a53c
00000260: f2f5 0fbe a8dd 013c 78b5 6ebd 720a 83bd
00000270: 8c47 37bd b669 50bd 8a5d 9cbd 89ed 4c3d
00000280: 0f4b ad3d 8cd4 f03b 6af1 35bd 627b bdbb
00000290: 8e89 fc3b 76b4 1d3c 6d09 c23d e415 8939
000002a0: 2cbd 2d3e f334 31bb a142 6e3c 9fa6 e73d
000002b0: 7613 513c 6537 1cbe 7458 143e 16d2 8d3a
000002c0: 2521 83bd 8e21 0abc 0f67 0abb 76d2 a43d
000002d0: f866 813d 655f 11bd 940c 35bd 786a a13d
000002e0: 1f84 8b3d 40fa 87ba 8554 0bba fc5f 7abe
000002f0: 5c06 44bd 3463 bdbd 28da fbbc abac 723d
00000300: 094f 1e3d 8fbc 01be 9783 bf3d 5b83 3ebc
00000310: 462b 57bd e659 f7ba 2c8e b83d b489 9a3d
00000320: 2eee 313d 18d8 1e3d a49c b5bc bbcd 403e
00000330: 0de5 a13d 244f 5c3d 0c61 87bd cfce af3d
00000340: 8a35 25be 020a 103d f14b 10bd 26d8 2d3d
00000350: d5ae 8abc 80cb 473d d251 b93d 72bd 46bd
00000360: 1c41 763d d5b0 323d f9d8 17bd c489 b23d
00000370: 7c87 b53d cd1f 04bd 85cf 96bd 999e 493c
00000380: cce1 2dbd 1413 773d 1bed cebd ba17 1e3d
00000390: 9d47 733d b607 bebd 875a 173c 7c7e 42bd
000003a0: 6f63 b6bd bc7b 7a3d 0410 32bc 9413 ee3c
000003b0: d5fc 55bd 397d b0bc a54d b8bd 190a 1b3d
000003c0: 631a 243c 099b d03c 2b55 66bc 20f5 e13d
000003d0: 095b 63bd 712d 51bd 919d 953d defc 26bd
000003e0: d529 25bd 8993 543d 4247 c3bd 9fa9 98bd
000003f0: b44e e3bb ae25 453a 95d9 bbbd 12f0 403d

rnn_layer.weight_hh_l0 f4 [512, 128]
0.10332463 0.018887771 -0.054501247 -0.05711733 -0.035365235 0.0440445 0.04646861 0.040739365
0.12908031 -0.066257924 -0.06684589 0.035765365 -0.024289785 -0.007795298 0.054673817 0.013848948
0.0034831755 0.0324738 -0.013030665 -0.09758805 0.05394315 0.02734726 0.0568895 0.044606414
-0.002548119 0.10546794 0.056850508 -0.009724005 -0.00056078524 -0.0059109847 0.04797404 0.01193077
0.0053037154 0.017477408 0.11054683 -0.08999007 0.012745659 0.11975675 -0.0650591 0.007833114
-0.037263207 -0.031972084 0.11582799 0.13309431 0.09848042 0.006965819 -0.019426726 0.021061467
-0.039253987 0.026008993 0.028624393 0.03099536 0.021197427 0.060832832 -0.036707528 0.03133476
-0.05355027 -0.030379418 -0.06850425 0.06360263 0.045070183 -0.07734685 -0.16302581 -0.110471174
-0.039453547 0.10706284 0.077626936 -0.10075853 0.03144081 -0.13594788 -0.099853195 -0.15951484
-0.07895305 0.00933685 -0.096909426 0.046519727 -0.0448709 0.04789184 -0.0052415784 0.05674141
-0.12284881 -0.0912319 0.032834448 -0.06498685 0.07442021 -0.03586899 0.091359936 -0.07562351
0.071073 -0.037145913 0.0043737334 -0.08704771 -0.0037182206 -0.0933365 0.012542375 0.06208014
-0.0002643736 -0.060810704 -0.04609011 -0.025608359 0.013132899 -0.0032695537 0.04412792 0.0037216323
0.1157567 -0.049399246 0.04796522 0.076116264 -0.0005922206 0.026087604 -0.058656298 -0.019010374
-0.06191736 0.08384001 0.105972916 0.07475955 0.036217704 0.14252473 -0.0014316244 -0.004365306
-0.03990193 0.10899977 0.10325338 0.06847168 -0.0074272733 0.027614329 0.048458967 0.07932938
0.0047148396 0.043312024 -0.11571974 -0.09586147 -0.02133995 -0.030855628 0.016407967 -0.0040203193
-0.0038221283 0.15112607 0.1566835 -0.019002734 0.0070126425 0.06924034 0.058620486 -0.064240724
-0.008305435 -0.058541376 0.057863355 -0.08684457 0.020731615 0.06492322 0.04736518 0.08462181
-0.049913075 0.07067368 -0.009129496 0.03445706 -0.02598912 -0.13687561 -0.12247257 -0.06812665
0.088269815 0.073052675 0.031208586 -0.056715082 0.08431947 -0.02175087 0.08055047 0.03114134
-0.08796258 0.03939689 0.04292611 0.08008611 0.07542475 -0.03699738 0.0020085718 -0.012677085
-0.047952212 0.04142485 0.029830603 0.0382182 -0.022472039 0.07286658 0.016329173 0.046343822
-0.07280082 0.019910151 -0.13581741 0.068022616 -0.11534 -0.08199133 -0.08524838 -0.001289092
-0.08263441 -0.0395694 -0.091964155 0.07080523 -0.067028195 -0.051089533 -0.010861048 -0.050984327
-0.05448061 -0.054407045 0.009432179 0.05816053 -0.0055383854 -0.021876028 0.105715826 0.022491418
-0.12790245 -0.00037066362 -0.105056554 -5.3634576e-05 -0.011593722 -0.049168706 0.04254108 -0.0557742
-0.013018789 -0.04112928 -0.0302934 -0.07878507 -0.14107823 0.14032313 0.10671463 0.043004993
-0.15862508 -0.010158426 -0.15068737 -0.14905769 0.108051494 0.04651239 0.03302711 -0.019720074
0.018804086 -0.060732458 -0.1243166 0.117896624 -0.03521189 -0.06065679 -0.06700619 0.009830383
-0.10330048 -0.07637385 0.059368733 0.018988237 0.046083096 0.07198174 -0.026302949 0.14655395
0.06316846 0.05666909 0.02998086 0.01385922 0.122933805 0.060199387 0.021072548 0.052613635
00000000: dd9b d33d 87ba 9a3c b33c 5fbd ddf3 69bd
00000010: 23db 10bd 0168 343d df55 3e3d 52de 263d
00000020: a12d 043e 3cb2 87bd 7fe6 88bd b47e 123d
00000030: 5ffb c6bc b36f ffbb a7f1 5f3d b3e6 623c
00000040: fd45 643b 3f03 053d 927e 55bc 3edc c7bd
00000050: 7ef3 5c3d 5c07 e03c f704 693d 37b5 363d
00000060: 58fe 26bb 93ff d73d 14dc 683d 6f51 1fbc
00000070: a901 13ba efb0 c1bb 6d80 443d 4779 433c
00000080: caca ad3b c82c 8f3c 6066 e23d b74c b8bd
00000090: 2bd3 503c 0743 f53d b53d 85bd 7656 003c
000000a0: 4ea1 18bd 29f5 02bd 3a37 ed3d e049 083e
000000b0: 1ab0 c93d 8641 e43b cc24 9fbc 1989 ac3c
000000c0: cac8 20bd d010 d53c b47d ea3c fbe9 fd3c
000000d0: 3aa6 ad3c d92b 793d a25a 16bd e158 003d
000000e0: 8757 5bbd 42de f8bc f54b 8cbd 1842 823d
000000f0: 839b 383d 0668 9ebd 3df0 26be b63e e2bd
00000100: 0b9a 21bd c343 db3d dffa 9e3d 7d5a cebd
00000110: 14c8 003d ec35 0bbe d57f ccbd dc57 23be
00000120: 23b2 a1bd 96f9 183c 7378 c6bd 788b 3e3d
00000130: 8dca 37bd 3c2a 443d 8cc1 abbb ae69 683d
00000140: 2898 fbbd cad7 babd 6a7d 063d d317 85bd
00000150: a069 983d 5deb 12bd eb1a bb3d 80e0 9abd
00000160: b98e 913d 5026 18bd 8951 8f3b 1246 b2bd
00000170: 64ad 73bb 3527 bfbd 897e 4d3c bf47 7e3d
00000180: a09b 8ab9 a514 79bd fcc8 3cbd 9fc8 d1bc
00000190: 5f2b 573c 0246 56bb 7abf 343d a1e6 733b
000001a0: d911 ed3d dd56 4abd 2e77 443d d8e2 9b3d
000001b0: 403f 1bba acb5 d53c 9641 70bd a5bb 9bbc
000001c0: 0f9d 7dbd 50b4 ab3d 5408 d93d 891b 993d
000001d0: 0459 143d 01f2 113e 58a5 bbba d70a 8fbb
000001e0: 3570 23bd 453b df3d 8276 d33d e13a 8c3d
000001f0: 7c60 f3bb 7237 e23c e97c 463d 7177 a23d
00000200: f17e 9a3b f367 313d 79fe ecbd 0553 c4bd
00000210: 1ed1 aebc f1c4 fcbc 006a 863c e2bc 83bb
00000220: ac7c 7abb cbc0 1a3e a471 203e 9fab 9bbc
00000230: 4fca e53b e1cd 8d3d 091c 703d a490 83bd
00000240: 8513 08bc 15c9 6fbd 2002 6d3d 91db b1bd
00000250: 59d5 a93c 77f6 843d fe01 423d 334e ad3d
00000260: a771 4cbd 5dbd 903d e293 15bc d922 0d3d
00000270: 23e7 d4bc 1f29 0cbe e6d2 fabd fc85 8bbd
00000280: cec6 b43d a49c 953d 26a9 ff3c 134e 68bd
00000290: b0af ac3d e12e b2bc a5f7 a43d 201c ff3c
000002a0: ba25 b4bd a25e 213d 4ad3 2f3d 3004 a43d
000002b0: 4b78 9a3d 918a 17bd 3ea2 033b 8cb3 4fbc
000002c0: 8a69 44bd 1aad 293d 4f5f f43c b08a 1c3d
000002d0: 4817 b8bc 133b 953d c2c4 853c 05d3 3d3d
000002e0: 9918 95bd 9d1a a33c b813 0bbe 714f 8b3d
000002f0: 6137 ecbd 12eb a7bd b496 aebd c0f6 a8ba
00000300: 3b3c a9bd 8613 22bd b457 bcbd 5502 913d
00000310: 1446 89bd 4243 51bd 89f2 31bc f1d4 50bd
00000320: 0f27 5fbd ecd9 5ebd 6d89 1a3c bc39 6e3d
00000330: 587b b5bb 5b35 b3bc 8a81 d83d ec3f b83c
00000340: dcf8 02be a155 c2b9 e427 d7bd b0f5 60b8
00000350: 98f3 3dbc 2065 49bd 8e3f 2e3d 7d73 64bd
00000360: c24c 55bc 2d77 28bd dd29 f8bc 115a a1bd
00000370: d076 10be deb0 0f3e 338d da3d 0126 303d
00000380: 9d6e 22be 876f 26bc ca4d 1abe 94a2 18be
00000390: 1a4a dd3d c783 3e3d 6f47 073d fe8b a1bc
000003a0: 070b 9a3c 99c2 78bd b499 febd c973 f13d
000003b0: 583a 10bd 4173 78bd 8b3a 89bd 9d0f 213c
000003c0: 348f d3bd e569 9cbd a12c 733d 388d 9b3c
000003d0: a1c1 3c3d 2a6b 933d 4879 d7bc 3d12 163e
000003e0: 775e 813d d91d 683d 6c9a f53c c811 633c
000003f0: b8c4 fb3d a293 763d 56a0 ac3c 6581 573d

rnn_layer.bias_ih_l0 f4 [512]
0.034116138 0.046860058 0.031111812 0.008161912 -0.03416006 0.06661882 0.03886458 0.10885502
-0.089973144 -0.0032025187 0.056013007 -0.0259341 0.12797824 -0.06290538 0.08716631 0.08598946
0.060031567 0.040006097 -0.0070523457 0.019282112 -0.048282158 0.06860631 0.006931042 -0.03644772
0.12373897 0.058490515 0.059532356 0.037166808 0.010632101 -0.0020358386 -0.06846361 -0.081608124
-0.02930761 0.09379399 -0.024549747 0.01508666 -0.016397988 0.06927276 -0.07338014 -0.058435053
0.07646602 -0.033482127 -0.028888742 -0.0067544417 0.012425227 0.049968123 0.05192825 0.10963144
0.097632535 0.06736057 0.020772541 0.021829791 0.081317954 0.08968275 -0.039208088 -0.09598172
-0.018132161 0.19110793 -0.054854218 -0.055486374 0.09292434 -0.050412852 0.050144393 -0.048453197
-0.012142002 -0.024850123 0.110280186 -0.028290976 0.05681924 0.09961111 -0.07994311 0.103614405
-0.011139503 0.009585366 0.11315276 0.017441146 -0.07605511 -0.0077747246 -0.0025014088 0.009746851
-0.04835368 -0.05444634 0.018081458 0.010922521 0.087987065 0.11138112 -0.04324126 -0.004460248
-0.02993758 0.030305319 0.12432423 -0.00924747 0.11187303 -0.05990091 0.066025354 0.039172594
0.004303516 0.08639111 0.063670896 0.03299207 0.0021809114 0.09441108 0.1069714 -0.07412184
-0.0077859983 0.038120974 -0.057636116 0.027638355 0.076062046 -0.030331453 -0.048814006 -0.0032565563
-0.093188815 -0.028866144 0.034739695 0.05350287 0.12516856 0.0052693007 0.0730262 -0.036070943
-0.0069933403 0.08662513 -0.08077659 0.07361841 0.07164218 0.0063771247 0.086667664 0.09987254
-0.09914696 0.03831249 -0.020528944 -0.0382785 -0.039510075 -0.10140274 0.03123817 -0.09218192
0.038027927 -0.055121105 -0.032418683 -0.09526298 -0.1424532 -0.06432426 -0.107844196 -0.022572095
-0.056693446 -0.016766082 -0.009405762 0.06243621 -0.02856989 -0.09461966 -0.016745878 -0.06623413
-0.016676024 0.03505146 -0.10639279 -0.11759057 -0.07799196 0.057939745 -0.044222582 0.055406664
0.06900175 -0.09811324 -0.03605003 0.022647195 -0.05434124 0.06573491 -0.0028679522 -0.0387345
-0.0768924 -0.044107977 0.013464324 0.0036496264 -0.03873062 0.052389976 -0.104438715 -0.027776934
0.0050449707 -0.03343675 -0.03338009 -0.033253692 -0.039679706 0.054571033 -0.0033913346 -0.010891102
-0.009463832 -0.014214758 -0.08059256 0.003047504 0.020708153 -0.0882668 -0.12117362 0.072024904
-0.07101065 -0.08544097 -0.13407217 0.005846647 -0.1398316 0.04273701 0.03970161 0.013136698
-0.024112528 0.0034324843 -0.08225521 -0.08871127 -0.15081929 -0.020602576 -0.14263564 -0.08609417
0.027952727 0.028020702 -0.14600453 0.0026059775 -0.13900204 -0.04411482 -0.103314325 -0.015586882
-0.0049920417 0.01079631 -0.019185083 0.0069667576 0.02362785 -0.068728834 -0.005687999 -0.0913839
-0.03828612 -0.07226276 -0.05778931 -0.075574085 0.10591473 0.05109013 0.00020940659 0.046008755
-0.013485166 -0.07357099 -0.08170609 -0.031984095 -0.006241004 0.0132066095 0.0011961516 -0.13150732
0.034327097 -0.095402695 0.0044457177 -0.10565853 -0.15510054 -0.00046098814 -0.065401666 -0.055674374
0.002426166 0.013062872 -0.062140334 -0.043140538 0.040344 -0.041813217 0.052066788 0.0062646684
00000000: 5dbd 0b3d 55f0 3f3d 33de fe3c 8ab9 053c
00000010: 6beb 0bbd 736f 883d 7730 1f3d 61ef de3d
00000020: d743 b8bd 59e1 51bb e56d 653d c073 d4bc
00000030: ba0c 033e 89d4 80bd 4084 b23d 3e1b b03d
00000040: a9e3 753d 6fdd 233d 5d17 e7bb 85f5 9d3c
00000050: 83c3 45bd 7781 8c3d cb1d e33b 344a 15bd
00000060: db6a fd3d c093 6f3d 33d8 733d 393c 183d
00000070: 4432 2e3c b46b 05bb a636 8cbd 2922 a7bd
00000080: 8316 f0bc 1017 c03d 8d1c c9bc 0a2e 773c
00000090: 1355 86bc e0de 8d3d 5448 96bd 9859 6fbd
000000a0: 379a 9c3d 8e24 09bd 15a8 ecbc 5d54 ddbb
000000b0: 2e93 4b3c 60ab 4c3d b7b2 543d 7386 e03d
000000c0: 91f3 c73d 57f4 893d 2d2b aa3c 64d4 b23c
000000d0: 078a a63d 97ab b73d a998 20bd 1092 c4bd
000000e0: e689 94bc ccb1 433e d1ae 60bd ae45 63bd
000000f0: 1e4f be3d b57d 4ebd 3564 4d3d dc76 46bd
00000100: 3fef 46bc 7c92 cbbc 94da e13d 7ac2 e7bc
00000110: 4bbb 683d e900 cc3d 37b9 a3bd ca33 d43d
00000120: 7682 36bc f00b 1d3c a2bc e73d bce0 8e3c
00000130: c8c2 9bbd 1ec3 febb adee 23bb 42b1 1f3c
00000140: 820e 46bd 2003 5fbd 911f 943c 60f4 323c
00000150: 9032 b43d c91b e43d bf1d 31bd 4627 92bb
00000160: a83f f5bc dc42 f83c b49d fe3d b382 17bc
00000170: b01d e53d a85a 75bd 4d38 873d 7173 203d
00000180: 8204 8d3b d3ed b03d e365 823d b122 073d
00000190: 9fed 0e3b 995a c13d d213 db3d 31cd 97bd
000001a0: b021 ffbb bd24 1c3d d913 6cbd d569 e23c
000001b0: 6bc6 9b3d ab79 f8bc 32f1 47bd f36b 55bb
000001c0: c7d9 bebd b178 ecbc 364b 0e3d d325 5b3d
000001d0: 302c 003e 19aa ac3b c38e 953d 20bf 13bd
000001e0: 6428 e5bb 8468 b13d 326e a5bd 40c5 963d
000001f0: 23b9 923d 33f7 d03b d17e b13d f989 cc3d
00000200: 900d cbbd 8fed 1c3d 512c a8bc ebc9 1cbd
00000210: 51d5 21bd 3dac cfbd 31e7 ff3c e0c9 bcbd
00000220: 2cc3 1b3d abc6 61bd 74c9 04bd 3d19 c3bd
00000230: 40df 11be 70bc 83bd 6bdd dcbd 1de9 b8bc
00000240: 6337 68bd 0659 89bc a01a 1abc 1dbd 7f3d
00000250: 670b eabc f4c7 c1bd a72e 89bc c2a5 87bd
00000260: 289c 88bc 1f92 0f3d 77e4 d9bd 53d3 f0bd
00000270: 40ba 9fbd 3a52 6d3d bd22 35bd 19f2 623d
00000280: ca50 8d3d 98ef c8bd 32a9 13bd 9c86 b93c
00000290: ec94 5ebd 06a0 863d 41f4 3bbb 11a8 1ebd
000002a0: c379 9dbd 91aa 34bd 7899 5c3c 922e 6f3b
000002b0: 00a4 1ebd df96 563d f7e3 d5bd 748c e3bc
000002c0: 4850 a53b f9f4 08bd 90b9 08bd 0635 08bd
000002d0: 3087 22bd e085 5f3d 2741 5ebb 9870 32bc
000002e0: 300e 1bbc 04e5 68bc b60d a5bd a2b8 473b
000002f0: 25a4 a93c 39c5 b4bd e029 f8bd cb81 933d
00000300: 086e 91bd adfb aebd 374a 09be 3b95 bf3b
00000310: 0430 0fbe 010d 2f3d 289e 223d 4e3b 573c
00000320: a387 c5bc 88f3 603b 6b75 a8bd 41ae b5bd
00000330: 5f70 1abe bcc6 a8bc 140f 12be 2452 b0bd
00000340: 1efd e43c ac8b e53c 3682 15be 0cc9 2a3b
00000350: 8d56 0ebe beb1 34bd 7696 d3bd 1f60 7fbc
00000360: 4894 a3bb 02e3 303c 092a 9dbc 6649 e43b
00000370: 318f c13c b4c1 8cbd 6562 babb 7b27 bbbd
00000380: e8d1 1cbd 7ffe 93bd 7cb4 6cbd 96c6 9abd
00000390: d2e9 d83d e243 513d 2794 5b39 ad73 3c3d
000003a0: e3f0 5cbc 63ac 96bd 8655 a7bd c101 03bd
000003b0: 5681 ccbb 8960 583c 30c8 9c3a dba9 06be
000003c0: 929a 0c3d 7d62 c3bd 62ad 913b 8063 d8bd
000003d0: add2 1ebe c8b0 f1b9 4ff1 85bd d00a 64bd
000003e0: 5000 1f3b a805 563c dd86 7ebd 22b4 30bd
000003f0: c03f 253d 5644 2bbd fc43 553d d947 cd3b

rnn_layer.bias_hh_l0 f4 [512]
0.031232156 0.106063105 0.035079792 -0.003284267 -0.069957055 -0.060087632 0.047135822 0.09322978
0.04557324 -0.048065074 -0.0055145384 0.089816 0.13984668 0.07200313 -0.03139918 0.022267263
0.0035408975 0.031417053 0.03055205 0.05321905 0.04805689 0.20698719 0.025089338 -0.07309395
0.023818422 0.10334918 9.2946575e-06 -0.025019987 0.059440337 0.053204473 -0.015161064 0.0650946
0.12283502 0.050598297 -0.021277076 -0.017876657 -0.014047319 -0.01289799 0.038784005 0.021048162
-0.015683925 0.08748971 -0.03214677 0.09489143 0.09126744 -0.10313923 0.05813626 0.022882784
-0.022004817 0.06747384 -0.057334002 -0.028046884 0.024865087 -0.055979945 0.096204735 -0.03786061
0.00031973692 0.043678857 -0.053606104 -0.09999313 0.08727828 -0.04128268 0.07912497 -0.04030633
0.07792556 -0.05915154 0.018893177 0.062895365 0.007650688 0.043167245 0.0034617966 0.036141977
0.06063763 0.10569749 0.055967048 0.05401683 -0.06280507 0.1090413 -0.03954967 0.027202446
-0.062054984 -0.003642778 -0.041212257 -0.00055583194 -0.036804028 0.054751813 -0.010526253 0.019117389
-0.04520709 -0.066151015 -0.027275737 -0.0035015235 0.028394796 0.0027368576 0.049075246 0.040898617
0.0526831 -0.0028753746 0.02421061 -0.03125129 0.050146293 0.05852247 0.15562302 0.0053083017
0.026608333 0.008220031 0.0039686933 -0.030710243 -0.022302324 0.07487285 0.05846402 0.10592697
0.05613141 -0.0145839155 0.06387029 -0.026459789 0.089145415 0.025640488 0.014955247 -0.061975
0.033741754 0.021547204 -0.080046274 0.047640994 0.051571734 0.11386378 0.08122433 0.09447289
-0.0006293836 -0.11256821 -0.08259137 0.03331905 -0.009975269 0.013547391 -0.12932253 -0.04528067
-0.050066605 -0.117043644 0.02930115 -0.026293699 -0.109210774 0.062091973 -0.081447676 -0.0017654032
-0.045395058 -0.014971287 -0.009409465 0.048746392 -0.08853592 -0.025007106 0.043965947 0.009313881
-0.13486497 -0.023052989 -0.11101834 -0.12035756 -0.05962867 -0.056011662 0.03515322 -0.085550934
0.068924874 0.017583994 0.04003899 0.01789333 -0.045233674 -0.060422678 0.038240153 -0.003856754
-0.10528949 -0.109368354 -0.06331681 -0.022489205 0.041624084 0.030714946 -0.105286114 0.038127724
0.045816652 -0.050253768 -0.031888776 0.023328247 0.022498172 -0.07122031 -0.09494692 -0.081410386
-0.08016553 -0.13005328 -0.0512267 -0.038315758 0.054599643 0.0074441787 -0.07843734 -0.0048824707
-0.043108344 -0.07057349 -0.05278671 0.06821539 -0.08929159 0.059653763 -0.09376178 0.020438766
-0.09939458 -0.062175594 -0.12565787 -0.08288106 -0.019053318 -0.014940071 -0.08439194 -0.09187262
0.0018192268 -0.08258325 0.013897203 0.040738594 -0.012231574 -0.07863934 -0.05105579 -0.024028985
-0.0197944 -0.009763477 0.014167477 -0.009160759 -0.012687075 -0.09664035 -0.08125815 0.053655345
-0.114061475 -0.10041463 0.06832547 0.072323196 0.12138866 -0.047042474 0.004400542 -0.06872026
-0.031752978 0.026052415 -0.08623995 -0.12603806 -0.06447443 -0.116817094 -0.12950407 0.0022464297
-0.013600797 -0.03225876 -0.058691993 -0.15428896 -0.06301545 0.06391821 0.036139257 0.0002726168
-0.09007347 -0.036161087 -0.0009122857 -0.056595773 0.024716342 -0.084734626 0.058547247 0.041405026
00000000: 94da ff3c 9d37 d93d d4af 0f3d db3c 57bb
00000010: a545 8fbd 731e 76bd 7e11 413d 41ef be3d
00000020: 01ab 3a3d e2df 44bd 4db3 b4bb 73f1 b73d
00000030: f833 0f3e 6176 933d 6d9c 00bd d669 b63c
00000040: 670e 683b 2baf 003d 4b48 fa3c 38fc 593d
00000050: 4dd7 443d 73f4 533e 2888 cd3c 48b2 95bd
00000060: da1e c33c bca8 d33d 40f0 1b37 b7f6 ccbc
00000070: b677 733d efec 593d 1d66 78bc 5150 853d
00000080: ed90 fb3d 2940 4f3d 434d aebc 1172 92bc
00000090: ba26 66bc 1752 53bc fadb 1e3d 326d ac3c
000000a0: 937b 80bc ce2d b33d 55ac 03bd 7056 c23d
000000b0: 6cea ba3d a93a d3bd 4920 6e3d ad74 bb3c
000000c0: 7243 b4bc ba2f 8a3d 0fd7 6abd 94c2 e5bc
000000d0: deb1 cb3c 3a4b 65bd fd06 c53d ba13 1bbd
000000e0: 5da2 a739 9ae8 323d 1392 5bbd 33c9 ccbd
000000f0: f4be b23d 0718 29bd 460c a23d 4018 25bd
00000100: 7097 9f3d e348 72bd ddc5 9a3c 49cf 803d
00000110: 9fb2 fa3b 23d0 303d 4fdf 623b 9c09 143d
00000120: 2a5f 783d ed77 d83d b43d 653d c040 5d3d
00000130: f29f 80bd 0c51 df3d d6fe 21bd aad7 de3c
00000140: 5e2d 7ebd acbb 6ebb 2fce 28bd 40b5 11ba
00000150: d2bf 16bd 7043 603d 4e76 2cbc 129c 9c3c
00000160: 122b 39bd 2f7a 87bd 5e71 dfbc d179 65bb
00000170: 349c e83c da5c 333b 2003 493d 4f85 273d
00000180: 3cca 573d c870 3cbb 5455 c63c 5a01 00bd
00000190: 3366 4d3d 42b5 6f3d a45b 1f3e 43f1 ad3b
000001a0: b8f9 d93c 4fad 063c d00b 823b 0c94 fbbc
000001b0: 5db3 b6bc f056 993d f877 6f3d 3df0 d83d
000001c0: 0dea 653d 60f1 6ebc 6dce 823d 33c2 d8bc
000001d0: df91 b63d 000c d23c da06 753c 7fd9 7dbd
000001e0: cb34 0a3d c383 b03c 4def a3bd 3423 433d
000001f0: e23c 533d 6a31 e93d f158 a63d 017b c13d
00000200: 38fd 24ba 298a e6bd aa25 a9bd 8e79 083d
00000210: 506f 23bc e0f5 5d3c 206d 04be 3978 39bd
00000220: a412 4dbd 94b4 efbd f708 f03c e265 d7bc
00000230: e6a9 dfbd 2754 7e3d 0ace a6bd 1a65 e7ba
00000240: 2bf0 39bd 214a 75bc 282a 1abc 4caa 473d
00000250: 5252 b5bd b4db ccbc a315 343d 4099 183c
00000260: 0b1a 0abe 9fd9 bcbc 955d e3bd 067e f6bd
00000270: 313d 74bd 7c6c 65bd d3fc 0f3d 5435 afbd
00000280: 7c28 8d3d 4f0c 903c edff 233d 0895 923c
00000290: f246 39bd c57d 77bd b5a1 1c3d 98c1 7cbb
000002a0: 04a2 d7bd 84fc dfbd 3eac 81bd 483b b8bc
000002b0: 047e 2a3d e99d fb3c 3fa0 d7bd d12b 1c3d
000002c0: 3eaa 3b3d e5d6 4dbd ce9d 02bd e11a bf3c
000002d0: 164e b83c f4db 91bd 8873 c2bd 7dba a6bd
000002e0: d32d a4bd b02c 05be 17d3 51bd fcf0 1cbd
000002f0: e0a3 5f3d 4cee f33b c2a3 a0bd 22fd 9fbb
00000300: 6092 30bd d588 90bd e136 58bd 83b4 8b3d
00000310: 82de b6bd 8157 743d 2d06 c0bd 336f a73c
00000320: 638f cbbd d6ab 7ebd 75ac 00be 8cbd a9bd
00000330: b415 9cbc 33c7 74bc aed5 acbd b627 bcbd
00000340: 1f73 ee3a 6821 a9bd 18b1 633c 83dd 263d
00000350: f166 48bc aa0d a1bd e01f 51bd 6fd8 c4bc
00000360: de27 a2bc fef6 1fbc b51e 683c 0217 16bc
00000370: 73dd 4fbc 60eb c5bd ac6a a6bd b5c5 5b3d
00000380: 1099 e9bd 2fa6 cdbd 39ee 8b3d 2f1e 943d
00000390: 9e9a f83d 9caf 40bd 6c32 903b 35bd 8cbd
000003a0: 690f 02bd e06b d53c 929e b0bd 1f10 01be
000003b0: 2c0b 84bd cd3d efbd b79c 04be d638 133b
000003c0: e1d5 5ebc c321 04bd 0467 70bd edfd 1dbe
000003d0: 3f0e 81bd 8de7 823d c206 143d 02ee 8e39
000003e0: 7078 b8bd a61d 14bd 7526 6fba f8d0 67bd
000003f0: ed79 ca3c 5989 adbd 3dcf 6f3d 5198 293d

dense_layers.0.weight f4 [64, 128]
0.073598675 -0.07706233 -0.00508309 0.048001327 0.029575288 -0.0027099017 -0.06333326 0.055317998
-0.036243536 0.09101276 0.038557064 -0.022388587 0.048946016 -0.09709288 -0.0046283836 -0.08681467
0.07032539 0.009004882 -0.00775166 0.047257446 -0.016333526 0.08109269 -0.043030977 0.033771534
0.13148928 -0.037178196 -0.029588213 -0.053922478 -0.12749663 0.030824678 -0.0541732 -0.013740034
-0.0983719 -0.02399239 0.06887282 -0.024064792 0.037051804 0.098390095 -0.078838184 0.003406114
0.06665706 0.041405406 0.053017456 0.006786964 0.017174643 -0.0034977796 -0.10701033 -0.016210448
0.061676793 -0.041028637 0.010473825 0.021099553 0.057320658 -0.0073020286 -0.018628135 0.029470377
-0.040737577 -0.047205225 0.11127882 0.014418964 0.055595495 -0.028982714 0.11601396 0.053390622
-0.06708075 0.07156482 0.08551167 -0.01952477 0.047253847 0.012891954 -0.058798224 0.055358607
0.017560054 -0.032308333 0.15834577 -0.03025041 0.0078003854 0.09147406 0.004731887 -0.03661001
0.03421842 0.01608952 -0.042887285 0.058719873 0.15961118 0.13471407 0.032442477 0.06961576
0.008757854 0.028305277 0.029206917 0.07604712 0.049826995 0.035611387 0.07141658 0.030548427
0.05288933 -0.006927188 0.11893239 0.051222745 0.019904746 -0.11737916 0.01823146 -0.013594183
0.007992619 0.08088263 -0.07216724 -0.055594366 0.06721556 -0.029433575 -0.100733824 -0.08408605
-0.052310478 0.1048558 0.023126693 0.11138184 -0.040198382 -0.013396549 0.0062255412 0.04188298
0.10061299 -0.05782881 0.079804815 -0.10853526 0.002900328 -0.020675039 0.017337603 0.071908325
-0.066144906 -0.11338473 -0.04773644 -0.04069855 0.03607879 0.043595485 0.084128276 -0.026001722
-0.015002571 0.03709338 0.1779713 0.0068662004 0.06649218 0.1219584 0.13525869 0.05949533
-0.06878867 0.12577803 0.09315507 0.053000707 -0.058543067 0.20206466 0.032802653 0.14572313
0.10543639 0.064178176 0.06637255 0.07921556 -0.03469403 -0.05663433 0.0006731879 -0.038399342
0.08553746 -0.07446209 -0.0827965 -0.06011468 -0.084999144 -0.0686664 0.037580844 -0.040342946
-0.1928512 0.00631311 0.091311626 -0.04727943 -0.10718336 -0.061744805 0.13409741 -0.14858642
-0.023002783 -0.08001738 -0.04919419 -0.024281804 -0.01527344 -0.07992365 0.12689017 0.06283648
0.04552327 -0.15524249 0.0038775238 -0.09495359 -0.083697386 -0.06050481 -0.03502451 -0.0263903
-0.086372904 -0.08325536 -0.16168122 -0.040270895 -0.030411512 0.030944927 -0.09099716 0.116865486
-0.032739054 0.0034541434 0.030810285 0.09621836 0.041927084 -0.06192892 0.09323103 -0.05890002
-0.03328316 -0.065789685 -0.07013604 0.00089614815 0.13549347 0.059843354 0.026445197 0.08818444
-0.029281031 0.06888909 0.02463225 -0.05155595 -0.111888446 0.15641418 0.16476199 -0.0358687
-0.09198416 0.077569485 -0.035950486 -0.014779816 -0.042315725 -0.060312454 -0.052813854 0.010540763
-0.108316794 0.1306241 -0.14365007 0.056109086 0.010562642 -0.058656786 -0.07244097 0.035432667
0.035004657 -0.0012985513 0.15211718 -0.11419284 -0.11563226 0.009974049 -0.11206607 0.07690477
0.10624822 -0.07930673 -0.064266704 0.021350713 0.041138496 0.07477465 0.04632716 -0.050720904
00000000: e7ba 963d dbd2 9dbd 0d90 a6bb 0a9d 443d
00000010: e047 f23c 9b98 31bb deb4 81bd 2095 623d
00000020: 1a74 14bd e664 ba3d 03ee 1d3d 4568 b7bc
00000030: 9e7b 483d a2d8 c6bd b2a9 97bb e4cb b1bd
00000040: c206 903d 3689 133c a301 febb 0691 413d
00000050: e3cd 85bc ed13 a63d 4041 30bd 0554 0a3d
00000060: 20a5 063e 2a48 18bd fb62 f2bc d1dd 5cbd
00000070: 7a8e 02be 0984 fc3c b8e4 5dbd e11d 61bc
00000080: 3577 c9bd b08b c4bc 310d 8d3d 8723 c5bc
00000090: a2c3 173d bf80 c93d ea75 a1bd 1c39 5f3b
000000a0: 7f83 883d b798 293d d528 593d 2e65 de3b
000000b0: d6b1 8c3c 013b 65bb 3b28 dbbd c6cb 84bc
000000c0: cea0 7c3d a50d 28bd 689a 2b3c f8d8 ac3c
000000d0: 11c9 6a3d db45 efbb 089a 98bc dc6b f13c
000000e0: 72dc 26bd 445a 41bd 26e6 e33d 853d 6c3c
000000f0: 1ab8 633d 286d edbc ba98 ed3d 20b0 5a3d
00000100: a261 89bd 9490 923d be20 af3d 69f2 9fbc
00000110: 408d 413d c638 533c 68d6 70bd b5bf 623d
00000120: 1ada 8f3c be55 04bd 6525 223e b5cf f7bc
00000130: 609a ff3b c156 bb3d f20d 9b3b 61f4 15bd
00000140: 9d28 0c3d 2bce 833c 94aa 2fbd 4084 703d
00000150: 1d71 233e 7cf2 093e 67e2 043d b592 8e3d
00000160: 1a7d 0f3c 78e0 e73c 5843 ef3c 98be 9b3d
00000170: 6417 4c3d 3fdd 113d db42 923d b240 fa3c
00000180: 7ba2 583d 77fd e2bb d392 f33d f1ce 513d
00000190: 470f a33c 7c64 f0bd 255a 953c 23ba 5ebc
000001a0: 79f3 023c cba5 a53d 6bcc 93bd ebb6 63bd
000001b0: 50a8 893d ae1e f1bc 894d cebd 4f35 acbd
000001c0: 8343 56bd a3be d63d 3174 bd3c 2a1c e43d
000001d0: 0fa7 24bd 337d 5bbc a0ff cb3b 7d8d 2b3d
000001e0: 2f0e ce3d e7dd 6cbd b570 a33d bc47 debd
000001f0: 6e13 3e3b b35e a9bc 9707 8e3c ac44 933d
00000200: fb76 87bd 4136 e8bd 4987 43bd 86b3 26bd
00000210: 5ac7 133d 2e91 323d 724b ac3d 9001 d5bc
00000220: 58cd 75bc 3aef 173d 1c3e 363e ddfd e03b
00000230: 0d2d 883d 53c5 f93d 4181 0a3e 60b1 733d
00000240: 13e1 8cbd f5cb 003e 16c8 be3d 4517 593d
00000250: dbca 6fbd 0aea 4e3e 135c 063d 7238 153e
00000260: 09ef d73d d96f 833d 55ee 873d c43b a23d
00000270: 541b 0ebd 66f9 67bd e078 303a a148 1dbd
00000280: 442e af3d 957f 98bd 3691 a9bd d03a 76bd
00000290: 0814 aebd f8a0 8cbd 5fee 193d a53e 25bd
000002a0: c97a 45be 34de ce3b 9701 bb3d 13a8 41bd
000002b0: f382 dbbd 1fe8 7cbd d550 093e 0a27 18be
000002c0: 5570 bcbc 27e0 a3bd d97f 49bd a2ea c6bc
000002d0: 733d 7abc 03af a3bd 7fef 013e 6ab0 803d
000002e0: 9c76 3a3d e3f7 1ebe 0e1e 7e3b 0777 c2bd
000002f0: 8969 abbd e4d3 77bd dc75 0fbd 7830 d8bc
00000300: 47e4 b0bd c981 aabd c38f 25be 18f3 24bd
00000310: 9021 f9bc 3780 fd3c b85c babd 2c57 ef3d
00000320: 6319 06bd e95e 623b da65 fc3c 220e c53d
00000330: bcbb 2b3d 2ea9 7dbd e9ef be3d 2641 71bd
00000340: ec53 08bd bebc 86bd 7ca3 8fbd 7ceb 6a3a
00000350: cdbe 0a3e 4e1e 753d 99a3 d83c 0b9a b43d
00000360: c6de efbc b915 8d3d 93c9 c93c 552c 53bd
00000370: c525 e5bd 0a2b 203e 5eb7 283e 0feb 12bd
00000380: 3162 bcbd c0dc 9e3d d140 13bd 0b27 72bc
00000390: 4153 2dbd 310a 77bd 5753 58bd 2ab3 2c3c
000003a0: 32d5 ddbd 53c2 053e 0119 13be a4d2 653d
000003b0: ee0e 2d3c 1942 70bd ee5b 94bd d821 113d
000003c0: 0b61 0f3d 2734 aaba 9bc4 1b3e f0dd e9bd
000003d0: 9bd0 ecbd 326a 233c e582 e5bd 4080 9d3d
000003e0: ab98 d93d 916b a2bd 439e 83bd b1e7 ae3c
000003f0: d780 283d 7423 993d 8cc1 3d3d b9c0 4fbd

dense_layers.0.bias f4 [64]
0.09210457 0.008016847 -0.036574163 0.024155555 0.016588058 -0.08669839 0.050918326 -0.03493628
-0.053533945 0.006076073 -0.03994645 -0.032650117 0.014270659 -0.03428006 0.03309571 -0.049437575
-0.018786881 0.0500298 0.015739692 -0.03484583 -0.032798532 -0.089621656 -0.05088862 -0.0677855
0.009915989 -0.09959837 0.021986516 -0.031069145 0.034407653 0.025362696 -0.05986385 -0.049033497
-0.052433915 0.026606157 0.06444048 0.03257874 0.06551097 -0.06460169 0.09962548 0.0857228
0.017164377 -0.07746122 -0.0042182775 0.06863273 -0.01115273 -0.011449392 0.04302295 -0.038362846
-0.06411526 -0.020687154 -0.01689536 0.0030968648 -0.08050745 -0.042126715 -0.0075685615 0.047621354
-0.06529037 -0.009493913 0.0659912 -0.056268852 0.052460644 -0.07276039 0.028669275 -0.022977822
00000000: 52a1 bc3d 1859 033c cace 15bd dfe1 c53c
00000010: aee3 873c ed8e b1bd bc8f 503d 5819 0fbd
00000020: 6946 5bbd cb19 c73b e49e 23bd 21bc 05bd
00000030: 7bcf 693c 4069 0cbd 5e8f 073d 0e7f 4abd
00000040: f2e6 99bc 0cec 4c3d 87f0 803c 80ba 0ebd
00000050: c157 06bd 8f8b b7bd 9670 50bd 20d3 8abd
00000060: ac76 223c 3bfa cbbd 111d b43c b884 febc
00000070: 0aef 0c3d 6ec5 cf3c cc33 75bd 59d7 48bd
00000080: f2c4 56bd 28f5 d93c 5ff9 833d 4971 053d
00000090: 9e2a 863d e44d 84bd 7208 cc3d 6f8f af3d
000000a0: 4f9c 8c3c fda3 9ebd 7a39 8abb 518f 8c3d
000000b0: f1b9 36bc 3b96 3bbc d538 303d 5c22 1dbd
000000c0: dd4e 83bd 1b78 a9bc 2368 8abc c5f4 4a3b
000000d0: 17e1 a4bd 108d 2cbd b201 f8bb 9c0e 433d
000000e0: f5b6 85bd 5b8c 1bbc 6526 873d 2b7a 66bd
000000f0: f9e0 563d 6603 95bd d4db ea3c fc3b bcbc

dense_layers.2.weight f4 [14, 64]
0.004829965 0.14854035 -0.0974633 0.1251504 0.09999412 0.11986227 0.11450025 0.12844849
-0.12315468 0.13392399 0.03974942 -0.07675093 -0.15187068 -0.13720319 0.03253171 -0.09325402
-0.162627 -0.011361213 0.1455383 -0.061660264 -0.0076197847 0.09577314 0.110753015 -0.09099903
-0.05533591 0.17123763 -0.024732932 0.08406806 0.13800402 0.10100952 0.13148119 -0.09776827
-0.067944154 -0.023264604 0.026599148 0.017885895 0.074973255 -0.024413534 -0.10347146 -0.07981112
0.0122986445 0.110102706 0.034446042 0.004375276 0.01956025 -0.09344096 -0.16605963 -0.08085887
-0.05244801 -0.031605776 0.05059623 0.111329995 -0.055328507 0.044862654 0.053183623 -0.114789836
0.1831651 0.028954607 -0.14273247 0.15441833 -0.10255948 0.020836705 0.05952588 0.10030503
0.008667579 8.8359964e-05 0.036263533 -0.014723806 -0.14760001 -0.08894366 0.044850394 0.0013511236
-0.07539652 -0.04810636 0.05860999 -0.1272674 -0.15184756 -0.04786608 -0.017932208 0.053060863
-0.11646964 -0.0010866385 0.015992904 0.08599954 -0.10679213 -0.055019803 -0.008149756 0.06995628
0.069941714 0.035929713 0.065183826 -0.10396339 0.004963489 0.14582679 -0.01805361 0.06790073
-0.035092242 0.11163401 -0.014441808 0.042260278 0.042399056 -0.028937401 -0.097580835 -0.07648829
-0.14018534 -0.0753472 -0.024317358 0.06022228 0.12653156 0.0030128777 -0.15777154 -0.0786164
0.12927425 0.049195908 0.11977679 -0.058178972 0.12650488 0.11294318 -0.007589265 0.13184243
0.11257935 0.029727934 -0.10022047 0.030445356 0.0030158448 0.12407138 -0.0313885 -0.13332865
-0.044062346 -0.06718346 0.13584936 -0.03152553 -0.057156514 -0.22863942 0.15240678 0.060013592
0.115052104 0.00912761 0.26601458 0.004845308 0.06702461 -0.14685434 -0.1926003 0.047242966
0.047256157 0.04084862 -0.093551494 -0.2357804 0.089847535 0.064894974 0.13733542 0.33368167
-0.044493128 -0.03647188 -0.11865764 0.121092424 -0.16226687 -0.25614923 0.048826467 -0.17946777
0.2741049 0.027490498 0.10641557 -0.11880933 -0.13002251 0.24039 0.09678344 0.2023663
0.06428944 0.036572207 -0.0013335897 -0.19284177 -0.08056954 -0.1666877 -0.006559676 0.0072595165
-0.16043243 0.2912068 -0.052437544 0.09355747 -0.12719548 0.085311465 0.09530951 -0.044058386
0.22883493 -0.029403053 -0.28414103 -0.0353172 0.0019733496 0.57726336 0.15172689 -0.12431095
-0.10266662 0.014779614 0.123033 -0.09463007 -0.048424862 0.050256632 -0.12927705 0.066759564
0.029321019 0.12967752 -0.109414846 0.004463931 -0.07928563 0.105458274 -0.11749192 0.0028113364
-0.123866744 -0.119608484 -0.0034041384 0.015239292 -0.032521125 0.1390804 -0.05957323 0.017429342
0.065737896 0.07140154 0.09536504 -0.07713169 0.059326556 0.057352953 0.11973803 0.11614205
-0.08826483 0.12165429 -0.14816073 0.10125897 0.021665366 -0.070296526 -0.09864024 -0.15032461
-0.008101247 0.108901195 -0.110693336 0.12469578 -0.016630366 0.06929091 -0.14994465 0.11446702
0.060042854 -0.10887651 -0.038331557 -0.10537558 0.12848116 -0.051208824 -0.12846352 0.09808431
0.029563053 0.052150823 0.10238008 0.027199531 -0.108879425 -0.028886786 -0.021316787 0.08056917
00000000: af44 9e3b f61a 183e d79a c7bd 6d27 003e
00000010: b8c9 cc3d 5a7a f53d 1b7f ea3d 0088 033e
00000020: 8538 fcbd 5f23 093e 4ad0 223d 972f 9dbd
00000030: fd83 1bbe fe7e 0cbe f83f 053d f7fb bebd
00000040: b187 26be 6224 3abc fe07 153e 798f 7cbd
00000050: 63af f9bb b524 c43d 7ad2 e23d b35d babd
00000060: e8a7 62bd eb58 2f3e b89c cabc e02b ac3d
00000070: ed50 0d3e 14de ce3d 01a3 063e bb3a c8bd
00000080: 4e26 8bbd 6995 bebc 75e6 d93c 7185 923c
00000090: 948b 993d e4fe c7bc d8e8 d3bd 0374 a3bd
000000a0: 4180 493c 877d e13d 4b17 0d3d 7a5e 8f3b
000000b0: d13c a03c f95d bfbd 890b 2abe 5699 a5bd
000000c0: b9d3 56bd 0f75 01bd fe3d 4f3d fb00 e43d
000000d0: 25a0 62bd e7c1 373d 12d7 593d ef16 ebbd
000000e0: a28f 3b3e 3632 ed3c 7628 12be d71f 1e3e
000000f0: b40a d2bd bdb1 aa3c 69d1 733d b96c cd3d
00000100: 7602 0e3c e54d b938 1289 143d 1e3c 71bc
00000110: 7524 17be 1828 b6bd 0cb5 373d 2f18 b13a
00000120: 7e69 9abd 2d0b 45bd 0711 703d 6352 02be
00000130: ed7d 1bbe 390f 44bd 91e6 92bc 5956 593d
00000140: a287 eebd 8a6d 8eba 8d03 833c 8720 b03d
00000150: d5b5 dabd 725c 61bd 8e86 05bc 3d45 8f3d
00000160: 9a3d 8f3d 092b 133d 197f 853d c2ea d4bd
00000170: c3a4 a23b 9e53 153e 2ae5 93bc 8a0f 8b3d
00000180: e2bc 0fbd 5fa0 e43d 559d 6cbc 1d19 2d3d
00000190: a2aa 2d3d 210e edbc 76d8 c7bd e5a5 9cbd
000001a0: bf8c 0fbe a24f 9abd 3235 c7bc a3ab 763d
000001b0: 7d91 013e b373 453b dd8e 21be a301 a1bd
000001c0: 7860 043e a681 493d 894d f53d 134d 6ebd
000001d0: 7f8a 013e c14e e73d 5eaf f8bb b401 073e
000001e0: 0190 e63d ff87 f33c 6440 cdbd 8a68 f93c
000001f0: 7ba5 453b 2319 fe3d 3a91 00bd 4e87 08be
00000200: b87a 34bd 7b97 89bd 181c 0b3e ea20 01bd
00000210: f31c 6abd 7420 6abe 8610 1c3e d0d0 753d
00000220: 70a0 eb3d f98b 153c 1033 883e 64c5 9e3b
00000230: 3344 893d fc60 16be 0339 45be d781 413d
00000240: ac8f 413d e250 273d ed97 bfbd 6b70 71be
00000250: fc01 b83d a8e7 843d a8a1 0c3e 53d8 aa3e
00000260: 6d3e 36bd 8a63 15bd c702 f3bd 4eff f73d
00000270: 4929 26be fe25 83be 43fe 473d 66c6 37be
00000280: 7a57 8c3e c133 e13c 68f0 d93d 4e52 f3bd
00000290: 9f24 05be cc28 763e 6536 c63d 1d39 4f3e
000002a0: 2faa 833d bdcc 153d d8cb aeba 5078 45be
000002b0: a501 a5bd 2eb0 2abe 8df2 d6bb 3de1 ed3b
000002c0: 6648 24be 0f19 953e c0c8 56bd 0f9b bf3d
000002d0: 883f 02be c7b7 ae3d a231 c33d 9176 34bd
000002e0: b453 6a3e acde f0bc ef7a 91be c5a8 10bd
000002f0: 5053 013b 88c7 133f 4b5e 1b3e bd96 febd
00000300: e042 d2bd 3226 723c baf8 fb3d 69cd c1bd
00000310: 2659 46bd e6d9 4d3d 3461 04be 3db9 883d
00000320: a232 f03c 2fca 043e e414 e0bd 2b46 923b
00000330: 8160 a2bd 82fa d73d 9b9f f0bd 663e 383b
00000340: d9ad fdbd 4bf5 f4bd f717 5fbb 39ae 793c
00000350: df34 05bd 186b 0e3e 0f03 74bd fbc7 8e3c
00000360: 97a1 863d f83a 923d bf4e c33d 38f7 9dbd
00000370: 6700 733d eeea 6a3d 3639 f53d e2db ed3d
00000380: 31c4 b4bd e225 f93d 72b7 17be dd60 cf3d
00000390: 917b b13c a0f7 8fbd e503 cabd b2ee 19be
000003a0: 18bb 04bc 9707 df3d 30b3 e2bd 8060 ff3d
000003b0: 683c 88bc 65e8 8d3d 178b 19be af6d ea3d
000003c0: 7fef 753d a6fa debd 8d01 1dbd 27cf d7bd
000003d0: 9190 033e 58c0 51bd f18b 03be 6de0 c83d
000003e0: 372e f23c 1a9c 553d a6ac d13d 8dd1 de3c
000003f0: 2dfc debd fba3 ecbc 8ba0 aebc 7301 a53d

dense_layers.2.bias f4 [14]
0.098406196 -0.049143888 0.0047275964 -0.015008296 -0.009338696 0.0045466973 -0.01180659 -0.000959015
-0.005718548 0.05459711 -0.014334725 0.015041506 0.017563555 0.052920267
00000000: 3089 c93d 1a4b 49bd f4e9 9a3b 5be5 75bc
00000010: 5401 19bc 76fc 943b 6d70 41bc 6866 7bba
00000020: a862 bbbb 38a1 5f3d 32dc 6abc a670 763c
00000030: 72e1 8f3c ecc2 583d
