New_project/modelo_checkpoint.pth (torch, 459448 bytes, 8 tensors)

rnn_layer.weight_ih_l0 f4 [624, 7]
000000 19 46 3c 3d 42 fe bc 3c a3 56 9b 3c b6 ba f5 3c
       0.045965288 0.023070458 0.01896221 0.029996257
000010 74 78 91 3c 9d f4 70 be ec 69 ac bc e4 64 2f 3e
       0.017757632 -0.23530813 -0.021046601 0.1712833
000020 77 3b 9a 3d c1 5c ba 3d 66 86 23 bc 62 4a d1 3d
       0.07530873 0.09099723 -0.009980774 0.102192655
000030 d6 b4 1b 3b dd 53 30 3e a9 cb 43 3d 1c d6 ed 3b
       0.002375891 0.17219491 0.047801647 0.00725819
000040 67 2b 1c 3d cc 7f 2e bd 40 31 ba bb a6 ba 7d bd
       0.03812733 -0.042602345 -0.0056821406 -0.06194558
000050 ac 06 fb 3c 4d 2b 94 bd d2 93 66 3c 75 c4 a1 3d
       0.03064283 -0.072348215 0.014073329 0.07898799
000060 84 99 c3 3c a4 88 44 3c 0c 81 81 bd 7f 0f 91 3d
       0.023876913 0.011995468 -0.06323442 0.07083034
000070 69 48 0c 3c 19 e2 52 3c 6a 18 3b bd 2b 02 80 3d
       0.008562186 0.012871289 -0.04567758 0.062504135
000080 b1 e8 4f 3d 7e 96 f1 bc cb dc 54 bd c3 78 35 3e
       0.05075902 -0.029490706 -0.051968377 0.17721848
000090 a0 6a 8f 3d 00 1c 96 bc 4f 37 ab 3d 0f 26 1d 3e
       0.07002759 -0.018323898 0.08360159 0.1534655
0000a0 ce 74 8e bd 1b a0 da 3d e8 29 93 bd 9e 2e 96 bd
       -0.069558725 0.10675069 -0.07185727 -0.0733311
0000b0 56 01 0e 3d ca 2e a4 3d 06 48 08 bb d4 11 85 bc
       0.034669243 0.08016737 -0.0020794882 -0.016243853
0000c0 a7 e2 28 bd c7 81 a8 3d 3b 9f eb 3d c9 a1 bd 3d
       -0.041231778 0.08227878 0.1150498 0.09259374
0000d0 cd 31 7b 3d b6 56 d9 3d 60 e1 a1 bd a4 0a 82 3d
       0.06132679 0.10612242 -0.07904315 0.06349686
0000e0 59 02 3c bd 2a 60 89 3d fa b7 92 3b 0f 02 b5 bc
       -0.045900676 0.06707795 0.004477498 -0.022095708
0000f0 3a 69 4e 3c c1 62 60 3d 14 d2 8b bc 99 e1 4a bc
       0.01259833 0.05478168 -0.017067946 -0.012382888
000100 6a 5b 4e bd 5f 48 d5 ba 1c a9 b4 bd 8c 60 91 3b
       -0.050380148 -0.0016272179 -0.088213176 0.004436558
000110 f6 19 61 be 31 1e 68 bd fb 6b 26 bb 85 d1 12 bd
       -0.2198256 -0.056669418 -0.0025393951 -0.035844345
000120 ce 26 89 3c 2f 68 d8 3c 2b 4e 26 bd 29 3f fe bd
       0.016742136 0.026416866 -0.04060189 -0.124143906
000130 22 08 fe bc a5 e3 0b bc 5d c6 8c 3c 51 95 0a bd
       -0.031009737 -0.008538161 0.01718443 -0.033833805
000140 7a 75 71 bc af 0c 55 3c 17 9e 0c be 23 8f e0 3c
       -0.014737481 0.013003512 -0.13732181 0.027412003
000150 79 93 90 3d cc a5 08 3e b1 52 d3 3d c8 11 f3 3d
       0.07059378 0.13344496 0.103185065 0.11868626
000160 b4 fa f4 3d bf 1d c7 bc 12 12 a4 bb d5 0a fc 3d
       0.1196188 -0.024306176 -0.005007037 0.123067535
000170 d5 40 cf 3d 54 b3 0e 3e 55 1b 06 3e b6 5c fe 3c
       0.101197876 0.13935596 0.13096364 0.031050067
000180 ab 3f ed bd ad b1 26 3d b1 11 a0 3d 16 ca a7 3d
       -0.11584409 0.04069679 0.07815874 0.08192842
000190 c1 48 c4 bc e3 23 db 3c c6 6d 22 bc d5 f6 89 bd
       -0.023960473 0.02675051 -0.009913867 -0.067365326
0001a0 82 32 76 3d c4 94 90 3d 90 c7 26 bd 0b a6 3a bd
       0.06010676 0.07059625 -0.04071766 -0.045568507
0001b0 97 df cf 3d 35 0b 0c 3d 2f 2e 04 3c 6c ca 10 3e
       0.10150068 0.034190375 0.008067652 0.14139718
0001c0 44 b5 6b bd a0 c5 fe bc 67 b5 65 bd c6 d0 a2 bc
       -0.057545915 -0.031100094 -0.056081202 -0.019874942
0001d0 ed 42 0b bd a1 c8 97 bd 9e e8 6a bd 75 17 a4 3d
       -0.033999372 -0.07411314 -0.057350747 0.080122866
0001e0 af f8 6e bc 7f a6 b3 3d fe 7f 01 3e 6d 9b c7 3d
       -0.014585658 0.08771991 0.12646481 0.09746442
0001f0 50 59 dd bd de e3 7d 3c 43 e3 52 3d da 1a c0 bc
       -0.10808051 0.015496222 0.051486265 -0.023450304
000200 3d 9f 8d bb f6 84 42 bc 8f 14 ce ba 9f f9 cf 3d
       -0.004321961 -0.011872521 -0.001572268 0.10155033
000210 1a 73 3d 3c b6 b5 0d bd 87 65 33 3e de ee ee 3d
       0.011563087 -0.03459712 0.17519198 0.11666654
000220 e3 e0 bb 3d ad 93 a0 3c 26 56 68 be 37 21 4a bd
       0.09173753 0.019601667 -0.22689113 -0.049348082
000230 f8 67 ad 3d 98 74 e4 3d b9 44 73 bc 81 fd 30 3a
       0.08467096 0.11155051 -0.014847928 0.0006751642
000240 64 2b 3d 3d 33 ca f2 bc d8 71 a5 3d ff 2f ac 3d
       0.04618396 -0.029637432 0.080783546 0.08407592
000250 2d 49 94 bc a2 28 5c bd 7f ec fa 3c f3 2a f5 bb
       -0.0181013 -0.053749688 0.030630348 -0.0074819266
000260 d2 58 70 bd ea 51 be 3d b9 b8 b5 3b 6e 27 07 3c
       -0.058678456 0.092929676 0.0055457023 0.008249147
000270 80 a0 af 3d cc 0a ec 3c 67 26 eb 3d 50 58 e0 bd
       0.08575535 0.028813742 0.11481934 -0.10954344
000280 92 cc dd 3d 9b b2 2f 3e a2 1c 23 3e 45 1d 7c 3d
       0.10830034 0.17157976 0.15928891 0.06155135
000290 75 f1 84 3d 66 81 13 3d 28 98 c9 bd 45 0f 03 3e
       0.06491367 0.036012076 -0.098434746 0.12798794
0002a0 41 a8 1d 3d d3 4c b1 3d 45 7b 69 3d b7 5a 17 bc
       0.038490538 0.08657231 0.057002325 -0.009237937
0002b0 a2 ab d2 3d 90 97 ab bd bd 7f d1 3d f4 6e 2b bd
       0.102866426 -0.08378518 0.10229442 -0.04185386
0002c0 50 01 99 3d 63 ab 06 3e 16 8c bd 3d 1d 9a db bc
       0.074709535 0.13151316 0.09255235 -0.026806885
0002d0 1a c6 5a be 51 9d f3 3c d0 59 30 3e 70 05 0a bd
       -0.21364632 0.0297381 0.17221761 -0.03369659
0002e0 50 5d 84 bd 74 04 81 bd 8c f2 a2 3d 40 44 c2 3e
       -0.064631104 -0.062996775 0.079564184 0.37942696
0002f0 4f 7f 1f 3e f6 5f 6a 3c 0c 0e 52 3e 43 16 ea bc
       0.15575908 0.014305105 0.20513171 -0.028575068
000300 ec 02 46 bd b8 32 d3 3c 22 a7 62 be b4 43 a2 bd
       -0.04834263 0.02578102 -0.22134069 -0.079230696
000310 0c d4 a9 bc ab 53 f0 3d 28 1b f7 bc b3 ad fc bb
       -0.020730995 0.117347084 -0.030164316 -0.0077111362
000320 d6 cb 33 3d 6d d2 08 be 40 cb 12 bd c6 03 51 bd
       0.043895565 -0.13361521 -0.035838366 -0.05102899
000330 ae be 77 bd 0b e7 b4 3c 9e f0 81 bd e6 ae 6d bc
       -0.06048458 0.022082826 -0.06344722 -0.014507031
000340 59 7d ab 3c 7b 37 75 ba 5c d4 b3 3d 89 2b d9 3d
       0.020933794 -0.00093542755 0.08780739 0.10604007
000350 ac e2 01 3e 1e 79 9b 3d b7 25 de 3c 24 56 6a bd
       0.12684125 0.07591461 0.027117593 -0.057211056
000360 f6 d4 fe 3d 04 c7 54 bd ae 2f 03 3d ec 79 f8 3b
       0.12442963 -0.05194761 0.032027893 0.0075828936
000370 06 4d 26 3d 2a 78 bf bc 2b bf c2 3c 55 b4 b0 3b
       0.0406008 -0.023372728 0.023772797 0.005392591
000380 90 02 c7 bd 61 12 54 bc 7c 6b 56 bd 11 f1 32 bb
       -0.09717286 -0.012943835 -0.0523486 -0.0027304331
000390 cd 14 15 3d 01 95 86 bd e1 ba b8 bd 36 70 a6 3e
       0.03639679 -0.06571389 -0.09020019 0.32507485
0003a0 8b 53 00 3e a3 03 91 3d 03 93 a8 3d 3f 46 7b 3e
       0.12531869 0.07080772 0.08231165 0.24538516
0003b0 f1 34 c8 bc 2c f7 c8 3e 08 fb 9e 3d 4c 91 42 bd
       -0.024439307 0.39251077 0.07762724 -0.047501847
0003c0 e2 7b 2a 3d 17 1d 9e 3d 18 39 46 bd 7e 11 83 bd
       0.04162205 0.07720392 -0.048394293 -0.06399821
0003d0 4c bd 38 bc 86 07 5e 3c 61 11 94 bd 78 28 a3 3c
       -0.011275601 0.013551598 -0.07229877 0.019916758
0003e0 a6 1b 78 3c f6 4e 30 bb 1f 71 a1 3d d9 f0 06 3d
       0.015143311 -0.0026902533 0.07882904 0.032944534
0003f0 78 c4 e2 bd c0 2e 1d 3b 94 a5 9a 3d 73 40 8e 3d
       -0.1107263 0.0023984164 0.07551113 0.069458865

rnn_layer.weight_hh_l0 f4 [624, 156]
000000 55 d0 8c bd ad fd 40 be dc d7 25 be 97 75 0e be
       -0.06875674 -0.1884677 -0.16195625 -0.13912044
000010 17 f9 ff bd ad 14 03 3e bb 7d 18 be 04 d6 43 3e
       -0.12498682 0.12800856 -0.14891712 0.19124609
000020 ed eb 62 3d a7 d3 f1 3c 8e 1b 16 be 06 89 e8 bd
       0.055400778 0.029519869 -0.14658949 -0.1135426
000030 91 80 4c 3e 2a c4 ac 3c 88 01 10 be e3 dd 1c be
       0.19970919 0.021089632 -0.14063084 -0.15319018
000040 ac 31 14 3e 62 59 f8 3d 6e cc e3 3d 7e 74 a8 bb
       0.14472073 0.121264234 0.11122976 -0.00514084
000050 d1 52 e5 3d ab 3c 6e be 27 04 cb 3d 65 f6 85 3d
       0.111974366 -0.2326533 0.09912901 0.06541137
000060 43 22 33 3e d4 6b 28 3e 36 39 81 bd 21 30 69 be
       0.17493539 0.16447383 -0.0630974 -0.22772266
000070 46 8a f3 bb f8 f9 73 bd c0 af 1d 3e 50 55 0d 3e
       -0.007432255 -0.05956456 0.15399075 0.13802075
000080 72 48 f2 bd 27 22 c8 3d ac 29 43 3e c6 45 29 bd
       -0.11830224 0.09772139 0.19058865 -0.041326307
000090 78 3a 59 be 43 59 14 3c 95 26 d4 3b e4 2f 0f 3e
       -0.2121371 0.009054485 0.006474326 0.13983113
0000a0 45 89 d7 3d b2 ed 7b bc 36 95 07 3e a7 e9 24 3e
       0.10524229 -0.015376495 0.13240513 0.16104756
0000b0 1a f3 36 3e 42 23 69 bd c6 ea 3b 3e 0b e9 f8 bc
       0.17866173 -0.05691839 0.18351278 -0.030384561
0000c0 72 9a 20 bd 4e 20 24 bc 16 c5 3e 3e 6c 26 12 be
       -0.03920979 -0.010017468 0.1862987 -0.1427247
0000d0 fc ce 02 3e e3 2d 0c be 62 f6 9b 3d 9b 00 49 3e
       0.12774271 -0.1368938 0.07615353 0.19629137
0000e0 3a e4 dc 3d 7e 08 e0 bd cd d6 1b 3e 5a 8d 54 3e
       0.10785718 -0.1093912 0.15218659 0.20757046
0000f0 50 66 40 be f5 92 da 3d e9 cf 07 be 24 4b 00 3e
       -0.18789029 0.10672561 -0.13262905 0.12528664
000100 5a ae 03 be 41 3a 6b 3d 78 95 87 3d b0 18 1d bd
       -0.12859479 0.057428602 0.06620306 -0.038353622
000110 55 33 ce 3d f3 09 56 be b0 6a bd bd c8 23 1c bb
       0.100683846 -0.20902233 -0.09248865 -0.0023825038
000120 0e f0 a1 bd da 18 c8 3b f3 b0 ef bd 5e 0c b2 bc
       -0.07907115 0.006106478 -0.11703672 -0.021734413
000130 50 25 8a bd 44 ef 83 bd e7 ba a7 bc f8 ba 95 3d
       -0.06745398 -0.06442121 -0.020474864 0.07311052
000140 8d c2 1a bd c6 b1 70 be ee 34 fe 3c a0 ea b7 3d
       -0.037783194 -0.23505315 0.031031098 0.08980298
000150 4d fd 08 3a c6 66 c8 bc 78 9f 56 be c9 99 27 3e
       0.0005225733 -0.024463069 -0.2095927 0.16367258
000160 72 72 0c 3e 31 2e 0b be 4d 3a 28 3e b7 69 ec bd
       0.13715532 -0.1359184 0.1642849 -0.11543601
000170 7b c0 16 bd f8 17 5c 3d f1 b6 41 3d 2c 86 08 3e
       -0.036804657 0.053733796 0.047293607 0.13332433
000180 84 28 18 be 07 c9 2b be c0 b0 c0 3d ac fe a9 bd
       -0.14859205 -0.16775905 0.094087124 -0.08300528
000190 31 80 10 bd f8 16 1b 3e b9 e2 90 3d f0 12 2e be
       -0.035278503 0.1514548 0.07074494 -0.16999412
0001a0 15 10 25 bd f5 35 13 3e cc 7c 01 3e b5 97 80 be
       -0.04029854 0.14376052 0.12645262 -0.25115743
0001b0 c9 00 ba bd 70 91 55 bd 99 c6 de bc b3 8d 02 be
       -0.09082181 -0.052140653 -0.027194308 -0.12749366
0001c0 cb 16 22 bd 5d ba a5 bd 06 c8 1a 3e 4f 87 4a be
       -0.03957252 -0.080921866 0.15115365 -0.19778179
0001d0 35 2d 6f 3d 2a 3f d4 3d ba 7b 4f bd 8e 92 01 3e
       0.058392722 0.1036361 -0.050655104 0.12653562
0001e0 4a 26 28 3e d4 85 29 3e 5f 24 05 bd ac 4c 55 3e
       0.16420856 0.16554958 -0.03250539 0.20830029
0001f0 e0 6f ce bd ae b9 13 3d 49 bf 9c 3d 26 0e cc 3d
       -0.10079932 0.03606575 0.07653672 0.09963636
000200 fd cc 06 3e 6c c5 a0 bd 7f ed 01 3e ec 37 fc bd
       0.13164134 -0.07850155 0.12688254 -0.12315354
000210 9a ff ec bc 5c 57 43 bd 91 1f 37 be 30 0f fc 3d
       -0.028930474 -0.047690734 -0.17883135 0.12307584
000220 d9 9b 65 bd 60 c7 0a be 5e c9 b1 bd 4a e2 e4 bd
       -0.05605683 -0.13552618 -0.08680986 -0.11175974
000230 d1 30 c6 3c dc 7a 16 3e d1 14 de 3d bc 03 69 be
       0.0241932 0.14695305 0.10843814 -0.22755331
000240 b8 52 c0 3d 7d 3e fd bd 7e b7 6d 3b 53 2a 54 3e
       0.09390777 -0.12365434 0.00362727 0.2071927
000250 f9 2a f4 bd bf ab 2f 3e ee 60 1f be 64 ef f6 3d
       -0.11922259 0.1715536 -0.1556432 0.12057379
000260 91 e5 c7 bd cf 24 32 3e f7 13 29 3e 03 5d 38 be
       -0.09760583 0.17396854 0.16511522 -0.18004231
000270 e6 02 28 3d 2a b8 4f 3d 8b db 5e bd 08 f7 53 bc
       0.04101839 0.050712742 -0.05440859 -0.012937315
000280 2f e6 9a 3c c0 23 40 3d 4b 89 8b 3c 32 dd 52 3e
       0.018908588 0.046909094 0.01703324 0.20592192
000290 4a 83 d4 3a 51 6d 9d 3c f0 ae 37 bd a7 22 4f 3d
       0.0016213444 0.019217165 -0.044844568 0.050570156
0002a0 92 e7 c4 3d bd 70 db 3d 79 cb 06 be 27 ae 12 be
       0.09614481 0.107148625 -0.13163556 -0.14324246
0002b0 fb f8 40 3d b8 02 d6 3d e4 9d 22 bd c0 fc 4c 3d
       0.047112446 0.10449737 -0.039701357 0.05004573
0002c0 f3 7a 05 3b f3 f1 9a 3d 56 83 50 3d 90 99 0b 3d
       0.0020367473 0.075656794 0.0509065 0.034081995
0002d0 31 71 25 3e 30 44 86 3c 21 55 0e bd bc f0 cb bd
       0.1615646 0.016389936 -0.034749154 -0.09958026
0002e0 6e f1 43 3b a3 25 c4 bd 0c b0 c6 3d 94 64 53 bc
       0.0029898542 -0.09577491 0.09701547 -0.012902398
0002f0 52 91 da 3a c4 64 7e 3c 05 d1 b1 bc 4d bd e1 bd
       0.0016675389 0.015526954 -0.021706114 -0.110224344
000300 3b b3 94 bd 42 7e 81 3d 61 eb 3c bd 17 1a 5a bc
       -0.07260748 0.0632291 -0.046122912 -0.013311884
000310 3e c4 97 3d d0 9d a5 bd aa ca 09 3e c3 b8 ff 3c
       0.07410477 -0.08086741 0.13456216 0.031216031
000320 d0 de 14 bc a6 c3 0c 3c f5 5a b7 3d 6e 12 71 3c
       -0.009086326 0.008591568 0.089528956 0.014713867
000330 d4 d3 ec b8 d2 b9 e8 bd 3d 7c 42 bc fd 8c b2 bb
       -0.00011292813 -0.113635674 -0.011870441 -0.005448936
000340 d7 f7 6d 3d d1 7c dd ba 14 67 a2 3d c8 7b e9 3d
       0.058097687 -0.001689816 0.07929817 0.114005625
000350 16 3f 98 3d c1 dd be bd cf fc ab 3d 0f b6 cb 3c
       0.07433908 -0.0931964 0.08397829 0.024867086
000360 df 82 bf bd 49 01 a4 3d 9a 61 30 bd 38 6b 13 3d
       -0.093511336 0.080080576 -0.04306183 0.035990924
000370 2b e5 a1 3d ae 1d 52 3d f7 a2 b7 3c b3 c9 8b bd
       0.079050384 0.051297836 0.022416575 -0.068255804
000380 18 a7 00 3d c3 44 14 bd 92 67 d0 bd 7a 08 1e be
       0.031409353 -0.03619839 -0.101760045 -0.15432921
000390 a7 2a 97 3d ed bc a4 3d 78 eb d7 bd cb 52 64 bd
       0.07381182 0.08043847 -0.10542959 -0.05574302
0003a0 61 f7 31 bd 65 01 14 bd 6f b0 4c bc 7f ab a0 3b
       -0.04344881 -0.036134142 -0.012493237 0.0049032564
0003b0 ba b3 b5 bc fb 4c 06 be c6 b9 fd 3d 43 96 e4 bc
       -0.022180427 -0.13115303 0.12388949 -0.027903682
0003c0 3c 87 ce 3d aa db 32 3d ce 5a 91 3c a8 c7 18 3e
       0.10084388 0.04366652 0.017743494 0.14919913
0003d0 3c fe 98 3d 38 61 45 3c fa 2c ba 3d ce 07 d9 bd
       0.07470366 0.012047105 0.0909061 -0.10597192
0003e0 47 0b 45 3b c3 f8 af bd c1 a8 90 3d 05 db a7 bc
       0.0030066536 -0.085923694 0.07063437 -0.020490179
0003f0 13 37 fe bc bb c1 07 3c 55 8a 8b bd b2 01 d8 bd
       -0.03103212 0.008285935 -0.06813494 -0.10547198

rnn_layer.bias_ih_l0 f4 [624]
000000 8c 1e a1 3d 62 b0 d2 3d ec 59 69 bc 32 6e 81 3c
       0.078671545 0.102875486 -0.01424263 0.015799616
000010 9c 84 c6 3d a7 0d 83 3d c8 ab 12 3d 27 f0 62 3c
       0.09693262 0.06399088 0.035808355 0.013851202
000020 aa d2 57 3d fc 90 13 3e 19 f2 84 3d dc bf 96 3d
       0.05269114 0.14410776 0.06491489 0.07360813
000030 87 39 be b9 56 0c 24 bd ae 60 80 3c 32 45 06 3d
       -0.00036282485 -0.040050827 0.0156711 0.032780834
000040 26 62 79 bc 06 92 de bb ca 66 9e 3c 27 d1 71 3d
       -0.015221154 -0.0067923097 0.019336123 0.059037354
000050 e6 e4 82 3c c9 b0 1d 3d 21 d9 bf bc a9 ca a0 bc
       0.015978288 0.038498674 -0.023418965 -0.019627886
000060 5b 3b 5e bb d7 41 89 3d 0b 00 56 3d 8c 33 f1 3d
       -0.003390989 0.06702011 0.052246135 0.1177741
000070 f7 96 a1 3c 44 64 a8 3d b2 3b 8e 3d f0 ff b8 bc
       0.019725306 0.08222249 0.0694498 -0.022582978
000080 29 11 c3 3c f4 ae 59 3d 96 63 1e 3d 8a 7f af 3d
       0.023811894 0.053145364 0.03866919 0.08569248
000090 67 d8 20 bd a3 79 ae 3d 86 db c1 3d e5 5c 03 bd
       -0.039268877 0.08519294 0.09465699 -0.032071013
0000a0 9f 0e 57 bd 74 9f 39 bd 1e 28 73 bc 95 93 2b 3d
       -0.052504178 -0.045318082 -0.014841108 0.041888792
0000b0 94 1a 34 bd 27 85 6a 3c 4a ba b3 bc 8d e6 01 3e
       -0.04397066 0.014313973 -0.021939415 0.12685604
0000c0 4e 69 da 3c f1 cb ef bc 4f 5b d0 3c 43 4e 51 3c
       0.026661541 -0.029272052 0.025434164 0.012775007
0000d0 8c 6c a1 3c d0 cd 16 3d be d4 a6 3d 29 33 84 3d
       0.01970508 0.03681737 0.08146046 0.064550705
0000e0 ec 36 11 3e 61 33 70 3d 74 4e 01 bd 22 76 2e 3d
       0.14181107 0.05864275 -0.03156896 0.04259313
0000f0 08 44 fb ba d7 5f 12 bc 0d 5f a1 3d de 6b 3c bc
       -0.0019170055 -0.008933983 0.078794576 -0.011500327
000100 a8 19 57 bd 77 8a f2 bb 61 87 40 3d 7c 1b 05 bd
       -0.052514702 -0.00740176 0.047004107 -0.032496914
000110 34 8f 32 3d 02 2f f7 3c 9e 44 c3 3c 16 9c d3 3d
       0.0435936 0.030173782 0.02383643 0.103325054
000120 1a c8 15 3e 82 bd 1d 3d e7 c4 89 3d 7a 84 84 3d
       0.14627114 0.038510807 0.06727009 0.064705804
000130 9a 77 13 bd 75 4f 44 bd a4 68 d5 3d d4 59 7f 3d
       -0.036002733 -0.04792734 0.10420349 0.062341526
000140 0d 45 5a 3d ee c2 ac 3d a7 c1 52 3d 16 b0 b2 3d
       0.05328851 0.084356174 0.051454213 0.08724992
000150 26 91 ec 3d fe 6f 9a 3d 83 8b fa 3b 31 38 8b bb
       0.11551122 0.07540892 0.0076460256 -0.004248642
000160 e8 2d 93 3d 5f 5e bc 3d 65 60 91 3a 8b a0 08 3d
       0.0718649 0.09197687 0.001109135 0.03335623
000170 91 ca 86 3d ba 44 21 3e 6a ac 5d bb 86 7f ba bc
       0.06581605 0.15748873 -0.003382469 -0.022765886
000180 76 aa 1c 3c a5 30 bb 3d b3 76 38 3d 0d ee c9 3d
       0.009562125 0.091401376 0.045035075 0.09859858
000190 90 15 f2 3c ca 05 b6 3c 8d f8 be 3d d3 39 38 3d
       0.029551297 0.022219557 0.09324751 0.04497702
0001a0 6e 9d 3b bd 0f e1 87 3d a7 37 dd 3c 83 03 62 bc
       -0.045804434 0.066347234 0.027004076 -0.013794783
0001b0 e3 66 46 3d 2d 82 d7 bb 2a 51 67 bd fd 1a 16 3e
       0.048437964 -0.0065767975 -0.05647389 0.14658733
0001c0 1e 76 78 3d f4 b1 e0 3d c5 c6 21 bd 83 06 7c 3d
       0.06065952 0.10971442 -0.039496202 0.061529648
0001d0 07 46 db bc b3 cf b6 bc b9 11 00 3d ac ab 6d 3d
       -0.02676679 -0.022315836 0.0312669 0.058025047
0001e0 bb ec b3 3d c0 cd 89 3d 4e 3c 14 3e fa 0a 84 3c
       0.08785387 0.06728697 0.1447613 0.016118515
0001f0 f1 a1 a1 3c 8f b7 b9 3c e5 8b 35 3c b9 49 1b 3d
       0.01973054 0.022670535 0.011080717 0.037912104
000200 01 36 36 3c 7a a3 a5 3d 15 cd 5e 3d 84 aa d5 3b
       0.011121274 0.08087821 0.0543948 0.006520571
000210 87 b6 a8 3d d5 54 14 3d ad 29 98 3d 0e b2 f4 bc
       0.08237939 0.036213715 0.07429824 -0.02987006
000220 bf cf 93 bc 8d f1 b2 3d cb 5b 7b 3d 8c 85 7d 3d
       -0.018043397 0.087374784 0.061366837 0.06189494
000230 a9 3c d6 3d 5a 66 40 3b 87 ed b1 3d 72 4c 83 3d
       0.10460789 0.0029357881 0.08687883 0.06411065
000240 b1 ea 40 bd 0c ac 8e 3d de 79 61 3d ab 84 0b bd
       -0.04709882 0.06966409 0.055047862 -0.03406207
000250 08 3f d0 3c 0b 9a 1b 3e 93 4a 27 3d 4e 57 aa 3c
       0.02542068 0.15195481 0.040842604 0.020793583
000260 10 df 00 39 6f 4b 99 3d 9e 63 89 3d f2 0e 87 3d
       0.00012290129 0.07485091 0.067084536 0.065946475
000270 30 45 4f bd f2 7d 8c bd fa 16 b4 3c 0a 62 ee bc
       -0.05060309 -0.0685996 0.021983612 -0.029099483
000280 ae 49 f9 3b a3 98 01 3c 38 63 8e bd ff 70 b0 bd
       0.0076076603 0.007909927 -0.06952518 -0.08615302
000290 f0 ba 26 3d 97 5e c4 3b 99 76 31 3d 47 2a 42 bd
       0.04070562 0.0059927213 0.043325994 -0.0474036
0002a0 a5 92 46 bd d6 0e 9b bc 7c 71 9b bd 48 89 36 3d
       -0.048479695 -0.018927973 -0.07590005 0.044564515
0002b0 1f 6d 61 bc e8 83 fa bc bb 63 4d bd 30 e4 27 bd
       -0.013758927 -0.030580476 -0.05014394 -0.0409891
0002c0 34 87 a9 3d ac 4a 7c 3c 83 92 21 bd 3e 53 bf bd
       0.08277741 0.015398663 -0.039446365 -0.09342049
0002d0 65 f0 f6 3c c4 cd 92 bd 93 29 9d bd cd 03 95 bb
       0.030143926 -0.07168153 -0.07673945 -0.004547572
0002e0 39 8c 85 3d 50 e8 2f bd a2 98 b9 bd b3 8d 8c bd
       0.06520886 -0.04294616 -0.090623155 -0.068629645
0002f0 c6 e0 8c 3c c7 aa 2e bd 1d 0e 3d 3d 66 82 19 3d
       0.017197024 -0.042643335 0.046156038 0.037477873
000300 93 c1 c9 bc 48 85 d3 3b f7 93 fa 3c f6 9b 65 3d
       -0.024628436 0.0064550973 0.030588133 0.05605694
000310 6f 47 fc 3c f3 2e aa bd 74 c0 e9 bc e2 3d 57 bd
       0.030795781 -0.08309736 -0.028534152 -0.05254925
000320 56 bb c4 bc 7f d1 9b bc 98 67 91 bd a4 72 0b 3d
       -0.02401511 -0.019020794 -0.07099837 0.034044877
000330 b6 87 f5 3c 6f 79 8c bd 1d 50 a6 bd ca 7f 41 bd
       0.029971939 -0.06859099 -0.08120749 -0.04724101
000340 9d e3 82 bd 81 c2 44 3d 54 b9 66 bd f9 91 68 bd
       -0.0639107 0.048037056 -0.056329086 -0.056779835
000350 1a 71 9c bc d1 1e 48 3d 72 49 a0 bd 51 c8 59 bd
       -0.0190969 0.048857514 -0.078265086 -0.053169552
000360 ac b0 29 bd ab e0 17 ba 86 43 36 3d 5a 36 f8 bc
       -0.041428253 -0.0005793671 0.04449799 -0.030299354
000370 f9 40 3e 3d 66 9f 8b bd c6 6e 2d bd e2 93 52 3d
       0.04644868 -0.06817512 -0.04234197 0.051410563
000380 50 ec f1 bc 49 67 a2 3c 11 eb b4 3c 51 b1 f0 bd
       -0.029531628 0.01982464 0.022084745 -0.117525704
000390 3e 9e 50 bd 66 eb dd bd 83 05 2a bc 4c e1 da 3c
       -0.05093216 -0.10835914 -0.010377291 0.026718758
0003a0 84 f5 f0 bc 0e f3 02 bd 91 61 22 bd a6 0d 9a bb
       -0.029413946 -0.031970076 -0.039643828 -0.004701334
0003b0 f3 33 95 3d 9f bf 1e bd 8a ce 43 bd 0a c9 52 bd
       0.07285299 -0.038756963 -0.047804393 -0.051461257
0003c0 47 6d 40 3b 05 fe 98 bd be 6b 6f bd 5b 51 15 3d
       0.002936201 -0.074703254 -0.05845236 0.03645454
0003d0 65 fc e7 3b 9b d1 d0 3c c9 13 a4 bd be 26 d4 bc
       0.0070796483 0.025490573 -0.08011586 -0.02589738
0003e0 a4 45 93 3d 67 e9 5e bd 01 1d a1 bd 3a 16 e5 3c
       0.07191017 -0.05442181 -0.0786686 0.0279647
0003f0 0c d9 0e bd 12 72 f2 3b 49 7b 2c 3c 2e 8f 92 3b
       -0.03487496 0.007398852 0.01052744 0.0044726348

rnn_layer.bias_hh_l0 f4 [624]
000000 fa 2b fe 3d 50 1e be bc fc ce fe bc a9 93 98 3c
       0.124107316 -0.023207814 -0.031104557 0.018625097
000010 5e 3d 90 3d a1 04 4c 3d 2e de ed 3d 7c fa 04 bd
       0.07042955 0.049809102 0.11614643 -0.032465443
000020 64 4e 21 bd 51 1b 91 3d d2 ff cf 3b 7c 10 28 3d
       -0.0393814 0.07085288 0.006347635 0.041031346
000030 01 e0 ec 3d 00 15 94 bc a6 69 0f bd cd 30 84 3c
       0.11566163 -0.01807642 -0.035012864 0.016136551
000040 81 d1 b1 3c 7f 26 cd 3c b5 a8 c3 3d 40 30 57 bb
       0.021706345 0.02504277 0.09553663 -0.0032835156
000050 1b 14 21 3d c0 74 f2 3d cd 76 5e bd 75 41 9c bb
       0.039325815 0.118386745 -0.054312516 -0.0047685453
000060 12 31 15 bd cc a6 c3 3c 3d d7 a7 3d 9a 40 bb 3d
       -0.03642375 0.023883246 0.0819535 0.09143181
000070 cd e1 c1 3d 05 40 f1 3c 40 a2 74 bd 54 a7 40 3c
       0.09466896 0.029449472 -0.059725046 0.011758644
000080 91 5e 14 3d 2c ba 27 bd cc 5b ec 3d b9 ba 5a bc
       0.036222998 -0.04094903 0.11540946 -0.013350182
000090 51 40 76 bc d9 03 88 3d 54 d5 ca 3d ff 8c 1d 3d
       -0.015029983 0.06641359 0.0990397 0.038464542
0000a0 61 f0 40 3d 7f 8f fc bb dc 71 11 3d 55 4e 6d 3d
       0.047104243 -0.0077075358 0.035508975 0.05793603
0000b0 1e 62 49 3d 97 25 0a bc aa 60 87 3d f1 32 5a bc
       0.049165837 -0.008431814 0.06610234 -0.013317809
0000c0 b3 6b 5a 3c 98 26 6e bd c5 37 5b bc c4 8b 86 bb
       0.013331342 -0.058142275 -0.013379996 -0.004106017
0000d0 2d 77 c4 3d 98 c3 12 bc c2 7b 30 bd 04 96 c1 bc
       0.095930435 -0.008957766 -0.043086775 -0.023631103
0000e0 d8 1b 0e 3e d5 94 1e 3d 06 bc 57 3d c6 5d 22 bc
       0.13877809 0.038716156 0.052669547 -0.009910053
0000f0 9b 4f 60 3c 27 68 fd 3b f7 96 60 3d 4b 95 dd bb
       0.013690854 0.007733363 0.05483147 -0.006762182
000100 9a ae 64 3d 78 33 7d 3c 3a 17 1a bc 8c db 25 3d
       0.055830576 0.015454166 -0.009404952 0.04049258
000110 34 c0 ed 3d 76 ef e1 3d fc 64 63 bd 92 9a 5d 3d
       0.116089255 0.11032002 -0.055516228 0.054102488
000120 4c 1a c2 3b 9b af c4 3b e7 fe 8e 3d 50 30 c9 3d
       0.005923545 0.006002379 0.069822125 0.09823668
000130 5a a7 71 3b a3 56 59 3d 23 8e dc 3c 2f b6 2d bc
       0.003687343 0.05306114 0.026923245 -0.010602518
000140 39 37 51 bd 4d 15 95 3d 74 c7 02 3e a9 62 3a 3d
       -0.051078055 0.072794534 0.12771398 0.045504246
000150 95 42 99 3d 31 ce b5 3c ff 1f 46 3d 7d 61 97 bc
       0.07483403 0.022193046 0.048370358 -0.018479103
000160 88 c5 20 3b 5f 30 57 3b ff e4 e5 3d 06 10 88 3d
       0.00245318 0.0032835228 0.11225318 0.06643681
000170 7a 42 39 bb 6a 50 e2 3d 5f f4 8d 3d d2 9f 1e 3d
       -0.0028268383 0.11050494 0.06931376 0.038726635
000180 a5 47 95 bc 2e f8 10 3e a6 11 8f 3d df 23 b6 3d
       -0.01822264 0.14157173 0.06985788 0.088935606
000190 08 25 99 3d 7c d5 c9 3d 87 e9 6e 3d f3 8b 98 3d
       0.07477766 0.09855172 0.058328178 0.07448568
0001a0 78 d4 47 3d 75 ee f5 bb 4e a7 95 3d 0b 05 14 3a
       0.04878661 -0.007505233 0.073073015 0.00056465034
0001b0 9b ce bf 3d 32 29 54 3d 75 5d 18 3b 12 c9 38 3d
       0.09365579 0.0517971 0.0023249064 0.04511363
0001c0 88 ba b5 3d 64 da 63 3d 4b 68 21 3d d3 14 51 bd
       0.08873469 0.055628195 0.039406102 -0.05104525
0001d0 2a 07 e6 3b b0 c9 9d 3d 79 30 37 bd e9 57 9e 3d
       0.007019897 0.077044845 -0.04472396 0.07731611
0001e0 54 83 2b 3d 32 e2 b9 3c fa 43 c0 3d 7e 86 02 3d
       0.04187329 0.022690866 0.093879655 0.031866543
0001f0 5c 94 9b 3d 08 f2 b8 3d ec b5 d0 3c af 5e 0d 3d
       0.07596657 0.09030539 0.025477372 0.034514125
000200 53 25 cf bc 6c e2 dd 3d c1 24 04 bd 38 13 35 bc
       -0.025286352 0.10834202 -0.032261614 -0.011051945
000210 eb c4 9f 3d a2 ce 7e bc 22 e4 4e 3c 9a 73 e5 bc
       0.07801231 -0.015552195 0.012627633 -0.028009225
000220 cb 03 bf bc 76 67 73 3d 17 0c 29 3d f0 ca d8 3d
       -0.023317238 0.05942484 0.041271295 0.10585582
000230 b1 8d b3 3d c6 37 3d bd cb 41 62 bc 83 34 64 3c
       0.0876726 -0.046195768 -0.013809632 0.013928535
000240 d7 8e ea bc de 5d 96 bc 89 70 95 3d 7c f0 e6 bc
       -0.028632564 -0.018355306 0.07296855 -0.028190844
000250 4d 78 d0 3d da df fa 3c 43 d7 82 bc eb cb 69 3d
       0.101791956 0.030624319 -0.015971785 0.057079237
000260 8f cb d8 3d cb e4 ac 3c af 8b aa 3b fc 6e 03 bb
       0.10585701 0.02110519 0.00520464 -0.0020055166
000270 05 8d c3 bd 58 0d 73 bd a4 a5 b3 3c c9 c2 2f bc
       -0.09548382 -0.059338897 0.02192957 -0.010727593
000280 84 17 51 bd b0 62 2c bd 6b 55 87 3d 1d e2 99 bd
       -0.051047817 -0.042086303 0.06608089 -0.07513831
000290 89 80 e4 bc 2a d6 11 3d 83 bc da bc b1 80 38 bd
       -0.027893322 0.035604633 -0.026701218 -0.045044605
0002a0 38 6d 92 3d af 34 a9 bd 42 39 07 3d c6 4f 75 bd
       0.07149738 -0.08262002 0.03301359 -0.05989053
0002b0 17 97 88 bd f1 74 18 bd ad 03 5f 3d 2b 71 d6 ba
       -0.06669443 -0.0372209 0.054446865 -0.0016360631
0002c0 38 94 aa 3d 96 29 87 bd 9f 3b a9 bd 56 06 9c bd
       0.08329052 -0.06599729 -0.08263325 -0.07618396
0002d0 3f 2e a2 3d 18 07 02 3b f7 df ba bd 2c 07 cb bd
       0.07918977 0.0019840654 -0.09124749 -0.09913477
0002e0 35 16 31 3d f2 08 16 bd 8c 09 c1 bd 7c 4d 28 bc
       0.04323407 -0.036629625 -0.09425649 -0.01027238
0002f0 d3 7b 0b bd cc 66 f4 bd 27 52 3f bd ee 6f d7 3c
       -0.034053635 -0.119336694 -0.046709206 0.02629849
000300 70 67 53 bd f9 3a 6d 3d ce 9a 55 3a 5f 8b f7 3c
       -0.051612318 0.05791757 0.0008148373 0.030217825
000310 27 47 de 3c b7 db 48 3d 68 3e 8c 3d 85 01 81 bd
       0.027133537 0.04903766 0.068478405 -0.06299118
000320 bc 85 b1 bb 0e 2a a3 bd b4 20 89 3d 44 20 10 bd
       -0.0054175537 -0.07967006 0.06695691 -0.03518702
000330 88 7e 36 3d ee 81 a0 bd e7 0c b3 bd 4d 4a aa 3c
       0.044554263 -0.07837282 -0.08742695 0.020787382
000340 2f b9 87 bd 53 e9 77 bd 8a 1d 80 bd a5 12 98 3c
       -0.06627118 -0.06052525 -0.06255634 0.018563578
000350 15 8e 01 bc c7 73 41 ba 1f b6 4c bd e9 4a c7 bc
       -0.00790741 -0.0007379618 -0.04997837 -0.024327712
000360 78 49 6b bd be bc d9 3b 11 d1 4a 3b 8a 48 78 bd
       -0.057443112 0.0066448143 0.0030947367 -0.060616054
000370 09 59 a9 bd 4e 07 08 3d c4 ed 11 3d 0c 26 db bc
       -0.08268935 0.03321009 0.03562714 -0.02675154
000380 a0 59 96 ba 9a 4a 03 3d 08 ce 29 bd bb 01 c5 bd
       -0.0011470802 0.032053567 -0.041456252 -0.09619471
000390 fb 18 a5 bd ea 10 dc bd c3 b9 1c bc a8 69 97 3c
       -0.08061405 -0.107454136 -0.009565773 0.018482998
0003a0 1d ab 75 bd 82 f7 3d bd 1b c6 18 3c a5 01 06 3d
       -0.05997764 -0.04637862 0.009324576 0.032716412
0003b0 f1 23 aa 3d 69 fb 76 bd f8 54 44 bd 2c a5 36 3d
       0.083076365 -0.060298357 -0.047932595 0.044591114
0003c0 c2 09 40 3d 29 f9 7d bd d2 0d b1 bd 85 51 2f bd
       0.046884306 -0.062005196 -0.08645214 -0.042802352
0003d0 64 23 be bd ba 20 00 bd c9 80 c2 bd 96 ea 72 bd
       -0.09284094 -0.03128121 -0.0949722 -0.05930575
0003e0 cc 37 77 bd 63 3f 62 3d 96 ec 8a bd a8 67 65 3d
       -0.060355946 0.05523623 -0.067834064 0.056007057
0003f0 22 77 75 bd 9e b1 83 bd 9d 23 10 3c 22 2b 9b bb
       -0.059928067 -0.06430362 0.008797553 -0.0047353664

dense_layers.0.weight f4 [64, 156]
000000 b8 71 d2 3d 56 5c a7 3d 60 26 6b 3d 23 35 9e bd
       0.102755964 0.081719086 0.057409644 -0.07724979
000010 92 77 4b 3d 43 ff f5 3d bd 7e 5d 3d ca 6a 5c bd
       0.049674578 0.12011578 0.054075945 -0.05381278
000020 31 7a 91 bd 07 a3 c4 3d a3 95 a4 3d e7 8d 1c 3d
       -0.07103384 0.096014075 0.080363534 0.038221266
000030 04 3a 19 3d 9e 97 8f bc 43 7f 1e bd 10 bb 02 bd
       0.037408844 -0.017528351 -0.038695585 -0.031916678
000040 16 2d 92 bd cf 96 ec 3c e7 3a 81 3b fb 27 96 3d
       -0.07137506 0.028880505 0.0039437893 0.073318444
000050 43 50 99 bd aa 9d c7 3d b3 6a 19 bd 55 2e 5d 3d
       -0.07486012 0.09746869 -0.037455272 0.053999264
000060 1d ef 93 3d 25 fb d4 bb 0f 40 51 bb c1 b0 d9 3d
       0.072233416 -0.0064996653 -0.003192905 0.10629416
000070 e1 56 69 bd 90 39 30 3c ba 43 c0 3c 7f 42 c9 bd
       -0.05696762 0.0107559115 0.023469795 -0.09827136
000080 07 ad 61 3d e9 d8 3c 3c ab 6d a2 3a f4 8c 72 3d
       0.055096652 0.011526325 0.0012392303 0.059216455
000090 32 9e bf bc 2d 09 af 3c 42 be b4 3d 9f 1a 2d 3d
       -0.023390863 0.02136668 0.08825351 0.042261716
0000a0 e6 3f 8a 3c e8 0f 0c bd f5 57 20 bd eb af 21 bd
       0.016876172 -0.034194857 -0.039146382 -0.03947441
0000b0 57 4b af bd e3 d7 ca bd 4c d6 22 bd c6 1e 8c 3d
       -0.08559292 -0.099044584 -0.03975515 0.06841807
0000c0 32 93 6b bd 84 d3 4b bc 5e 2f 04 be 56 e2 44 3d
       -0.057513423 -0.012440566 -0.12908694 0.048067413
0000d0 b5 ed 6f bd d9 f9 33 bc 89 5d 9e 3d 87 a9 f3 3c
       -0.058576304 -0.010984861 0.07732684 0.029743923
0000e0 be d0 2d 3d c0 e4 2f 3d 9a 6d 65 bd fb df 62 3d
       0.0424354 0.042942762 -0.056012727 0.055389386
0000f0 22 54 cb 3b ce 44 6a 3d b1 5f 0e bd 67 19 a1 ba
       0.006205098 0.057194524 -0.034759227 -0.0012290896
000100 ba 95 66 3d c4 e2 6d 3d 0c 7d 0e 3d d5 df 58 3d
       0.056295134 0.05807759 0.034787223 0.052947838
000110 dd d7 b6 3d e2 c5 93 3d 5a 2f 09 bd 2f f6 8e bd
       0.089278914 0.072154775 -0.033492424 -0.069805495
000120 02 8a cb 3d a5 8a dc 3d 5c 4f 99 3d 38 63 d6 3b
       0.09938432 0.10768632 0.0748584 0.0065425895
000130 b9 b0 07 3d 87 9a 3a 3d 08 6b 64 bc be 11 df 3d
       0.03312752 0.045557525 -0.013941534 0.10892056
000140 95 c0 22 3d 67 0b 06 bd 52 dd 2d 3d b4 94 bf bd
       0.03973444 -0.032725718 0.042447396 -0.09354535
000150 d7 6b de 3b bd 96 11 3d 91 1f d2 3d 02 11 c0 3c
       0.006787758 0.035544146 0.10259927 0.02344561
000160 4e 04 32 bd 8b 48 e6 bb 40 a8 86 bd 60 46 28 bd
       -0.043461137 -0.0070276908 -0.0657506 -0.04108274
000170 21 68 04 bd 0a d7 10 3d 12 b7 f3 3d 9d a1 03 bd
       -0.032325868 0.035361327 0.11900152 -0.03213655
000180 44 89 7e bd 3b 70 ef 3c 95 33 2d 3c bc 29 16 3d
       -0.062142625 0.02922832 0.01057138 0.036660895
000190 c6 c6 d3 bd fc 9b 48 bd d4 de 51 bd 04 28 5a bd
       -0.103406474 -0.048976883 -0.051237896 -0.053260818
0001a0 9f 6e 18 3d b8 f8 4e 3b 23 94 cb bd b2 9d e7 3c
       0.03721487 0.0031581353 -0.09940364 0.028273437
0001b0 57 85 39 3d 2d 77 90 bc 1f f4 1c 3d 5f 31 b1 3d
       0.04529318 -0.017634952 0.03831875 0.08651995
0001c0 62 30 a1 3d a8 71 a9 bc 3d 3c 26 bd ed 3b 8b 3d
       0.078705564 -0.020684078 -0.04058479 0.06798539
0001d0 f6 57 3b bd aa 6d f0 bd bc e4 47 bd 31 1f cf 3d
       -0.045738183 -0.11739667 -0.048802122 0.10113371
0001e0 2c d9 0f bd 24 3e 40 bd 1b b3 05 3e 68 94 9a bd
       -0.03511922 -0.046934262 0.13056605 -0.075478375
0001f0 f4 5b 00 bd 46 f0 f2 bc b7 04 85 bd a5 22 ac bd
       -0.031337693 -0.029655587 -0.0649504 -0.084050454
000200 14 2b 20 bd 25 6e ce bc ce a5 96 3d 5b f5 de bc
       -0.039103583 -0.025199005 0.073558435 -0.027216604
000210 6b 4a 70 bc 2a 15 83 3d f5 d2 43 ba 21 2c 38 3c
       -0.01466618 0.06400521 -0.0007470095 0.01124099
000220 65 01 47 bd 3a 90 45 3d 35 7a ae 3c d1 41 49 bd
       -0.048585314 0.04823325 0.021298507 -0.049135033
000230 c2 39 3e bc c6 e5 3d bd 95 05 6c bd 8c d7 d3 bd
       -0.01161045 -0.046361707 -0.05762251 -0.10343847
000240 0a 1c f3 bd a9 af f6 bd 79 c0 40 3d ff b2 8b 3c
       -0.118705824 -0.12045223 0.047058556 0.017053125
000250 90 0a 7a 3d 1a fb be 3c b1 02 5d 3d d7 94 45 3d
       0.06104523 0.023313094 0.053957645 0.048237648
000260 02 4d e6 3d fd 82 7f 3d a3 ec 24 bc ff 6f 21 ba
       0.11245157 0.06238078 -0.010066184 -0.00061583513
000270 10 7e 5a bc 84 dd be 3d b3 5d 0d 3d 37 39 15 bd
       -0.01333572 0.093195945 0.034513187 -0.036431517
000280 8d e9 67 3d 39 3f fa 3c 52 5d 21 3d db aa 17 3d
       0.056619216 0.030547725 0.039395638 0.037028175
000290 d2 a6 bd bd c7 af 42 3b 68 af 80 3d fa e8 3f bd
       -0.09260334 0.0029706822 0.06283456 -0.046853043
0002a0 1a 6a 84 3d 8f 2e c8 3d e5 24 32 3d 1a b9 97 bc
       0.0646555 0.09774505 0.043492217 -0.01852088
0002b0 d4 db ff bc 74 35 73 3d 98 f6 b4 bc bd b9 cc 3d
       -0.031232752 0.05937715 -0.022090241 0.09996364
0002c0 e3 62 49 bc 7d 38 39 3c fe c3 06 bd af 94 42 bc
       -0.012291643 0.011304972 -0.032901756 -0.011876269
0002d0 c4 c2 6c ba 4f df 6f bd 96 10 32 bd 92 2d 8d 3d
       -0.0009031708 -0.058562573 -0.04347285 0.068934575
0002e0 5f 4d 5d 3c a6 2c 2a bd 60 e4 19 bb 34 f2 82 3c
       0.013507216 -0.041546486 -0.002348207 0.015984632
0002f0 27 f6 bf 3d 48 29 a7 3c 18 c2 0d 3a 8a 8a 25 bd
       0.09373122 0.020405427 0.00054076454 -0.040415324
000300 f5 8d 14 3d f4 79 e4 3c 05 44 14 3d e8 72 09 3c
       0.036268193 0.027890183 0.03619768 0.008389212
000310 6b 78 70 3c 92 ed b8 3d 2e 27 b1 bc 0d 73 b5 bd
       0.014677147 0.09029688 -0.021625128 -0.08859835
000320 1d 3c 65 3d 62 11 62 3d ad fc 3a bd 53 2c 01 3e
       0.05596553 0.05519236 -0.045651127 0.12614565
000330 1e 2d af bd 82 e3 9a bd a1 5c 90 bb 57 ff 50 3c
       -0.08553527 -0.07562925 -0.0044055735 0.01275619
000340 d7 4b cd bd 85 a5 a1 bd 22 fa f7 3b 64 82 9b bc
       -0.10024231 -0.078928985 0.00756766 -0.018983074
000350 b3 f8 ad 3d 02 8c 8c bd 28 0b 82 3d 29 57 b1 bc
       0.08494701 -0.06862642 0.06349784 -0.021648007
000360 32 d3 a7 3b ea 4f 1c bd d7 7e fa bc a6 80 1d 3d
       0.005121612 -0.03816215 -0.03057806 0.038452767
000370 19 d5 13 bd 18 c9 6a 3d 91 b7 9e bc ab 3e 61 3d
       -0.036091898 0.057320684 -0.01937464 0.054991405
000380 f9 ec 80 3d 9d b8 1d 3d 93 90 ba 3d 74 8f bc 3c
       0.06295199 0.03850614 0.091096066 0.023017623
000390 ab ab e6 3b 04 34 9f 3c 5d d8 2a 3d 68 9c 35 bd
       0.0070395074 0.019433983 0.041710246 -0.044338614
0003a0 b4 bf 0d bd c2 64 69 bc 6a 04 89 bd ea e0 99 3d
       -0.03460665 -0.014245214 -0.06690295 0.07513602
0003b0 c7 5f 81 bd 72 30 45 3d 1b a9 07 3b 83 bd bb 3b
       -0.06317096 0.048141904 0.002070016 0.0057293787
0003c0 75 40 ba 3d 1b 08 b4 3d 5a 6f 08 3b 3c 67 87 3d
       0.090943255 0.087906085 0.0020818324 0.06611487
0003d0 e2 26 ce 3c 39 30 a8 3d 12 26 07 bd a0 8a 2f bc
       0.025165025 0.08212323 -0.03299529 -0.010714203
0003e0 70 8e 95 bd 38 73 f2 bd 64 74 81 3d d3 37 19 3b
       -0.073025584 -0.118383825 0.06321028 0.002337922
0003f0 aa cb 9d bd f0 d3 88 bd 4e f4 1a bd 22 f5 62 bd
       -0.077048615 -0.06681049 -0.037830643 -0.055409558

dense_layers.0.bias f4 [64]
000000 f4 4c 62 3d 47 dc 49 bc 12 2c 07 bc 0e b7 1d 3d
       0.05524917 -0.012320585 -0.008250253 0.038504653
000010 68 15 8d bd 67 5e 9a 3c 22 52 5f bc fa 49 8f bc
       -0.068888485 0.018843843 -0.013630422 -0.01749133
000020 92 4b b5 3c 15 ea 12 bd 6a 88 03 3c 12 4a 1b 3c
       0.022130761 -0.03586777 0.008028129 0.009478109
000030 5d 4a 99 3d 3d 83 1d bc 8e 03 7c 3d 7d 4c 58 bd
       0.07484887 -0.009613809 0.061526828 -0.05280732
000040 df 53 dd 3c 10 2d 62 3d 84 00 78 3c 75 2b 91 3d
       0.027017532 0.055218756 0.015136842 0.07088367
000050 04 eb 07 bd 73 d3 6c 3d 17 6f a0 bd 6f d0 9f bd
       -0.033183113 0.05781884 -0.07833689 -0.078034274
000060 ee f5 39 3d 89 e8 c4 3d 21 20 ad 3c 83 4d 7a 3d
       0.045400552 0.09614665 0.021133484 0.061109077
000070 17 94 e1 3c e1 4e 66 3b cf 4a b7 3b c3 72 5c 3d
       0.027536435 0.003514223 0.0055936347 0.053820383
000080 ad b1 df 3b 8f 9d b3 bc 4c 0f 15 3d 3a 44 45 3d
       0.0068266005 -0.021925716 0.03639154 0.04816077
000090 ee fd 6d 3d ab 43 95 3d ea e3 a6 3b cc e8 64 3d
       0.058103494 0.07288297 0.0050930874 0.055886075
0000a0 22 e5 10 bd 58 ca 0f 3d 73 ec 31 bd 0d 4b c7 bc
       -0.035374768 0.03510508 -0.043438386 -0.02432778
0000b0 f9 82 97 bd da c3 8a bc 70 55 f9 3b b5 1c 34 3d
       -0.07398028 -0.016939092 0.007609062 0.04397269
0000c0 a4 38 e0 bc 9b b1 95 3c ec a5 00 bb 5c de 55 bd
       -0.027370758 0.018273165 -0.0019630147 -0.05221401
0000d0 7e 7b c5 3b e7 85 31 3d b2 67 85 bd 7a 3a a3 bd
       0.0060266843 0.04334059 -0.06513919 -0.07970138
0000e0 15 53 a5 3d e2 c2 89 bd 83 3d 6b bd 5f 35 01 3d
       0.08072487 -0.06726624 -0.05743171 0.03154504
0000f0 35 b3 1c bd ed e2 9b bd d9 07 b2 3b e4 d5 b3 3d
       -0.038256843 -0.07611642 0.0054330644 0.08781031

dense_layers.2.weight f4 [14, 64]
000000 ae 93 ef 3d 34 5f a0 3d ac 7b 9c bd 5e 46 a0 3d
       0.116980895 0.078306586 -0.07640776 0.078259215
000010 47 0f b4 3d 24 77 2b 3e 0c c7 e7 bd 41 94 42 3e
       0.087919764 0.16744667 -0.11317262 0.19001867
000020 fd e4 85 3d d9 1f 25 3e da 2e 84 3b ba 4b a8 3c
       0.06537817 0.1612543 0.0040339055 0.020543922
000030 71 3c a8 bd a1 96 ba 3d 42 36 d7 bd 90 17 85 bd
       -0.08214653 0.091107614 -0.10508396 -0.06498635
000040 91 25 bd 3d 51 f5 64 3d cf ff 24 be 97 72 25 3e
       0.09235681 0.055898014 -0.16113208 0.16156994
000050 c9 29 e2 3b ee e4 c6 3d d9 57 40 bd f8 40 2b be
       0.006901954 0.097116336 -0.046958778 -0.16724002
000060 42 af 4d 3d 29 91 cd 3c 93 20 7c 3d 1b 5a 1e be
       0.050215967 0.025093632 0.061554503 -0.1546406
000070 2b 07 2f 3d c0 d9 9f 3d 42 52 ca bd 39 c2 b2 bd
       0.042731445 0.078052044 -0.09878971 -0.08728451
000080 ca ad 87 bb 0d c2 e3 bd e0 6f 2b bd 6b cf 44 3d
       -0.0041405903 -0.111209966 -0.04185474 0.04804937
000090 c2 91 8f bd 28 c7 0f be 10 ca e2 3b b8 a5 e8 3d
       -0.07010223 -0.14040816 0.0069210604 0.11359733
0000a0 55 b5 fc 3a b1 f1 a5 3d ba 06 15 3e ae 13 ac bd
       0.0019280115 0.081027396 0.14553347 -0.08402191
0000b0 8f 96 81 bd 1c d1 f7 3d 47 3f 3a be 2f a4 fb 3d
       -0.06327545 0.12100431 -0.18188201 0.12287175
0000c0 e2 cd 05 be 8b 89 50 be e3 23 db 3d dc 0a ef bd
       -0.1306682 -0.20364968 0.10700204 -0.11671993
0000d0 ec 32 3a 3e 18 aa c6 3c 81 1a 51 bd 44 e6 37 be
       0.18183488 0.024251029 -0.051050667 -0.17958933
0000e0 e7 0e 0c 3d 33 f5 84 3d 41 09 1a bc f8 ab bd 3d
       0.0341939 0.064920805 -0.00940162 0.09261316
0000f0 10 83 9e 3d af 3f 9d 3d 3d 3e 0a 3c ba 32 0f 3e
       0.07739842 0.07678162 0.00843769 0.13984194
000100 58 97 5e 3d 23 de fc 3d 8c b3 92 3d 8f b9 49 3d
       0.05434355 0.12347057 0.07163152 0.049249228
000110 bc 0d 0d 3e e9 58 ce 3d b0 cf 6f bd cc f9 11 bd
       0.1377477 0.10075552 -0.058547676 -0.035638615
000120 38 87 fa bd 38 fe a2 bd 88 2b 23 3e 26 35 f6 3c
       -0.12232822 -0.07958645 0.15934575 0.03005464
000130 33 fe 1c 3e d5 d0 c5 3d bc 4c 52 bd 26 d9 61 3d
       0.15331344 0.09658972 -0.05134271 0.05513873
000140 62 91 4c bd 6b 76 9b bd 9b 46 c6 bb 04 e5 f0 bd
       -0.049943335 -0.07590946 -0.0060508973 -0.11762431
000150 98 20 1e 3d f0 d9 17 be e6 e5 9e 3d e5 62 a9 bd
       0.038605303 -0.1482923 0.077586934 -0.08270816
000160 ad a8 f3 3c 23 ed fb bd 6c b4 29 3e ec 2a 09 be
       0.029743517 -0.123010896 0.16572732 -0.1339528
000170 02 de 69 bd 00 08 0b 3e 00 d9 81 bd eb f1 17 3e
       -0.05709649 0.1357727 -0.063402176 0.14838378
000180 41 b3 c3 bc cb de 0c be 3b 1d dd 3b 25 1c 0f bd
       -0.023889186 -0.13756864 0.0067478693 -0.03493895
000190 88 04 7d 3d b2 43 0c 3e db 19 24 be 0e d3 1b 3e
       0.0617719 0.13697699 -0.16025488 0.1521723
0001a0 07 79 b8 3d ce 0a c4 3c 00 ce 82 3d af 4c 98 3d
       0.09007459 0.023930933 0.06386948 0.07436501
0001b0 09 e3 24 3e cb ea 66 bb 4a 1f b6 bd ed a0 92 3d
       0.16102232 -0.0035235162 -0.08892687 0.071596004
0001c0 a6 35 d4 3c 66 6e 2c be ce 03 9f 3d a9 38 5d bd
       0.025904488 -0.16838989 0.077643976 -0.054009113
0001d0 11 56 91 3b 6e 9a bf 3c f8 56 c6 3d 56 43 0e 3d
       0.0044353087 0.023389068 0.09684557 0.034732185
0001e0 35 54 19 be 3f cb a2 3d 52 06 0c 3e 86 e7 53 bd
       -0.14973529 0.07948922 0.13674286 -0.05173447
0001f0 46 3a c2 bd 59 53 38 3d 3d 04 1b be 7e f9 2c 3d
       -0.09483771 0.04500136 -0.15138336 0.04223012
000200 49 84 6f be 7b 36 18 be 2f 72 70 3c 0f 9c f1 3d
       -0.23390307 -0.14864533 0.014675661 0.11797344
000210 17 4d 0c 3e 5a f7 2e bc e1 f0 35 be 17 73 84 bd
       0.13701282 -0.01067909 -0.1776767 -0.06467264
000220 a9 28 14 3e f9 4a a4 bc aa 48 44 be 3c 99 48 be
       0.14468636 -0.020055281 -0.19168344 -0.19589704
000230 65 47 ea 3b 31 29 2b 3d 3a 1f 7a 3e 11 97 54 3e
       0.007149624 0.04178733 0.24425974 0.20760752
000240 d9 ed 0b 3d 21 a4 67 be ce a1 5b be 05 41 50 3d
       0.034162376 -0.22621204 -0.21448442 0.050843257
000250 58 ae 54 bd 8f 0a dd bd 93 6a ae bd e1 26 80 bc
       -0.05192408 -0.107930295 -0.08516421 -0.015643539
000260 4e 5d 3f be 73 43 61 3d c3 d1 31 3e 48 7f 3b 3d
       -0.18687937 0.054995965 0.17365174 0.04577568
000270 20 13 24 3e a8 47 28 3d 3c 27 d4 3c 3b 0b ab bd
       0.1602292 0.04108396 0.025897615 -0.083517514
000280 fd 4f 8d 3d d5 5f 25 be 64 06 03 be c4 42 a8 3d
       0.06900022 -0.16149838 -0.12795407 0.082158595
000290 9c 89 10 3e df 2c 2f be f9 1d e6 bb ba 1e 0f be
       0.14114994 -0.1710696 -0.007022616 -0.13976565
0002a0 cb 9a bc bd fc 07 92 bc 10 f0 2a 3e dc 3f 95 3e
       -0.09209212 -0.017826073 0.16693139 0.29150283
0002b0 93 c0 62 3d 58 fc 91 3c 1c 55 a2 3d 44 b0 11 3e
       0.055359434 0.017820522 0.079263896 0.14227396
0002c0 7b 98 b6 3d c0 7c 86 bc cb 86 45 3d 54 22 5c 3e
       0.08915802 -0.016416907 0.04822425 0.2149747
0002d0 21 6f c8 3a ba 62 5e be 24 48 e0 3c 56 a3 12 bd
       0.0015291908 -0.21717349 0.02737815 -0.0358003
0002e0 fe 01 78 bd 47 e3 88 3d e5 cb 28 3e 2d 86 23 be
       -0.060548775 0.06683975 0.1648403 -0.15969153
0002f0 be 64 32 3e 3e 48 a3 3c bd d2 bb 3d 17 97 2a bd
       0.17421243 0.019931909 0.091710545 -0.041647997
000300 b8 6d 0e 3e 7e 8a 1a 3e 0e f7 01 3d 8c e1 83 bd
       0.13909042 0.15091893 0.03172975 -0.06439504
000310 a6 74 a1 3d 83 1a 83 3c 76 f8 96 3d 40 dc 7b bd
       0.07883577 0.016003853 0.07371609 -0.061489344
000320 b7 6c 28 3c fe 2a c5 bd 96 b2 0f 3e 07 d8 a2 3c
       0.010279826 -0.09627341 0.14032969 0.0198784
000330 a4 e0 75 bd 10 9f e6 bd 21 18 ee bd e7 42 06 bd
       -0.060028687 -0.112608075 -0.11625696 -0.032778647
000340 90 75 b8 3d d5 56 b0 bd 8b 48 07 ba 91 eb 1b be
       0.09006798 -0.08610312 -0.0005160651 -0.1522658
000350 70 82 5f bd a5 ea 4a bd 24 e8 8a 3d a1 80 d3 3d
       -0.054567754 -0.04954018 0.067825586 0.103272684
000360 d3 ac 10 3e 4f ad 97 bb 0e 26 03 bd 4a ff 37 ba
       0.14128427 -0.0046288143 -0.032018714 -0.0007018937
000370 e2 ad 41 3c d7 07 26 3e d4 55 6b bd 44 da 58 bc
       0.011821242 0.16213928 -0.0574549 -0.013235632
000380 e0 85 9e bd 3f 24 12 be 5f 06 3c bc c4 ab af 3d
       -0.077403784 -0.1427164 -0.011476128 0.085776836
000390 42 6c 85 bd 69 83 17 3d 2c 18 1b be be c1 14 3e
       -0.06514789 0.036990557 -0.1514594 0.14527032
0003a0 1f af 0f 3e bb 55 ca 3c df 48 1d be 87 2d 35 be
       0.14031647 0.024699083 -0.1535983 -0.17693149
0003b0 85 26 1b 3e b2 53 d3 bb a8 71 a0 bd a6 cc 7a bb
       0.15151413 -0.0064491862 -0.07834178 -0.0038268953
0003c0 62 e1 12 3e 39 60 ed bd e4 7c 00 be 26 2c cf bd
       0.14343789 -0.11590619 -0.12547642 -0.101158425
0003d0 2e d5 cf 3d 9f c5 41 bd 78 f7 41 3e c4 77 bb bd
       0.10148083 -0.047307607 0.18942058 -0.09153703
0003e0 6a 76 7b bd 47 a4 10 be 55 4a 1e be d9 fa 75 3d
       -0.061392225 -0.14125167 -0.15458043 0.06005368
0003f0 6e 57 49 39 a7 50 43 3e 82 e3 13 be 12 1e 42 be
       0.00019201424 0.19073735 -0.14442256 -0.18956783

dense_layers.2.bias f4 [14]
000000 d5 b4 7a 3d 3f 75 c5 3d 9a af 0b 3d 29 87 55 bd
       0.06120761 0.096415035 0.034103014 -0.052130852
000010 ee ab 73 bd c2 35 09 3d 02 92 1d 3c 6a a5 c3 3d
       -0.059490137 0.033498533 0.0096173305 0.095530346
000020 b2 2a 4d bb 8c db 8c bd be 93 3e 3b 37 7d b9 bd
       -0.0031305966 -0.06877813 0.002907976 -0.09057086
000030 89 d6 55 bd c0 dc ba 3c
       -0.05220655 0.02281034
