New_project/modelo_simples3.onnx (onnx, 851934 bytes, 11 tensors)

decoder_input f4 [1, 1, 128]
000000 20 66 46 b8 3d d5 65 39 02 d5 ae b9 e7 35 01 39
       -4.730199e-05 0.0002191858 -0.0003334657 0.00012322479
000010 27 81 c0 ba 64 bc 8a ba 62 8e cc b8 c2 c2 ce b8
       -0.0014686928 -0.0010584709 -9.753999e-05 -9.859122e-05
000020 2c 9c 18 b8 4e e8 b6 39 e0 6d 79 36 3a 13 1e 3a
       -3.638507e-05 0.00034886826 3.7167847e-06 0.00060300867
000030 1e 13 df b9 55 3a 3e 39 6b 1d ab b9 0e bd 86 37
       -0.00042548118 0.00018141542 -0.0003263758 1.606208e-05
000040 4c f9 b3 b9 dc a5 74 39 cf 61 cd 39 20 bc 29 b9
       -0.0003432728 0.00023331441 0.0003917352 -0.00016187178
000050 d0 69 3c 39 6e df 4b b9 b4 e5 f3 b9 3a 68 81 b9
       0.00017968495 -0.00019442823 -0.00046519714 -0.00024682452
000060 54 48 1c b7 8a 9a 7d 39 e4 50 1c 39 84 30 3a 39
       -9.315165e-06 0.0002418553 0.00014907453 0.00017756416
000070 35 97 7b ba f3 07 de 39 9a ce 11 b9 d6 a4 85 b8
       -0.0009597422 0.00042349062 -0.00013905243 -6.372637e-05
000080 c4 41 54 b9 50 a9 45 b7 32 fa 57 b9 99 ab a7 b9
       -0.00020242395 -1.1781536e-05 -0.00020597203 -0.00031980572
000090 72 ed cd b9 1b 7e a6 3a 9e 31 bc 39 51 5b 03 b8
       -0.00039277558 0.0012702377 0.00035895122 -3.131788e-05
0000a0 24 37 87 38 82 c3 a2 b9 2a f3 88 b9 68 87 8f b9
       6.4475724e-05 -0.00031044713 -0.00026121113 -0.0002737597
0000b0 01 a5 e1 38 88 b8 04 ba 92 fa 97 38 2e a7 07 ba
       0.000107595704 -0.00050628977 7.2469134e-05 -0.0005174753
0000c0 fd bd 9f b8 f7 e9 26 b9 c8 21 19 b9 47 2c 02 b9
       -7.617099e-05 -0.00015918152 -0.00014603802 -0.0001241426
0000d0 f4 6a e2 b7 bc b4 e4 b8 10 92 32 38 48 9e be b7
       -2.6991103e-05 -0.000109055516 4.257454e-05 -2.272347e-05
0000e0 c6 de 07 b8 3f f8 27 ba bf 09 de b9 7c 2e 49 39
       -3.2393982e-05 -0.0006407536 -0.000423504 0.0001918617
0000f0 59 db 5d b8 eb fb 36 b9 32 b2 6e 39 fe 84 28 ba
       -5.289479e-05 -0.0001745072 0.00022763832 -0.0006428509
000100 02 4c 46 b9 40 9f 5c b9 bc 2f 00 3a 1d 02 28 38
       -0.00018911067 -0.0002104016 0.00048899255 4.005629e-05
000110 b5 94 55 39 30 97 e4 b6 a0 df 26 b8 ff ba 04 39
       0.0002036866 -6.81253e-06 -3.978575e-05 0.00012658162
000120 d4 fb 24 ba 58 a8 06 39 5d 48 16 3a 38 7a d3 b7
       -0.0006293629 0.00012841949 0.0005732829 -2.5210073e-05
000130 c6 f9 26 3a 66 d4 84 b9 cb 74 be b9 1c aa 3e b8
       0.00063696166 -0.0002533525 -0.00036326642 -4.5457957e-05
000140 c0 08 99 39 6f 06 e8 39 88 37 2e ba 55 3d e5 39
       0.00029188953 0.00044255282 -0.0006645848 0.0004372398
000150 28 01 8f 39 62 4b 15 b9 3a e3 ad b9 bf 0b f7 39
       0.00027275947 -0.0001423783 -0.00033166428 0.00047120263
000160 b2 0b 9e 39 42 c5 da b8 7d b0 10 39 2d 07 8c b9
       0.00030144822 -0.00010431792 0.00013798657 -0.00026708227
000170 60 e1 09 b9 88 cb 8f 39 6d 5f 83 37 be a1 ac b9
       -0.00013149297 0.00027426728 1.5660853e-05 -0.00032926904
000180 00 35 54 37 fa 54 9a ba 1d 2d 3a b9 6a c2 cd b8
       1.2648525e-05 -0.0011774593 -0.00017755148 -9.811374e-05
000190 22 0c a2 38 70 e6 1a 39 2f 69 1a ba dc e6 77 39
       7.727022e-05 0.00014772429 -0.00058903074 0.00023641757
0001a0 d0 ed 79 37 40 d9 8b b9 20 bb a0 3a 98 9d 53 3a
       1.4896927e-05 -0.0002667401 0.0012262799 0.00080724945
0001b0 18 c9 8a 38 01 7f 3e ba 74 e2 fa 39 00 1f 44 b5
       6.6178094e-05 -0.000726685 0.00047852437 -7.30608e-07
0001c0 50 ea 91 b9 8f 73 2f 39 30 67 fd 38 e6 80 7b 3a
       -0.00027831132 0.0001673235 0.000120832 0.00095940975
0001d0 78 37 3c b7 92 17 66 b9 7c 57 88 37 ca fb 45 ba
       -1.1218588e-05 -0.0002194329 1.6253201e-05 -0.0007552473
0001e0 fc cf a0 b8 0e 90 3a ba 46 64 fd b8 f7 b6 1a 3a
       -7.668135e-05 -0.0007116803 -0.000120826575 0.00059018977
0001f0 b0 2e 03 b9 4d d1 82 38 c4 22 45 b9 f0 2f 21 ba
       -0.00012510526 6.2378684e-05 -0.00018800335 -0.0006148806

dense_layers.0.weight f4 [64, 128]
000000 50 9f 67 3d 09 17 ab 3d f2 ec 78 3d 44 46 1e 3d
       0.056548417 0.08354003 0.060772844 0.03864123
000010 01 df 26 3d c0 87 08 bd 8b f0 21 3c 72 43 a5 3c
       0.040740017 -0.033332586 0.00988401 0.020173762
000020 b7 38 21 3d 09 5a 93 bd 15 e1 a5 3c fd 48 98 3d
       0.039360728 -0.07194907 0.020248929 0.074357964
000030 3b ec 7a bd 95 79 40 3d 67 00 35 bd 84 1a a8 3d
       -0.061260443 0.04699095 -0.044189837 0.082081825
000040 a3 4f 3d 3d a2 bd 92 bd 2e ee 91 bd 30 bc 84 3d
       0.046218526 -0.07165076 -0.07125507 0.064812064
000050 02 8f 78 3c f6 cd 32 3a 9e f5 f3 bd 79 b9 ef bc
       0.0151708145 0.00068208517 -0.11912082 -0.029263245
000060 6e 6e 2a 3c 31 ef 5c 3d a7 a6 c0 3d 69 5a 2b bd
       0.010402305 0.05393905 0.094067864 -0.04183427
000070 30 7e c4 3d 47 68 00 be 90 9a 9a 3d f1 35 82 3d
       0.09594381 -0.12539779 0.07549012 0.06357945
000080 eb bd 98 3d 95 c2 83 bd 1c c1 4e 3c b6 32 d0 3c
       0.07458099 -0.06433598 0.012619283 0.025414806
000090 0c 84 9e 3d ee 61 e0 bc f7 00 0d 3d 23 eb 0b 3e
       0.0774003 -0.027390447 0.03442475 0.13663916
0000a0 e4 1b 2d bd 48 f3 a0 bd 44 93 97 3d db cd ef 3d
       -0.042262927 -0.07858902 0.074011356 0.11709186
0000b0 74 63 96 3d 25 b9 de 3c 94 68 32 bd ab 5b cf 3c
       0.07343188 0.027187893 -0.043556765 0.025312265
0000c0 1d 01 cc 3d f7 b1 dc 3d a1 78 07 3d 5e 03 cb bd
       0.0996115 0.107761316 0.033074025 -0.099127516
0000d0 e8 2e 03 be 08 ad 6d bd 34 76 8c 3d 29 82 8d 3d
       -0.12810862 -0.058026344 0.06858483 0.06909592
0000e0 09 0e 1e bd e0 29 b2 bd 2f 4f 88 3d 6f 12 5f bd
       -0.038587604 -0.08699393 0.06655728 -0.05446094
0000f0 6e 80 6f 3c 70 2f fa bc c2 9f 97 3d 4a e6 31 3c
       0.014618022 -0.030540198 0.07403518 0.010858128
000100 7f af f0 bd 82 de 79 3d 9d 93 98 3d b7 b1 11 bd
       -0.11752223 0.061003216 0.0745003 -0.035569873
000110 26 4e e0 3c 49 2f 8f bd 26 b6 55 3d a2 ce 72 3d
       0.027381014 -0.06991441 0.052175663 0.05927909
000120 a0 45 f7 bc fa 36 ed 3c 74 c7 4d 3d 57 a4 47 3d
       -0.030184567 0.028956879 0.05023904 0.04874071
000130 21 6d 21 3c 00 2c 77 bd c6 80 a6 bd 11 af b4 3d
       0.0098526785 -0.060344696 -0.0813003 0.08822454
000140 e2 53 06 3d 3b dd 11 3d ae 98 a6 3d a3 0d 5e bd
       0.03279484 0.035611372 0.0813459 -0.054212224
000150 33 8e 1a 3b 6a c8 33 bd 4a 50 37 bd aa 8b d1 bb
       0.0023583292 -0.0438923 -0.044754304 -0.006394823
000160 30 94 b2 bd 54 b7 9d 3d 53 44 d0 bc e8 48 49 bd
       -0.08719671 0.07700983 -0.025423205 -0.049141794
000170 b5 f8 d2 3d 98 c1 11 bd 4c 29 62 3d b3 62 a6 bd
       0.10301343 -0.035585016 0.055215165 -0.08124294
000180 f7 c0 d8 bd 1e ec 99 bc 0e 51 26 3d 73 75 c0 bd
       -0.1058368 -0.018789347 0.040604644 -0.09397402
000190 7d ce 50 3d cb 44 e1 bc 4f 50 6a 3d f5 0c 1e bd
       0.050978173 -0.027498623 0.057205494 -0.038586576
0001a0 5e 88 be 3d e5 4c 41 bd 5c fb 9c ba 76 ea c8 bb
       0.09303354 -0.047192473 -0.0011976766 -0.0061314655
0001b0 41 74 89 3c a5 24 a5 bd 6b cf 92 3b f0 86 5c bc
       0.016779067 -0.0806363 0.0044802926 -0.013459906
0001c0 e0 e8 f9 bd bc 5c eb 3c 7d 0f 86 3d 26 6a f4 bb
       -0.122026205 0.028730743 0.06545923 -0.007458943
0001d0 1d 09 f7 3d 28 21 8a 3c d0 5b d3 3c e4 4f 04 3e
       0.12062285 0.016861513 0.025800616 0.12921101
0001e0 4f bf 45 bd 99 7a 84 bc a7 f8 b2 3c a9 f0 88 bd
       -0.04827815 -0.01617174 0.021847082 -0.06686527
0001f0 17 a1 16 3d 44 eb b3 bb 62 a9 e6 bc b8 10 76 bd
       0.03677472 -0.0054906923 -0.02815694 -0.060074538
000200 b2 50 b6 bc f1 4a 9d 3d c0 4a 72 3d 2f 4f c1 bb
       -0.022255275 0.076803096 0.05915332 -0.005899332
000210 dd 55 ac 3d 6d e3 d3 3b c4 bc a9 3d 7c 35 48 bd
       0.084148146 0.0064663203 0.08287957 -0.04887913
000220 cd 3e 4b bc 05 a5 ee bd 0c e9 13 be 1f fa 7b 3d
       -0.01240511 -0.11652569 -0.14444369 0.06151783
000230 ad d7 74 bd 3a 57 20 3c 37 f7 63 3d dd 3c e9 3c
       -0.059775997 0.009786421 0.055655684 0.028471405
000240 cf 6c 9e bd be 61 a5 bc 28 7e cd bd 2f f5 ad bc
       -0.07735597 -0.020188209 -0.10033828 -0.021235077
000250 ec 38 30 3d ac 26 f7 bb e2 de 95 3c 67 b4 57 3d
       0.043023035 -0.007542452 0.018294755 0.05266228
000260 21 5c b0 bd 58 64 0c bd ea 89 88 3a e0 c1 f9 3c
       -0.08611322 -0.034275383 0.0010417078 0.030487955
000270 14 93 90 bd 48 cb e3 bd 02 e2 ca 3d a7 4d b1 3d
       -0.07059303 -0.11122757 0.09906389 0.08657389
000280 8c c7 59 bd cf c0 25 bd 0e 11 87 bd 02 1b ee 3d
       -0.05316882 -0.04046708 -0.0659505 0.11626245
000290 a1 fa 4f 3c 5f fb 7f bd 59 78 61 bd 4d b9 10 3e
       0.012694032 -0.062495586 -0.055046413 0.14133187
0002a0 25 08 ed 3d e4 75 e7 bd fd da b1 bd ac dd a4 3c
       0.11573819 -0.11301783 -0.08684347 0.020125233
0002b0 3f dd 79 bd d2 74 a7 bd 90 39 c9 bd 38 14 05 bd
       -0.061002012 -0.081765786 -0.09825432 -0.032489985
0002c0 58 f1 f0 bc ca a2 04 3e ff a3 5f bd 44 69 20 39
       -0.029411957 0.12952724 -0.05459976 0.00015298004
0002d0 c1 56 f0 bd 77 eb d6 3c 71 4c ac bd 4e 7a ad 3b
       -0.11735297 0.026235325 -0.084130175 0.005294121
0002e0 e1 ea 39 3d 60 08 a6 bc 11 a1 62 3d 91 49 9c bd
       0.045390014 -0.020267665 0.055329386 -0.07631219
0002f0 c8 d1 32 3c 0b ec 84 bd b7 7c c4 3d 7f 1b 9f bd
       0.010914274 -0.06490334 0.095941 -0.07768916
000300 3e 51 8c bd 2d 9a 37 bd bb 1d 59 bd 5b 50 84 3d
       -0.06851433 -0.044824768 -0.05300687 0.06460639
000310 f0 1a 34 bc 27 e1 33 3d 4f 96 e9 3d 49 7a 9e bd
       -0.0109927505 0.043915894 0.11405622 -0.07738168
000320 be 7f c2 bd dc 80 85 3d 0a af cb bc 40 b5 a2 3d
       -0.09497021 0.065187186 -0.024863739 0.07944727
000330 e1 34 a1 bc 58 e4 04 3d bc f3 6b bd fb 59 6a 3d
       -0.019678535 0.032444328 -0.05760549 0.05721472
000340 49 f0 8b 3d 86 84 e0 3d 36 fa 65 bc 7c 80 36 3d
       0.0683294 0.10962777 -0.014036706 0.044556126
000350 72 e5 36 3d 5a f4 55 3d 94 47 df bc 20 c3 86 3d
       0.04465241 0.052234985 -0.02725581 0.06580186
000360 09 ff b0 bc 01 8d b0 bd 30 a2 1d 3c 6a 9f 1d 3d
       -0.021605985 -0.08620644 0.009621188 0.038482107
000370 7c a3 af bc 8b 11 ea bc 02 5d 4a 3c f4 c6 97 bd
       -0.02144026 -0.028572818 0.012351276 -0.07410994
000380 4c 97 05 bd f8 ec 4e 3d ba d3 3b 3c f6 0c b2 bb
       -0.03261499 0.05051896 0.011464054 -0.005433674
000390 59 0d 0b 3d 44 ec 46 3c fa 64 a1 3d 5c 28 11 bd
       0.033948276 0.012141291 0.07880588 -0.03543888
0003a0 00 cc c2 3c 6c 56 40 bc 0a 4e 9f 3d 98 68 c1 bd
       0.023778915 -0.011739355 0.07778557 -0.09443778
0003b0 b2 62 04 bd 14 39 93 bd 96 49 24 3c 5c d6 12 3c
       -0.032320686 -0.07188621 0.01002731 0.00896224
0003c0 41 ca 03 be df 31 8f bd f4 b4 d0 bd e8 6b 60 3d
       -0.12870122 -0.06991934 -0.10190764 0.054790407
0003d0 4a 8b 61 3d cc a4 88 bc 60 2b 5e bd c0 ba 0a 3e
       0.055064477 -0.016680144 -0.054240584 0.13547802
0003e0 b5 71 23 bc 1a a5 20 3d 7f 38 02 3d 0c f1 d5 3c
       -0.00997584 0.039219953 0.03179216 0.026115917
0003f0 78 1c 9f 3d 36 49 59 bb a8 5d 83 3c 53 1e dc bd
       0.07769102 -0.003315521 0.01603587 -0.107479714

dense_layers.0.bias f4 [64]
000000 11 b1 05 3d b0 42 5c 3d 6f 0f 92 39 b2 63 fa 3b
       0.032639567 0.053774536 0.0002785879 0.007641279
000010 8d bd 15 bd f4 a0 32 3d 3f 0e 4f bc 44 93 69 bd
       -0.036557723 0.043610528 -0.012637674 -0.05702521
000020 ad a0 3d bc 76 45 1c 3d d3 1d 22 bd e8 b7 8a 3d
       -0.011573953 0.03815218 -0.039579224 0.067733586
000030 0a d5 67 3d ab 9b c2 3b 78 db 15 3a f4 3f f6 bc
       0.056599654 0.005938967 0.00057166023 -0.030059792
000040 bb e8 91 3c 87 29 59 3c f8 17 4f bc d6 8e 55 3d
       0.01781117 0.01325453 -0.012639992 0.052138172
000050 5f 45 06 3d 45 6c 43 bd aa a7 c3 3c 30 ae 60 3c
       0.032781 -0.047710676 0.02388366 0.013713405
000060 20 54 4b bd 50 e3 83 3b b7 65 70 3b 13 dc a6 3d
       -0.049640775 0.0040249005 0.003668172 0.081474446
000070 d1 2c ec ba d6 5a 0e 3b 58 2b 23 3d 09 a7 69 bd
       -0.0018018727 0.0021721623 0.039836258 -0.057044063
000080 57 d0 27 bc e7 3d 3e bd 80 a9 ab 3c 4a 58 c2 3a
       -0.010242543 -0.046445753 0.020954847 0.0014827338
000090 b6 49 61 3d 1a 48 7d 3a d5 84 0b bc 29 a6 15 3d
       0.055001937 0.0009661928 -0.008515556 0.036535416
0000a0 90 20 e0 bc f7 fe 67 bc 75 fd 52 3d 7c 52 9b bb
       -0.027359277 -0.014159909 0.051511247 -0.0047400575
0000b0 bc 07 5b bd d8 b8 c8 3c 18 b8 9c bd a8 d5 8b 3d
       -0.053474173 0.024502203 -0.076523006 0.06827861
0000c0 1a 0d ba 3c f5 d3 56 3d 6a 71 fa 3b e8 1d 11 3c
       0.022711325 0.05244823 0.0076429145 0.008857228
0000d0 13 db 79 3b 9a 2f 7a 3c fa 3a af bc 70 39 29 3d
       0.0038124963 0.015270138 -0.021390427 0.041314542
0000e0 63 88 3e bc 94 a1 54 3d 8a 9a c9 bc 05 59 a1 3d
       -0.011629197 0.051911905 -0.024609823 0.07878307
0000f0 f1 c2 e2 bc d5 a6 72 3d 81 85 cd 3c 3d b7 b3 bc
       -0.027680846 0.059241135 0.025088074 -0.02193796

dense_layers.2.weight f4 [14, 64]
000000 82 d4 09 3e 1b 35 3a 3e a6 8a 84 3e e0 1a 83 3b
       0.13459972 0.1818432 0.2588703 0.0040010065
000010 9a ab 74 be c8 6b 19 3e c9 7a d7 3d 5a 7b 08 be
       -0.23893586 0.14982522 0.10521466 -0.13328305
000020 36 be ca 3d fc c1 ac 3d c2 32 88 be d7 a9 85 3e
       0.09899561 0.08435437 -0.26601225 0.2610614
000030 0d 1b f4 3d c9 53 44 be f3 b0 08 3d f4 95 32 3c
       0.11919222 -0.19172587 0.033371877 0.010900009
000040 ae 3d 99 be 40 ca 59 3e d8 9b 89 3e a8 a5 ce bd
       -0.2992987 0.21268559 0.26876712 -0.1009019
000050 32 4d 1e 3e 61 80 19 bd 28 ba 4f be 45 11 df bd
       0.15459135 -0.037475947 -0.20285857 -0.10891966
000060 de ad a4 be 93 7e 34 3e c4 40 00 3e 9a 69 1d 3e
       -0.321639 0.17626409 0.12524706 0.15372315
000070 af f4 fc bd 0f fa 3e 3e 69 04 9b 3e ee 58 17 3e
       -0.12351357 0.18650077 0.30276802 0.14780018
000080 ae 83 d4 3c c1 50 84 be 9e 1a 9c 3d 3b 6b 4c 3d
       0.025941696 -0.2584286 0.07622264 0.04990695
000090 22 b4 3e 3b 27 17 8c 3d 7c 1d 8d bc 01 2d 07 3e
       0.0029099067 0.068403535 -0.017225973 0.13200761
0000a0 a6 ef 21 3e ac 37 22 3e e4 bd 6f 3e 9e 69 d8 bc
       0.15814075 0.1584155 0.23412281 -0.02641755
0000b0 7c 0a 95 bd dc de 86 3e d9 f8 1c 3e 91 81 bf bd
       -0.0727739 0.26341903 0.15329303 -0.09350885
0000c0 37 e2 9e bd a5 9f 48 3e 58 b1 59 ba 2b 57 45 3e
       -0.07757991 0.1959215 -0.00083043193 0.19271533
0000d0 67 d5 aa be 62 3d 98 3e c6 3f 85 3e 71 40 55 3e
       -0.33365938 0.2973433 0.26025218 0.20825364
0000e0 4f f5 bd be fa 27 74 3e d9 70 f1 3d fe aa 44 3c
       -0.37101218 0.23843375 0.11789102 0.012003658
0000f0 6f bb 87 bd b8 86 57 3e ab a8 73 3e 6f 51 36 be
       -0.06627547 0.21047485 0.2379481 -0.17804502
000100 2a 40 85 bd aa a6 cd bc c2 34 e7 bc d6 59 2f bb
       -0.06506379 -0.025103886 -0.0282234 -0.0026756427
000110 06 07 00 3b a7 8b f3 bd 71 5e 27 3a 48 64 af 3d
       0.0019535436 -0.11891871 0.00063846173 0.08564049
000120 9f a0 9f 3b c4 44 13 bd da 45 24 bc 68 e6 c1 3c
       0.0048714424 -0.035954252 -0.01002642 0.023669437
000130 2a e2 32 3d 58 70 2f 3d 19 91 06 39 49 6f 4d 3d
       0.043672718 0.04283175 0.00012833289 0.050154958
000140 da 0b 3f 3d 85 ba 02 3e 7e 2a a4 ba bc 76 1b bd
       0.046642162 0.12766464 -0.0012524871 -0.03795503
000150 78 f5 29 bd 33 ef cf bc ed 52 88 3d d3 de 3c ba
       -0.041493863 -0.025382614 0.06656442 -0.0007204834
000160 c2 8e 85 3a cf fc 2c 3d 1e 76 a7 bd 4d 97 86 bd
       0.001018964 0.042233285 -0.08176826 -0.06571827
000170 32 e8 37 bb 7e 83 1c 3d 5c 53 00 3d 4a 16 b3 3c
       -0.0028061983 0.03821134 0.031329498 0.021861214
000180 95 a9 fd bd 3c 21 71 bd 3d 00 1f bd 33 97 26 3d
       -0.12385861 -0.058869585 -0.038818587 0.04067154
000190 92 8d ec bd 5b 85 c3 3c 72 d6 7c 3b 1e 71 23 bd
       -0.1155044 0.0238673 0.0038579968 -0.0399028
0001a0 c1 eb 19 3d 7f 04 39 3d 14 71 12 3d 8d eb 83 3d
       0.037578348 0.045170303 0.03575237 0.06441412
0001b0 57 47 e2 3d 0c fa a1 3c 51 04 bf 3d 8b e8 d3 bd
       0.11048763 0.019772552 0.09326995 -0.103470884
0001c0 06 a1 f0 bc f4 72 f3 3c 4b 70 37 ba da 39 86 bb
       -0.029373657 0.0297179 -0.0006997629 -0.004096252
0001d0 b5 42 24 bc 71 e1 42 3c a6 37 55 3d b1 5c a3 3d
       -0.01002567 0.01189457 0.052055024 0.07976664
0001e0 e0 56 ba 3a d6 b1 e9 bc b4 10 92 3d c3 d3 e2 bd
       0.0014216565 -0.028527182 0.07132092 -0.110755466
0001f0 c5 43 f3 3d e3 47 1b 3d 95 3b bc bd 14 53 95 bd
       0.118781604 0.037910353 -0.09191052 -0.072912365
000200 ca a3 13 3e a3 6d 21 3e 58 db 53 3d a8 cd 8b 3e
       0.1441795 0.1576448 0.051722854 0.2730534
000210 b1 71 82 be c5 c9 d7 3d b4 8c 0d 3f 3a 1b 11 be
       -0.25477365 0.10536531 0.5529282 -0.14170542
000220 d3 9d 1a 3d 9d f7 9f be 90 a2 91 be 41 07 96 3d
       0.03774817 -0.312436 -0.28444338 0.07325602
000230 aa 4f ad be 86 71 ed be 14 dc 3e 3f 8f f3 51 3e
       -0.3384984 -0.46375674 0.7455456 0.20503066
000240 9d 8e 03 be 04 35 59 be 4d dc c6 3e 73 62 93 bd
       -0.12847371 -0.2121163 0.3883995 -0.07196512
000250 dc 19 8f 3d 33 85 2a bc 6b ad 8a 3b 4f 92 f4 3e
       0.06987354 -0.010407734 0.004232099 0.47767875
000260 0e 23 4e bd d8 c8 6f be 2f c9 b5 3c 51 fc c4 3c
       -0.0503264 -0.2341646 0.022190658 0.024046095
000270 2e 1a b9 3b 6d 56 ed bb a9 04 cc 3d a3 9d d4 3c
       0.005648873 -0.007242969 0.09961826 0.025954073
000280 13 d0 a7 3d 75 34 ab be 66 9b 40 be 65 16 1e be
       0.08193984 -0.3343846 -0.1880928 -0.1543823
000290 f2 84 eb 3c 57 3b be 3d 7f d5 2a 3e 33 2d b0 3e
       0.028749917 0.09288662 0.16683005 0.34409484
0002a0 59 d2 51 3e f4 01 80 3e f5 95 fd 3d 12 fe 62 be
       0.20490398 0.2500149 0.12382118 -0.22167233
0002b0 55 c5 0a be 6e ac a6 3e 7b 89 e5 3d ba 46 12 3e
       -0.13551839 0.32553428 0.11207863 0.14284793
0002c0 a8 d8 67 bd 79 71 9d 3c ec 7e b0 be ea 49 2a bd
       -0.056603104 0.019219147 -0.34471834 -0.041574396
0002d0 37 0c 39 bd 51 2f 36 3d ea 2d d8 3e 93 a5 76 bd
       -0.045177665 0.04447872 0.4222253 -0.060216498
0002e0 86 6b da be 1e 26 ca 3d 23 ed b1 bc 90 09 6c ba
       -0.4266016 0.098705515 -0.02171952 -0.00090041105
0002f0 d2 c7 7d be 87 63 8c bc 4c a9 9f 3d 4e 2d a0 be
       -0.24783257 -0.017137302 0.07795963 -0.31284565
000300 c5 61 2a be f3 e9 ab bd ec af a2 bd 2a 62 8d 3d
       -0.16638859 -0.08394232 -0.07943711 0.06903489
000310 5a 97 23 3f 3f 2d 0e be bc 02 c0 3f 20 57 f2 3d
       0.6390282 -0.13884448 1.5000834 0.11833024
000320 0c 43 53 bc 20 23 1b be 8a e3 00 3d 1e 14 82 be
       -0.012894403 -0.15150118 0.031467 -0.25405973
000330 03 98 57 3c f5 c2 f5 3d 05 10 25 3f ef 0a 09 3e
       0.013158801 0.12000076 0.6447757 0.13383077
000340 e8 72 70 bc ad 64 44 3e a4 99 18 3d ab c6 80 be
       -0.014675833 0.1917903 0.037255898 -0.25151572
000350 7f 39 b2 bd 57 9f 5e 3e 68 58 32 be 36 75 54 bd
       -0.08702373 0.21740471 -0.17416537 -0.051869594
000360 ea 32 63 3d e8 ab a9 bd 74 fe 4a be 65 ba 5d bd
       0.055468477 -0.08284742 -0.19823629 -0.054132838
000370 8c 6a 82 bd 2e d8 91 be 80 4a 41 be 77 20 7d 3e
       -0.063679785 -0.28485245 -0.18876076 0.24719416
000380 59 9e b4 bd fe ba 87 3e 3d 11 64 be 4c 19 d1 be
       -0.08819265 0.2650985 -0.22272201 -0.40839612
000390 62 a6 09 bc e0 e0 85 bc db d7 b8 3e e5 7a 73 bd
       -0.008401485 -0.01634258 0.36102185 -0.059443373
0003a0 95 d1 8e be 39 6a ab bc d8 b6 39 be 7b e0 9b 3d
       -0.27894273 -0.020924674 -0.18136156 0.076111756
0003b0 da 69 8f 3e bf 72 a0 be f1 c5 3b 3e 90 58 30 3c
       0.28010446 -0.31337544 0.18337227 0.010763302
0003c0 1a d6 fa bc 55 96 26 bd 64 23 5b be fa 31 a1 3c
       -0.03061967 -0.04067071 -0.21400219 0.019677151
0003d0 ef 5c 71 3d 7d 0f 99 be 5e 06 ce bd f1 18 56 be
       0.05892652 -0.2989463 -0.10059808 -0.20907952
0003e0 11 4d 7f 3e 37 57 68 be 27 64 16 3e 76 73 54 be
       0.24931742 -0.2268952 0.14686643 -0.2074717
0003f0 d4 75 15 3e f4 37 fa 3d 47 3e 9e be 25 eb a6 3e
       0.14595729 0.122177035 -0.3090689 0.32601276

dense_layers.2.bias f4 [14]
000000 43 25 9a 3d df 6b 4e 3d 6e b3 40 bd 81 b2 35 3d
       0.07526638 0.050395843 -0.047046117 0.044359688
000010 3d 96 98 bb 99 72 8a 3b 20 25 a4 bc 1d 14 99 3c
       -0.0046565817 0.004225087 -0.020037234 0.018686349
000020 a9 01 ca bd 4b b5 4d 3d 61 dc 61 bd 09 49 b8 3c
       -0.09863598 0.050221723 -0.05514181 0.022495763
000030 b0 6a 59 bd a4 83 32 bd
       -0.05308026 -0.043582574

onnx::LSTM_218 f4 [1, 512, 7]
000000 f7 ef 50 3d ed 1e 28 3d ee 67 3e 3c 83 e0 70 3c
       0.0510101 0.041045118 0.011621458 0.014701965
000010 12 b2 0e 3d ec 7c fd bc 20 97 c6 3c b8 ad 3a be
       0.03483779 -0.030943356 0.024241984 -0.18230331
000020 f5 8e b4 bd 58 ab 24 3d 74 8a f1 3d 3d 52 cd 3d
       -0.088163294 0.04020247 0.11793986 0.10025451
000030 5f 78 4a 3d 1a 44 18 3d 57 81 b6 bc e3 8d b4 3d
       0.0494312 0.03717432 -0.02227847 0.08816125
000040 92 4a 88 3d 8b 62 9d bd 07 55 d9 3c d1 19 86 be
       0.06654848 -0.07684811 0.026529802 -0.2619157
000050 2b 79 94 3c 80 e5 3e bd fb cf a4 3d 5d 8d 16 bd
       0.018124184 -0.046605587 0.080474816 -0.03675591
000060 47 1e 0a bd 1f 39 46 bd 55 64 56 bd d2 8b e2 3b
       -0.03372028 -0.04839432 -0.052341778 0.0069136405
000070 d3 2d b2 bd 1c be d8 bc be 4f 61 bd 75 00 76 bb
       -0.087001465 -0.026457839 -0.05500769 -0.0037536894
000080 c0 09 21 bd f5 56 34 3d a3 d6 f0 bb 62 73 7f bd
       -0.03931594 0.04402824 -0.0073498054 -0.062365897
000090 77 64 d9 3c 7e ba e2 3d 60 2e 19 bd cb 65 cf bd
       0.026537163 0.11070727 -0.037397742 -0.10126837
0000a0 71 c4 3f bd b8 d3 d3 bd 37 4f bb be 8a db e1 b9
       -0.0468182 -0.103431165 -0.36583874 -0.00043078914
0000b0 4b 19 30 3e e3 ba 93 3d 69 2c 2a bd 09 1f 0a be
       0.17197149 0.0721338 -0.04154626 -0.13488401
0000c0 ef 3a c6 bd d1 f4 75 3d a7 15 08 3d a0 40 11 bc
       -0.096792094 0.06004793 0.033223774 -0.008865505
0000d0 8c 7f c5 3d 93 02 97 3d f7 3e 1e 3e 54 93 8d 3b
       0.09643468 0.07373538 0.15453707 0.0043205414
0000e0 4e 40 b4 bd ba 24 cb 3d 55 67 bc 3d 8c 26 a2 bc
       -0.08801328 0.099191144 0.091993965 -0.019793771
0000f0 12 cc 64 bb 10 f3 ab 3c ae b4 96 3d dd 71 dd 3d
       -0.0034911674 0.020989925 0.07358681 0.10812733
000100 34 72 4a 3e c4 49 eb 3d ae 21 b5 3d 6a eb a6 bc
       0.19770128 0.11488679 0.088443145 -0.020375926
000110 94 ab 8b bd c1 a4 8a 3c d5 52 c1 3d 42 de 68 3d
       -0.06819835 0.016924264 0.09439627 0.056852587
000120 95 2d c8 3d bd 43 00 3e 83 2f 2e 3c a1 3f 5c bd
       0.09774319 0.1252584 0.010631445 -0.05377162
000130 16 a5 c4 bb 9c 72 28 3b 66 27 8e bd 4f 67 19 bc
       -0.006001125 0.0025703078 -0.069411084 -0.00936301
000140 e7 29 7e bd 13 3c 56 3d 0d 8b 0c 3e 30 63 8c bd
       -0.06205168 0.052303385 0.13724919 -0.06854856
000150 83 60 87 bd d4 32 30 bc f1 09 f3 3d 95 30 22 3e
       -0.06610205 -0.010754306 0.118671305 0.15838845
000160 3c 23 1b 3d 71 42 de bd b0 97 4c 3c 25 d8 48 bd
       0.0378754 -0.108525164 0.012487337 -0.049034256
000170 cb d1 71 3d 7e 41 a1 3d 0c 3e 80 bc b9 eb 21 3d
       0.059037965 0.0787382 -0.015654586 0.039531443
000180 2d bf f3 bd 9f 51 b5 3d 87 4b 93 be a3 80 8d bd
       -0.11901698 0.088534586 -0.2876856 -0.06909301
000190 a2 88 a0 3d 39 60 88 3d 69 97 95 bd ee 4d d4 3c
       0.07838561 0.06658978 -0.0730427 0.025916066
0001a0 2c 4a b0 3c f4 5b 29 be e2 b8 5a bc e4 b5 52 3d
       0.021519743 -0.16538984 -0.013349744 0.051442996
0001b0 91 73 b1 3d 05 8d 40 3d 88 9a 9c 3c 9c 5a 3b bc
       0.08664621 0.047009487 0.019116655 -0.011435177
0001c0 f6 7e a4 3c 70 a0 1b 3e 95 b5 82 bc 8c ba 11 bd
       0.020080071 0.15197921 -0.015955726 -0.035578296
0001d0 4c 74 2d 3d 52 e4 4b be fa 1f 0e 3d ed a1 c9 bb
       0.042347237 -0.19911316 0.034698464 -0.0061533363
0001e0 0a 62 16 3e a8 ba ce 3d 1f 40 38 bd 6d 85 80 bd
       0.14685836 0.100941956 -0.044983026 -0.06275449
0001f0 b7 86 ff bd 31 d8 86 bd dd 4f 92 3c 2d da 9c 3d
       -0.12476867 -0.06584204 0.017860347 0.07658801
000200 a1 ce 4f 3c 2b 68 ae 3d 9b 2a 10 bd 91 e1 79 bd
       0.0126835415 0.08515962 -0.03519688 -0.061006133
000210 31 d6 a8 bc 4b 9c 54 bb b2 fd e9 3b e2 2d 82 3d
       -0.020609947 -0.003244179 0.0071408385 0.06356408
000220 ea fc 38 3d cd 53 64 3d 67 86 9e bd 02 31 d4 bc
       0.045163073 0.05574398 -0.07740479 -0.025902275
000230 49 17 de 3d 6d ae 35 3e f9 ac 3b 3d 0d 2e 74 3d
       0.10844285 0.1774232 0.045819256 0.05961423
000240 b4 aa 94 3d 80 b2 2c be 7d 7f 99 bd 09 f0 10 bd
       0.072591215 -0.16864967 -0.074950196 -0.035385165
000250 c3 46 6a 3d 02 e3 f2 bc 73 16 f4 bd a7 84 54 bd
       0.05719639 -0.029649261 -0.11918344 -0.05188432
000260 54 7c 4e 3d a6 78 62 3c 2e 6d 91 bd d2 4b b0 3c
       0.050411537 0.01382271 -0.071009025 0.021520529
000270 98 84 b6 3c e6 e3 80 bb 7f 66 e0 3d 6e 8c c6 bd
       0.022280023 -0.0039334176 0.109570496 -0.096947536
000280 6f 3d 51 3c a8 c5 8c 3d ed 3c b3 3d e8 30 30 3c
       0.012770995 0.068736374 0.08751855 0.010753848
000290 fe e5 83 3d a2 12 da bc d2 66 f2 3d 28 36 0e 3d
       0.06440352 -0.026620213 0.11836018 0.034719616
0002a0 51 aa 85 bc 24 08 0d 3e a5 24 00 3e bf 7a a9 3c
       -0.016316565 0.13772637 0.12513979 0.020688413
0002b0 68 52 81 3d 0a c2 d7 3d 94 a5 ab 3d ea ae 55 be
       0.06314546 0.10535057 0.08381191 -0.20867506
0002c0 62 71 fe bd 85 1c b1 3d f3 b6 a5 bd b8 ec 70 bc
       -0.1242397 0.08648018 -0.080915354 -0.014704876
0002d0 3a 72 3c bd 0b cd c2 bd d0 df c0 3d d0 e8 22 3e
       -0.046007372 -0.09511765 0.09417689 0.15909123
0002e0 b4 67 b3 3d 40 14 93 bd 77 81 a2 bc b0 ec ed 3c
       0.08760014 -0.07181597 -0.019837124 0.029043525
0002f0 89 aa 2a bc 91 e8 46 bd 5c 32 85 3d e9 32 a4 bc
       -0.010416635 -0.048561636 0.06503746 -0.020043807
000300 31 cf e6 3d e7 09 ec 3d 72 87 18 be ef a5 e0 3d
       0.112699874 0.11525326 -0.14895418 0.10969149
000310 9e 57 49 be 74 97 7d 3d 67 34 a5 3c ab 58 fe 3c
       -0.1966233 0.061912015 0.020166589 0.03104814
000320 10 b5 b1 bc a2 c2 0d 3e 1e e7 8f bd d5 c3 cb 3d
       -0.021692783 0.13843778 -0.07026504 0.09949461
000330 58 0c ca 3d 42 e0 a8 3d 05 3e 89 bd ab e0 bf 3c
       0.09865636 0.08245899 -0.067012824 0.02342256
000340 c5 02 fb bc ca 11 ce 3d 33 b4 8e bc 06 ae 41 3e
       -0.030640969 0.10061987 -0.01741991 0.18914041
000350 f6 30 e7 3d 1a 7e 42 3d 1e b5 2e 3c d0 20 43 be
       0.112886354 0.04748354 0.010663299 -0.19055486
000360 1f 87 87 3c 93 e6 0b bd 6a 1c d4 3c aa 29 a9 3d
       0.016543923 -0.03415544 0.025892455 0.082599
000370 68 ba e2 3d 4c 7a 39 bc 0f f3 0b be e6 68 7e 3c
       0.110707104 -0.011320662 -0.13666938 0.015527939
000380 bc 0f 07 bd 9b 9c e0 3d 7b 04 d5 3c 9d 94 a5 3d
       -0.03297399 0.1096737 0.026003113 0.08084986
000390 87 e5 c7 3c da 9c 37 bd 9b 82 73 3d b4 0c a2 bd
       0.02440144 -0.04482732 0.059450727 -0.07912579
0003a0 c9 98 ab 3e 99 3e 3d 3e a0 b8 1f be ad aa 1b be
       0.33515003 0.1848091 -0.15597773 -0.15201826
0003b0 bf 40 7c be 26 59 50 be 8c 07 2c 3d 91 ae 88 3d
       -0.24634074 -0.20346507 0.041999385 0.06673921
0003c0 92 02 09 3e 64 1a 75 bc a7 94 15 3d 51 e5 7d be
       0.13379887 -0.014959905 0.03651872 -0.24794509
0003d0 bc 72 05 3e 2e 9f ad bc 85 da e2 bb 1c 33 aa 3a
       0.13032049 -0.021194067 -0.006923022 0.0012985202
0003e0 da 7e 9f bd ab b9 81 bd 26 53 d4 bd da 21 90 3c
       -0.07787867 -0.063342415 -0.10367422 0.017594267
0003f0 8f e0 29 bd 64 6e 8e 3d 3d e7 1e bc b2 98 72 3b
       -0.04147392 0.06954649 -0.009698686 0.0037017283

onnx::LSTM_219 f4 [1, 512, 128]
000000 1a aa cb bd f7 b8 94 bd 76 5f 4b bd 19 03 b0 3d
       -0.09944554 -0.07261842 -0.049651586 0.08594341
000010 06 0e bf 39 09 fd ae bc c3 9c a4 3c 86 f1 be 3d
       0.00036440807 -0.021360891 0.020094281 0.09323411
000020 5b c9 bc bd 78 4c 2f 3d d7 b7 34 3c 6d 96 2d 3d
       -0.09218093 0.042797536 0.011030159 0.042379785
000030 9d 56 8c bd 9a 7c b9 bd b5 79 04 3e 1f 0d 3b 3d
       -0.06852458 -0.09056969 0.12937053 0.04566681
000040 fb fc 63 bd e3 0a f0 3c f8 3d a1 bd 65 6f b6 3d
       -0.055661183 0.029302066 -0.07873148 0.089079656
000050 bd 86 e7 bd 2a 41 82 bd 02 b3 94 bd c9 d2 4d 3d
       -0.11304996 -0.06360085 -0.072607055 0.05024985
000060 49 64 ba 3c d7 16 3e 3e 07 04 04 3d bb 56 21 bd
       0.022752898 0.185634 0.032230403 -0.039389353
000070 62 87 92 3d 2b e3 65 bc 26 08 77 3d 17 42 32 bc
       0.071547285 -0.014031212 0.060310505 -0.010880015
000080 2b b6 05 bc a6 84 3d 3d 4b 8c f9 bc d5 5e a8 bc
       -0.008161108 0.04626908 -0.030462405 -0.020553032
000090 61 b5 77 3d c8 1e 21 bd 10 11 81 3d 18 c9 6b 3d
       0.06047571 -0.039335996 0.063020825 0.057564825
0000a0 9c df ae bd 3c 74 a7 3d 98 26 9c bc 22 23 95 3c
       -0.08538744 0.08176467 -0.019061372 0.01820523
0000b0 37 bd 32 bc c3 59 85 3d b8 44 82 3d a0 bb 0e 3d
       -0.01090937 0.06511261 0.06360763 0.034846902
0000c0 25 24 9f bd 9b cc 0e 3c 26 e1 9e bc 28 86 39 3c
       -0.07770566 0.008715774 -0.019394469 0.011323489
0000d0 c6 d1 0c bd 22 79 08 bd 99 0d ce bc e2 7f 82 bc
       -0.034379743 -0.033318646 -0.025152968 -0.01593012
0000e0 20 ed a1 bd c4 03 5e ba 50 77 85 bd 03 f6 75 bd
       -0.07906556 -0.0008469189 -0.06516898 -0.06004907
0000f0 6a 82 56 bd 49 4a b0 bd 50 3e 92 bb 1b 6b 5a bc
       -0.052370466 -0.08607919 -0.0044629946 -0.0133312
000100 b4 22 20 3c c0 0e 0d 3d f7 c3 0d bd 46 9b 59 3c
       0.009773899 0.034437895 -0.034610715 0.013281649
000110 9f 6f f7 3c 0a e9 a6 bc 71 61 25 bd 49 84 90 3d
       0.030204592 -0.020374794 -0.04037613 0.070564814
000120 b8 8f ff 3c 46 17 63 3d 83 b9 a8 3a bf db 9a bc
       0.03119646 0.055442117 0.001287267 -0.018903611
000130 e5 05 ab bd cc dc a2 bc ce d1 4e bd 64 fe 4a bb
       -0.08350734 -0.019880675 -0.050493054 -0.0030974383
000140 43 34 c1 bd 40 32 3e 3d 9b a2 40 bd 26 bd e0 3c
       -0.09433796 0.04643464 -0.047030073 0.027433943
000150 ae 6d 49 bd c9 81 55 3d 77 0e 6c bc ff 2c e4 bc
       -0.049176864 0.052125726 -0.014407746 -0.027853487
000160 9f be 8a bd 90 80 e1 3d 9c eb a8 bd 92 13 16 bd
       -0.06774639 0.110108495 -0.08248064 -0.036639757
000170 7f 21 34 bd d0 b2 9d bd 59 67 ba bc 9c b6 8d bd
       -0.043977257 -0.077001214 -0.022754358 -0.069195956
000180 fa 93 b0 3d d3 01 9b 3c e8 97 27 bd c6 a9 3c 3d
       0.08621974 0.018921768 -0.040916353 0.046060346
000190 1f 0d e5 bb 91 13 64 3b cf cb 71 bd 54 70 94 bd
       -0.0069900895 0.0034801702 -0.059032258 -0.072479874
0001a0 50 09 c0 bd b6 51 ad bd 9b 46 19 bc c8 1a 7d bb
       -0.09376776 -0.08462851 -0.009355213 -0.00386207
0001b0 06 3c f0 bb 21 69 98 3c ab 06 04 be 21 22 4b bc
       -0.007331374 0.018604817 -0.12893169 -0.012398274
0001c0 26 f2 73 bd 1e ce 53 be c1 4f f7 bd 47 b8 e3 bd
       -0.059557103 -0.20684096 -0.12075759 -0.111191325
0001d0 d8 f4 98 b8 30 1b e0 bc 36 64 a7 3d 2a aa 3d bd
       -7.2935305e-05 -0.027356714 0.081734106 -0.04630486
0001e0 26 6b 74 3d f8 e1 83 bd 0b 67 e1 ba 21 ab b7 3d
       0.059672497 -0.064395845 -0.0017196847 0.08968187
0001f0 7f 1f 14 3d 2a 73 9c 3d e2 29 5e bc 0c 18 89 bd
       0.03616285 0.07639153 -0.01355979 -0.0669404
000200 0e e5 a4 bc 04 3c 94 3c 78 a7 e9 bd 5e 74 0c 3e
       -0.020128753 0.018095024 -0.11408895 0.13716266
000210 09 26 be bd 84 5c a6 ba ea b2 74 3d 8f af fd bd
       -0.092845984 -0.0012692367 0.05974094 -0.12387001
000220 89 8f 35 3d 12 6c d1 bc 32 c3 c9 bc 4a 8b bf bd
       0.04432634 -0.025564227 -0.02462921 -0.09352739
000230 22 f2 9b 3d 7f 97 15 bd 32 96 cb 3d e4 78 18 be
       0.076145425 -0.03652143 0.09940757 -0.14889866
000240 8f 6a ac 3d 00 62 0b 3e 10 05 19 3e 10 8f b9 bb
       0.08418762 0.13611603 0.14943337 -0.0056628063
000250 be 19 c4 3d e6 7d 11 bd 0c b2 13 3e 8b df f3 bd
       0.095752224 -0.035520457 0.14423388 -0.11907872
000260 f5 cf 18 bd 23 e5 4d 3c 94 d0 c4 3c 7a 6e e4 3a
       -0.0373077 0.0125668375 0.024025239 0.0017427944
000270 09 bd 59 bd 18 52 68 bb 89 89 67 bd c0 12 fe 38
       -0.053158794 -0.0035449322 -0.056527648 0.00012115156
000280 9a d3 25 bc a3 a3 f2 bd c7 d8 32 bc fa 4d 37 bd
       -0.0101212505 -0.118476175 -0.010915942 -0.0447521
000290 4a 63 04 3d b0 ea 7b 3d da fb 08 be ff cb aa bb
       0.032321252 0.061503112 -0.13377324 -0.0052123065
0002a0 e8 57 83 bc bf 47 ce 3d 2d ca cd bc f8 56 55 3d
       -0.016033128 0.10072278 -0.025120819 0.052084893
0002b0 63 b8 0f bd 37 51 6f 3d 62 23 19 3e 58 2e 73 bd
       -0.035087954 0.058427062 0.14954904 -0.05937037
0002c0 9e c5 93 bd f7 25 0c bd 71 df 2d bd f7 5c 9c 3d
       -0.07215427 -0.034215894 -0.04244942 0.07634919
0002d0 45 78 17 bd 36 85 89 3d 54 35 38 3c c2 92 d7 3d
       -0.036979932 0.06714861 0.011243183 0.10526039
0002e0 75 0f 2f 3c 62 f3 69 3c ad 28 d7 3d e9 4c 00 3d
       0.010684838 0.014279218 0.10505805 0.031323347
0002f0 c9 11 69 3d ee 20 c0 bb e7 7f 84 bd 5a d5 1c 3e
       0.056901727 -0.0058633005 -0.06469708 0.15315762
000300 81 07 a1 3d d3 b6 bc bd 70 56 cd bd 96 7d 25 bd
       0.078627594 -0.092145585 -0.10026252 -0.04040297
000310 ed 86 36 bc f5 39 d3 3b 94 81 f9 3c 83 35 fb bb
       -0.011140567 0.006446118 0.030457295 -0.007666291
000320 40 9b 74 3d 30 1f 54 3d a8 0c 9e 3d 9e 9a c7 bd
       0.05971837 0.051787555 0.07717258 -0.09746288
000330 c3 12 c5 3d d9 75 18 be b6 03 d7 bc 3a bd d2 bc
       0.09622719 -0.14888705 -0.026246887 -0.025724996
000340 ff 0b 19 3c 21 aa 40 3d 44 fe f2 bd d2 1d aa bd
       0.009341239 0.047037248 -0.118649036 -0.08306469
000350 90 11 a6 bd 3c 3e 1c 3e e8 85 b3 3d a1 6e 59 bd
       -0.081088185 0.15258116 0.08765775 -0.05308402
000360 25 b9 ec 3d 8a 89 12 3e 8f 4e 01 be 2e ec 8e 3d
       0.11558751 0.1431028 -0.12627624 0.069786415
000370 5f ea fe bd 64 c1 21 be e4 72 b5 bd 80 64 1d 3e
       -0.124470465 -0.15796429 -0.08859804 0.15370369
000380 f2 69 f9 3c bf 0e 69 bd 4c 5f 3a bd 9d 86 21 be
       0.030446026 -0.05689883 -0.04550104 -0.15774007
000390 1f ab c2 bd 9c 1c d9 bc 67 74 11 bd d9 e2 41 bd
       -0.09505295 -0.0265029 -0.0355114 -0.04733548
0003a0 a6 53 f8 bd 2a 6f d1 3d e5 db 16 be 26 04 5e bd
       -0.1212533 0.10226281 -0.1473232 -0.054203175
0003b0 18 a4 d2 bc 82 84 7b 3c f4 e1 2d bd fe 75 c6 bc
       -0.025713012 0.015351417 -0.042451814 -0.024226185
0003c0 0c 3e 8b 3d 97 d8 19 bd b5 c9 0a bd 7f 7d b8 bd
       0.06798944 -0.03756007 -0.03388377 -0.090083115
0003d0 b5 95 d1 3d 0e 56 80 bd 59 b2 d7 3c 65 9c f6 bd
       0.102336325 -0.06266414 0.02633016 -0.12041549
0003e0 ce c5 bf bc 68 59 cd bd 9a f7 91 bd 22 bd 76 3d
       -0.02340975 -0.100268185 -0.071273044 0.060238965
0003f0 b0 ec 36 be fb 4a a7 3d e8 14 16 3e f5 03 ff 3c
       -0.17863727 0.08168598 0.14656413 0.031129817

onnx::LSTM_220 f4 [1, 1024]
000000 d0 d5 2e be b1 af 49 be a9 58 70 bd fa 00 d6 3d
       -0.1707375 -0.19695927 -0.058678303 0.10449405
000010 aa 9d 8c 3d ac fb d5 bd 76 ed 6e bd 08 80 09 bd
       0.068660095 -0.10448393 -0.05833193 -0.033569366
000020 f8 4a 2c be da 17 53 3d 4e 3b be 3c a7 6f 47 3d
       -0.16825473 0.05153642 0.023221638 0.048690464
000030 ea 17 72 bd ca db c3 bd 26 9d 1a be d6 44 d8 bd
       -0.059104837 -0.09563406 -0.1509901 -0.105600044
000040 a0 5a c3 3c 0f c2 92 3d b4 78 08 be aa b3 fb bd
       0.023846924 0.0716592 -0.13327295 -0.122901276
000050 9d 41 c9 3d 22 4f 8d bd 8f d9 b9 bd da c6 c4 bd
       0.09826968 -0.06899859 -0.09074699 -0.096082404
000060 fa 24 1d bd f5 48 ca 3d 3e 92 01 bd e1 82 6b bd
       -0.03836534 0.09877197 -0.031633608 -0.057497863
000070 07 19 83 bd cc b8 94 3d 0e 53 e7 bd b9 e5 5f 3d
       -0.06401258 0.0726181 -0.11295138 0.05466244
000080 11 28 2f 3d 73 d1 43 3c ae 3b 1b bd d6 1f 41 bd
       0.04276282 0.011951792 -0.03789871 -0.0471495
000090 dc 53 55 bd bb 01 88 bd c6 7d 10 be 4c 6d 25 bd
       -0.052081928 -0.06640955 -0.14110479 -0.040387437
0000a0 e7 68 5e 3c 3f 74 03 bd 5d 1c fb 3c 3b 53 43 3e
       0.013574815 -0.032093283 0.030653173 0.19074719
0000b0 7f 94 88 bd af 8f d5 bc 61 ba 0b be 22 cc a0 3d
       -0.066689484 -0.02606949 -0.13645317 0.07851435
0000c0 ac 95 69 3d a6 3d 42 3c bf 6a 93 3d 80 ac 2b be
       0.057027504 0.011855518 0.071980946 -0.16765022
0000d0 c6 fd 88 bd fc eb 24 be 39 87 18 3c ef cc 09 be
       -0.066890284 -0.16105646 0.009309583 -0.13457082
0000e0 62 58 38 be 73 51 9a bd ff 99 d2 bd 71 fb 91 bd
       -0.18002465 -0.075350665 -0.10283279 -0.07128037
0000f0 74 3f 45 bd 1b 30 ee bd f0 6f a0 bd 98 7d ec 3d
       -0.048156217 -0.11630269 -0.078338504 0.115473926
000100 56 2f 15 bd c0 35 8c bc 92 38 57 3d be d3 79 bd
       -0.036422096 -0.017115474 0.052544184 -0.06099295
000110 d8 f1 b4 bc 19 22 70 bd 40 ce 10 be e1 50 d3 bd
       -0.022087976 -0.058626268 -0.14141178 -0.10318161
000120 21 c0 84 bd 22 b2 c9 bc 73 d0 3a be 37 be e6 bd
       -0.06481958 -0.024621073 -0.1824358 -0.11266749
000130 a6 89 06 bd d7 d9 63 3c 74 67 0d bc b7 6a ed 3d
       -0.032846116 0.013906918 -0.008630622 0.1159262
000140 ee a6 6c 3d 52 7b d4 bd 84 33 b9 bd 9a d2 42 be
       0.057776384 -0.10375084 -0.09043029 -0.1902565
000150 df 4d 3a bd 50 31 bb bc 34 e6 bf bd a0 7c f8 bd
       -0.04548442 -0.022850662 -0.0937008 -0.12133145
000160 91 e6 d3 3d 78 05 e8 bd e1 e9 50 3d f4 3e f4 bb
       0.103467114 -0.11329168 0.051004294 -0.0074537937
000170 23 93 ae bd 59 d9 97 3c 23 9f 0f bc b5 df cb bd
       -0.08524158 0.018536257 -0.0087659685 -0.09954778
000180 8a a8 26 bd 93 3f 96 bd e7 b8 b8 bd 32 95 61 bd
       -0.040688075 -0.073363446 -0.09019642 -0.055073924
000190 b8 f0 31 3d 0e b1 23 3d a9 3a 69 bd 62 38 33 be
       0.043442458 0.039963774 -0.05694071 -0.17501977
0001a0 fd 40 7a bd d3 89 38 bd 1c 2d 88 bd eb 71 ef ba
       -0.061097134 -0.045053314 -0.06649229 -0.0018268203
0001b0 05 23 88 bc 9b ae 87 bd a1 de c1 bd da e3 24 be
       -0.016618261 -0.066251 -0.09466291 -0.16102543
0001c0 55 11 09 be 42 8b 95 3d 78 a7 0f bd ed 3e f5 bd
       -0.13385518 0.07301952 -0.03507182 -0.11974893
0001d0 d3 82 57 bd 90 08 e1 3c 22 20 12 3a 82 b9 2c 3c
       -0.052614998 0.027469903 0.0005574246 0.010542275
0001e0 30 0d b7 bd e9 f8 71 3d 49 87 73 be 3d ef 28 be
       -0.08938062 0.05907527 -0.23782076 -0.16497512
0001f0 33 08 2f 3e f7 32 fa bd 89 47 48 3b 76 65 66 3d
       0.17092972 -0.12216752 0.0030560216 0.056249104
000200 50 93 a8 bd 0a a4 50 be 39 f3 31 be aa 7d b0 3c
       -0.08231223 -0.20375076 -0.17377938 0.021544296
000210 69 13 a9 be 97 b9 d6 bd 6c 71 36 be d0 f0 bc bd
       -0.3302262 -0.10484617 -0.17816705 -0.09225619
000220 ee ed 8e bd 64 10 82 bd cf 25 11 be 1e 9d af bc
       -0.06978975 -0.063507825 -0.14174579 -0.021437224
000230 f6 3a ee bd b4 f2 6a be a9 ca 55 be 92 e7 cf bd
       -0.1163234 -0.22944146 -0.2087809 -0.101515904
000240 1a 69 72 be 4f e0 e7 bd d3 db ae bd 94 54 c7 bc
       -0.23672906 -0.1132208 -0.08538022 -0.024332322
000250 55 a0 42 bc ea 2e 9e bd d5 63 6b be a2 0f 98 bd
       -0.011879046 -0.07723792 -0.22987302 -0.07424857
000260 d7 c7 0b be cf 45 e0 3c bb fb 1f bd c0 bd 51 bd
       -0.13650452 0.027377037 -0.03905843 -0.05120635
000270 ac 1c ab bd a7 b2 f0 3b 07 22 90 be fb 15 8a bd
       -0.08355078 0.007345516 -0.2815096 -0.06742474
000280 ae 45 d9 bd 45 fb 1b 3e c3 cb 2b be 1f 48 46 be
       -0.106089935 0.1523257 -0.16776948 -0.1936345
000290 34 4c ce bd 7e e3 54 3d 64 33 b2 bd 54 35 60 be
       -0.10073128 0.051974766 -0.08701208 -0.21895343
0002a0 75 c2 a4 bc 03 fd 77 be 92 c1 6c bc 95 71 9b 3d
       -0.020112256 -0.2421761 -0.014450448 0.075900234
0002b0 a8 13 c1 bd 0c df 3a be 6a aa a7 bd 77 13 e7 bd
       -0.09427577 -0.18249148 -0.08186801 -0.112830095
0002c0 6e 2c 37 bd 36 f0 df 3c 7b ab c3 3c 68 85 b9 bc
       -0.044720106 0.027336221 0.02388548 -0.02264662
0002d0 f6 0d 8b bd e1 a6 b7 bd 01 91 f7 bc 5b 65 d4 bd
       -0.06789772 -0.089673765 -0.03022051 -0.103708945
0002e0 32 cc c3 bd b6 f6 0f bd b4 f0 24 be 92 81 29 be
       -0.095604315 -0.03514739 -0.16107446 -0.16553333
0002f0 6f ef 65 be 57 62 db bd d5 df 6a be 2d ab e2 3c
       -0.22454618 -0.10712116 -0.22936948 0.027669514
000300 86 1f 04 be c4 16 65 bd 49 ff 07 3e a0 3b 91 3c
       -0.1290265 -0.055929914 0.13280977 0.017728627
000310 c6 05 b8 bd f7 53 05 bd e4 fd f3 bd 93 c4 b6 bd
       -0.08985476 -0.03255078 -0.1191366 -0.08924212
000320 8e 59 4e bd 55 12 94 bd d6 46 49 bd fc 7a 01 be
       -0.050378375 -0.07230059 -0.04913982 -0.12644571
000330 3a 6e 57 bd f3 6d a5 3c 1b a3 fc ba f6 80 49 3c
       -0.052595355 0.02019403 -0.0019274683 0.012298813
000340 f5 f5 74 3d d4 6d a6 bd 33 2e 02 be b4 61 ac bd
       0.059804875 -0.08126417 -0.12712936 -0.08417073
000350 53 d0 3e be df e6 6e bd 3d c3 8f bc 30 2e 8d bd
       -0.18634157 -0.058325645 -0.017549152 -0.06893575
000360 88 23 24 3e fb e5 47 bd 66 c2 f9 bd dd e3 2c be
       0.16029179 -0.04880331 -0.12195282 -0.16883798
000370 7c 78 52 be 10 d1 07 be e7 81 8d be e2 92 3d be
       -0.20553774 -0.13263345 -0.2763817 -0.18513063
000380 fb 77 2a be 0b 0d 16 be 0d f4 88 3c c7 db 3a be
       -0.16647331 -0.14653413 0.016717935 -0.18247901
000390 e3 4e da bc c8 81 9b bd 7e 92 9a bd 2a 06 36 be
       -0.026648944 -0.07593113 -0.075474724 -0.17775789
0003a0 9d ca 05 be 51 c3 b7 bc 25 80 80 bd 2b 99 25 be
       -0.13065572 -0.022432001 -0.06274442 -0.1617171
0003b0 61 9d 31 be 57 a4 bb bd ee c5 1f be d1 0f d6 bd
       -0.17345192 -0.09162205 -0.15602848 -0.104522355
0003c0 52 72 58 bd 28 73 91 3d 82 cb 40 bc 32 69 27 be
       -0.0528434 0.071020424 -0.01176727 -0.16348723
0003d0 67 c7 f6 be 61 a8 0b bc a3 cc 74 bd b1 ef 1d be
       -0.48199007 -0.008524031 -0.05976547 -0.15423466
0003e0 ce 97 c9 bd 82 92 15 be 77 8d b7 bd ce 51 c0 bc
       -0.098434076 -0.1460667 -0.08962529 -0.023476508
0003f0 85 d9 0d 3e e4 54 83 bd 7b 73 91 bc 9d 2b 3c be
       0.13852508 -0.06412676 -0.01775526 -0.18376012

onnx::LSTM_240 f4 [1, 512, 128]
000000 d7 c1 90 3b 58 19 a1 3b 73 3c 83 bd 13 c9 3c 3d
       0.0044176388 0.0049163513 -0.06408014 0.046090197
000010 0e 6e c9 ba 75 56 20 bd 60 7a 8b bc 5a ee 5d 3d
       -0.0015367882 -0.03914495 -0.017026126 0.054182388
000020 ea a1 23 3d 8a 14 ed 3c c6 99 5b 3d 7e a8 34 3d
       0.039949335 0.028940458 0.053613447 0.044106
000030 a9 9d 3a bd e4 e0 5f bd c5 d7 91 bd fb 55 bc bd
       -0.045560513 -0.05465783 -0.07121233 -0.09196087
000040 63 7c d6 3c ac 09 87 3d 58 57 0e bc d0 09 9e bd
       0.02618236 0.06593642 -0.008687817 -0.07716715
000050 b5 79 43 bc a7 05 c3 bc 71 2d 9e bd 27 a3 08 3d
       -0.011930873 -0.023806406 -0.07723511 0.03335872
000060 f4 ca a8 3d a6 48 de 3c 76 dd 7d bd 42 cd 8f bb
       0.08241835 0.02713425 -0.06197878 -0.0043884823
000070 dd 8e 21 3b 08 34 11 bd 43 cf da bd 6d 10 18 bd
       0.0024651804 -0.03545001 -0.10684063 -0.03712504
000080 28 12 87 bd c1 b4 ea bc df 5d 97 bd a9 c9 95 3d
       -0.0659526 -0.028650643 -0.07390951 0.07313854
000090 13 c7 e1 bc 77 8f 5b 3d c7 4a bf bc f5 c7 e0 3c
       -0.027560746 0.053603616 -0.023351086 0.027439097
0000a0 84 a1 15 b9 f2 ca 72 bd 0e de c2 bc c1 2c 9d bd
       -0.00014269917 -0.059275575 -0.023787525 -0.07674552
0000b0 d3 43 04 3b e3 22 ec 3c b7 9d e3 3c a5 0c 93 bc
       0.0020182028 0.028825229 0.027785165 -0.017950365
0000c0 c9 2c 37 3d 55 f0 a2 bd 1a a4 3d 3d ad 4c 02 3d
       0.044720445 -0.07955996 0.046299078 0.031811405
0000d0 30 ed 8f 3d b7 d7 36 3d 50 09 9f bd 33 ee a3 bd
       0.07027662 0.044639315 -0.07765448 -0.08004417
0000e0 c2 f3 80 bd 8b 69 84 3d ea 79 2e bc 58 2e 32 3d
       -0.06296493 0.06465443 -0.010649184 0.043501228
0000f0 e4 af 83 3d ef 3e fa ba de d2 a9 3d 2a 1c 3b 3d
       0.06430033 -0.0019092242 0.08292173 0.045681156
000100 37 d9 51 3d aa 59 a3 bd 22 b2 62 3d a2 e5 a3 3b
       0.051232543 -0.079760864 0.055345662 0.0050017396
000110 1d ee 13 3d b4 f4 5f 3d b0 91 3e 3d b3 01 5e bd
       0.036115754 0.054676726 0.046525657 -0.05420084
000120 7e 63 92 3d a9 b2 c0 3c f6 b4 2c bd 72 15 b3 3d
       0.07147883 0.023522692 -0.042164765 0.08744325
000130 60 f3 8e 3d 42 e8 5e bd 5a 7b 4f bd 0f 07 8a 3d
       0.06980014 -0.054420717 -0.050654747 0.067396276
000140 df d8 70 3d d7 f6 a3 3d 71 5c 9c bd 6b f1 5f bd
       0.058800574 0.08006065 -0.07634819 -0.054673593
000150 bd da 80 bc 2c 33 b7 3c 37 50 5a bd 35 97 97 bd
       -0.015729303 0.022363268 -0.053299155 -0.07401887
000160 e5 77 8a 3d b8 bc 33 3d be da be 3c 35 db 7b 3d
       0.06761149 0.043881148 0.023297664 0.06148835
000170 fb 5f 41 3d 3c 4f 2e 3d d0 33 28 bd 07 52 2e bd
       0.047210675 0.042556033 -0.041065037 -0.042558696
000180 a8 ab ab 3c 06 a0 97 ba fe 54 76 bd 53 74 5d bd
       0.020955876 -0.0011568076 -0.06013965 -0.054066014
000190 3b 06 6f 3d ac 13 33 3d f7 a8 93 bd 11 ac e2 bc
       0.05835555 0.043719932 -0.07209962 -0.027669938
0001a0 ef de 99 bd ef d4 ad 3c a4 38 84 3d 60 7b fb 3c
       -0.07513224 0.021219699 0.06456116 0.030698478
0001b0 fa 75 8a bd 60 59 9e bd 6a 34 c0 bd 02 d2 99 3d
       -0.067607835 -0.07731891 -0.09384997 0.07510759
0001c0 e0 47 22 bd 84 d8 7b bd 21 7e 1f 3d ae 22 8c 3d
       -0.039619327 -0.061485782 0.038938645 0.06842552
0001d0 c0 fd 8f 3b cb 3f d3 bd 8a 1a 8d 3d b0 86 48 bd
       0.004394263 -0.10314902 0.068898275 -0.048956573
0001e0 ea cc a8 3c ad 94 b9 3c 11 ba 9c 3d 73 78 32 bd
       0.020605523 0.022653902 0.07652677 -0.0435719
0001f0 ea b6 86 3d ca 71 d8 bc 68 20 33 3b 94 c1 5f 3d
       0.06577857 -0.026421446 0.0027332548 0.05462797
000200 87 c6 a2 3d 97 03 38 3d 5f c9 e5 bd a9 19 3d bd
       0.07948022 0.0449253 -0.11220049 -0.04616705
000210 6d 0a 08 3e db e7 d0 bc 5d 51 53 bd f4 92 3d 3a
       0.13285227 -0.025501182 -0.051591266 0.00072316756
000220 08 38 4a 3d c5 9d 85 3d ea be fd bc 4f b8 b2 3d
       0.04936984 0.06524233 -0.030974824 0.0872656
000230 3a 7b 8c bd aa b7 fd bc f7 1b da bd 40 48 3e bd
       -0.06859441 -0.030971367 -0.10649865 -0.04645562
000240 14 5c d4 bd f6 21 13 bd 74 aa 40 3d 98 b3 f0 3b
       -0.10369125 -0.03592106 0.047037557 0.007345628
000250 92 3d 1e bd ef 22 cc 3c 1f d4 2b bc 0e 1e 82 3d
       -0.038632937 0.024919001 -0.010487585 0.06353389
000260 61 94 b4 3c 9a 24 61 3d 9b 63 9e bd ef b6 9d 3d
       0.022043409 0.054966547 -0.07733842 0.077009074
000270 07 c0 1e bd 15 de f2 bc e1 e6 b1 bc da dc 9f 3b
       -0.03875735 -0.029646913 -0.021716537 0.0048786225
000280 fb b9 14 bc 4b df b6 bc 4e 16 91 bd 07 63 3b ba
       -0.009077544 -0.022323271 -0.070843324 -0.000714824
000290 90 50 82 bc 08 cf 50 bd c1 eb b8 3c 48 89 91 bd
       -0.015907556 -0.05097869 0.022573354 -0.071062624
0002a0 45 23 24 3d 31 43 c9 bd 03 39 31 bd f1 85 f9 3c
       0.0400727 -0.09827269 -0.04326726 0.030459376
0002b0 2c 2d 03 3c 3f 32 a0 bd 40 19 5d 3d f0 df 9d bd
       0.008006375 -0.07822084 0.05397916 -0.07708728
0002c0 3f 6c ca bc ee ba eb 3c 86 69 51 3d 46 85 3b bd
       -0.024709819 0.028775658 0.051126026 -0.045781396
0002d0 d1 d4 87 3b f2 f3 9a 3d e5 b6 13 bd ee 7e 44 3d
       0.0041452427 0.0756606 -0.036063094 0.047972612
0002e0 d8 5d 86 bd cd 35 8d bd 09 1d ae 3c 49 fd 36 3c
       -0.06560868 -0.06895027 0.02125408 0.011168786
0002f0 81 35 78 bd 38 03 cd bd c0 ef 56 3d be 31 80 3c
       -0.0605979 -0.100103796 0.052474737 0.015648719
000300 79 32 05 bd 6e e0 46 3d 9c a6 8e 3d 9c 24 c5 3d
       -0.032518838 0.048553877 0.06965372 0.09626123
000310 ad 61 af 3b 17 00 2d bd 21 de 15 3d de f0 2e 3d
       0.00535222 -0.042236414 0.03658879 0.042710178
000320 17 f9 34 bd 7a 85 5b bc 81 82 ba bc bb 64 28 3d
       -0.044182863 -0.0133985225 -0.022767307 0.04111169
000330 45 33 d1 bd c3 72 57 3d 49 6b 10 3d 6c 24 fb 3c
       -0.10214857 0.05259968 0.035258565 0.030657016
000340 bf a7 21 bc 11 91 f3 3d f7 13 dd bc 84 86 84 bd
       -0.009866654 0.118929036 -0.026987059 -0.06470969
000350 41 66 04 bd 7d 10 8f 3c 27 72 9c bc 93 62 aa bc
       -0.03232408 0.017463917 -0.0190974 -0.020798957
000360 9d 40 96 bd f5 11 76 3d 92 8f 99 3d 5d 99 a9 bd
       -0.07336543 0.06007572 0.07498087 -0.08281205
000370 a5 2e 90 3d 81 ad 7d 3d 71 cd 30 bd ad b8 37 3d
       0.07040147 0.061933044 -0.043164674 0.044853855
000380 c3 4d 07 bc 81 5f 31 bd 60 5a 48 3d 8c c9 b1 bd
       -0.008258286 -0.04330397 0.048914313 -0.0868102
000390 78 88 80 3c 85 5d 18 bd 68 88 de bd 3a 81 89 3c
       0.015690073 -0.037198562 -0.10865861 0.016785253
0003a0 77 a4 96 3d f6 b2 35 3d 5a 8f 39 3c bd c7 b0 bd
       0.07355588 0.044360124 0.011325682 -0.08631847
0003b0 7f 86 b6 bd b9 0b 00 3d 77 1b e2 bd fb 7a f5 3c
       -0.08912372 0.03126118 -0.11040395 0.029965868
0003c0 f9 9e 55 3d 73 54 3c 3d 98 67 92 bc ec 8c d7 3a
       0.05215356 0.045978975 -0.017871663 0.0016445196
0003d0 f1 72 6d 3d 12 14 87 3d cd cc 86 3c d4 d5 bf bc
       0.057970945 0.06595625 0.016455078 -0.02341739
0003e0 4a 02 bf bd 69 86 b8 bd b2 23 7b bd 23 ab d0 3c
       -0.093266085 -0.09010012 -0.06131334 0.02547223
0003f0 40 8f 18 bd 4b 11 cd bc 75 d0 93 bd f7 f6 ba bc
       -0.03724599 -0.02503266 -0.072174944 -0.02282284
