New_project/modelo_simples10.onnx (onnx, 183092 bytes, 5 tensors)

output_layer.weight f4 [14, 100]
0.18066402 -0.001565771 0.1179358 -0.016454468 -0.14352046 0.33683017 0.27812752 -0.109458454
0.3485848 0.14142562 -0.09193023 -0.1968653 0.32121065 -0.2377139 0.19824064 -0.292029
0.07549804 0.14982183 0.048411507 -0.01587808 -0.03146518 -0.30382657 0.09063705 -0.014162234
-0.17315789 -0.12733036 -0.17973676 -0.4083634 0.09269775 0.04139293 -0.12168188 -0.26385877
0.088462904 -0.040535655 0.113653965 0.31612045 -0.0070053707 0.18362167 0.13026212 0.06532815
0.1737471 0.05208872 0.28875583 0.041425675 0.029944245 -0.02283714 0.5959603 0.09099421
0.0768606 -0.062292412 0.16847996 0.14448251 0.3089194 0.27310407 -0.043545384 0.010826639
0.14409024 0.02309586 0.025619483 -0.15933388 0.03588092 0.39227578 0.071465485 -0.1530123
0.40343577 -0.09988383 0.028590545 0.119791426 -0.29547894 0.08644458 0.16140032 0.1956107
0.10752382 -0.11853744 -0.21104729 -0.07680297 -0.44602817 -0.048801046 0.018105961 -0.35784334
0.26590076 -0.7684401 0.13399361 -0.26478618 -0.42066056 -0.3785459 0.03591538 -0.05140882
-0.18214346 0.024139073 -0.10313622 0.03825509 -0.4405996 0.24324566 0.29237682 0.057711516
0.07282502 0.30485708 -0.22598457 -0.28393444 0.12240316 -0.0912158 0.021635769 0.010286195
-0.20275202 0.15245761 0.10715247 0.15525635 -0.0987472 -0.12199305 -0.15200661 -0.17074879
-0.06688564 0.09539216 0.16344646 -0.005442452 -0.11192313 -0.0606201 -0.21175532 -0.03662229
-0.079457656 0.041665826 0.026955796 -0.07941807 0.025867783 0.08467214 -0.2674105 -0.082329966
0.04365815 0.15028618 0.16246708 0.0816072 -0.049259037 0.065029345 0.0009004721 -0.14429307
-0.121678144 -0.024945322 -0.06331685 0.015063408 0.14208907 -0.07549391 -0.05732933 0.0974733
0.014398409 0.07688227 -0.004296804 -0.06029891 0.090622045 0.08356875 0.048256576 -0.16496737
0.055836346 0.12295004 0.058626805 0.016403556 0.067253314 0.16388784 0.024894333 0.07697236
-0.073102795 -0.09316036 0.021324856 0.071883574 0.09465836 -0.009078054 0.12907587 0.07339357
-0.015804177 -0.003502322 0.12710795 -0.26471618 0.12440266 -0.021552864 -0.07714749 0.028446835
0.09996541 0.071373984 -0.06812382 -0.18378478 -0.14549617 -0.19164033 0.1503767 0.01311169
0.046951544 0.13174842 -0.12204006 0.18323532 -0.07939483 -0.0085339 -0.13316284 0.15586181
0.11682904 -0.117938675 -0.09445388 0.09042797 -0.09789199 0.077037826 0.14661042 -0.11577793
-0.09934484 -0.7314539 -0.37001207 0.08802903 0.3177123 -0.16060236 -0.06466001 -0.3569019
0.20264149 -0.45660555 0.024519006 0.062932394 -0.4435415 0.269313 0.05115386 -0.34148872
0.23412643 0.34392375 0.2455557 0.1467506 -0.35176858 0.13694234 0.16087884 -0.16888034
-0.07535549 0.6640826 0.030505296 -0.06617321 0.15630531 -0.06170785 0.015260556 0.06869
0.011932187 -0.21489944 0.22058114 0.11048237 0.1159382 0.58282346 -0.9466037 -1.0550815
0.15648963 0.44124088 0.030130474 -0.21450523 -0.32613602 -0.19167748 0.25651178 0.6123047
-0.7515022 -0.2763819 -0.018353924 0.29911637 0.09988799 -0.19939576 -0.29439944 0.3852214
00000000: fdff 383e 8e3a cdba 5388 f13d 85cb 86bc
00000010: 07f7 12be 0175 ac3e bb66 8e3e c12b e0bd
00000020: b579 b23e e1d1 103e eb45 bcbd 0f97 49be
00000030: b975 a43e 466b 73be 98ff 4a3e d384 95be
00000040: b79e 9a3d e56a 193e 254b 463d bf12 82bc
00000050: a2e1 00bd 288f 9bbe eb9f b93d b708 68bc
00000060: 4d50 31be e462 02be ea0c 38be 0215 d1be
00000070: 51d8 bd3d a28b 293d 5934 f9bd 7f18 87be
00000080: 0a2c b53d b708 26bd 69c3 e83d 8ada a13e
00000090: 4f8d e5bb 5207 3c3e 6f63 053e c4ca 853d
000000a0: c3ea 313e fb5a 553d ced7 933e f8ad 293d
000000b0: a24d f53c f414 bbbc db90 183f 2c5b ba3d
000000c0: 1769 9d3d 5426 7fbd 0386 2c3e 39f3 133e
000000d0: af2a 9e3e 4cd4 8b3e a55c 32bd 3762 313c
000000e0: 648c 133e 8733 bd3c f3df d13c 6c28 23be
000000f0: dff7 123d 5fd8 c83e 7f5c 923d 42af 1cbe
00000100: 228f ce3e e58f ccbd b836 ea3c 3555 f53d
00000110: 0449 97be db09 b13d 2046 253e 2c4e 483e
00000120: 7335 dc3d c2c3 f2bd c81c 58be e04a 9dbd
00000130: ce5d e4be 9be3 47bd f452 943c 3e37 b7be
00000140: 2524 883e 7eb8 44bf 9f35 093e 0e92 87be
00000150: d260 d7be c5d0 c1be 011c 133d 0e92 52bd
00000160: d183 3abe 4ebf c53c 1539 d3bd 5fb1 1c3d
00000170: 4596 e1be 6415 793e 6ab2 953e e962 6c3d
00000180: 4925 953d 3a16 9c3e 8068 67be db5f 91be
00000190: 82ae fa3d 59cf babd 7f3d b13c 6e87 283c
000001a0: 3a9e 4fbe d91d 1c3e c172 db3d 85fb 1e3e
000001b0: f93b cabd 7ed7 f9bd 9fa7 1bbe c5d8 2ebe
000001c0: 57fb 88bd f75c c33d 825e 273e 9956 b2bb
000001d0: f437 e5bd c84c 78bd 63d6 58be 4101 16bd
000001e0: b2ba a2bd c9a9 2a3d 67d2 dc3c f1a5 a2bd
000001f0: ace8 d33c 9668 ad3d 07ea 88be 9d9c a8bd
00000200: e3d2 323d 9fe4 193e c55d 263e ad21 a73d
00000210: d8c3 49bd 1b2e 853d a90d 6c3a 90c1 13be
00000220: 6432 f9bd 225a ccbc 44ac 81bd 83cc 763c
00000230: cc7f 113e 8d9c 9abd 29d2 6abd 15a0 c73d
00000240: 4ee7 6b3c 7474 9d3d 34cc 8cbb fdfb 76bd
00000250: 0d98 b93d 1826 ab3d b0a8 453d 35ed 28be
00000260: a7b4 643d 3bcd fb3d a922 703d c060 863c
00000270: 1bbc 893d 37d2 273e 33ef cb3c afa3 9d3d
00000280: ebb6 95bd dcca bebd 77b1 ae3c b237 933d
00000290: 3edc c13d 1ebc 14bc 772c 043e 5e4f 963d
000002a0: c377 81bc 3687 65bb 9628 023e e188 87be
000002b0: d2c6 fe3d a28f b0bc 81ff 9dbd 5609 e93c
000002c0: aaba cc3d 862c 923d 8084 8bbd 1432 3cbe
000002d0: f3fc 14be 5d3d 44be 5afc 193e 6ad2 563c
000002e0: 4350 403d 0fe9 063e 24f0 f9bd 0aa2 3b3e
000002f0: c299 a2bd c5d1 0bbc d75b 08be 3d9a 1f3e
00000300: 1044 ef3d d589 f1bd 0971 c1bd 4d32 b93d
00000310: 987b c8bd 02c6 9d3d 0b21 163e fb1c edbd
00000320: 4f75 cbbd 9040 3bbf 3972 bdbe 9048 b43d
00000330: 30ab a23e f274 24be 786c 84bd d9bb b6be
00000340: 4081 4f3e 34c8 e9be 15dc c83c b3e2 803d
00000350: df17 e3be 65e3 893e b686 513d 9cd7 aebe
00000360: d7be 6f3e c616 b03e f472 7b3e ca45 163e
00000370: 031b b4be 9d3a 0c3e 6cbd 243e f8ee 2cbe
00000380: fb53 9abd 5101 2a3f 3ee6 f93c d285 87bd
00000390: 800e 203e 5fc1 7cbd 6907 7a3c 58ad 8c3d
000003a0: 387f 433c 990e 5cbe 06e0 613e 9544 e23d
000003b0: 0271 ed3d eb33 153f 9f54 72bf e90c 87bf
000003c0: d13e 203e 53ea e13e 2fd4 f63c 42a7 5bbe
000003d0: 4dfb a6be 1a47 44be 8355 833e 00c0 1c3f
000003e0: 7362 40bf ee81 8dbe f85a 96bc c825 993e
000003f0: 1392 cc3d 672e 4cbe 86bb 96be bd3b c53e

output_layer.bias f4 [14]
0.2777972 -0.027648138 0.08662305 -0.25112283 -0.037665248 -0.114736535 -0.002054134 -0.037153192
-0.2004038 0.07937947 -0.17382143 -0.03045821 -0.20837012 0.05972339
00000000: 6f3b 8e3e 597e e2bc 6d67 b13d 2c93 80be
00000010: e046 1abd fdfa eabd a69e 06bb f22d 18bd
00000020: a736 4dbe b491 a23d 3ffe 31be 7f83 f9bc
00000030: fa5e 55be 83a0 743d

onnx::LSTM_122 f4 [1, 400, 7]
-0.107096545 0.14790082 0.12844507 0.03981205 0.11986521 0.06357221 0.103533134 0.019499969
-0.038291976 -0.08260724 -0.04654871 0.047535397 0.08143284 0.0742613 -0.271405 -0.0041098404
0.31624645 0.15988761 0.075170435 0.053896062 0.060852192 -0.14916207 0.08101962 0.1219144
-0.09492406 -0.17539509 0.05842854 -0.16186379 -0.0653454 0.12410028 0.018695941 -0.03891474
0.119531386 0.06801956 0.050494663 0.02402937 0.20711184 -0.019861124 -0.06817718 0.05574903
-0.10021876 -0.022200378 -0.2553757 0.0037306303 0.108464554 -0.13136283 -0.042094976 0.055317286
-0.15618436 0.05922003 0.079907574 0.011654551 -0.03250516 0.060947876 0.009995313 0.092222735
-0.021312948 -0.09913565 0.010036982 -0.027817978 -0.07941904 0.06544669 -0.13610843 -0.026722126
-0.2417836 -0.016219923 0.011520194 -0.0005187525 0.15564601 0.15984094 -0.053780038 -0.1056635
0.06590645 -0.08463769 -0.03164502 -0.030936796 0.0039589335 -0.033000454 0.08762239 0.11694656
-0.0036753672 -0.010675123 -0.018097648 0.027868016 -0.047260307 0.06721126 0.14936525 -0.071432605
-0.13498187 -0.12956157 -0.03663974 -0.0898061 -0.003884664 0.16912982 0.14866261 -0.021878943
-0.095803656 -0.11543799 0.049680732 0.2557324 0.030812118 -0.19557053 -0.19357267 -0.20100953
0.0024173683 -0.37128365 0.0131484065 0.32648295 -0.13316032 -0.05496697 -0.035174318 0.050175454
-0.017467473 -0.062049765 0.017613053 -0.02762762 -0.090883635 -0.08328875 0.00965978 -0.34499818
0.18607439 0.25592083 0.041628066 -0.050625052 0.011010013 -0.010372267 -0.07899189 0.010637667
-0.0068725357 0.012817373 0.041310683 -0.03128129 0.004880816 -0.40040305 0.06656614 0.15715411
-0.17115454 -0.014782175 -0.045100775 -0.0007936619 -0.2968411 0.23953038 0.031963322 -0.061928622
-0.2679126 -0.37898222 -0.3235751 -0.056200918 -0.017687231 0.13482921 -0.11066928 -0.00020338348
-0.10730102 -0.026269985 -0.8237518 -0.28970382 0.26469615 0.5914992 0.32797194 0.22485906
0.046651196 -0.09370793 0.4305347 0.09393216 -0.0060335193 -0.015509522 0.19536997 0.03983301
-0.077559054 0.07867509 0.20133863 0.16860865 0.018533845 -0.07043102 -0.033622913 0.037152193
0.3109091 0.029141948 -0.09453149 -0.21408139 -0.05379978 -0.009825914 -0.027327465 0.1287095
-0.4486864 -0.33483458 -0.34054333 0.009294624 -0.2100307 -0.15021254 0.055690985 -0.03330619
-0.032080784 0.06230135 -0.13397491 0.08617605 -0.24328284 0.06987202 0.12729393 0.10858424
0.0031783686 -0.06355374 0.021126008 -0.07754784 -0.20450062 -0.16427745 0.12998933 0.12877512
0.06741661 0.015912352 -0.10390173 -0.019263107 0.059796903 -0.117935434 -0.14178832 0.11367866
-0.0132222315 -0.09442347 -0.40411237 0.07797518 0.11259308 0.20020555 0.19219497 0.47434452
-0.14980191 -0.021264225 0.2271908 0.17519777 0.08185832 0.010270235 0.04201512 0.054036696
0.029927792 0.19671905 0.067844436 0.31902814 -0.10487621 0.20777038 -0.055306282 0.123244256
0.100559615 -0.060803972 -0.17627998 0.110382296 -0.15775982 -0.20456629 -0.27461115 -0.075382106
0.41724885 0.19918351 0.052157365 0.06259811 -0.10562434 0.0075318543 0.10019076 -0.036139052
00000000: 6f55 dbbd 5073 173e 1b87 033e f611 233d
00000010: e47b f53d 2632 823d 2e09 d43d 66be 9f3c
00000020: 0cd8 1cbd fc2d a9bd dca9 3ebd 7ab4 423d
00000030: 43c6 a63d 4f16 983d 99f5 8abe d7ab 86bb
00000040: 0eeb a13e 94b9 233e f5f2 993d 1ec2 5c3d
00000050: 2640 793d f1bd 18be 9ded a53d 42ae f93d
00000060: 8c67 c2bd c59a 33be c452 6f3d 9fbf 25be
00000070: cfd3 85bd 4a28 fe3d 3b28 993c 1065 1fbd
00000080: dfcc f43d d74d 8b3d 7ed3 4e3d 3ed9 c43c
00000090: 2015 543e ccb3 a2bc 7aa0 8bbd 1859 643d
000000a0: 7e3f cdbd 91dd b5bc 9bc0 82be 977d 743b
000000b0: aa22 de3d fa83 06be c86b 2cbd 6194 623d
000000c0: cbee 1fbe b490 723d 95a6 a33d bbf2 3e3c
000000d0: 2124 05bd 7ba4 793d 62c3 233c 46df bc3d
000000e0: 7e98 aebc a207 cbbd 2772 243c 87e2 e3bc
000000f0: 73a6 a2bd ea08 863d 0260 0bbe 5ce8 dabc
00000100: 1f96 77be a5df 84bc 32bf 3c3c e4fc 07ba
00000110: ab61 1f3e 58ad 233e 7548 5cbd 1b66 d8bd
00000120: f6f9 863d 8656 adbd 359e 01bd 2a6f fdbc
00000130: f1b9 813b 7c2b 07bd 5e73 b33d ae81 ef3d
00000140: 6ede 70bb b6e6 2ebc 8541 94bc 774b e43c
00000150: 0694 41bd 0fa6 893d 34f3 183e 424b 92bd
00000160: b038 0abe caab 04be 8d13 16bd 43ec b7bd
00000170: d995 7ebb 5e30 2d3e 033b 183e 783b b3bc
00000180: b534 c4bd c16a ecbd 067e 4b3d 5bef 823e
00000190: b269 fc3c a443 48be ea37 46be 71d5 4dbe
000001a0: b66c 1e3b e418 bebe 6a6c 573c c628 a73e
000001b0: 2e5b 08be 0c25 61bd f212 10bd c784 4d3d
000001c0: f217 8fbc e527 7ebd 4049 903c 5253 e2bc
000001d0: 3321 babd 4b93 aabd 0e44 1e3c 9aa3 b0be
000001e0: 498a 3e3e 0e08 833e 3182 2a3d 375c 4fbd
000001f0: 5763 343c 71f0 29bc 80c6 a1bd 9c49 2e3c
00000200: 0233 e1bb f5ff 513c 6435 293d cf20 00bd
00000210: 41ef 9f3b a101 cdbe d453 883d 02ed 203e
00000220: 2343 2fbe f030 72bc 97bb 38bd c00d 50ba
00000230: 8ffb 97be 7447 753e f9eb 023d dea8 7dbd
00000240: d72b 89be f509 c2be a3ab a5be ef32 66bd
00000250: d0e4 90bc ab10 0a3e 93a6 e2bd 5643 55b9
00000260: a3c0 dbbd 2734 d7bc 66e1 52bf 0f54 94be
00000270: 4186 873e 7e6c 173f f0eb a73e 7441 663e
00000280: 5315 3f3d f1e9 bfbd 0b6f dc3e 815f c03d
00000290: d4b4 c5bb a61b 7ebc 110f 483e f027 233d
000002a0: 48d7 9ebd 6820 a13d b72b 4e3e bfa7 2c3e
000002b0: 4ad4 973c 233e 90bd 2eb8 09bd e62c 183d
000002c0: 7a2f 9f3e 18bb ee3c ba99 c1bd 2738 5bbe
000002d0: 285d 5cbd dffc 20bc d9dd dfbc 6ccc 033e
000002e0: 39ba e5be 706f abbe b25b aebe 7b48 183c
000002f0: 4a12 57be 51d1 19be 3b1c 643d 126c 08bd
00000300: 2467 03bd b32f 7f3d b830 09be 127d b03d
00000310: 231f 79be 1019 8f3d 5759 023e 6a61 de3d
00000320: 2d4c 503b 7728 82bd 7310 ad3c 67d1 9ebd
00000330: 9c68 51be 5938 28be ec1b 053e a0dd 033e
00000340: b811 8a3d 9f5a 823c 6eca d4bd aacd 9dbc
00000350: 99ed 743d 2288 f1bd f530 11be 5bd0 e83d
00000360: 0fa2 58bc 1861 c1bd d1e7 cebe 73b1 9f3d
00000370: 3397 e63d af02 4d3e c2ce 443e 49dd f23e
00000380: ac65 19be 5032 aebc b4a4 683e 0b67 333e
00000390: 56a5 a73d 7d44 283c 0c18 2c3d 9555 5d3d
000003a0: 212b f53c b870 493e 06f2 8a3d a857 a33e
000003b0: 57c9 d6bd c2c1 543e d788 62bd 7c67 fc3d
000003c0: 33f2 cd3d 960d 79bd bd82 34be 1d10 e23d
000003d0: ca8b 21be d379 51be d599 8cbe ef61 9abd
000003e0: a4a1 d53e c3f6 4b3e f6a2 553d 7033 803d
000003f0: 9351 d8bd c6cd f63b d030 cd3d 8b06 14bd

onnx::LSTM_123 f4 [1, 400, 100]
-0.06469149 0.03748254 0.05136189 -0.011541503 -0.013092164 -0.023101244 -0.19020282 -0.08908081
0.03619682 -0.039938945 -0.049311973 0.13588117 -0.07518717 0.04671318 0.09992484 0.12122022
0.1503337 -0.015730457 -0.02790315 -0.0626306 0.0065644607 -0.057325043 -0.04702075 -0.1268131
0.04841462 0.0221304 -0.0007171026 0.14413549 -0.040011432 -0.014246761 -0.045591865 -0.030462008
0.037071694 -0.09929815 0.17530464 -0.15996383 0.16846192 -0.05584161 0.11682338 0.041766588
-0.13707799 0.012994453 -0.12921906 -0.08003302 -0.025424859 -0.13733053 0.065092355 0.10818353
0.038938843 -0.073806405 -0.056288995 0.1867775 0.015796663 -0.032102738 -0.033191 -0.027671747
-0.12113432 -0.06430907 0.04025678 0.1015805 0.0733277 0.114106834 -0.019097637 0.03351874
0.02929853 0.093305334 -0.007814188 0.053239245 0.073277555 -0.022630215 -0.06293714 0.018519979
0.028440503 0.041003663 0.05111542 0.045616433 0.045518827 -0.08723294 -0.022109233 0.12623475
-0.10188501 0.05613411 0.03273714 -0.1469719 0.12894095 0.13986017 -0.0776363 0.02372149
0.056225713 -0.02595943 -0.012231113 0.037914846 -0.073188476 0.032342177 0.10843093 -0.06119027
-0.053046465 -0.0028464864 0.06536418 -0.02257185 -0.02231986 -0.037448112 -9.6793236e-05 0.09093198
0.10402718 -0.006365492 -0.012242923 0.04566455 -0.17876518 0.06720661 0.022142295 0.040937256
-0.1598231 0.14440808 0.1090158 0.27272516 -0.11538017 -0.100379854 -0.022642735 0.12722476
-0.0026331013 0.012395311 -0.017119836 -0.26572084 0.15105432 0.19006509 -0.08959056 0.015467543
0.017017784 0.06854833 -0.008106647 0.055614248 0.02240832 0.20440374 0.064305276 -0.042277075
-0.03282862 -0.29736632 -0.015246421 0.016291238 0.02300755 -0.0034100334 -0.1328978 0.114925206
0.07475539 0.16068487 -0.106213845 -0.008225527 0.12096568 0.008802673 0.030816864 -0.1356444
0.07390089 0.072650544 0.03736288 0.2564503 -0.0004471796 -0.049120843 -0.24955948 0.15795368
-0.081585504 -0.324253 0.17667367 0.25467962 -0.12868631 0.019395404 0.2657937 -0.13344508
0.10874342 -0.1713837 -0.017536953 -0.09283964 0.075517364 -0.066097364 -0.020791134 0.23053658
0.10397556 -0.00498494 -0.037615452 0.041075137 0.004805162 -0.08182167 0.1854458 0.15735321
0.08753596 0.053824544 0.03455372 0.19468579 0.045997024 0.08024907 -0.16667537 0.0020862555
0.13493831 -0.07047 -0.023784526 -0.021591978 -0.033032063 -0.06784271 0.30764183 0.06375634
-0.14187756 -0.11776458 0.023448072 0.16978644 0.15166348 -0.21322532 -0.012190519 -0.14902195
-0.109655306 -0.03671509 0.057616703 0.045232397 -0.06295041 0.097064994 0.10503062 0.25857696
-0.08604243 -0.06600132 0.04013875 -0.20468764 0.032514356 0.08499026 0.2881304 0.13225242
-0.03610834 0.07342502 0.39771903 0.20059364 -0.050722547 0.031752516 0.103431344 0.2715122
0.00922339 -0.07008578 0.009115371 -0.012973248 0.20192327 -0.0784311 0.00022199073 -0.047503702
0.106379196 0.05932724 -0.11488208 -0.042723697 -0.017096138 0.091512 -0.0017116028 0.102208264
-0.13158497 0.01718959 -0.23279738 -0.022508971 -0.124136485 -0.12481582 0.04832016 -0.11763828
00000000: f97c 84bd 4b87 193d d860 523d 9218 3dbc
00000010: 8480 56bc d23e bdbc 87c4 42be 0070 b6bd
00000020: 1e43 143d 0597 23bd 5afb 49bd 6f24 0b3e
00000030: bbfb 99bd 5256 3f3d 65a5 cc3d 4f42 f83d
00000040: 14f1 193e 29dd 80bc 2695 e4bc 7944 80bd
00000050: b01a d73b aacd 6abd d498 40bd 4bdb 01be
00000060: 694e 463d d04a b53c f1fb 3bba 4198 133e
00000070: 07e3 23bd 3f6b 69bc 89be 3abd 768b f9bc
00000080: 7dd8 173d d45c cbbd 0f83 333e 8fcd 23be
00000090: 4881 2c3e 2cba 64bd 1941 ef3d 7113 2b3d
000000a0: 2c5e 0cbe b0e6 543c 0052 04be 5ae8 a3bd
000000b0: cb47 d0bc 60a0 0cbe 244f 853d 548f dd3d
000000c0: 567e 1f3d d027 97bd 4a8f 66bd 9a42 3f3e
000000d0: 0168 813c 297e 03bd 49f3 07bd dcaf e2bc
000000e0: 4515 f8bd 79b4 83bd 4be4 243d 7009 d03d
000000f0: d52c 963d d8b0 e93d a672 9cbc f24a 093d
00000100: 7903 f03c de16 bf3d 1407 00bc 6511 5a3d
00000110: 8b12 963d 0063 b9bc 30e5 80bd 36b7 973c
00000120: 0ffc e83c 75f3 273d 675e 513d 4cd8 3a3d
00000130: f371 3a3d 2fa7 b2bd 6c1e b5bc af43 013e
00000140: 17a9 d0bd e1ec 653d 6117 063d cd7f 16be
00000150: 1909 043e 8137 0f3e c8ff 9ebd 9253 c23c
00000160: ef4c 663d dfa8 d4bc 0265 48bc 994c 1b3d
00000170: d7e3 95bd 3b79 043d 0911 de3d a6a2 7abd
00000180: 4047 59bd 1e8c 3abb a8dd 853d 9ae8 b8bc
00000190: 24d8 b6bc 3163 19bd 79fd cab8 8c3a ba3d
000001a0: 340c d53d 9e95 d0bb 8a96 48bc c00a 3b3d
000001b0: 380e 37be 9fa3 893d c263 b53c d3ad 273d
000001c0: aba8 23be b6df 133e ad43 df3d a2a2 8b3e
000001d0: 704c ecbd f493 cdbd 427d b9bc 3547 023e
000001e0: 1c90 2cbb b415 4b3c e63e 8cbc 900c 88be
000001f0: fcad 1a3e 6ca0 423e 417b b7bd 946b 7d3c
00000200: e168 8b3c 1163 8c3d bed1 04bc c4cb 633d
00000210: a791 b73c 374f 513e 7cb2 833d ba2a 2dbd
00000220: 4e77 06bd 6640 98be 20cc 79bc 3475 853c
00000230: 547a bc3c de7a 5fbb 5c16 08be e85d eb3d
00000240: 5b19 993d 938a 243e a586 d9bd 5cc4 06bc
00000250: dbbc f73d 1639 103c a673 fc3c 5ee6 0abe
00000260: 5a59 973d cfc9 943d d209 193d 744d 833e
00000270: 6e73 eab9 f032 49bd 858c 7fbe 9cbe 213e
00000280: 4d16 a7bd 7d04 a6be f1e9 343e 5e65 823e
00000290: 58c6 03be 1ce3 9e3c 1d16 883e d4a5 08be
000002a0: dfb4 de3d 357f 2fbe a8a9 8fbc b622 bebd
000002b0: d9a8 9a3d 0e5e 87bd 2b52 aabc c811 6c3e
000002c0: 23f1 d43d b558 a3bb a912 1abd 673e 283d
000002d0: 9f74 9d3b 1f92 a7bd 81e5 3d3e 3321 213e
000002e0: 0e46 b33d 2077 5c3d 3488 0d3d b65b 473e
000002f0: 6067 3c3d a059 a43d f3ac 2abe 8fb9 083b
00000300: 452d 0a3e 9352 90bd c4d7 c2bc a9e1 b0bc
00000310: a14c 07bd 1ef1 8abd 3b83 9d3e af92 823d
00000320: 5a48 11be 8e2e f1bd 2c16 c03c 7fdc 2d3e
00000330: ac4d 1b3e bd57 5abe beba 47bc 3699 18be
00000340: f692 e0bd 9062 16bd 7eff 6b3d 9b45 393d
00000350: 25ec 80bd 03ca c63d 4b1a d73d 3364 843e
00000360: 0337 b0bd b32b 87bd 8868 243d a399 51be
00000370: c62d 053d 600f ae3d d485 933e 2e6d 073e
00000380: 57e6 13bd db5f 963d d4a1 cb3e 6b68 4d3e
00000390: 72c2 4fbd ed0e 023d d0d3 d33d a603 8b3e
000003a0: b41d 173c 2289 8fbd a358 153c bf8d 54bc
000003b0: f9c4 4e3e 7ca0 a0bd 2fc6 6839 3e93 42bd
000003c0: 56dd d93d 1f01 733d 4c47 ebbd 0bff 2ebd
000003d0: 330d 8cbc a56a bb3d dc57 e0ba 9152 d13d
000003e0: 36be 06be 2fd1 8c3c 7062 6ebe bc64 b8bc
000003f0: 453b febd 709f ffbd 5ceb 453d 57ec f0bd

onnx::LSTM_124 f4 [1, 800]
-0.06117535 -0.16446322 -0.2696764 -0.13551663 -0.052426793 -0.06630292 0.010567813 -0.07353435
-0.035085488 0.014540486 0.027837727 0.10688957 -0.17262693 -0.0964537 -0.024680808 -0.18548582
-0.026275348 -0.26874787 0.019831512 -0.30015305 -0.33156097 -0.146731 -0.41620278 -0.29624194
-0.094503604 -0.17161468 0.047303926 0.008671181 -0.3224244 -0.032544743 -0.044881485 -0.18446045
-0.13086103 -0.02789082 -0.14136575 -0.31159782 -0.10080952 0.19680597 -0.13670869 -0.21826997
0.07405675 -0.015800718 -0.10486835 -0.16755205 -0.012295952 -0.012218956 -0.0015110078 0.093928516
-0.08108662 -0.40338272 -0.430492 -0.08478545 -0.18544438 -0.030150697 -0.50695133 -0.28445488
0.03405184 -0.098658815 -0.023000482 0.1798785 -0.037760586 -0.16570646 -0.24561739 -0.12743534
-0.12155558 -0.112272084 0.022641513 -0.02012507 -0.22050264 0.020345496 -0.106183976 -0.021718727
-0.10607246 -0.1089672 0.06045195 -0.08545472 -0.094125524 -0.20118695 -0.56622213 0.028509365
-0.031645115 0.12113153 -0.055756845 -0.21514153 -0.063809834 0.3281663 -0.017638464 0.07419554
-0.08644855 -0.26958248 0.020211892 -0.009261676 0.009753824 -0.006509909 0.038674355 -0.05597051
-0.04634718 0.050849244 -0.106607616 -0.07875813 -0.12289676 -0.08922816 -0.11773845 -0.22754759
0.08899961 -0.030936593 -0.0495808 0.03121685 0.019898541 0.05843093 -0.09666546 0.1255383
-0.120525345 -0.0697373 -0.036449667 -0.19772859 0.012225518 -0.3003175 0.09170412 -0.3833571
-0.3531146 -0.20368734 -0.41164625 -0.24786364 -0.12481854 -0.27102444 0.23750518 0.06930546
-0.34204027 -0.092932075 0.08268775 -0.27262357 -0.028313486 -0.1251961 -0.21592104 -0.20633519
0.0116023 0.3147979 -0.22290474 -0.020198127 0.10471988 -0.022676712 -0.07778827 -0.01137867
0.120790556 -0.09124032 -0.05614884 0.10411694 -0.042541437 -0.36083046 -0.4303193 0.020139653
-0.1089219 -0.013456481 -0.5391506 -0.22222914 -0.019128712 -0.11563045 -0.038775615 0.2830158
-0.0318924 -0.123197936 -0.26005605 -0.26489958 -0.06870444 -0.08687463 0.033621997 0.06160987
-0.24473968 -0.008113389 0.04926653 0.06317478 -0.031216433 -0.16138574 -0.011925736 -0.1453236
0.014230945 -0.21977592 -0.5148812 -0.014478053 -0.14932789 0.13055661 -0.05527317 -0.19720617
0.034819458 0.22954807 -0.012630339 -0.031873997 -0.13289891 -0.13632686 -0.060253944 -0.011345131
-0.017501386 -0.020520993 -0.0014031053 -0.058743373 -0.04742118 -0.0027182628 -0.08005861 -0.07825667
0.04474217 -0.1675369 -0.028215656 -0.20287229 -0.033350844 0.055175968 -0.0076797167 0.083992116
0.035104357 0.080531344 -0.07988066 -0.033682413 -0.023494272 -0.101757206 -0.09924755 -0.2822032
-0.062938 -0.09358132 0.1015424 -0.03567839 -0.2238576 -0.08211248 -0.08958522 -0.1228881
-0.023454612 -0.16290614 -0.054226097 -0.12044346 -0.22279063 -0.11366246 -0.043541513 -0.10787623
0.07700422 -0.17457898 -0.043590494 -0.01602828 0.06773311 0.25859332 -0.3046105 -0.079170406
-0.031473037 0.037246335 -0.054701965 -0.093361914 -0.40625703 0.016893914 -0.07707776 -0.39471504
-0.04643063 -0.20708199 -0.4316568 0.04815327 -0.0057122908 0.043965165 -0.037927255 -0.08481674
00000000: 0193 7abd 0c69 28be 0613 8abe dfc4 0abe
00000010: 7abd 56bd d3c9 87bd 9f24 2d3c 2d99 96bd
00000020: cdb5 0fbd 383b 6e3c f20b e43c ebe8 da3d
00000030: 1dc5 30be 8489 c5bd 682f cabc ffef 3dbe
00000040: 663f d7bc 5299 89be b275 a23c a9ad 99be
00000050: 5cc2 a9be a740 16be 8818 d5be 06ad 97be
00000060: 1b8b c1bd c2bb 2fbe c3c1 413d 9211 0e3c
00000070: d014 a5be a34d 05bd a6d5 37bd 33e3 3cbe
00000080: 6f00 06be 4a7b e4bc 2fc2 10be c089 9fbe
00000090: 3975 cebd 8187 493e 5dfd 0bbe 2a82 5fbe
000000a0: 11ab 973d 8270 81bc 38c5 d6bd c492 2bbe
000000b0: f674 49bc 0432 48bc 020d c6ba 985d c03d
000000c0: be10 a6bd 2e88 cebe 7369 dcbe fea3 adbd
000000d0: 22e5 3dbe 98fe f6bc 90c7 01bf 12a4 91be
000000e0: f179 0b3d a20d cabd 826b bcbc 1232 383e
000000f0: d8aa 1abd f4ae 29be 2083 7bbe 697e 02be
00000100: 22f2 f8bd e8ee e5bd b27a b93c 55dd a4bc
00000110: 72cb 61be 99ab a63c fc76 d9bd 79eb b1bc
00000120: 853c d9bd 322a dfbd 779c 773d e202 afbd
00000130: e2c4 c0bd f403 4ebe eff3 10bf 798c e93c
00000140: 4f9e 01bd cf13 f83d 4a61 64bd 104e 5cbe
00000150: bbae 82bd 6a05 a83e 8a7e 90bc d5f3 973d
00000160: f00b b1bd b706 8abe 6993 a53c 49be 17bc
00000170: 81ce 1f3c 1351 d5bb 0069 1e3d 5541 65bd
00000180: 8ad6 3dbd 4c47 503d 1855 dabd f14b a1bd
00000190: 4cb1 fbbd 41bd b6bd db20 f1bd 3c02 69be
000001a0: 6d45 b63d bd6e fdbc 3d15 4bbd 7bba ff3c
000001b0: 4402 a33c 4555 6f3d 8af8 c5bd 1d8d 003e
000001c0: fed5 f6bd 6ed2 8ebd 3f4c 15bd 5d79 4abe
000001d0: 8a4d 483c 37c3 99be 5fcf bb3d 6247 c4be
000001e0: 70cb b4be 6a93 50be 4cc3 d2be f7cf 7dbe
000001f0: dda0 ffbd b7c3 8abe 8f34 733e 05f0 8d3d
00000200: e71f afbe 2c53 bebd 3258 a93d 5195 8bbe
00000210: aff1 e7bc 6833 00be 681a 5dbe 8849 53be
00000220: 9317 3e3c 312d a13e 2441 64be 8b76 a5bc
00000230: 6077 d63d 83c4 b9bc 754f 9fbd 9a6d 3abc
00000240: 0a61 f73d 34dc babd 53fc 65bd 433b d53d
00000250: ee3f 2ebd c5be b8be d052 dcbe eafb a43c
00000260: 7212 dfbd 9278 5cbc c605 0abf 0990 63be
00000270: d1b3 9cbc a8cf ecbd 2ed3 1ebd 72e7 903e
00000280: 9ba1 02bd 334f fcbd 1126 85be eba0 87be
00000290: eab4 8cbd 53eb b1bd 38b7 093d a25a 7c3d
000002a0: 0a9d 7abe 05ee 04bc b3cb 493d c761 813d
000002b0: 9bb9 ffbc 4e42 25be 2a64 43bc b6cf 14be
000002c0: e928 693c f00c 61be 41cf 03bf 5b35 6dbc
000002d0: 69e9 18be a2b0 053e 1f66 62bd 6af0 49be
000002e0: d99e 0e3d a60e 6b3e 7bef 4ebc 4f8e 02bd
000002f0: a716 08be 4599 0bbe d7cc 76bd eee0 39bc
00000300: 115f 8fbc a41b a8bc 67e8 b7ba e49c 70bd
00000310: b63c 42bd e224 32bb c5f5 a3bd 0845 a0bd
00000320: 9143 373d cb8e 2bbe 8524 e7bc c1bd 4fbe
00000330: e59a 08bd 3200 623d 22a6 fbbb 0f04 ac3d
00000340: 96c9 0f3d 9eed a43d 7998 a3bd 92f6 09bd
00000350: 0f77 c0bc 1566 d0bd 4d42 cbbd f07c 90be
00000360: a3e5 80bd 90a7 bfbd 76f5 cf3d 8123 12bd
00000370: ed3a 65be 972a a8bd 7578 b7bd c2ac fbbd
00000380: e323 c0bc ded0 26be 2f1c 5ebd 10ab f6bd
00000390: 3a23 64be ddc7 e8bd 9658 32bd 36ee dcbd
000003a0: 63b4 9d3d d5c4 32be f28b 32bd bd4d 83bc
000003b0: a8b7 8a3d 5866 843e e8f5 9bbe 1824 a2bd
000003c0: dfe9 00bd 9d8f 183d 2b0f 60bd 8834 bfbd
000003d0: ec00 d0be 1b65 8a3c f2da 9dbd 1718 cabe
000003e0: 0b2e 3ebd 4d0d 54be 1f02 ddbe 5d3c 453d
000003f0: 2b2e bbbb d114 343d 9c59 1bbd 66b4 adbd
