New_project/modelo_simples6.onnx (onnx, 183092 bytes, 5 tensors)

output_layer.weight f4 [14, 100]
000000 d4 93 5e be 19 07 66 3e 96 50 b0 3c 90 e8 15 3e
       -0.2173608 0.22463645 0.021522801 0.14639497
000010 d1 6a 16 be a4 e3 8b 3d b7 50 59 be ad d2 83 3d
       -0.14689185 0.068305284 -0.21222197 0.064366676
000020 b8 f4 5e be b3 25 3e be 3e 58 c9 bc 56 db 1e 3e
       -0.2177304 -0.18569069 -0.02457821 0.15513358
000030 67 d9 b8 bb cb 9a 8d 3e 36 d8 2c be be 44 02 3d
       -0.0056411508 0.2765716 -0.16879353 0.03180384
000040 f8 0f 0a be 14 56 64 bd 45 51 86 3e a0 c0 ce bc
       -0.13482654 -0.055746153 0.2623388 -0.025238335
000050 d2 71 ea bd d1 60 b7 3d af 4b 35 3e 50 73 ec bd
       -0.11447491 0.08954013 0.17704652 -0.115454316
000060 88 4f 81 3e 51 1e 0f 3e e6 b1 cf 3d d8 0a 0d be
       0.2525599 0.13976409 0.10141353 -0.13773668
000070 4c 0d 2a 3b b4 0f ae 3d 3b 0b aa 3c cf 8c 5c 3e
       0.0025947867 0.08499089 0.020757308 0.21538089
000080 e1 ad 64 3e 8c b6 9d bd eb ad 28 bd 97 eb 4d 3e
       0.22331955 -0.07700834 -0.041181486 0.20109402
000090 d0 c2 49 bd 8b ba d3 bc e9 b1 da 3c 71 b7 88 3c
       -0.049258053 -0.025845787 0.026696162 0.016689034
0000a0 85 0b 8b be 28 8f 18 3d 14 3e cd bd 77 da b7 bd
       -0.27157226 0.0372459 -0.10021606 -0.08977216
0000b0 de a6 c3 bd d0 0a 32 3a ad 9c 93 bc 9b e5 0f 3e
       -0.09553312 0.00067917723 -0.018019045 0.14052431
0000c0 bb 50 69 bd 41 2e 3e 3d e9 60 fd bc e0 4d 17 be
       -0.056961756 0.04643083 -0.03093 -0.147758
0000d0 2b ad e6 bd 31 94 75 3e d2 93 16 3d 5a 6c 0d 3d
       -0.11263498 0.23982312 0.036762066 0.03452716
0000e0 56 7a 87 be fa 9b bb 3e 3f 27 b3 bd 10 13 3d be
       -0.26460522 0.36642438 -0.0874772 -0.18464303
0000f0 19 90 43 be e3 d3 84 bd 03 9f 1e 3e ee 99 b4 3d
       -0.19097938 -0.06485727 0.15490346 0.08818422
000100 e1 49 c8 3d 4b 37 ea 3d f3 ac d4 3d 11 5c e6 3d
       0.09779716 0.114363275 0.1038455 0.11248029
000110 2f dd 61 be 3c f0 5c 3e ae 4a 83 3e ac 01 88 3e
       -0.22057031 0.21576017 0.25642914 0.26563776
000120 a7 9d 69 be f4 42 66 be 23 7b ad bd 16 6e 78 3d
       -0.22814046 -0.22486478 -0.08470752 0.06065186
000130 9f 8b 29 3d 13 58 ad 3c 11 14 b6 bd c2 66 25 be
       0.04139292 0.021160161 -0.08890546 -0.1615248
000140 9d c5 25 3e 58 8e 1d 3c 56 3f 46 3e 63 4e 1a bd
       0.16188665 0.009616457 0.19360098 -0.03767241
000150 6f b8 bc 3d 97 08 18 be 73 b3 0d be fc ef ad bb
       0.092148654 -0.14847027 -0.13837986 -0.0053081494
000160 7c e9 ae 38 3e 56 94 bc 31 56 0a be c1 d2 92 bd
       8.3404564e-05 -0.01810753 -0.13509442 -0.07169104
000170 be 7d 66 3e 13 1b 88 be ee a8 63 be 1e cc 4e 3d
       0.22508904 -0.26583156 -0.2223241 0.05048763
000180 c6 3d dd 3d a7 ad 1a be a9 95 ee 3d 49 33 09 be
       0.10802798 -0.15105306 0.11649639 -0.1339847
000190 e4 d6 13 be df 2e 70 bd 24 6e e3 bd b9 7c fe 3d
       -0.14437443 -0.05863845 -0.11104992 0.12426133
0001a0 69 c7 14 3d ac 43 ca bd f9 68 40 3d b6 db 7d 3d
       0.036322985 -0.09876189 0.04697511 0.06197711
0001b0 9f 60 4a bc cb 01 a0 bd 1f 31 38 3c 2b f8 ef 3d
       -0.012352138 -0.07812842 0.01124218 0.11717256
0001c0 a8 0b e9 bd 8b 5f e4 bc 16 ec 39 3e 33 d1 09 3e
       -0.113791764 -0.02787759 0.18156466 0.1345871
0001d0 a8 bf 6b bd b0 9f 92 bd de e5 93 bd 93 75 1a bd
       -0.057555825 -0.07159364 -0.07221578 -0.037709784
0001e0 50 3f 29 bd 1d b8 24 3d ba a4 8e 3d 70 80 33 3b
       -0.041320145 0.040214647 0.06965013 0.0027389787
0001f0 28 14 8c bd f7 9f 98 bd 37 a6 d7 bd 20 41 27 be
       -0.06839782 -0.07452386 -0.1052975 -0.16333437
000200 0c 7d 33 bd c4 36 18 3e af f7 1d be 0a b4 9b 3d
       -0.043820426 0.14864641 -0.15426515 0.07602699
000210 94 61 12 3e 2e e5 9b bd b9 db 06 be df 7e 69 bd
       0.14295036 -0.07612072 -0.13169755 -0.05700576
000220 3b 80 0c be 5e ee 30 bd b8 72 1a 3d 20 c8 8c 3c
       -0.13720791 -0.043196075 0.03770706 0.01718527
000230 89 79 c4 3d 40 ec 52 3c ce 18 18 3d 68 50 95 3d
       0.095934935 0.012873709 0.03713303 0.07290727
000240 75 00 15 be 24 78 c6 bd 37 e3 f9 bd c7 ae d1 bd
       -0.14550956 -0.09690884 -0.12201541 -0.10238414
000250 b7 51 c4 bd 81 66 85 bb 5d c0 26 be 9e 34 3d 3d
       -0.09585898 -0.0040710573 -0.16284318 0.046192758
000260 dd 9d e1 3d a2 82 0d 3e f6 e4 4b 3d 8f a7 a5 3d
       0.11016438 0.13819364 0.0497789 0.080886
000270 1c c6 d9 3d 5c 10 1e bd d7 35 57 3b a5 7e be bd
       0.106334895 -0.03858982 0.0032838488 -0.09301499
000280 8e c6 a1 bd 8f 64 01 3e e2 57 04 3e bd 0e 30 be
       -0.078991994 0.12636016 0.1292415 -0.17193122
000290 48 ae 11 3e 22 37 63 bc 17 e2 c2 bd 06 7c d6 3d
       0.1422664 -0.013868125 -0.095157795 0.10472874
0002a0 ec 19 c4 bc 27 03 7b 3d 4d 3c 08 3e c6 73 dd b8
       -0.023938142 0.061282303 0.13304253 -0.00010559666
0002b0 58 5c 3d bd bc 92 84 bc ff 31 6c 3d 50 02 4f 3c
       -0.046230644 -0.01618325 0.057664867 0.012634829
0002c0 5b 52 35 3d ac a5 e8 bd e0 5b 8b bd 48 be 84 3d
       0.044267993 -0.113597244 -0.06804633 0.06481606
0002d0 26 8d 60 3c 60 f1 9f bd 52 cd 6b 3c df 3a f7 bd
       0.013705527 -0.078097105 0.014392214 -0.12071776
0002e0 1e c6 13 be 17 82 e9 bd 60 4e e1 3d e7 83 1c bd
       -0.14431044 -0.11401766 0.11001277 -0.03821173
0002f0 d4 c3 9e 3d 98 3d 9e bd 0f c0 c7 bd 35 72 3b 3e
       0.07752195 -0.07726592 -0.09753429 0.18305285
000300 1a 5d 54 bd 32 67 67 3d ac 8a 38 3e 52 1e 4f bc
       -0.0518466 0.0564949 0.18021649 -0.012641506
000310 00 99 60 3d ec f6 d7 bd 2b 66 07 3e b5 81 53 bc
       0.054833412 -0.105451435 0.13222568 -0.012909343
000320 d4 99 83 bd 9a f2 c2 bd ab 8d d6 3d be a6 16 bd
       -0.06425825 -0.09518929 0.1047624 -0.03678011
000330 45 0f 09 3e 76 1c 31 bd cf 1a f3 be 69 d4 f4 bd
       0.13384731 -0.043240033 -0.4748139 -0.119545765
000340 5a 3c ed 3d bb f5 4e be b5 de 44 be ce 02 f4 bd
       0.11583777 -0.20210926 -0.19225581 -0.119145975
000350 03 b9 66 3e e8 04 11 be 81 42 ec 3d e6 c7 fe bd
       0.22531514 -0.14162028 0.11536122 -0.12440471
000360 29 5d 08 3d 9d b0 44 be 5d 32 42 3d a8 42 85 3d
       0.03329197 -0.19207998 0.04741131 0.06506854
000370 c0 55 c8 3c b6 d1 7b 3d ff d9 20 bd 49 99 09 be
       0.024454951 0.061479293 -0.039270397 -0.1343738
000380 9a b1 2e be db cf cf 3d f4 19 52 bd 16 45 b1 bd
       -0.17059937 0.10147067 -0.051294282 -0.08655755
000390 98 5f 0c 3c 31 8f 8e bd 12 34 b5 3c b4 eb d3 3c
       0.008567713 -0.06960905 0.022119556 0.025869228
0003a0 58 99 d1 bd 82 0b 04 be 9c 5f 34 bd 93 f8 6d bc
       -0.10234326 -0.12895015 -0.044036493 -0.014524597
0003b0 87 14 1f be 2b 7e 98 be 75 ca f5 bd f4 8a bb bd
       -0.15535174 -0.2978376 -0.12001506 -0.091573626
0003c0 19 eb 4c be d5 99 19 bc b8 06 1b bb a0 d5 9a 3d
       -0.20011558 -0.009375055 -0.0023655128 0.07560277
0003d0 78 a7 83 bd 04 9c e5 bd 7c 60 b2 3d 1d 87 dd bc
       -0.064284265 -0.11211398 0.08709809 -0.027041966
0003e0 4b 30 36 3d e4 9c 3b bd 4f 46 42 3d 6a 1b c0 3d
       0.04447965 -0.04580392 0.047430333 0.09380229
0003f0 7d 66 b2 3d 6e a2 61 3d e4 20 86 3e 6d da 1c be
       0.08710954 0.055086546 0.2619697 -0.15317698

output_layer.bias f4 [14]
000000 00 1c 9a bc bf f6 8f 3d e0 dc 84 bd c9 82 00 be
       -0.01881218 0.07029485 -0.06487441 -0.1254989
000010 eb 55 17 be 78 f2 a1 3c dc bc e0 bc fb 4e 86 3c
       -0.14778869 0.019768938 -0.027433805 0.016395083
000020 29 57 b9 bd d0 27 88 bb 23 59 ae bd 06 89 08 ba
       -0.090498276 -0.0041551366 -0.08513095 -0.00052084064
000030 3c c3 bf bd b0 9b a2 bd
       -0.0936341 -0.07939851

onnx::LSTM_122 f4 [1, 400, 7]
000000 57 72 fe bc 12 2c 2e 3c 15 4d 6b 3d 22 f7 1f 3d
       -0.03106038 0.010630624 0.057446558 0.039054044
000010 60 2f 57 3d fb d8 25 3d 75 bb 89 3d db 10 2f 3e
       0.052535415 0.04049013 0.06725208 0.17096274
000020 6f d2 88 bd 76 83 9b 3d 1c 4c a9 3a dd ff 57 3d
       -0.06680762 0.075934336 0.0012916359 0.052734245
000030 d8 5b 90 bc 6c ae df 3c 63 41 7a bd 3e 78 2d be
       -0.01762192 0.02730485 -0.061097514 -0.169404
000040 a8 95 94 3c 44 5d a6 bd a2 07 8d 3d af 7a 17 3e
       0.018137768 -0.08123258 0.068862215 0.14792894
000050 f9 aa 9d bd 7c d2 20 3d 39 7a 35 3e 42 47 ae 3d
       -0.07698626 0.039263234 0.17722405 0.08509685
000060 dd 50 85 bc a2 a3 3b 3c a3 8c ca bd 3b cb 22 3d
       -0.01627391 0.011452587 -0.098901056 0.039744597
000070 9d 26 8c bd 56 c4 a7 bd 39 57 88 bd 8c ec 0a 3d
       -0.068433024 -0.08191745 -0.066572614 0.033916995
000080 a9 9c 26 3d 96 25 17 3d 0c 38 42 3b 27 f5 1d 3e
       0.040676747 0.03690108 0.0029635457 0.1542555
000090 6a ef 0f 3e 9c c5 5f bc 94 c8 bc b8 ab 72 b0 bc
       0.14056173 -0.013657954 -9.001899e-05 -0.021539053
0000a0 4c 6d 62 bd 4e ea fa 3d 82 a4 b3 bd e0 bd 19 bc
       -0.055280015 0.12251721 -0.08771612 -0.009383649
0000b0 ae c6 c5 bc 8c 24 a5 bc 24 b9 42 3d db ae 24 be
       -0.02414259 -0.020159028 0.047539845 -0.16082327
0000c0 ba df e2 bd e6 c2 e1 b9 82 1b 67 3d 07 42 28 3d
       -0.11077829 -0.00043060555 0.056422718 0.041078594
0000d0 92 1d 22 3d 43 f9 cb 3d 7e fa 47 be 37 93 cc 3d
       0.03957898 0.09959652 -0.19529149 0.099890165
0000e0 da 4f 00 3d 5f db ef 3d 50 2b 9f 3d db be 3d bb
       0.031326152 0.117117636 0.07771933 -0.002895287
0000f0 03 54 14 3e b2 73 a3 3b 3b 42 14 3d 38 28 81 be
       0.14485173 0.004988157 0.036195975 -0.25225997
000100 57 8c 2e be 1b d8 2b 3d a5 99 7a 3d 40 43 bb bc
       -0.17045723 0.04195414 0.061181683 -0.022859216
000110 0c 14 98 3d 19 2c b3 bd ad c9 eb bc 9a 0f 16 3d
       0.07425699 -0.08748645 -0.02878269 0.036635973
000120 99 d8 50 bd 43 63 0d be 8b 6a 19 be e1 d7 bb 3d
       -0.050987814 -0.13807397 -0.14982049 0.09172035
000130 7f dd e0 bd ac c1 18 be a7 23 f9 3c 79 2e 9c 3b
       -0.10979747 -0.1491763 0.030412508 0.004766282
000140 f3 95 bc 3b a1 7f 3c 3d 35 df fa bc e3 29 ba bd
       0.00575518 0.046020154 -0.030624012 -0.090900205
000150 1d 28 b1 bd 47 43 a0 bd a9 73 d2 bb ad 44 a6 3d
       -0.08650229 -0.07825332 -0.006422479 0.081185676
000160 65 12 b1 bd 02 dc f1 3d 70 52 ad bc 0e c3 cf 3d
       -0.086460866 0.11809541 -0.021157473 0.101446256
000170 ef f2 e5 bd 64 fa 09 be 32 b2 30 3c 4a 90 cb bd
       -0.112279765 -0.13474423 0.010784673 -0.0993963
000180 3a cf 81 3d 83 35 21 3d 28 b3 ac bc 98 d4 3a 3e
       0.063383535 0.039357673 -0.021081522 0.1824516
000190 e2 30 5c 3d e3 5e 28 3d 17 e2 26 bd 14 cc 33 be
       0.053757556 0.041106116 -0.04074296 -0.17558318
0001a0 c3 a7 0e bd 98 2a 9e 3d 6f e1 c6 ba 60 42 9e 3c
       -0.03482796 0.07722968 -0.0015173386 0.01931876
0001b0 02 d1 25 bd 9e 50 2b 3d a2 8c cb bd ff f4 53 bd
       -0.04048253 0.04182493 -0.09938933 -0.05174732
0001c0 c2 0e 6b 3a 4f 93 59 3d e5 cd 62 3d f6 a2 16 bb
       0.00089667377 0.053119 0.055372138 -0.0022985316
0001d0 0b 1b 06 3e e3 e9 b5 bd 43 76 93 bc a7 a5 72 3a
       0.13096254 -0.08882501 -0.018000728 0.00092562515
0001e0 b0 8d fd 3d 6d bf 50 3d 24 fb 71 3d ad 38 ad 3d
       0.1238054 0.050963808 0.059077397 0.08458076
0001f0 d6 a3 c7 bd e8 31 c5 3d 1e 04 c8 bd b9 11 f2 bd
       -0.09748046 0.096286595 -0.0976641 -0.118197866
000200 10 71 6c bb e0 b5 83 3d 4b 3e 13 3d 99 f3 ee bc
       -0.0036078133 0.06431174 0.03594808 -0.02916889
000210 ce c9 07 bc ea dd 13 be cb 20 33 3d 89 94 4e 3d
       -0.00828786 -0.14440122 0.043732446 0.050434623
000220 e3 88 98 3b b6 e8 f4 bd 7c 3d 08 bc fa b5 54 bd
       0.00465499 -0.119584486 -0.00831544 -0.05193136
000230 2d 2d 35 3d 52 82 c8 3d eb 06 5c bc 2d 5f 65 3d
       0.044232536 0.097904816 -0.013429384 0.05599897
000240 1f 8b cd 3d 5a 05 0d be ba 55 e2 bc 5b 14 ad bd
       0.10036301 -0.13771573 -0.027628768 -0.08451148
000250 9c 08 10 3d 87 7d 8f bd 82 5a 47 bd 5a cd 68 3d
       0.03516446 -0.07006364 -0.0486703 0.056836464
000260 a6 ed 8c 3c e1 54 9d bd b7 e2 15 3d b9 76 b2 3c
       0.017203163 -0.07682205 0.036593165 0.021785127
000270 3a ec ae bb 6f 7f eb bd 64 21 ff b9 2e c8 9a bd
       -0.005338219 -0.114989154 -0.00048662268 -0.075577125
000280 42 3b 4f 3d 4f 52 94 bd c4 07 09 bd c1 82 80 bc
       0.050593622 -0.072422616 -0.03345467 -0.015687348
000290 aa 6e fa bd ac b8 05 be 63 8d 85 bd 76 bb 44 be
       -0.12228139 -0.13058728 -0.06521108 -0.19212136
0002a0 22 2c 42 3d eb bd 2c 3a bb ac 38 3d b0 5d 90 3d
       0.04740537 0.0006589579 0.045086604 0.070491195
0002b0 16 8f e5 3c 1f 5f 11 bd 58 9b 34 3d 0a fd 14 3d
       0.02802233 -0.035491105 0.04409346 0.03637413
0002c0 45 64 97 3d 76 c4 f9 bc ad c4 76 3b d0 c3 80 3d
       0.07392172 -0.030489188 0.003765385 0.06287348
0002d0 bc f2 c4 bc f2 9e 65 3d bc 3e d5 bc a2 12 b2 bc
       -0.024041526 0.056059785 -0.02603089 -0.0217374
0002e0 06 f9 38 3d 51 92 b6 3c d2 c1 82 3c c9 c1 89 bd
       0.045159362 0.022286566 0.015961561 -0.06726415
0002f0 9a 62 9c bd 20 b3 38 bd c3 38 2c 3e 02 ee bb bc
       -0.07635994 -0.045092702 0.16818528 -0.02294064
000300 b1 b5 a0 3c 08 77 42 bb cc 08 da bd c0 e0 fa 3d
       0.019617887 -0.0029673 -0.10646209 0.12249899
000310 5c 32 81 3c bd d6 7f 3c 9f 39 7b 3d 94 65 81 bd
       0.015771084 0.015615162 0.06133425 -0.063182026
000320 4c f3 e7 3d 48 89 2d be 6e 3d af 3b 90 46 88 be
       0.11325702 -0.169469 0.005347899 -0.26616335
000330 70 43 07 be 86 95 c9 3d 33 2c a6 3a 04 be 76 3c
       -0.13209319 0.098429725 0.0012677967 0.015059952
000340 4d 20 01 3e 51 e8 49 bd ef b2 7d bd 58 11 d3 3c
       0.12609978 -0.04929382 -0.061938222 0.025765106
000350 6a 78 08 3d d9 4e 0b 3d 37 73 3d 3d 51 1c ad bc
       0.03331796 0.03401074 0.046252456 -0.021131666
000360 ff ef 6e bd ac b1 36 3d aa bf 71 bc aa 36 31 3c
       -0.058334347 0.044603035 -0.014755169 0.010816256
000370 82 96 33 3b 73 3b ea 3c c4 05 c2 3c 54 27 2e bb
       0.0027402942 0.0285928 0.02368439 -0.0026573734
000380 11 02 e8 ba 9d 2a 4a 3d 13 c3 a0 bd 44 38 05 be
       -0.0017700811 0.049357045 -0.078497075 -0.13009745
000390 f3 92 92 bc 09 32 2b bd d7 9f fb bd ff 3e dc 3d
       -0.017892336 -0.041795764 -0.122863464 0.10754203
0003a0 09 ce 1e bd 4b 43 58 bd b6 1d db bd 5d d5 c3 bd
       -0.03877071 -0.05279855 -0.10699026 -0.0956218
0003b0 b7 32 2b 3a 8f 50 a3 bd f6 c9 01 be d3 3b fc bd
       0.00065306894 -0.0797435 -0.12674698 -0.12316098
0003c0 91 de 38 3d 01 22 0d 3d 81 d5 08 bd bd 38 ad 3c
       0.04513413 0.034456257 -0.03340674 0.021145219
0003d0 af 26 5b bd 38 fd ba 3d dd d0 24 3d de 2c be bd
       -0.05350369 0.09130329 0.04023825 -0.092859015
0003e0 f8 cb 85 bc c1 dc 00 bd ff eb b5 bd ed 48 84 bd
       -0.016332611 -0.031460527 -0.08882903 -0.06459222
0003f0 4e b6 7a bd 23 b1 db bd 09 df 8e 3d b2 f9 6e ba
       -0.061209016 -0.107271455 0.06976134 -0.0009116187

onnx::LSTM_123 f4 [1, 400, 100]
000000 1b 51 25 bd 43 ca 99 3d f6 62 3f 3d d4 df 94 3c
       -0.04036055 0.075092815 0.046725236 0.018173136
000010 f5 78 29 be 32 63 48 bd c0 03 e8 bd 62 e4 97 3d
       -0.16550048 -0.048922725 -0.1132884 0.074166074
000020 76 c4 41 be 5b b3 0b 3e 17 3f 50 be 0d 73 17 3d
       -0.189226 0.13642637 -0.20336567 0.036974955
000030 81 4a 09 3d 3f 4d 53 3e be 07 c2 3d 0a f0 7b 3d
       0.033518318 0.20634936 0.09474133 0.061508216
000040 ea 5e e4 bd f7 ab 23 bd 5b 25 22 3d 20 a2 b2 3d
       -0.11150916 -0.03995892 0.039586406 0.08722329
000050 67 ba 5c be ee 8e 9f bd 6d 6c 9e bc 7b bd 87 bd
       -0.21555482 -0.077909335 -0.01933881 -0.066279374
000060 ee 16 25 3e 86 a3 fe 3c f4 ec 08 3e 04 e3 0d be
       0.16122028 0.031083833 0.1337164 -0.13856131
000070 9e 21 28 be 9d 2d ef bb ac 8e f2 3c e1 1e d8 bc
       -0.16419074 -0.0072991387 0.029609047 -0.026381912
000080 05 2b 80 bb ee 5e a8 3d 01 2a 88 3d 4c 56 89 3b
       -0.0039113783 0.082212314 0.066486366 0.0041911956
000090 a4 d4 1f 3e a1 ce 09 bd cd 3c 28 3e b7 c3 2d 3e
       0.1560846 -0.033644322 0.16429444 0.1696919
0000a0 aa 5e 33 be dd 22 09 be 5d 0a 06 bd 69 5e af bd
       -0.1751658 -0.13392206 -0.032724727 -0.08562929
0000b0 fe fb d0 bc 9c 76 41 3e db 96 14 3e eb 7a 52 bd
       -0.025510784 0.18892902 0.14510672 -0.051386755
0000c0 08 a0 9b 3d 6b 9f 4d 3d f6 0c cb bc 2b 1b 52 bd
       0.07598883 0.05020086 -0.024786454 -0.05129544
0000d0 79 a5 c2 bb 34 d1 b7 3c 83 34 1a be 87 f3 46 bc
       -0.005940136 0.022438623 -0.15059094 -0.012143022
0000e0 3a df 52 bd e4 5a 39 bd e4 a0 7e bc 7c 4f bd 3c
       -0.051482417 -0.045252696 -0.015541289 0.02310919
0000f0 63 1d bf bd 61 bd 13 3d f3 24 14 3e d3 84 11 be
       -0.09331777 0.036069278 0.1446722 -0.14210825
000100 bd 60 c8 bc 98 23 36 3d bc 0e 8d 3d e6 a7 a0 bd
       -0.02446019 0.04446754 0.06887576 -0.07844524
000110 51 4d 2b be 01 d4 fb 3c 53 f2 db bc 07 30 61 3d
       -0.16728713 0.03074074 -0.026848948 0.054977443
000120 d5 d7 87 3d e7 e6 96 bd 6e 44 a2 bc c7 8d 02 3e
       0.066329636 -0.0736826 -0.01980802 0.12749396
000130 c3 e3 44 be 2e 38 8e 3d af 9d 1d 3e 9c d2 0b bd
       -0.19227509 0.06944309 0.15392183 -0.0341364
000140 75 b4 74 bd 23 c2 3b 3c c7 ff 3f 3c 3a b1 37 be
       -0.05974241 0.01145986 0.011718697 -0.179387
000150 f1 e8 98 3d 49 86 33 be e1 11 8f bd 0c 27 07 be
       0.07466305 -0.17531694 -0.06985832 -0.13198489
000160 2d 12 c4 bd fa e8 08 3e 18 65 12 bd 37 7f f5 3d
       -0.09573779 0.13370124 -0.03574094 0.11987155
000170 e1 89 24 3e 8a c4 29 bd 98 8e 0c be fc 83 64 3d
       0.16068222 -0.0414472 -0.1372627 0.055789933
000180 ea 6b 48 3d 34 68 0a 3d 7b d5 d0 3d 86 31 a2 bd
       0.04893104 0.033790782 0.10196968 -0.07919602
000190 bd a2 ba 3d 0b d8 39 3d e1 05 43 3e e9 cf 2a 3e
       0.09113071 0.04537205 0.19045211 0.16680874
0001a0 2e 61 6a be b3 09 fe bd cf ad a4 bd 20 f2 85 3e
       -0.22888634 -0.12404194 -0.08040964 0.2616129
0001b0 a6 ec f0 bd 62 37 15 3e 03 1c cd bd af 57 d5 bd
       -0.11763887 0.14571908 -0.100151084 -0.10417115
0001c0 1e c7 1f 3e c6 94 e0 3d dd 31 ba 3d 8b d0 d1 3d
       0.15603301 0.10965876 0.09091542 0.102448545
0001d0 24 63 c5 bd a9 18 88 bd d5 67 d1 3d 4d ae 90 bd
       -0.0963805 -0.066453286 0.102248825 -0.07064495
0001e0 03 38 20 be 71 45 62 be 46 b7 42 3d ab c1 73 bd
       -0.15646367 -0.22096802 0.047538064 -0.059510868
0001f0 3e ce 8a 3d 25 ea 95 3d db af 7f 3b 43 42 5c be
       0.06777619 0.0732005 0.003901473 -0.21509652
000200 22 b2 e2 bd 1b 5f 20 be 8c a6 ac bd 11 5d 45 bc
       -0.110691324 -0.1566128 -0.08430204 -0.012046115
000210 92 af b9 38 19 eb 88 3d 9e c3 57 3e a0 90 85 3d
       8.85419e-05 0.06685466 0.21070716 0.06521726
000220 03 8f 1e 3e fc 38 3e be 5b 2e e6 3d 7d 12 d5 3c
       0.15484242 -0.18576425 0.1123931 0.026009792
000230 e7 d8 eb 3c 42 0b b2 bd 6a 76 d5 bc 71 8a 82 bd
       0.02878995 -0.086935535 -0.02605744 -0.06374062
000240 05 2a 1b 3e 6b 95 0a 3e 96 ea 1c 3d c5 2a 73 be
       0.15152748 0.13533561 0.038309656 -0.23746784
000250 e6 af d2 3d 02 a7 85 3e bf 87 43 be b4 7e e0 bd
       0.10287456 0.2610398 -0.19094752 -0.10961667
000260 09 fc 91 bc d8 04 62 bd 59 90 58 be 02 25 0a bb
       -0.017820375 -0.0551804 -0.21148814 -0.0021079187
000270 63 e8 a3 3d fe 36 51 3d f7 7a 3e be eb ce c6 3c
       0.080033086 0.051077835 -0.18601595 0.024268588
000280 62 e4 d6 bd 51 cf 37 3e 7f 32 2d 3e 60 bb 70 be
       -0.10492779 0.17950179 0.16913794 -0.23508978
000290 e5 56 39 be 18 f1 c9 3d 52 51 24 bc c6 a3 ff bd
       -0.18099554 0.09860438 -0.010029154 -0.12482409
0002a0 c1 cf 01 be 70 c3 38 bd 1b 58 af bd 56 26 f3 ba
       -0.12676908 -0.04510826 -0.08561727 -0.0018550854
0002b0 97 f8 30 3d 59 d7 f5 bd 40 93 cf bd d0 ac 25 3e
       0.043205824 -0.12003965 -0.101355076 0.16179204
0002c0 d0 4f 23 be 6e f7 2f 3e 38 3b cd 3d 77 36 6c 3d
       -0.15948415 0.1718423 0.10021061 0.05766913
0002d0 ce 68 f7 bd 8b de 6e 3c 18 21 28 3e 1f a7 5e be
       -0.12080537 0.014579426 0.16418874 -0.21743439
0002e0 48 97 35 bc 1c 44 cf 3b 25 f2 b6 bd f6 8d 5e be
       -0.011083432 0.006325258 -0.08932904 -0.21733841
0002f0 e9 85 59 be 31 ed 44 3d 01 29 9e 3c 0c 4f 6b 3d
       -0.21242489 0.048077766 0.019306662 0.05744843
000300 8b c8 72 3e 24 40 5e be e1 c1 8d bc 92 e9 23 3e
       0.23709314 -0.21704155 -0.017304363 0.16007069
000310 7f da 5c 3e 4e 44 c2 bd 07 c1 f2 3d ca b2 98 3d
       0.21567725 -0.09485684 0.11853223 0.07455976
000320 2c 26 c1 b9 ad d2 a9 bd f4 d6 f8 bd c4 e1 20 3b
       -0.0003684027 -0.08292136 -0.12150374 0.002454863
000330 6a 7a 91 3d 1c 88 3a be ca fb 8a 3c 9d 51 94 3d
       0.07103427 -0.18215984 0.016965766 0.07242129
000340 f3 56 bc bd d0 86 a2 3c f2 34 fd 3d f0 af 21 3d
       -0.09196272 0.019839674 0.12363614 0.039474428
000350 e4 ed 8b bc b3 ca c9 3b 8e 88 6e bd 69 36 ca 3d
       -0.017081209 0.006158197 -0.058235697 0.09873659
000360 46 3a 80 bc d9 2c 2a bd 58 3e 84 bd 3b 52 58 bc
       -0.015652787 -0.041546676 -0.064572036 -0.013203199
000370 1f 66 c9 3c 4a e8 4e bd 95 bb a3 bc a4 11 f5 bc
       0.024584828 -0.050514497 -0.019986907 -0.029915638
000380 87 61 bb 39 8e e5 de bd a3 55 22 3c 1c 24 14 bd
       0.00035740083 -0.10883628 0.009908113 -0.03616725
000390 b3 e0 a6 bd 38 95 e1 3c 3f ba a9 bd c4 e5 68 bc
       -0.08148327 0.027536973 -0.08287477 -0.014214937
0003a0 f7 9c 61 3d 06 76 84 bd 5e ec 41 bd 5f ae bd bb
       0.055081334 -0.06467824 -0.047344558 -0.005788609
0003b0 13 d3 7f bd 44 6e 7d 3d c8 35 90 3c 38 1d 38 bc
       -0.062457155 0.061872736 0.01760377 -0.011237435
0003c0 fb 91 2c bd b2 55 a3 bd 9e e1 33 3d b8 53 0d 3d
       -0.042131405 -0.079753295 0.043916337 0.03450367
0003d0 0c a5 91 bd a2 73 8d bc c0 fa bf bd 62 ca ef bd
       -0.07111558 -0.017267052 -0.09373999 -0.11708523
0003e0 be d5 ba bd e8 96 97 bc cb d5 3e bd b6 d2 e7 3d
       -0.09122799 -0.018504575 -0.046590608 0.11319487
0003f0 9d 8c 89 3d 0c f5 a2 3d 98 e2 bc bd 43 0c d0 3c
       0.06716273 0.07956895 -0.09222907 0.025396472

onnx::LSTM_124 f4 [1, 800]
000000 2a 18 b4 3c fc f3 e1 3d c3 e0 bd bc 0a 36 c2 3d
       0.021984179 0.110328645 -0.023178464 0.094829634
000010 84 9b 71 3a 9b 6d 11 3e 3a c7 82 3d 43 f0 fa 3c
       0.0009216594 0.14201967 0.06385656 0.030632144
000020 80 e5 59 bc 80 16 17 3e 3b 8a 1a 3d f0 49 e3 3c
       -0.013299346 0.14754677 0.037729483 0.027745217
000030 31 31 c6 bc 5b b4 4d bd 6f 38 37 3e 86 1f 17 3d
       -0.024193378 -0.05022083 0.17892621 0.036895297
000040 95 05 95 3d 47 11 33 bd f9 f5 aa 3c 33 72 d0 3d
       0.07276455 -0.04371765 0.020869242 0.10178032
000050 d1 48 d9 bc f3 f0 06 3e 7f a8 79 bc 68 c0 bc 3d
       -0.02652398 0.13177852 -0.0152379265 0.09216386
000060 55 d0 2e 3e eb f1 c3 bc 10 84 15 3d d4 f2 92 3d
       0.1707166 -0.023919066 0.036502898 0.07175222
000070 0f 7d 1e 3d 6e d8 4a 3d ec ce b6 bc 41 ec aa 3d
       0.038693484 0.04952281 -0.022315465 0.08345843
000080 84 01 09 3e da 5a b4 3c e3 a1 45 3e 49 71 b1 3d
       0.13379484 0.022015978 0.19300036 0.086641856
000090 0b 25 b1 3d 83 4f 73 bd 70 a0 5f 3d 0a 1d 2d bd
       0.086496435 -0.059402 0.054596364 -0.042264022
0000a0 9a b1 15 3e 34 fe 59 3c d4 ad fa 3c c4 98 d9 bc
       0.14618531 0.013305236 0.030600466 -0.026562102
0000b0 46 0f d9 bc 8f f6 bc 3c c7 08 b0 3c f2 38 ed 3d
       -0.02649654 0.023066787 0.02148856 0.11583127
0000c0 c9 29 9f 3d d9 07 a1 3d 86 cb 15 3e 5a f8 3f 3d
       0.07771642 0.07862825 0.1462842 0.046867706
0000d0 57 e3 94 3d 98 6a 09 3d b2 fa 24 3d eb 08 8e 3c
       0.07269924 0.03354892 0.040278144 0.017338237
0000e0 c2 b6 41 3e a7 09 63 3e 1a 71 a1 3b ce 6b f3 3b
       0.18917373 0.22171651 0.004926813 0.007428623
0000f0 2a b3 1e bc ea da 59 3d a2 51 6c 3d 2f a7 a4 3b
       -0.009686271 0.05318729 0.05769504 0.0050248126
000100 d6 0b 0d 3e 30 85 09 bd 39 12 cd 3d 58 fd 8b 3d
       0.13774046 -0.033574283 0.10013241 0.06835431
000110 17 89 8a 3b 3a e2 8c 3d 04 55 8d 3d f3 c3 35 bd
       0.004227768 0.06879087 0.06900981 -0.044376325
000120 35 9f 93 bc d9 73 d6 3d 70 d4 04 3e a2 30 87 3e
       -0.018020252 0.10471315 0.12971663 0.2640429
000130 60 ea 8e 3d f5 d6 3b 3d 1f 84 08 bd e8 77 3c 3d
       0.06978297 0.045859296 -0.033329125 0.04601279
000140 e4 8d 5b 3d f2 6d 1a 3e 8b 5e 6a 3d 0f 8a 66 3d
       0.053602114 0.15081003 0.05721907 0.056284007
000150 c4 f8 1a 3e 35 7d c2 3d 10 66 26 3e 2b 04 7c bd
       0.15133959 0.094965376 0.16249871 -0.061527412
000160 5b e3 0c 3e 4a e6 92 bd fb 3f 06 3e cc 2d a3 3b
       0.13758604 -0.071728304 0.13110344 0.0049798246
000170 04 1f 02 3e 0d 94 35 3e ae 0d 5d 3e e7 e7 e2 3c
       0.12707144 0.17732258 0.2158725 0.02769847
000180 ae 29 a0 3c 17 65 c1 3d 42 b3 92 3d 71 74 b7 bc
       0.019551124 0.094431095 0.07163097 -0.02239439
000190 e0 85 55 bc 4b a7 4b 3e 40 9d 94 3d de 12 01 bc
       -0.013032407 0.19888036 0.072565556 -0.007878033
0001a0 ec ad 34 bc 76 43 fd 3c 04 62 7b 3d df 7b 03 3c
       -0.011027794 0.030915957 0.06137277 0.008025139
0001b0 00 a9 a8 3d 46 70 01 bd c1 4f f4 3c bd 7a ce 3d
       0.08235359 -0.031601213 0.029823186 0.10082004
0001c0 f2 c6 10 3c 6a 46 c2 3d 64 5a e9 3d d8 fe b9 3c
       0.008836495 0.09486087 0.11394194 0.022704527
0001d0 c0 31 c6 bb 73 14 9f bc 08 05 ad bd be ce 24 3d
       -0.006048411 -0.01941893 -0.08448225 0.040236227
0001e0 6f a9 ca bd 91 98 9a 3c c4 fc 0a 3e 3c 96 96 bd
       -0.09895598 0.018871577 0.13572985 -0.07352874
0001f0 c2 90 2b 3c 3c 61 d4 3c ed 39 b1 3d 6e a5 4b 3d
       0.010471525 0.025925271 0.086536266 0.049718313
000200 34 b9 c5 3d 86 d5 98 3d 7a eb 22 3d 28 6f 4b bc
       0.09654465 0.07462601 0.03977535 -0.012416638
000210 b8 29 0b bd 02 7d dd 3c 73 47 85 3e 33 69 9d bc
       -0.033975333 0.027037147 0.26031074 -0.019215202
000220 e4 2d a1 3d 38 65 f9 39 56 42 9b bd 92 ad f3 bc
       0.07870081 0.00047568395 -0.07581012 -0.02974585
000230 c5 25 4c 3e 95 55 c0 3d 8b 5e e2 3d ad 41 0f 3e
       0.19936283 0.093913235 0.11053189 0.13989897
000240 81 3f bb 3c 3c c7 db 3c 63 38 ad 3d db cc 58 bd
       0.02285743 0.0268284 0.084580205 -0.05292974
000250 a8 43 75 bd 9c 77 c3 bc 42 e5 a4 3c a8 f5 aa 3d
       -0.059878975 -0.023860745 0.02012885 0.083476365
000260 33 f9 f7 3d a2 e9 03 3e 46 e6 3f bc 8d 71 e5 3c
       0.12108078 0.12882093 -0.011712616 0.028008247
000270 93 20 3b 3e f9 9d 5e 3e 35 88 2b bc 1c cf 44 3c
       0.18274145 0.2173995 -0.010469486 0.012012269
000280 f3 b5 32 3d 55 b9 a5 3d bc 15 90 3c 36 69 ce 3c
       0.04363055 0.0809199 0.017588489 0.025196653
000290 dd 2f 9e 3d 65 38 f5 3d 77 6f b6 bc a8 bc c3 bc
       0.07723973 0.11973647 -0.022269947 -0.02389367
0002a0 11 d4 aa 3d ea 36 c7 3d a3 fd 2b 3e a8 d5 98 3d
       0.0834123 0.09727271 0.16795973 0.07462627
0002b0 fe 44 0b 3e 98 6d cc 3c 32 4a db 3d c8 2c 47 3e
       0.13600537 0.024954602 0.10707511 0.19450676
0002c0 79 92 ca 3d b7 47 1a 3d 08 66 0f 3d c5 99 9f 3d
       0.09891219 0.03766605 0.035009414 0.07793001
0002d0 a1 56 77 bc 82 7a 16 bc 35 80 f2 3d 80 80 a3 3c
       -0.015096338 -0.009184482 0.1184086 0.019958735
0002e0 dd 57 79 3c 70 d7 d8 3a bd 90 67 3d ff 7e 54 bc
       0.015218702 0.0016543698 0.056534518 -0.012969731
0002f0 2d 54 18 3d 34 27 1b bd d8 67 53 3d a4 e9 a9 3d
       0.03718965 -0.037879184 0.051612705 0.082965165
000300 e3 bb 7e 3b 61 9c 08 3e a3 2d 0a 3e 6f 05 7d bd
       0.0038869313 0.13340904 0.13493972 -0.06177276
000310 00 f4 6c bc b5 71 2a bd ec 60 81 bd 09 9a 02 3e
       -0.014462471 -0.041612346 -0.063173145 0.12754072
000320 ff 60 52 bd c2 f7 30 3b 4f 9a a7 3d c5 87 54 bd
       -0.051362034 0.0027003144 0.08183729 -0.051887292
000330 16 ab ee bd d8 67 35 bb b1 1b 98 bd 7e b5 56 bd
       -0.11653726 -0.0027680304 -0.07427157 -0.05241918
000340 47 74 8a bc 87 c9 d2 3d a3 e7 eb bd 22 93 a4 bc
       -0.016901148 0.102923445 -0.115187906 -0.02008969
000350 60 28 c0 bd 20 13 02 be 2d 38 8f bd 35 d3 2b 3c
       -0.09382701 -0.12702608 -0.069931366 0.010487367
000360 b8 5f 1f bd 57 52 6b 3d 65 4c 47 bd a9 78 16 3d
       -0.038909644 0.057451572 -0.04865684 0.036736164
000370 85 d4 53 3c 08 7c 0c 3d f9 aa bc bd f4 cd da 3b
       0.012929087 0.034297973 -0.09212298 0.0066773836
000380 89 53 e3 3d 68 e3 55 3c f5 90 d3 3c b7 8b ae 3d
       0.110999174 0.013054706 0.025825957 0.08522742
000390 b3 9a 10 bc 1d e3 f2 bc d6 f3 2d bd 32 86 f3 3c
       -0.008825946 -0.029649312 -0.04246887 0.029727075
0003a0 28 72 8f 3b 36 dc 80 bd e6 b6 2a 3c 07 40 b0 bd
       0.004377622 -0.06292002 0.010419583 -0.08605962
0003b0 9d 1b 5d bd 15 2b dd 3c e3 ed 2d bd 8a 74 5f bd
       -0.053981412 0.026998082 -0.042463195 -0.0545545
0003c0 d3 3b 13 be 0a 5a fe bc 53 24 f4 bc f6 7f e4 bd
       -0.1437829 -0.031048793 -0.029802477 -0.11157219
0003d0 fc fd 95 bb e5 97 ae 3c 14 ea ca 3d 17 8d 95 bd
       -0.0045773964 0.021312663 0.09907928 -0.073023014
0003e0 58 13 5b b7 94 1b 83 3d d7 d8 40 3d 15 b9 d7 3d
       -1.3057921e-05 0.064017445 0.047081795 0.105333485
0003f0 76 91 7f 3d e8 7a 37 bd ed 15 33 3d e9 e9 66 3d
       0.06239458 -0.044794947 0.043722082 0.056375418
