New_project/model.pth (torch, 319976 bytes, 8 tensors)

rnn_layer.weight_ih_l0 f4 [512, 7]
0	0xbc1dda2b	-0.009634535
1	0x3c3e144c	0.011601519
2	0x3d99faad	0.07518516
3	0xbdab422e	-0.08362232
4	0xbd818da8	-0.06325847
5	0xbda94142	-0.082644
6	0xbcb8bd91	-0.02255133
7	0xbd7e14c7	-0.062031534
8	0xbd3d7277	-0.04625174
9	0x3cd51538	0.026011094
10	0xbda112dd	-0.07864926
11	0xbb641f84	-0.0034808824
12	0xbe06bd9d	-0.13158269
13	0xbd82669b	-0.06367227
14	0xbdb3913d	-0.087679364
15	0xbd30503a	-0.04304526
16	0x3d68c51b	0.0568286
17	0x3da7bee8	0.08190709
18	0x3d0a3e89	0.033751044
19	0x3d8a7330	0.067602515
20	0xbc305fcc	-0.010765027
21	0xbdc2f971	-0.095202334
22	0xbccf29fc	-0.025288574
23	0x3d927426	0.0715106
24	0xbdcff84f	-0.10154783
25	0xbc5afc49	-0.0133658135
26	0x3ca30f00	0.019904613
27	0xbdacb674	-0.08433238
28	0xbccabba8	-0.024747685
29	0x3c393916	0.011305114
30	0xbd62b625	-0.055349488
31	0x3d8110ef	0.06302058
32	0x3dc6a49c	0.096993655
33	0xbdac8d5a	-0.08425398
34	0xbd582158	-0.052766174
35	0xbe3fa2f0	-0.187145
36	0xbe2729bb	-0.16324513
37	0x3d1138fb	0.03545473
38	0xbd79e392	-0.061008044
39	0xbc9dba61	-0.019253911
40	0xbd66bdbf	-0.0563333
41	0xbd575c7a	-0.052578427
42	0x3e6e0875	0.23245414
43	0x3dc792c7	0.097447924
44	0xbd25b5b7	-0.0404565
45	0xbd2e4536	-0.042546473
46	0x3e3ecfbf	0.18633936
47	0x3e1a4208	0.15064251
48	0x3e80d788	0.25164437
49	0xbc7d8f93	-0.015476125
50	0xbdd78711	-0.10523809
51	0x3d4a9cb1	0.04946584
52	0x3b8f5257	0.0043738293
53	0xbda04291	-0.078251965
54	0xbd66b0aa	-0.056320824
55	0xbc02a268	-0.007973291
56	0x39ee0939	0.0004540177
57	0x3c8d18df	0.017223774
58	0xbd276557	-0.04086813
59	0xbd57a68d	-0.05264907
60	0xbdec483e	-0.115372166
61	0x3c1f36f1	0.009717689
62	0x39dac380	0.0004172586
63	0x3d718a68	0.058969885
64	0x3cd9b2bf	0.02657449
65	0xbd187d45	-0.03722884
66	0xbd1c5e3f	-0.038175818
67	0x3d884001	0.06652833
68	0xbde679db	-0.11253711
69	0x3d96d146	0.073641345
70	0xbd995e5c	-0.07488701
71	0x3dc89c67	0.097954564
72	0x3d59a2ae	0.05313366
73	0x3d163ec0	0.036680937
74	0xbd3eb086	-0.046555065
75	0x3d9ca5d3	0.07648816
76	0xbd27ce6c	-0.040968344
77	0x3bcceb24	0.006253617
78	0xbd3d8cf8	-0.046277016
79	0x3d9b29b7	0.07576316
80	0xbd8cd0d5	-0.06875769
81	0xbdadc39a	-0.08484574
82	0xbde72d05	-0.11287884
83	0xbdaded75	-0.08492557
84	0xbcfdff3e	-0.031005498
85	0x3cfff01d	0.031242425
86	0x3d66215b	0.056184154
87	0x3cfa2734	0.030536272
88	0x3d98bf3d	0.07458351
89	0xbdebf0c5	-0.115205325
90	0xbd4e389e	-0.050346963
91	0x3da75898	0.08171195
92	0xbc5e42ea	-0.013565758
93	0x3d1d3cb7	0.03838798
94	0x3db3690d	0.08760271
95	0x3d97defb	0.07415577
96	0xbd92722f	-0.07150685
97	0x3df89581	0.121378906
98	0x3d7d5fb7	0.06185886
99	0xb9629bee	-0.00021611128
100	0x3d31aeda	0.043379642
101	0x3ce24c67	0.027624322
102	0xbd590940	-0.052987337
103	0xbd41abf7	-0.04728314
104	0xbcec67ec	-0.028858148
105	0x3cab9411	0.020944627
106	0xbdb4663b	-0.088085614
107	0x3dad0c2f	0.084495895
108	0x3d85f559	0.06540937
109	0x3dcd6395	0.100287594
110	0x3c72030a	0.014771232
111	0xbce6a974	-0.028156973
112	0xbe27e713	-0.16396742
113	0xbcbb001b	-0.022827199
114	0x3b4ce73f	0.0031265763
115	0xbcffe8f9	-0.03123902
116	0xbd6dad88	-0.05802682
117	0xbdfd3a1d	-0.123646
118	0xbc492dae	-0.012278957
119	0xbd9a5c96	-0.075371906
120	0x3df98aba	0.12184663
121	0x3d6b5ddf	0.05746257
122	0x3d941558	0.072306335
123	0xbd1fa659	-0.038977
124	0xbdcbb3b6	-0.099463865
125	0x3d2f9944	0.042870775
126	0xbe2be742	-0.16787437
127	0xbd758978	-0.059945554
128	0x3cad11ee	0.021126714
129	0x3afb4531	0.0019170401
130	0xbbec37f5	-0.007208819
131	0xbdb6e8c5	-0.08931116
132	0xbdebe916	-0.11519067
133	0xbbea7132	-0.007154607
134	0x3c8bfe4e	0.017089035
135	0x3d317d04	0.043332115
136	0xbdb1db1d	-0.08684371
137	0x3d623652	0.055227585
138	0x3c185047	0.009296483
139	0xbc5da012	-0.013526933
140	0x3c5cc95c	0.013475742
141	0x3e1cc267	0.15308534
142	0xbda41b65	-0.080130376
143	0x3d0cb188	0.034348994
144	0x3ddad245	0.10684637
145	0x3c96a386	0.01838852
146	0xbc5d1754	-0.013494331
147	0x3db269f6	0.08711617
148	0x3e1358e9	0.14389385
149	0x3c3c65ed	0.01149891
150	0x3d24e019	0.04025278
151	0x3d9885a7	0.07447367
152	0xbe067379	-0.13129987
153	0x3dff4293	0.1246387
154	0xbc27bcc4	-0.010237876
155	0xbe086c3f	-0.13322543
156	0xbcf918ad	-0.030407274
157	0x3cd66ade	0.026174005
158	0x3c588072	0.0132142175
159	0xbc2e9f81	-0.010658146
160	0xbc77eda2	-0.01513234
161	0x3df5ddb4	0.12005177
162	0x3d419a12	0.047266074
163	0xbdaeb0d0	-0.08529818
164	0xbdbc3d99	-0.09191436
165	0xbdb2c663	-0.087292455
166	0x3ca80b7a	0.020513285
167	0x3d550a50	0.052011788
168	0x3d6c5025	0.05769362
169	0x3e105fa5	0.14098985
170	0xbd09ce09	-0.033643756
171	0x3c9e25c6	0.019305121
172	0x3ddade09	0.10686881
173	0x3d8d63c2	0.06903793
174	0xbd3ac182	-0.0455947
175	0x3d6ff9f1	0.058587972
176	0x3d813a9b	0.06310006
177	0xbdedac5a	-0.11605139
178	0xbd8833ab	-0.0665048
179	0xbc9bac2e	-0.019003
180	0xbca80211	-0.020508798
181	0x3cf32a6d	0.029683316
182	0xbd58767c	-0.05284737
183	0xbdb2d308	-0.08731657
184	0x3c2c9710	0.010534063
185	0x3b1ed428	0.0024235342
186	0xbd17e3b6	-0.037082396
187	0x3c766773	0.015039313
188	0xbdea83ee	-0.11450945
189	0xbde94099	-0.11389274
190	0xbda81ccb	-0.08208617
191	0xbd5b7c22	-0.05358518
192	0xbd684458	-0.056705803
193	0xbd9bdc01	-0.07610322
194	0xbc9bd8bd	-0.019024247
195	0xbd481d68	-0.04885617
196	0xbc2ee2e4	-0.010674212
197	0x3d692d44	0.056927934
198	0xbc735909	-0.014852771
199	0xbc99313c	-0.018700235
200	0x3d5b6ca9	0.053570423
201	0x3e00ab25	0.12565286
202	0x3b6f8858	0.0036549773
203	0x3d8ae78d	0.06782446
204	0x3d8b52b4	0.06802884
205	0x3d63cbdc	0.055614337
206	0x3d31e277	0.043428864
207	0x3ccfbe94	0.02535943
208	0xbd858e1d	-0.065212466
209	0x3d4463cb	0.047946732
210	0xbd9bf802	-0.07615663
211	0x3dbcd1ab	0.092196785
212	0x3c9f1258	0.019417927
213	0xbcb46cd4	-0.02202455
214	0xbdfda296	-0.123845264
215	0xbe0a64f3	-0.13515072
216	0xbe2129bf	-0.15738581
217	0xbd86fd68	-0.06591302
218	0xbd9d1723	-0.076704286
219	0x3bfe1024	0.007753389
220	0x3d85f852	0.06541504
221	0xbdb39d6e	-0.08770262
222	0x3d70ab59	0.05875716
223	0xbdb2aaa7	-0.087239556
224	0x3df89c50	0.12139189
225	0x3c760f38	0.015018277
226	0xbd4a4394	-0.049380854
227	0x3d50db7c	0.050990567
228	0xbd0db990	-0.034600794
229	0xbdd71afe	-0.10503195
230	0x3dc59348	0.09647232
231	0x3d196fe3	0.03746022
232	0xbd00afdf	-0.031417724
233	0x3c44dc4e	0.012015415
234	0x3deaf42b	0.114723526
235	0x3d6c482f	0.057686027
236	0x3dfa4e30	0.12221944
237	0x3ce9e142	0.028549794
238	0x3bf04085	0.00733191
239	0x3d2190a2	0.039444573
240	0xbcd1e861	-0.025623502
241	0x3d50cdd6	0.05097755
242	0xbd32c2c8	-0.04364279
243	0xbdd613b8	-0.1045298
244	0xba2bf7df	-0.0006560068
245	0xbbf3fa00	-0.007445574
246	0xbd04b062	-0.032394774
247	0xbd304944	-0.04303862
248	0x3cc19502	0.023630623
249	0xbcc2eac7	-0.023793591
250	0x3d82a4db	0.063791
251	0xbd79b8d4	-0.06096728
252	0x3deab2f3	0.11459913
253	0x3ce5eaca	0.028066058
254	0xbd9b7f09	-0.075925894
255	0x3ca24616	0.01980881

rnn_layer.weight_hh_l0 f4 [512, 128]
0	0xbce5f0e9	-0.028068976
1	0x3b8bb74b	0.0042637936
2	0x3c8677fa	0.016414631
3	0xbd864fbf	-0.06558179
4	0x3da65b8a	0.081229284
5	0xbc6e5a38	-0.014547877
6	0x3de399d8	0.11113328
7	0x3d874f51	0.06606925
8	0xbd197efd	-0.03747462
9	0x3daa1562	0.0830486
10	0xbdd4ed45	-0.10396818
11	0x3c971eb5	0.01844726
12	0xbde1412f	-0.10998761
13	0x3d87cb1e	0.066305384
14	0xbca4ce79	-0.020117985
15	0x3d0134a9	0.03154436
16	0xbd7c66ac	-0.061621353
17	0x3d921bbe	0.07134198
18	0xbab21725	-0.001358722
19	0xbd50f886	-0.05101826
20	0xbcab78ca	-0.02093162
21	0xbcdc2f9f	-0.026878176
22	0x3d0e650c	0.034764335
23	0x3dc64d76	0.09682743
24	0x3d538014	0.051635817
25	0xbb30b9bd	-0.0026966177
26	0xbd34840d	-0.044071246
27	0x3d178e50	0.037000954
28	0x3d248584	0.040166393
29	0x3d8a0fe7	0.067413144
30	0xbce11e33	-0.02748022
31	0x3dbf9b01	0.093557365
32	0x3d0c4855	0.03424867
33	0xbcf2c4ca	-0.029634852
34	0x3d48a09b	0.04898129
35	0xbc17b569	-0.00925956
36	0xbd989fc9	-0.074523516
37	0x3d406ad9	0.046976898
38	0x3d70bb0e	0.05877214
39	0x3cdbac88	0.026815668
40	0x3d74a0de	0.059723727
41	0xbdcbbae7	-0.09947758
42	0xbba80616	-0.0051276786
43	0x3d687151	0.056748692
44	0x3d939e23	0.072078966
45	0xbdde9130	-0.10867536
46	0x3d475aae	0.048670463
47	0x3d1221bb	0.0356767
48	0xbcab29c1	-0.020893933
49	0xbd0f7562	-0.035024054
50	0xbc47df49	-0.012199231
51	0x3db066b6	0.086133406
52	0x3d81b212	0.06332792
53	0xbcb6b517	-0.022303147
54	0x3d5169bf	0.051126238
55	0xbd3a8a43	-0.045542013
56	0xbd889a71	-0.06670082
57	0x3e0dd608	0.13851178
58	0x3deef4b7	0.116677694
59	0xbde4d4c2	-0.11173393
60	0xbdc8158c	-0.09769735
61	0x3c7b9292	0.015354769
62	0xbdf2ddfb	-0.11858746
63	0xbd93d5c8	-0.0721851
64	0x3d8a1dcb	0.06743964
65	0x3c40a52e	0.011758132
66	0x3b2783ce	0.002556074
67	0xbd5f8c59	-0.054577205
68	0xbd2d7828	-0.042350918
69	0xbd552669	-0.052038584
70	0xbd498dad	-0.04920738
71	0xbcec70d5	-0.028862396
72	0xbdc56a8b	-0.09639462
73	0xbd1fcd4b	-0.039014142
74	0xbc7cd27a	-0.015431041
75	0x3c0a9b96	0.008459946
76	0x3de6d008	0.112701476
77	0x3de949bc	0.11391017
78	0x3d2ca6ba	0.04215119
79	0x3d152fab	0.036422413
80	0x3d13a760	0.036048293
81	0xbd32edcb	-0.04368381
82	0xbd66dd79	-0.056363557
83	0xba4638d9	-0.00075615715
84	0x3dc83e28	0.0977748
85	0xbc8dd809	-0.017314928
86	0xbd49358c	-0.049123332
87	0xbb658a9b	-0.0035025242
88	0xbafa07ba	-0.0019075789
89	0xbca6d8d8	-0.020367071
90	0xbd41c03d	-0.047302473
91	0x3dacd203	0.08438494
92	0x3d435bd7	0.047695007
93	0xbdbff0c7	-0.093720965
94	0x3d980d39	0.07424397
95	0x3da544e7	0.08069783
96	0xbcf70809	-0.030155199
97	0x3c8640ee	0.016388383
98	0x3d5bf82b	0.05370347
99	0xbd674f9f	-0.056472417
100	0x3dab222d	0.08356128
101	0x3bf45f5c	0.007457657
102	0xbd4f5dfb	-0.050626736
103	0x3d4842fd	0.04889201
104	0xbd7ad34d	-0.06123667
105	0x3c972ffd	0.0184555
106	0x3da39af8	0.07988542
107	0x3d962bd6	0.0733258
108	0x3b93cf1e	0.0045107743
109	0xbd580e3d	-0.052747954
110	0x3cab04d5	0.020876328
111	0xbda45754	-0.08024469
112	0x3d93d634	0.072185904
113	0x3db91e03	0.090389274
114	0x3d5050a7	0.050858166
115	0x3d8e66ba	0.06953187
116	0x3bea0efa	0.0071428986
117	0x3c41ea16	0.011835596
118	0xbbd415eb	-0.0064723394
119	0xb9c5ab3e	-0.00037702353
120	0x3c85913d	0.016304607
121	0xbde83fdb	-0.113403045
122	0xbda6747d	-0.08127687
123	0x3dacb39c	0.08432695
124	0xbd539d15	-0.051663477
125	0xbd9f7df4	-0.077876955
126	0x3bd0be3d	0.0063703344
127	0x3cacc6e6	0.021090936
128	0x3d2ca4e6	0.042149447
129	0x3c48717c	0.012234088
130	0xbc95eef2	-0.018302415
131	0x3d26dde7	0.040738966
132	0xbb953535	-0.004553462
133	0x3d7f9dd9	0.062406395
134	0xbcb0bfff	-0.021575926
135	0xbd8453b7	-0.0646128
136	0xbd5ca243	-0.053865682
137	0xbdaf15ed	-0.08549104
138	0xbd22eeb1	-0.039778415
139	0xbcedf738	-0.029048547
140	0x3ca5caac	0.020238243
141	0x3dc095a4	0.09403542
142	0xbcc06b83	-0.023488766
143	0xbd6100e4	-0.05493249
144	0x3d89072a	0.066908196
145	0xbc95f872	-0.018306945
146	0x3bdcd3c1	0.00673911
147	0xbd7e32ba	-0.062060095
148	0x3c6ef857	0.014585576
149	0x3dc9b7e8	0.098495305
150	0xbd3d698d	-0.04624324
151	0x3de01706	0.10941891
152	0x3d31a810	0.043373168
153	0x3d640184	0.055665508
154	0x3c5aba19	0.013350033
155	0x3d1017dc	0.035179004
156	0x3d4f4b48	0.050608903
157	0x3d7efe8a	0.062254466
158	0x3d463498	0.04839
159	0xbd1c28db	-0.0381249
160	0xbc6d4018	-0.014480613
161	0xbdcaa937	-0.098955564
162	0xbcd2a038	-0.025711164
163	0x3b833680	0.0040042996
164	0x3d1f97db	0.03896318
165	0xbd34e0a6	-0.044159554
166	0x3dd0c945	0.10194639
167	0xbd10921f	-0.035295602
168	0xbc5fe18f	-0.013664617
169	0x3cccf5ed	0.02501961
170	0xbdd752ec	-0.10513863
171	0x3d5865fe	0.052831642
172	0x3d3f34dc	0.04668127
173	0x3c806ee8	0.015677884
174	0xbdbf0a37	-0.0932812
175	0xbce9e2b0	-0.028550476
176	0x3c2a38e4	0.01038954
177	0xbd3f1ccc	-0.046658322
178	0xbc31136a	-0.010807851
179	0xbcce79ee	-0.025204625
180	0x3d944ab4	0.07240811
181	0x3db2a473	0.087227724
182	0x3d5be31b	0.05368338
183	0xbd46db8c	-0.04854922
184	0xbc9019e9	-0.01759048
185	0x3c093f2b	0.008376877
186	0x3cc3425a	0.02383535
187	0x3dcefdae	0.10106979
188	0x3cef0c3b	0.029180637
189	0x3d991ced	0.0747622
190	0x3c135406	0.008992201
191	0xbd59adf7	-0.05314442
192	0xbd29a0c2	-0.041413076
193	0xbda4622e	-0.08026539
194	0xbdc3efc5	-0.09567217
195	0x3dbd438c	0.09241399
196	0xbbd2ed4c	-0.0064369794
197	0xbdf6088a	-0.120133474
198	0x3d93d993	0.07219233
199	0x3b98326c	0.0046446826
200	0xbd6587b9	-0.05603764
201	0x3daf6076	0.0856332
202	0x3c18878d	0.009309662
203	0xbde32d46	-0.110926196
204	0xbc49e183	-0.012321833
205	0x3d87dad0	0.06633532
206	0xbcd92a39	-0.026509391
207	0x3d49c8c2	0.049263723
208	0x3c9718fe	0.018444534
209	0x3ce41510	0.027842075
210	0x3dbcfbcb	0.09227713
211	0x3cddc735	0.027072528
212	0x3c84013f	0.016113875
213	0x3d026d55	0.03184255
214	0x3dae880b	0.08522042
215	0xbda2d4d9	-0.07950754
216	0x3d65927d	0.056047905
217	0xbcd64c47	-0.026159419
218	0xbc4244bd	-0.011857209
219	0xbd872872	-0.06599511
220	0x3ccbe864	0.024891086
221	0xbdc608bf	-0.09669637
222	0xbc8d4261	-0.017243566
223	0xbbe48549	-0.0069738966
224	0x3d672da9	0.05644003
225	0x3d1839a9	0.037164364
226	0xbc53a7dd	-0.01291844
227	0x3d3ad218	0.045610517
228	0x3d2fbad1	0.04290277
229	0xbc242b11	-0.010020033
230	0xbd36d7bf	-0.044639345
231	0xbd2b0883	-0.041756164
232	0xbcfb4fc4	-0.030677684
233	0xbd508c78	-0.05091521
234	0x3dec1e71	0.11529244
235	0xbdbbae92	-0.09164156
236	0xbbee2656	-0.0072677536
237	0x3d098f13	0.03358371
238	0xba50ecce	-0.0007969857
239	0xbdaec49b	-0.08533593
240	0x3d30dfb3	0.043182086
241	0x3cd623f4	0.02614019
242	0xbb81c0b2	-0.0039597386
243	0xbd22990a	-0.03969673
244	0x3daf98ca	0.08574064
245	0x3cf56886	0.029957067
246	0xbcdef5dc	-0.027216844
247	0xbd60ec96	-0.054913126
248	0x3d28faf8	0.041254967
249	0x3bceacf1	0.0063072373
250	0x3b95f888	0.0045767464
251	0x3d6585c4	0.056035772
252	0xbc1e96af	-0.00967948
253	0xbd20fd16	-0.03930386
254	0xbd7cbf15	-0.061705668
255	0xbddfd2b6	-0.10928862

rnn_layer.bias_ih_l0 f4 [512]
0	0xbd78ae24	-0.06071295
1	0x3da85306	0.082189605
2	0x3d922dc3	0.071376346
3	0x3db5e15b	0.08880874
4	0x3dd99fb6	0.106261656
5	0x3e1cf3f2	0.15327433
6	0x3e006d07	0.1254159
7	0x3d9ee1fe	0.07757948
8	0x3d3672d1	0.04454309
9	0x3da0cb6a	0.07851298
10	0x3c319e6b	0.010840992
11	0xb9dd7b7c	-0.00042244408
12	0x3dd8be6f	0.10583197
13	0x3c93fee0	0.01806587
14	0xbd5e13dd	-0.05421816
15	0x3dd418da	0.103563026
16	0x3d87ae07	0.0662499
17	0xbcdc5e67	-0.026900483
18	0x3e05b445	0.13057049
19	0x3d5bbe7c	0.053648457
20	0x3cb7149a	0.02234869
21	0x3d7de8bd	0.061989535
22	0x3e074f45	0.13213833
23	0xbac6a9d2	-0.0015156812
24	0xbabd2946	-0.0014431856
25	0x3e112213	0.14173155
26	0x3d707115	0.058701593
27	0xbd5b64a7	-0.053562786
28	0xbced8c82	-0.028997663
29	0x3d782dfc	0.06059073
30	0x3c0c4c11	0.0085630575
31	0xbc59ebbf	-0.013300835
32	0x3dd2300a	0.10263069
33	0x3dc97e7d	0.09838579
34	0xbb5ded2d	-0.0033863292
35	0x3ba34c5f	0.0049834694
36	0x3d7bdde6	0.061490916
37	0x3d3eef32	0.046614833
38	0xbd38277d	-0.044959534
39	0xbd899590	-0.0671798
40	0xbaf3b11e	-0.0018592214
41	0x3da53aa3	0.08067825
42	0xbbbd5871	-0.0057783653
43	0x3ddf841a	0.10913868
44	0x3d9ea0c9	0.07745511
45	0x3cd0d89a	0.025493909
46	0xbd145962	-0.036218055
47	0x3dc65acc	0.09685287
48	0x3e16a7d7	0.14712463
49	0x3b987b5f	0.004653379
50	0x3e05e7a3	0.13076644
51	0x3dcc2945	0.09968809
52	0xbcfd8bf3	-0.030950522
53	0xb9ebdbb2	-0.0004498638
54	0x3d8d9ff3	0.069152735
55	0xbd4fb7ea	-0.050712503
56	0x3de633f7	0.1124038
57	0x3d535785	0.051597137
58	0xbd587d59	-0.052853916
59	0x3d2fdd57	0.042935695
60	0xbbb5c615	-0.005547295
61	0x3bb8c818	0.0056390874
62	0xbc655768	-0.01399789
63	0xbc947ad3	-0.018124973
64	0x3e010eb4	0.12603265
65	0xbcf53227	-0.029931141
66	0x3d8cb8a5	0.06871156
67	0x3ccc22ef	0.024919001
68	0xbd398e7f	-0.04530191
69	0x3da459b5	0.08024923
70	0x3cd758c6	0.026287448
71	0xbbed3bc2	-0.0072397897
72	0xbd176d97	-0.036969747
73	0x3da81d05	0.0820866
74	0x3dee198f	0.11625969
75	0x3dddb758	0.10825986
76	0x3c5f3fcc	0.01362605
77	0xbd278fc0	-0.040908575
78	0x3cf38bce	0.02972975
79	0x3d96a15b	0.07354995
80	0x3d5b9671	0.05361027
81	0xbd179b06	-0.037013076
82	0xbb9f523d	-0.0048620985
83	0xbd8686e1	-0.06568695
84	0xbc99c1f9	-0.018769251
85	0x3da713ce	0.08158074
86	0x3d6a48ff	0.05719852
87	0x3da50e21	0.080593355
88	0x3d1371e9	0.035997305
89	0x3d91e69a	0.07124062
90	0x3d6bf673	0.05760808
91	0xbc72bcd1	-0.014815525
92	0x3c45a9eb	0.012064437
93	0x3dc2a5e6	0.09504299
94	0x3c772df3	0.015086639
95	0x3db339f3	0.08751287
96	0x3e173ab4	0.14768487
97	0x3db84928	0.089983284
98	0x3dc47f6b	0.095946155
99	0xbc28cd63	-0.010302874
100	0xbc8ee13a	-0.01744138
101	0xbcd6473b	-0.026157012
102	0x3d485cc9	0.04891661
103	0xbd50efcc	-0.051009938
104	0x3c940622	0.01806933
105	0x3d89a222	0.067203775
106	0xbcc1221c	-0.023575835
107	0x3decf912	0.11570944
108	0x3e068a22	0.13138631
109	0xbd0965e8	-0.03354445
110	0xbbb3eaa7	-0.005490619
111	0x3d59c200	0.05316353
112	0xbcdf9797	-0.027293963
113	0x3e1b1a7b	0.1514682
114	0x3dab2d81	0.083582886
115	0x3dd68731	0.104750045
116	0x3dfd2e13	0.123623036
117	0x3c8de41a	0.017320681
118	0xbcdae829	-0.02672203
119	0xbc726679	-0.014794939
120	0x3d76fc90	0.060299456
121	0x3ca19d8d	0.019728446
122	0xbc86b584	-0.016443975
123	0x3dc60357	0.09668606
124	0x3d883e15	0.06652466
125	0x3d1f6ecd	0.038924027
126	0xbc94e537	-0.018175704
127	0x3c9cf713	0.019160783
128	0x3c3f0d9c	0.01166096
129	0x3daa6a70	0.083210826
130	0xbd17691f	-0.036965486
131	0x3cb5aaf2	0.02217624
132	0xbd1b04d7	-0.037846413
133	0x3cd76ce5	0.026297042
134	0xbd8a0b34	-0.06740418
135	0x3c2fc2e0	0.010727614
136	0x3d6bfaca	0.057612218
137	0xbdab76b2	-0.08372249
138	0xbc85c66a	-0.016329963
139	0xbc9afb49	-0.01891865
140	0x3d9267d1	0.07148708
141	0x3da8c2d2	0.08240284
142	0xbd4fc4f5	-0.050724942
143	0x3d8171d8	0.06320542
144	0xbd448845	-0.04798152
145	0x3cd4ea97	0.025990767
146	0x3d012d12	0.031537123
147	0xbcda24a9	-0.026628809
148	0x3c5b656c	0.01339088
149	0x3d7d536f	0.061847147
150	0x3d03bed6	0.032164417
151	0xbc2ebcf8	-0.010665171
152	0x3d69de6c	0.057096884
153	0x3cfe8dbe	0.031073447
154	0xbcd3461c	-0.025790267
155	0xbda2fd17	-0.07958429
156	0x3d6933ca	0.056934156
157	0xbd710ccb	-0.05885009
158	0xbd043761	-0.032279376
159	0x3cffd4db	0.031229427
160	0xbdc646d9	-0.09681482
161	0x3d8f68c4	0.07002404
162	0xbc23c2ee	-0.009995205
163	0x3ccf1409	0.025278108
164	0x3da78972	0.081805125
165	0xbd791fc5	-0.060821313
166	0xbd231acc	-0.039820477
167	0xbd8fd3a1	-0.07022787
168	0xbd0522ff	-0.032504078
169	0x3d4ee9f0	0.05051607
170	0xbd5e10ef	-0.054215368
171	0xbd91281d	-0.07087729
172	0xbd90a014	-0.070617825
173	0x3cdb60fe	0.026779648
174	0x3cb48ab8	0.022038803
175	0xbc225f48	-0.009910412
176	0xbdd161b1	-0.10223711
177	0xbd9cc688	-0.07655054
178	0x3d109a65	0.035303492
179	0xbd9f6e91	-0.07784761
180	0xbcd82c08	-0.026388183
181	0x3cbbdcac	0.022932373
182	0xbd7ceca8	-0.06174913
183	0xbc28331a	-0.01026609
184	0x3d30bab6	0.04314681
185	0x3d57009e	0.052490823
186	0xbd63f1df	-0.055650588
187	0x3a3e43f3	0.000725805
188	0xb9f2d03c	-0.00046312984
189	0xbd3a8cfa	-0.045544602
190	0x3b0a44bd	0.00210981
191	0xbcbcb41c	-0.023035102
192	0x3bdb38f7	0.0066901403
193	0x3d372903	0.044716846
194	0xbd9dc2ae	-0.07703148
195	0xbd281984	-0.04103996
196	0x3d57b804	0.052665725
197	0xbd8a0255	-0.06738726
198	0x3d3288ae	0.04358738
199	0x3d47182b	0.048607033
200	0xbd04ecc6	-0.032452367
201	0xbccd968d	-0.025096202
202	0x3d4fb439	0.050708983
203	0xbda2fa25	-0.079578675
204	0x3cadc104	0.021210201
205	0x3d8efdcc	0.06982002
206	0xbd6d2022	-0.057891972
207	0x3d3ad9c6	0.04561784
208	0xbd06249f	-0.03274977
209	0xbc7c2218	-0.015388988
210	0xb99b46aa	-0.00029616553
211	0x3d29b2ef	0.04143041
212	0xbd9e22f7	-0.07721513
213	0x3ce934a3	0.028467482
214	0x3bdbb95f	0.0067054476
215	0x3da63349	0.081152506
216	0x3d87b6a5	0.066266336
217	0xbd501904	-0.050805107
218	0x3d973929	0.07383949
219	0x3d861bfd	0.06548307
220	0xbc37cb33	-0.01121788
221	0x3c2f37f6	0.0106944945
222	0xbbffde85	-0.007808509
223	0xbc7d73c6	-0.015469497
224	0x3da488b8	0.080338895
225	0xbd96f140	-0.073702335
226	0x3cd5244d	0.026018286
227	0xbd82bc05	-0.06383518
228	0xbd4a511c	-0.04939376
229	0xbcd8afc9	-0.026451008
230	0x3d619883	0.055077087
231	0x3d416a52	0.047220536
232	0xbd98236d	-0.07428632
233	0xbd682128	-0.056672245
234	0xbc5a60c0	-0.013328731
235	0x3d77ecf0	0.060528696
236	0xbd9ccc53	-0.07656159
237	0x3c5e4654	0.013566572
238	0xbbb9508f	-0.0056553553
239	0x3d7d46e6	0.061835192
240	0xbd610260	-0.054933906
241	0xbd7fc63a	-0.062444903
242	0xbd2fc24c	-0.042909905
243	0x3bfbeb6e	0.0076879775
244	0xbd1e0e6e	-0.03858798
245	0x3d90b437	0.07065623
246	0x3d80b6f8	0.062848985
247	0xbd268d30	-0.04066199
248	0xbd57fb36	-0.052729808
249	0xbe118bae	-0.1421344
250	0x3d7254b3	0.059162807
251	0x3aff7ba0	0.0019491799
252	0xbd1033b4	-0.035205558
253	0x3d9f56d6	0.077802345
254	0xbcea1c46	-0.028577935
255	0xbce1d88d	-0.02756908

rnn_layer.bias_hh_l0 f4 [512]
0	0x3d6ff510	0.05858332
1	0xbcb60c8e	-0.022222783
2	0xbd70d6a1	-0.058798436
3	0xbcc39557	-0.023874922
4	0x3cd67f91	0.026183875
5	0x3d9c91db	0.07645007
6	0x3d45c127	0.048279908
7	0xbd340b83	-0.04395629
8	0x3d964416	0.07337205
9	0x3daaa7c8	0.08332783
10	0x3cbfe601	0.023425104
11	0x3c90ea14	0.017689742
12	0x3d81d48f	0.063393705
13	0x3df9cf39	0.12197728
14	0x3d0eafe3	0.034835707
15	0x3d831c74	0.064019114
16	0x3e21650a	0.157612
17	0x3cb953ef	0.02262303
18	0xbbd08d9f	-0.006364539
19	0x3dcd79dd	0.10033009
20	0x3dbe022c	0.09277758
21	0x3d7bb765	0.061454196
22	0x3e0bd057	0.13653694
23	0xbd4ace2f	-0.04951304
24	0x3dbb4f69	0.09146006
25	0xbb345f55	-0.0027522643
26	0xbd82e247	-0.06390815
27	0x3dbcd05b	0.09219428
28	0x3c8a63e0	0.016893327
29	0x3e105cde	0.14097926
30	0x3aa2d148	0.001242199
31	0x3d520464	0.05127372
32	0xbcae2840	-0.021259427
33	0x3dd1e997	0.10249632
34	0xbc00eff2	-0.007869707
35	0x3d48d52c	0.04903142
36	0xbce86925	-0.02837045
37	0x3c5ad6ac	0.013356846
38	0x3d02ca3f	0.03193116
39	0x3d2cb725	0.042166848
40	0xb9391abd	-0.00017652936
41	0x3be96cad	0.007123551
42	0x3dcb3406	0.09922032
43	0x3dbbf2a8	0.091771424
44	0xbd73576a	-0.059409536
45	0x3d4e2caa	0.050335564
46	0x3c09b177	0.008404127
47	0x3dd0e184	0.10199264
48	0x3ca23309	0.019799726
49	0xbbfe2b96	-0.0077566607
50	0x3dc4a352	0.096014634
51	0xbd69d5de	-0.057088725
52	0x3b82b330	0.003988646
53	0x3de917ad	0.11381469
54	0x3d42acab	0.04752795
55	0x3dff9684	0.124798805
56	0x3dbb20bb	0.09137102
57	0x3cab9bee	0.020948377
58	0x3d921684	0.07133201
59	0x3dc485df	0.095958464
60	0xbc4242d2	-0.0118567515
61	0x3ca87e10	0.020567924
62	0x3dc7cbb1	0.09755648
63	0x3dcd4f7a	0.100249246
64	0x3dffb6d4	0.124860436
65	0x3d2cbb80	0.042171
66	0xbb103b23	-0.0022007904
67	0x3dbffd7e	0.09374522
68	0xbced7b10	-0.028989345
69	0xbd4078ce	-0.04699021
70	0xbcdb5aa0	-0.026776612
71	0x3ab5b6f7	0.0013863732
72	0x3dc4477c	0.09583947
73	0x3c88e5b5	0.016711095
74	0xbc164445	-0.00917155
75	0xbd169074	-0.036758855
76	0x3bad8b5d	0.0052961544
77	0x3d92c648	0.071667254
78	0x3d924760	0.0714252
79	0x3d6a6c9c	0.057232484
80	0x39f124c4	0.00045994495
81	0x3d02b472	0.031910367
82	0x3ceeefd1	0.029167088
83	0xbbd05955	-0.0063583055
84	0xbd63887e	-0.05555009
85	0x3c9148f0	0.017734975
86	0xbd2f6ae7	-0.04282656
87	0xbc69649b	-0.014245178
88	0x3d62b839	0.05535147
89	0x3e095ce2	0.13414338
90	0xbb9b5b80	-0.0047411323
91	0x3dc8392b	0.09776529
92	0x3be7b86e	0.0070715463
93	0x3a8d1f1f	0.0010766721
94	0x3d139c39	0.036037657
95	0x3d9f6839	0.07783551
96	0x3daa783e	0.083237156
97	0x3d62915f	0.055314418
98	0x3cb8bae7	0.02255006
99	0x3d4e52c6	0.050371908
100	0x3dbd1720	0.09232926
101	0x3df5c831	0.12001074
102	0x3c6bd5ba	0.014394218
103	0xbd220276	-0.03955313
104	0xbd76bfa7	-0.060241368
105	0xbcf3f414	-0.029779471
106	0x3d3cba3d	0.04607605
107	0x3db1eab2	0.08687343
108	0xbc6ded16	-0.014521858
109	0x3d340608	0.043951064
110	0x3d47a5ed	0.048742224
111	0x3c63d873	0.013906586
112	0x3d6fac5a	0.058513977
113	0x3ddbb524	0.10727909
114	0xbc47c5b0	-0.0121931285
115	0x3d4dd4c7	0.05025175
116	0x3de5f798	0.112288654
117	0xbd8406ec	-0.06446633
118	0x3da34662	0.07972409
119	0xbd450644	-0.04810168
120	0x3e0ac9da	0.13553563
121	0x3e0413a0	0.12898111
122	0x3dc7f090	0.097626805
123	0x3d5d6f3e	0.054061167
124	0x3d5074b6	0.050892554
125	0x3dc7b164	0.097506315
126	0x3d0e70f0	0.034775674
127	0xbcc2ba81	-0.023770573
128	0x3dabf530	0.08396375
129	0xbd92a5b0	-0.07160509
130	0xbd9bcdd7	-0.0760762
131	0xbbffe17e	-0.007808863
132	0x3c9d4fba	0.019203056
133	0xbcaf6ddd	-0.021414692
134	0xbdc82f24	-0.09774616
135	0xbd99d476	-0.07511227
136	0xbd0400bc	-0.032227263
137	0xbdf699d4	-0.12041059
138	0x3d45c205	0.048280735
139	0xbda5c145	-0.08093504
140	0x3d0e4261	0.034731273
141	0xbd089ea3	-0.033354413
142	0xbdaf8b32	-0.08571471
143	0xbd754e4e	-0.05988913
144	0xbd5246ef	-0.05133718
145	0x3c2e0301	0.010620833
146	0xbd35ab3c	-0.044352755
147	0x3c81ba2d	0.015835846
148	0xbd44a11f	-0.04800522
149	0xbc7bd1ed	-0.015369874
150	0xbc1a865b	-0.009431447
151	0x3de18666	0.110119626
152	0xbda1df98	-0.07903975
153	0x3d0d6740	0.034522295
154	0xbd9d88b7	-0.07692092
155	0x3da10fb9	0.07864327
156	0x3b92db86	0.0044817356
157	0xbc42969f	-0.011876731
158	0x3ce39bac	0.027784191
159	0xbcc3009d	-0.023804003
160	0xbd6e4d92	-0.058179446
161	0xbd90ea1e	-0.07075904
162	0xbc444bb6	-0.0119809415
163	0xbd2643de	-0.040592067
164	0xbcbac900	-0.022800922
165	0xbbbfe3e7	-0.0058560255
166	0xbd0c9fa6	-0.03433194
167	0xbd85b3ad	-0.06528411
168	0xbd913464	-0.07090071
169	0xbdacbc77	-0.08434384
170	0xbcaf1d58	-0.021376297
171	0x3d39efbf	0.045394655
172	0x3d78a004	0.060699478
173	0x3d47172c	0.048606083
174	0x3a6235e4	0.0008629246
175	0x3d912ef7	0.07089036
176	0xbd4d5e38	-0.050138682
177	0x3c1f6bfb	0.009730334
178	0xbd2d2a77	-0.042276826
179	0x3aef5fb6	0.0018262777
180	0x3d86e4b1	0.06586588
181	0xbcc858a4	-0.02445633
182	0x3c2d0523	0.010560307
183	0xbd3a30e1	-0.04545677
184	0xbda9074c	-0.08253345
185	0x3c6a73f0	0.014309868
186	0xbdbd9ae6	-0.0925806
187	0x3d876bc2	0.0661235
188	0xbd3c83a5	-0.046023984
189	0x3d4f10f4	0.050553277
190	0x3dad18ea	0.084520176
191	0xbc91ea48	-0.01781191
192	0xbcbea083	-0.023269897
193	0xbd22bd0f	-0.03973108
194	0xbd89edda	-0.0673482
195	0x3cc2c498	0.023775384
196	0xbdc98f7b	-0.0984182
197	0x3d0c7710	0.034293234
198	0x3c3b3171	0.011425362
199	0xbd879c15	-0.06621567
200	0x3d56deab	0.052458446
201	0xbb97b95b	-0.0046302504
202	0xbcf4932f	-0.029855339
203	0xbd2c551c	-0.042073354
204	0x3a02212c	0.00049640494
205	0xbd4d2880	-0.050087452
206	0xbd5febda	-0.054668285
207	0x3c77edd1	0.015132383
208	0xbc96f753	-0.01842848
209	0x3d03964f	0.032125767
210	0xbb2c858d	-0.002632472
211	0xbd8347cf	-0.06410181
212	0x3d978ec7	0.074002795
213	0x3d6ac026	0.057312153
214	0x3beeba6f	0.007285408
215	0x3da35389	0.079749174
216	0xbd8eea87	-0.06978326
217	0xbe1eb04e	-0.15496942
218	0xbdad24cf	-0.08454286
219	0x3c78c372	0.015183317
220	0x3a96f087	0.0011515775
221	0x3d3a4e06	0.045484565
222	0x3cf26678	0.029589877
223	0xbb455bdd	-0.003011457
224	0x3da7fd16	0.08202569
225	0xbd1d7573	-0.038442086
226	0xbd5e75f4	-0.054311708
227	0x3cde04b9	0.027101861
228	0x3d2bd538	0.041951388
229	0x3d8d5ff0	0.06903064
230	0xbcfb973a	-0.030711759
231	0xbd992e18	-0.07479495
232	0xbdaed537	-0.08536761
233	0xbdbe6aef	-0.0929774
234	0xbd395d46	-0.045254968
235	0xbd7d4b37	-0.06183931
236	0xbd80b85b	-0.06285163
237	0xbd8d13c9	-0.06888539
238	0x3d27fdad	0.04101341
239	0x3b007a42	0.0019604121
240	0x3d747c1c	0.059688672
241	0xbd92871d	-0.07154677
242	0x3c60bcbe	0.013716875
243	0xbd93963e	-0.07206391
244	0xbdc5d54f	-0.09659826
245	0x3d29cf2b	0.041457336
246	0xbda210c2	-0.079133525
247	0x3cb29dd6	0.021803778
248	0xbcf64f77	-0.030067189
249	0xbdf7b7fa	-0.120956376
250	0x3d264a2b	0.040598076
251	0x3c4addcc	0.012381982
252	0x3d69027e	0.056887142
253	0x3d8fd426	0.07022886
254	0x3d5b31c3	0.053514253
255	0xbd305508	-0.043049842

dense_layers.0.weight f4 [64, 128]
0	0xbd680a51	-0.056650463
1	0x3cc3d286	0.023904096
2	0xbda86270	-0.082219005
3	0x3dcece37	0.10097926
4	0xbd89c317	-0.067266636
5	0xbd3345a6	-0.043767594
6	0xbcd292ab	-0.025704702
7	0xbb006e39	-0.0019596948
8	0xbddff9ae	-0.109362945
9	0xbd40e2e1	-0.04709137
10	0xbd367511	-0.044545237
11	0x3dd92744	0.106031924
12	0x3dddf8fc	0.108385056
13	0xbded3da3	-0.11584022
14	0x3de671bb	0.11252161
15	0xbd44a093	-0.048004698
16	0x3d4a7922	0.049431928
17	0xbc9c575a	-0.019084621
18	0xbda424d6	-0.080148384
19	0xba2b1fe4	-0.00065278844
20	0xbc20aadb	-0.00980636
21	0xbd1d6ae3	-0.038432013
22	0x3d6a2d2c	0.057171986
23	0xbcb1caed	-0.021703208
24	0xbd98b8c3	-0.074571155
25	0x3d6912ad	0.056902576
26	0x3c86876b	0.016421994
27	0xbdec16aa	-0.1152776
28	0x3d0214a2	0.03175796
29	0xbca2c5a0	-0.019869626
30	0x3da74fb0	0.08169496
31	0x3c62c8a9	0.013841786
32	0xbd414a5b	-0.04719005
33	0xbd5d1ca6	-0.0539824
34	0x3c23f5e9	0.01000736
35	0x3d4ac3f3	0.049503278
36	0x3d196c8a	0.037457027
37	0x3c620b31	0.013796614
38	0xbbfa3f4f	-0.0076369415
39	0xbd2b3c0c	-0.041805312
40	0x3d503424	0.050830975
41	0xbcd111b6	-0.02552114
42	0xbbd4e2b1	-0.0064967503
43	0xbc23f5e3	-0.010007354
44	0xbdd0e4a7	-0.10199862
45	0xbd80f58a	-0.06296833
46	0xbd2d4172	-0.04229874
47	0xbd90dba5	-0.07073144
48	0x3da1aaf2	0.07893933
49	0x3db80951	0.08986152
50	0x3cb2d3d2	0.02182952
51	0x3d62b841	0.0553515
52	0x3d97fddd	0.074214675
53	0x3a337864	0.00068462477
54	0x3cf470f7	0.029839022
55	0x3bca595b	0.006175203
56	0xbd52bedc	-0.05145155
57	0x3d1d1555	0.038350422
58	0x3d1dd65e	0.038534515
59	0x3ca4e223	0.020127362
60	0x3cced0cb	0.025246045
61	0x3dbe52d1	0.0929314
62	0x3d29bbde	0.04143893
63	0xbdb1bd2c	-0.0867866
64	0x3c849a70	0.016186923
65	0x3993f731	0.00028222197
66	0x3d3f6ec2	0.046736486
67	0xbc302aa7	-0.010752357
68	0x3c84c141	0.016205432
69	0xbdb3ea73	-0.08784952
70	0xbd1447aa	-0.036201157
71	0xbdddadae	-0.108241424
72	0x3cc898fe	0.024487015
73	0x3d09b7bf	0.0336225
74	0x3dda3c4b	0.10656031
75	0xbcb9d844	-0.022686131
76	0x3d109cb2	0.035305686
77	0xbddaaa46	-0.10677008
78	0x3d50b899	0.050957296
79	0x3b3d545e	0.0028889398
80	0x3d9676ee	0.07346903
81	0x3da0a15c	0.07843277
82	0xbc3b0c71	-0.0114165405
83	0x3db5e62b	0.08881792
84	0xbc93905f	-0.018013177
85	0xbdd82d9e	-0.10555576
86	0x3d92b554	0.07163492
87	0xbb58f7f5	-0.0033106778
88	0xbd00a179	-0.031403992
89	0xbd393eea	-0.045226015
90	0xbd089270	-0.03334278
91	0xbc4be0f7	-0.0124437725
92	0xbc96b488	-0.01839663
93	0xbd832690	-0.064038396
94	0xbc5623a0	-0.013070017
95	0x3d025138	0.031815737
96	0x3d5e8a06	0.05433085
97	0xbcf98f69	-0.030463891
98	0x3c0dcd26	0.008654868
99	0xbd35cca2	-0.044384606
100	0x3d233a87	0.039850738
101	0x3d005c38	0.031337947
102	0xbda57a88	-0.080800116
103	0xbc29912b	-0.010349552
104	0x3d607dbe	0.054807417
105	0x3d1196e4	0.03554429
106	0x3b348d57	0.0027550065
107	0xbdc354da	-0.095376685
108	0x3da41177	0.08011144
109	0x3c530dae	0.012881679
110	0x3c94e843	0.018177157
111	0xbca92f2a	-0.020652372
112	0x3dc217c0	0.09477186
113	0x3d2c948b	0.04213385
114	0x3de7f2b1	0.113255866
115	0x3d7d5429	0.06184784
116	0xbd5adf4a	-0.0534356
117	0xbd8debf2	-0.069297686
118	0x3d84555b	0.06461593
119	0xbdd5395d	-0.10411332
120	0xbda59cbc	-0.08086535
121	0x3c2b0f9f	0.010440736
122	0xbd2a7c98	-0.041622728
123	0xbc8afe9a	-0.016967107
124	0x3dfbd214	0.122959286
125	0xbde83b64	-0.11339453
126	0x3d8a47d7	0.067519836
127	0xbd2eb31b	-0.042651277
128	0xbdb327ce	-0.087478265
129	0x3dc868cd	0.09785614
130	0xbdcaa2c4	-0.09894326
131	0x3d23c901	0.039986614
132	0x3d41214e	0.047150902
133	0x3d96e8fd	0.07368658
134	0x3dc4694f	0.095903985
135	0xbb8a817d	-0.004226862
136	0x3c8b258d	0.016985679
137	0x3dde0590	0.10840905
138	0xbd24662f	-0.040136512
139	0x3d026dac	0.031842873
140	0x3c3cc4f0	0.011521563
141	0x3b52eeae	0.0032185721
142	0x3dcd690b	0.10029801
143	0xbcd44270	-0.025910586
144	0xbe1ae8cb	-0.15127866
145	0xbc22dc04	-0.009940151
146	0xbd034de9	-0.032056723
147	0x3bc5da59	0.006037992
148	0x3d19a0f8	0.037507027
149	0x3cd776e8	0.026301816
150	0xbbafcd15	-0.005365024
151	0x3cae8588	0.021303907
152	0x3d3615df	0.04445445
153	0x3d6de94b	0.058083814
154	0x3dbad663	0.09122922
155	0xbdd18346	-0.102301165
156	0x3ce4b877	0.027919991
157	0xbc94198d	-0.01807859
158	0x3d93d676	0.072186396
159	0xbc997bd8	-0.018735811
160	0x3db937dc	0.090438575
161	0xbc3ccfa0	-0.011524111
162	0xbd8d1204	-0.06888202
163	0xbdd2f718	-0.10301036
164	0x3d9557c9	0.07292134
165	0xbc7db7f1	-0.01548575
166	0xbd9f7811	-0.07786573
167	0x3d8f89f1	0.07008732
168	0x3d374902	0.04474736
169	0x3d67db57	0.056605663
170	0xbc9012e3	-0.01758713
171	0xbdbf36ae	-0.09336601
172	0xbdee803e	-0.11645554
173	0xbd85a257	-0.065251045
174	0xbcffa3ff	-0.03120613
175	0x3b671462	0.0035259952
176	0x3da8a70c	0.08234987
177	0x3d2c15bb	0.04201291
178	0x3d607703	0.054801
179	0x3dd60a71	0.1045121
180	0x3d8eb7b8	0.06968635
181	0x3d2f546d	0.042805124
182	0xbd866267	-0.065617375
183	0xbd6b2672	-0.05740971
184	0xbcb8b6fe	-0.022548195
185	0xbd2ecbf2	-0.042674966
186	0x3da03e83	0.07824423
187	0xbd40c2ca	-0.047060765
188	0xbd24df6d	-0.040252138
189	0x3de737dc	0.11289951
190	0xbc2de8be	-0.010614572
191	0x3d84707f	0.064667694
192	0xbba1441e	-0.0049214503
193	0xbd848a75	-0.06471721
194	0x3d33bf13	0.043883394
195	0xbd816a44	-0.06319097
196	0xbd84061e	-0.06446479
197	0x3d1d078a	0.038337268
198	0x3d71444c	0.058903024
199	0xbdb94724	-0.09046772
200	0xbd08df0b	-0.033415835
201	0x3daf5f5a	0.08563109
202	0x3da19b9c	0.07891008
203	0xbd684840	-0.056709528
204	0x3d920612	0.07130064
205	0x3c2e6ea0	0.010646492
206	0x3d9282d1	0.071538575
207	0xbc6e4548	-0.014542885
208	0xbd01eb9e	-0.031718843
209	0x3dc858f5	0.09782592
210	0xbc23b85b	-0.009992684
211	0x3da6f9e9	0.08153135
212	0xbcd3f29e	-0.025872525
213	0xbd946e27	-0.072475724
214	0xbce10f31	-0.027473064
215	0x3b911216	0.004427205
216	0x3d8e3fc1	0.06945754
217	0xbd8bd183	-0.068270706
218	0xbdce3ca9	-0.10070164
219	0x3d7f8df8	0.06239125
220	0x3d7ca17d	0.061677445
221	0xbdd1af1f	-0.1023848
222	0xbda5b419	-0.080909915
223	0xbc618518	-0.013764642
224	0x3da4234d	0.080145456
225	0x3db659e8	0.08903867
226	0x3cd58464	0.026064105
227	0x3d96ed77	0.073695116
228	0xbd19bdb4	-0.03753443
229	0xbd99a089	-0.07501323
230	0xbdb700c5	-0.08935694
231	0xbd1c2ea9	-0.038130436
232	0x3dbcc9f2	0.092182055
233	0x3d67acba	0.05656121
234	0x3db405bb	0.087901555
235	0x3c0108eb	0.007875661
236	0x3daa1ad1	0.08305896
237	0x3d66cdae	0.056348495
238	0xbd947bd6	-0.07250182
239	0xbd357a18	-0.04430589
240	0x3d1b2b24	0.03788294
241	0x3c6f72aa	0.01461474
242	0xbd42ac65	-0.04752769
243	0xbc28d380	-0.010304332
244	0xbdb28dad	-0.08718429
245	0x3cba90ef	0.022774188
246	0x3d7b5fa1	0.061370496
247	0x3d184af5	0.03718086
248	0x3d54ca95	0.05195101
249	0xbde82ba1	-0.113364466
250	0x3d6ab00d	0.0572968
251	0xbdc6ac13	-0.09700789
252	0xbcd35e45	-0.025801787
253	0x3d42ee32	0.047590442
254	0xbc707971	-0.014677391
255	0x3d843496	0.064553425

dense_layers.0.bias f4 [64]
0	0xbd1dad14	-0.03849514
1	0x3b7ca71d	0.0038551756
2	0x3d87e42c	0.06635317
3	0xbd7b766b	-0.06139223
4	0xbc786356	-0.015160402
5	0xbda5875a	-0.08082457
6	0xbd958152	-0.073000565
7	0x3d709c87	0.058743026
8	0x3d901191	0.070346005
9	0x3d8d985f	0.06913828
10	0x3d12d4be	0.035847418
11	0x3d8d3cc6	0.06896357
12	0x3d8dc7a3	0.06922843
13	0xbcb79a2d	-0.022412384
14	0x3d8ec547	0.069712214
15	0xbbbca591	-0.0057570417
16	0x3d893356	0.06699245
17	0x3cbc5707	0.022990717
18	0x3b941a96	0.004519771
19	0xbda86889	-0.082230635
20	0xbcf39150	-0.029732376
21	0x3db8bba1	0.090201624
22	0xbd581499	-0.05275402
23	0xbdaaf83e	-0.0834813
24	0xbd80612a	-0.062685326
25	0x3c35130e	0.011051906
26	0xbd615886	-0.055016063
27	0xbc93140c	-0.017953895
28	0xbd25d3bf	-0.04048514
29	0xbd3bce0b	-0.045850795
30	0x3d1dba00	0.03850746
31	0x3cc3a5fa	0.023882855
32	0x3dbc704c	0.092011064
33	0x3d63eada	0.055643894
34	0x3c19539f	0.009358316
35	0x3c832b6c	0.016011916
36	0xbd1dc644	-0.03851916
37	0x3d0fd27b	0.03511284
38	0xbce51088	-0.027961984
39	0x3d22cb88	0.039744884
40	0xbd6f5cb7	-0.05843803
41	0xbd0ceda9	-0.034406338
42	0x3d5902d9	0.05298123
43	0xbd8c741f	-0.06858086
44	0x3db3605a	0.08758612
45	0xbd9da938	-0.076982915
46	0xbd6325b3	-0.055455875
47	0x3db4923e	0.08816956
48	0x3d9a5892	0.07536425
49	0x3d501167	0.050797846
50	0xbc809b0d	-0.015698934
51	0x3d48a8f9	0.04898927
52	0x3d7c0b95	0.061534483
53	0x3d8a2f84	0.06747344
54	0x3d827b24	0.063711435
55	0xbc98e779	-0.018665062
56	0x3d453697	0.048147764
57	0xbd3053fc	-0.043048844
58	0xbd76a515	-0.06021603
59	0x3da33cee	0.07970606
60	0xbc8a6ba7	-0.016897036
61	0x3d26cd1a	0.040722944
62	0x3daaaadc	0.0833337
63	0x3ca39cc3	0.01997221

dense_layers.2.weight f4 [14, 64]
0	0x3d8ad7ae	0.06779419
1	0x3d8cc312	0.06873144
2	0xbe833268	-0.25624394
3	0x3ccf38db	0.025295665
4	0x3e51822c	0.20459813
5	0x3d1b6f22	0.03794778
6	0xbd85694d	-0.06514225
7	0x3c4ebaca	0.012617776
8	0xbe49faa0	-0.19724512
9	0x3c1b8f0c	0.009494554
10	0xbe861a0e	-0.26191753
11	0x3e639a2c	0.2222678
12	0xbe37369b	-0.17891924
13	0xbc1cf092	-0.009578841
14	0x3d921537	0.07132953
15	0xbd92ebf5	-0.071739115
16	0xbd55ade8	-0.052167803
17	0x3df70fc9	0.12063558
18	0xbd4eeb57	-0.050517406
19	0xbd2119c4	-0.039331213
20	0x3dc4f446	0.09616904
21	0xbd0a3758	-0.033744186
22	0xbd8cb76d	-0.06870923
23	0xbdb16447	-0.086617045
24	0x3dd73c14	0.10509506
25	0xbe62f559	-0.22163905
26	0xbe5feb72	-0.21867159
27	0x3e3e0cd9	0.18559588
28	0x3c8ac5f5	0.016940096
29	0x3e06d754	0.13168079
30	0x3e9e9ba4	0.3097812
31	0xbbd71b61	-0.006564543
32	0xbc57982b	-0.013158838
33	0x3e16d6bf	0.14730357
34	0xbcb23601	-0.021754267
35	0x3e0e2f26	0.13885173
36	0x3c6c1b4b	0.014410804
37	0x3e0fc356	0.14039358
38	0xbe80de08	-0.25169396
39	0xbda09a5c	-0.07841942
40	0xbe2ee30d	-0.170788
41	0xbe44798a	-0.19186988
42	0x3c9b915b	0.01899021
43	0x3e800c69	0.25009468
44	0x3bb469f1	0.0055057933
45	0x3e82741a	0.25479203
46	0xbe63d145	-0.22247799
47	0xbd6da098	-0.058014482
48	0x3da380bc	0.079835385
49	0x3df47c78	0.11937803
50	0xbcab3c9e	-0.020902928
51	0x3cc244e8	0.023714498
52	0x3e0d93dd	0.13825937
53	0xbdcce8fe	-0.10005377
54	0xbd4c1c6e	-0.0498318
55	0x3e5278ef	0.20553945
56	0x3de2a4b3	0.1106657
57	0xbd8a784d	-0.06761227
58	0x3e55fc21	0.20896961
59	0x3e0aae9e	0.13543174
60	0xbd9362e9	-0.071966
61	0xbdacb020	-0.08432031
62	0xbd62a3e9	-0.0553321
63	0x3d433c50	0.04766494
64	0xbd2b41b1	-0.041810695
65	0xbe0ce2eb	-0.13758437
66	0x3d5e49c5	0.05426957
67	0x3d7ae101	0.061249737
68	0x3d38edc6	0.045148633
69	0x3d2d3244	0.042284265
70	0xbdc9ebbf	-0.09859418
71	0x3c941f47	0.01808132
72	0xbd140238	-0.03613493
73	0x3dd8ea30	0.10591543
74	0x3ce0cbb2	0.02744088
75	0xbc065f05	-0.008201365
76	0xbc37a628	-0.011209048
77	0xbd0d1664	-0.03444518
78	0xbd8c65f8	-0.068553865
79	0x3d26e049	0.04074124
80	0x3df62736	0.12019198
81	0x3cb63f14	0.022246875
82	0xbda71f95	-0.08160321
83	0x3dfa0748	0.1220842
84	0x3d88acc3	0.06673577
85	0xbd414563	-0.047185313
86	0xbd77ce4b	-0.06049947
87	0x3a925479	0.0011164091
88	0x3d25f24e	0.040514283
89	0x3e2364f7	0.15956484
90	0xbdca1195	-0.09866635
91	0xbd09a400	-0.03360367
92	0xbd9da8ad	-0.07698188
93	0xbce9584a	-0.028484482
94	0xbbb68ed8	-0.0055712275
95	0x3d116c11	0.03550345
96	0x3bd11a23	0.0063812896
97	0xbd595b6a	-0.053065695
98	0xbda29547	-0.07938629
99	0x3ccd92bf	0.025094388
100	0x3deae34b	0.11469134
101	0xbdee1b6b	-0.11626323
102	0x3d2ce3e4	0.04220952
103	0x3ce403d5	0.027833859
104	0xbd4b436f	-0.049624857
105	0xbdbc1b57	-0.09184902
106	0x3dce22b1	0.100652106
107	0x3d2cfc61	0.042232875
108	0xbd561f04	-0.052275673
109	0x3e0b0f6d	0.13580103
110	0x3dc44f19	0.09585399
111	0xbd58141a	-0.052753545
112	0xbe06cf28	-0.13164961
113	0x3de0ce7c	0.10976884
114	0x3d0c8f28	0.034316212
115	0x3d55b5e4	0.052175418
116	0x3da54662	0.08070065
117	0xbd3fdceb	-0.046841543
118	0xbddb90dc	-0.10720989
119	0xbdc9cf84	-0.098540336
120	0xbdabbb64	-0.08385351
121	0x3e1b2e2f	0.15154336
122	0x3e1fbbda	0.15599003
123	0x3daa86d7	0.083265
124	0x3e01995f	0.12656163
125	0x3d114cea	0.03547374
126	0x3d3d27d1	0.04618055
127	0xbe019233	-0.12653427
128	0x3df469da	0.11934252
129	0x3debd121	0.115144975
130	0xbe884de7	-0.26621935
131	0xbbb8b09e	-0.005636289
132	0x3d9a3aa9	0.0753072
133	0x3e55b5d4	0.20870143
134	0x3e9d74bc	0.30753124
135	0x3e00ca4c	0.1257717
136	0xbd1f2e17	-0.038862314
137	0xbe1d4f19	-0.15362205
138	0x3e3a8431	0.1821449
139	0xbe8ddb60	-0.27706432
140	0x3c4ff9b9	0.012693816
141	0x3db2c32d	0.08728633
142	0xbe88ac10	-0.26693773
143	0x3e007d1b	0.12547724
144	0xbdbbfb2d	-0.09178767
145	0xbeb112a3	-0.3458453
146	0x3dad3b66	0.08458595
147	0x3d9663cd	0.07343254
148	0xbdf30b10	-0.118673444
149	0xbe6a5d0b	-0.22887056
150	0x3c87553d	0.016520137
151	0xbd301e04	-0.042997375
152	0xbe839fd6	-0.25707883
153	0xbd4865cf	-0.048925217
154	0x3e256855	0.16153081
155	0xbd684038	-0.05670187
156	0x3d6629ff	0.056192394
157	0x3d887d24	0.06664494
158	0xbdd032c4	-0.10165933
159	0x3d5951af	0.053056415
160	0xbe844af1	-0.25838426
161	0x3da17ac9	0.078847475
162	0x3e8363f2	0.2566219
163	0xbe00b02e	-0.12567207
164	0x3be2d8d8	0.0069228224
165	0x3da457c5	0.08024553
166	0xbe858f19	-0.26085737
167	0xbea31ab2	-0.31856304
168	0xbe892f8d	-0.2679409
169	0xbe7853e6	-0.24250755
170	0xbd03e0ba	-0.032196738
171	0x3d9c965b	0.076458655
172	0x3d0a038b	0.033694785
173	0x3e65aa42	0.2242823
174	0x3d90edbf	0.070765965
175	0xbdd6b574	-0.10483828
176	0xbdaa4865	-0.083145894
177	0x3d96fad3	0.0737206
178	0xbdfa86b5	-0.122327246
179	0xbd2da2a2	-0.042391427
180	0x3e12b5d6	0.14327177
181	0xbc80aa47	-0.015706195
182	0x3d700660	0.05859983
183	0x3e52727f	0.2055149
184	0xbd42d1bd	-0.047563303
185	0xbdee2620	-0.116283655
186	0x3e77f821	0.24215747
187	0xbe8fc835	-0.28082433
188	0xbd1d29c9	-0.038369928
189	0x3e31b9d4	0.17356044
190	0xbbac7456	-0.0052628918
191	0xbe7be1a7	-0.24597798
192	0xbde23f80	-0.11047268
193	0xbe3fc6b9	-0.1872815
194	0xbf1b5e6d	-0.6069096
195	0xbd330bb3	-0.04371233
196	0xbd9f002d	-0.077637054
197	0xbc24603d	-0.010032711
198	0x3d348b86	0.044078372
199	0x3dec8260	0.115483046
200	0xbdbe0b85	-0.09279541
201	0xbc3005cd	-0.0107435705
202	0x3ea08fbe	0.31359667
203	0x3d1e4a61	0.038645152
204	0xbe0f67d5	-0.14004453
205	0xbd978560	-0.07398486
206	0x3dbfcbd1	0.09365047
207	0x3b52dc4e	0.003217477
208	0x3e2780cc	0.16357726
209	0xbd29446b	-0.041325014
210	0xbe58148f	-0.21101592
211	0x3e862765	0.2620193
212	0x3dcb574e	0.099287614
213	0xbd333fe3	-0.0437621
214	0xbd70714f	-0.05870181
215	0x3d493538	0.04912302
216	0x3c1549dc	0.009111848
217	0xb9385eab	-0.00017582874
218	0x3c6286fa	0.013826126
219	0x3d4cc3a6	0.049991272
220	0xbdf56abc	-0.119832486
221	0x3d58f053	0.052963566
222	0xbdb1f806	-0.08689885
223	0x3d2088b9	0.03919289
224	0x3d34ef65	0.044173617
225	0xbdb111d6	-0.0864598
226	0xbd437b83	-0.04772521
227	0x3deb1904	0.11479381
228	0x3e16a48b	0.14711206
229	0xbe0f4447	-0.1399089
230	0x3c92124a	0.017830987
231	0x3bae305e	0.0053158244
232	0xbd87cc77	-0.066307954
233	0xbe5e0c92	-0.21684483
234	0xbc7aeb9e	-0.015314965
235	0xbd996d63	-0.07491567
236	0x3e6af07e	0.22943303
237	0x3e95f6f5	0.29289976
238	0x3e685173	0.2268732
239	0xbe1a25c3	-0.15053467
240	0xbcf3a7fc	-0.029743187
241	0xbe208557	-0.15675865
242	0x3e0aba74	0.13547689
243	0xbb9d2aeb	-0.004796376
244	0xbe5cd93d	-0.21567245
245	0x3d839c2d	0.064262725
246	0xbcbeaacf	-0.023274807
247	0x3b583bb7	0.0032994577
248	0x3b01ead8	0.0019823816
249	0x3ddc680f	0.10762035
250	0xbcf10b0f	-0.029424218
251	0x3d5e317a	0.054246403
252	0xbb209708	-0.0024504084
253	0xbe0805d2	-0.1328347
254	0xbe8fdf9d	-0.2810029
255	0x3c0ff50e	0.008786453

dense_layers.2.bias f4 [14]
0	0x3dab3dca	0.08361395
1	0x3dbb0d73	0.091334246
2	0x3d65d23a	0.05610869
3	0xbdaddce3	-0.084893964
4	0xbd44576e	-0.047934942
5	0x3d760dd9	0.0600718
6	0xbd75e0f3	-0.06002898
7	0x3dbec0d6	0.09314124
8	0xbd19b8e6	-0.03752985
9	0xbc835d3b	-0.016035667
10	0xbdaa3913	-0.08311667
11	0x3d847c11	0.06468976
12	0xbce0156e	-0.027353968
13	0x3daefbe2	0.085441366
