New_project/modelo_checkpoint.pth (torch, 459448 bytes, 8 tensors)

rnn_layer.weight_ih_l0 f4 [624, 7]
00000000: a239 e63d 93e9 bb3c 1c4b bf3c c663 223d
00000010: 295d 8b3d 2475 c2bd 2803 803d 38c3 1e3d
00000020: 2a79 dbba 2aba 7f3d d688 58bd 1423 ad3c
00000030: d22a 673d 82ea 603d 9f23 3f3c a862 38bc
00000040: 0227 013d b66e 7dbd dcac e2bc d717 94bd
00000050: 6251 e83b 990c 54bc 8ce4 1f3d 2045 8e3d
00000060: 3128 853c 7e74 d43c a3d6 2abc b8b5 e73d
00000070: 88be 98bc 47fe ecbb 0c89 6cbd c6b4 583d
00000080: 1089 263d 5b51 a73a 1206 73bd a451 a83d
00000090: 5036 673d 3ffb 05bd e442 7f3d 5762 f73d
000000a0: f5b5 63bd bb38 743d 4409 32bd 58f6 52bd
000000b0: e99c c63c 97ed 993d 2c79 efba 9c20 dd39
000000c0: a458 e9bc 0711 193d 6296 d43d f144 8e3d
000000d0: ced2 043d 7a90 803d 5cd2 25bd 285d 4e3c
000000e0: 12e5 65bd 5c99 303d 4b02 40bc 24f8 41bd
000000f0: de2e 2fbc 1f50 a43d 7f96 01bd d5d9 0a3c
00000100: ccbc 29bd 1d28 183c 9c99 adbd 8875 a63c
00000110: 97fa e3bd f722 febc 33f5 263c d3c6 6cbd
00000120: 53c7 483b 28ce 883c 44b1 2ebd cee3 87bd
00000130: 8ce3 8ebc d591 083d 4801 38bc 6999 69bd
00000140: fa88 86bc b3c1 773c d01b b0bd 19d0 123d
00000150: 09e8 703d 355b 123e b617 d73d 64b6 fc3d
00000160: b608 fa3d 4fbf e0bc b0d3 b6bb 72fd 843d
00000170: e824 803d c538 f33d d09a e23d 49a2 043b
00000180: ba1d 6cbd 839d 6ab9 d5e3 a93d 34fb b93d
00000190: cc29 07bd 5a9b d83c 08e7 bebb fb9b 0cbc
000001a0: f712 8b3d 1466 ae3d 0ef0 a1bb 75ab 4dbd
000001b0: 0a59 b03d 5c29 2e3c 7916 d7ba 3784 ea3d
000001c0: 3a36 55bd a402 27bd 3ab5 7dbd 2235 e5bc
000001d0: 99a8 0ebd 3ffd 24bd b0a8 3cbd 0d19 843d
000001e0: 0c9b 0cbc 3438 a33d b3b6 fa3d 2afc b83d
000001f0: d417 d0bd f6ca 8d3b 224b 513d b6f2 e5bc
00000200: 0d13 3fbc 2790 f1bc 1d79 7abc 4ff2 c63d
00000210: 3dd8 b43a 72ad f03b 673e 0f3e 3283 bf3d
00000220: d9f1 a13d 7926 fb3c 3049 31be c80c 7bbc
00000230: 3565 a73d 6cc0 bc3d b5bc f8bc 2414 95bc
00000240: 819c d53c 3253 a9bc 4fa0 903d bd90 8d3d
00000250: 653f 15bd e2e0 2cbd bd61 8c3c 477b 9ebc
00000260: 29b3 423d 3ff7 b83d c9e0 f13b 2548 813c
00000270: daa5 a53d bb16 cc3c 01db d13d b372 c8bd
00000280: 6bdb b73d aaa6 ec3d 0671 cc3d 16a0 7e3b
00000290: 2a2d 823c 5dc4 cdbc 1cce 17bd e0d3 973d
000002a0: c705 053d 0eb5 963d 607f 5c3d 88dd 90bc
000002b0: dd38 c93d 0965 92bd 3c4e d33d 0541 89bc
000002c0: 86c0 793c 6425 943d 3e30 823d 5320 aabc
000002d0: f99a b6bd 5ac3 863d 20ba 923d 13cd 0e3d
000002e0: 17f7 41bd 4435 edbd 124c e8bc d375 d43d
000002f0: 1806 683c 84bf 6d3d a81e dc3d 485e 98bd
00000300: 23ee 7dbd 4240 443d 8982 2fbd 256c a4bc
00000310: 3160 84bc 9181 c03d 6d0a 58bd 1fba cdbc
00000320: 4530 1f3d 7081 a4bd 5ee5 d1bc 9754 8cbc
00000330: d34f 76bd 79ce a63c 7586 61bd 186f 123c
00000340: 3492 a33c 8f66 253d 7463 903d c04a 613d
00000350: a409 c33d 744a 6d3d 00bf d33b 8c9e 3bbc
00000360: 820e db3d 07ef 0dbd d850 683d 2958 9e3b
00000370: 4464 103d 1ba8 cabc 55a2 f83c c462 803c
00000380: 1ba7 50bd 172c 01bd 2a64 92bd 6cb9 3fbb
00000390: 7e7a 573d a41d c7bc 180d 58bd 8689 053e
000003a0: f392 ac3b 83f1 b83c 42ee 1abb 0f48 083d
000003b0: 9c58 b33c d68c 053e 86f3 a83d cd46 18bd
000003c0: a9a8 3d3d 12aa a73d f6ab 27bd 99e0 6fbd
000003d0: 6087 233a 7188 be3c 3167 91bd 548b 913c
000003e0: 8d6a 373c 547d e0bb 39cf b93d ccb6 f93c
000003f0: 752c 19bd 87f0 34ba d3a5 673d 3990 903d
0.11241461 0.022938525 0.023351245 0.039645933 0.06804878 -0.09494999 0.06250602 0.038760394
-0.0016744484 0.0624334 -0.052864872 0.02113489 0.05643732 0.054911144 0.011666208 -0.01125399
0.03153134 -0.06187316 -0.027670316 -0.072311096 0.0070897797 -0.012942457 0.03903632 0.06946778
0.016254516 0.025934454 -0.01042715 0.11313957 -0.01864554 -0.0072324607 -0.057747886 0.052906774
0.040658057 0.0012765335 -0.05933196 0.08218697 0.05644828 -0.03271031 0.06231965 0.12079304
-0.05559345 0.059624415 -0.043465868 -0.051504463 0.024244742 0.0751602 -0.0018270365 0.000421767
-0.02848465 0.037369754 0.10380246 0.06946743 0.0324276 0.06277557 -0.040483817 0.012595452
-0.05612666 0.043115005 -0.011719297 -0.047355786 -0.010692326 0.080230944 -0.031637665 0.008474787
-0.041439816 0.0092869075 -0.08476564 0.020319715 -0.111317806 -0.031022532 0.010190296 -0.0578068
0.0030636385 0.016699865 -0.042649522 -0.06635247 -0.017442487 0.0333422 -0.011230774 -0.05703107
-0.016422737 0.015121865 -0.08599055 0.03584299 0.058815036 0.14292605 0.105025694 0.12339476
0.12208693 -0.027434973 -0.0055794343 0.06493653 0.06257039 0.11876062 0.110646844 0.002023833
-0.057645537 -0.00022374657 0.08295409 0.09081116 -0.032998845 0.026441265 -0.005825881 -0.0085821105
0.06790727 0.085155636 -0.004941947 -0.050212342 0.08610733 0.010629978 -0.0016409896 0.11450999
-0.052053668 -0.040774003 -0.06194041 -0.027979437 -0.034828756 -0.040280577 -0.04605931 0.064500906
-0.008581888 0.07969704 0.12241878 0.090324715 -0.10160795 0.0043271733 0.051097043 -0.028069835
-0.011662257 -0.029487683 -0.015287665 0.097141854 0.0013797354 0.007344895 0.13988648 0.093511954
0.07907457 0.030657994 -0.17313075 -0.0153228715 0.081736006 0.09216389 -0.03036342 -0.01819808
0.026075603 -0.020669553 0.070618264 0.06912372 -0.03643741 -0.042206652 0.017136449 -0.019345893
0.04753414 0.090315334 0.007381533 0.015781472 0.08088274 0.024913182 0.1024685 -0.09787502
0.089773975 0.11555226 0.09982495 0.0038852743 0.015890677 -0.025118047 -0.037061796 0.07413459
0.032476213 0.07358752 0.05383241 -0.01768376 0.09825299 -0.07148177 0.103176564 -0.016754637
0.015243655 0.07233694 0.06356858 -0.020767367 -0.089162774 0.06580229 0.07164407 0.034863543
-0.047354784 -0.11582425 -0.028356586 0.10374036 0.014161609 0.05804397 0.10748035 -0.07439858
-0.061994683 0.047912844 -0.042849097 -0.020071099 -0.016159149 0.09399713 -0.052744318 -0.025113164
0.038864393 -0.08032501 -0.025622066 -0.01713018 -0.06013472 0.020362126 -0.05505987 0.00893762
0.019967176 0.04038101 0.07050219 0.055002928 0.09523323 0.057932332 0.006461978 -0.011451375
0.106961265 -0.034651782 0.056717724 0.004832287 0.03525187 -0.024738362 0.030350843 0.015672095
-0.050940614 -0.031536188 -0.07148011 -0.0029254807 0.052607052 -0.024306126 -0.052746862 0.13040742
0.005266541 0.0225761 -0.0023640548 0.033271845 0.021892838 0.13042006 0.082495734 -0.037176896
0.046303425 0.08186735 -0.04093548 -0.058563802 0.0006238129 0.02325842 -0.0709976 0.017766632
0.011194837 -0.006850878 0.09072728 0.030482672 -0.037395913 -0.00069022964 0.056554627 0.07058758

rnn_layer.weight_hh_l0 f4 [624, 156]
00000000: 360c e0bb 850d 1ebe 6b95 11be 7250 e7bd
00000010: 4d7d 92bd ee58 d83d a525 c2bd 5d38 0e3e
00000020: ad37 0b3d b70a a13c 1f04 aabd 9e17 80bd
00000030: 136b d93d 41bc 1f3d d14b edbd c1dc eabd
00000040: c96e 093e dbdb 343d 8e1f 223d ae70 e93c
00000050: 7131 b03d 6309 b3bd 6a5b 2b3d c202 ad3d
00000060: 07a8 1b3e 4514 db3d bb28 7abd 8185 fabd
00000070: 0495 d0bc 054d e5b9 22f1 013e bc2e d33d
00000080: 2af5 cebc f1b2 603d 8291 883d ce51 8bbc
00000090: 98f5 10be 01bb d7ba f541 443c ffea 743d
000000a0: 4528 883d 4bf3 75bb 2244 543d fd8d ca3d
000000b0: 9097 e63d f727 1cbd 827b 223e 1f63 d83b
000000c0: 5083 27bd c74a bfbc 5751 033e 0bab d0bd
000000d0: 4663 fd3d 5d80 d3bd 56cd 173d d1ec 1e3e
000000e0: 7202 d43d ce6c 95bd bdf8 063e a320 183e
000000f0: 0af4 1bbe 1c9b a23d b66a bfbd 601c a93d
00000100: d868 a6bd a66e d83c f501 8a3d 10ed a13c
00000110: 69c5 493d 20ce f7bd 2093 dabc 0ac8 05bd
00000120: f7f6 54bd 8bd8 ce3c e2f4 3fbd 5360 2bbc
00000130: 2a09 1ebc c715 dbbc 38b3 e2bc 6d9b 953d
00000140: db5d bb3c 30fa 09be 7b73 e23c 55fb 623d
00000150: b82c 543d 4f23 36bd 3ee3 24be 4d44 df3d
00000160: 540f 543d 8d4f bebd ad47 fe3c cd02 adbd
00000170: fbb3 72bb cfd9 0e3d 4041 693d 71dd a93d
00000180: dbd1 ecbd 0727 cabd 324c 923d 12eb f6bc
00000190: 7999 3bbd 2ce0 f33d 4c06 c23c 97f2 e3bd
000001a0: 0cd4 2bbb 21ee db3d d825 903d b6ec 17be
000001b0: d864 6abd 8da7 1dbd 64bd 5bbc 7fd1 36bd
000001c0: db48 73bc d988 92bc dc04 c53d 060d f5bd
000001d0: cfc9 bf3c 6a93 743d 6cc8 bdbc 6ec8 0f3e
000001e0: 45ef c43d e19b 103e cffe 5339 a9f7 9a3d
000001f0: 5315 b7bd 5ebf 413d 304a 4d3d e0ab 823d
00000200: e361 2c3d cc8b 18bd 08f1 d33d 13fc 85bd
00000210: 5332 eabc c51f 7bbc ba97 11be db8a 003e
00000220: ba48 34bd 2e2f dfbd 4609 8bbd b89b 9fbd
00000230: db0b 0d3d 279c ff3d 4c1e 763d 2892 23be
00000240: f524 8e3d f271 01be 5076 83bc c9e0 fb3d
00000250: 3edf 3dbd 7221 ba3d a574 bbbd 0dcf 973d
00000260: 47e1 4bbd f09f 223e c43b 023e c3e2 eabd
00000270: 04be 693d 93c1 373d 89c5 28bd f41c 30bc
00000280: deb4 0d3d f6b7 553d a262 b33c 6ebe 3c3e
00000290: 2870 83bc 333d 923d 72be febc 1149 8e3d
000002a0: 4de9 013e b92b 063e f263 17be df69 f3bd
000002b0: 3c85 983c a85a e93d eb0b 563c a8cb 8a3d
000002c0: b5cc 55bb 146d 943d e319 213d 39e3 2f3d
000002d0: 391c 223e 6479 67bc a396 ee3a 730c b0bd
000002e0: 235f d1bc 0ac1 bcbd 05da cf3d fb0a e4bc
000002f0: 49e0 6fbc bc18 a23c 91ff 17bc 6102 cbbd
00000300: 8ddf 81bd 2bf3 423d 1309 11bd 6bd6 e8bc
00000310: 8012 613d 2531 64bd c1be f53d 645b ae3c
00000320: bd0a 343c e698 5bbc 7ab5 953d dacf 9a3b
00000330: 9c67 5abc d1bc ebbd ade9 aebc 88c3 4ebb
00000340: 533b 823d ee39 4ebc 88b8 713d 6e0b e33d
00000350: 80ba a43d 8c59 dfbd 6185 c33d ce1f 353d
00000360: c3ff b9bd 1767 a23d 4e18 7dbd 24ac 043d
00000370: 0b98 8f3d 701a 1f3d 5a44 353d 2f92 3ebd
00000380: 7fb5 033d 7778 bfbc 4eec a7bd df09 17be
00000390: 66aa 903d c0e3 ab3d b926 c8bd b24d 9ebd
000003a0: cc09 2fbd bd7a 61bd 01d2 333b 965f 3f3c
000003b0: e68d 72bd 8a94 1bbe e2d0 f13d 7de6 ffbc
000003c0: d7a3 9a3d 2879 993d 5147 ce3c 0bea 1c3e
000003d0: 8755 853d b05a 853c 94d8 a53d b3b7 d5bd
000003e0: 0690 cebb 1e0f 92bd e3ac b83d 7bea a8bc
000003f0: df0e 4cbd 9113 d53c aa27 9fbd 9e1e e5bd
-0.006837393 -0.15434845 -0.14217155 -0.112946406 -0.071528055 0.10563837 -0.094798364 0.13888688
0.033988643 0.01965843 -0.08301567 -0.062545046 0.10616126 0.038997892 -0.115867265 -0.11467887
0.13421167 0.044154983 0.039580874 0.028496113 0.0860318 -0.08742025 0.041835226 0.08447792
0.15200816 0.106972255 -0.061074 -0.12232495 -0.025461681 -0.00043735668 0.12689641 0.10311648
-0.025263388 0.05485815 0.066683784 -0.017006781 -0.14156187 -0.001645893 0.011978616 0.059794422
0.06648306 -0.0037529047 0.05182279 0.09890363 0.11259377 -0.03812405 0.15867427 0.006603613
-0.040896714 -0.023351086 0.12823997 -0.10188874 0.123724505 -0.10327218 0.037061058 0.15520026
0.10352029 -0.072961435 0.13180824 0.148562 -0.15229812 0.07939741 -0.09346525 0.08257365
-0.08125466 0.026419949 0.067386545 0.01976636 0.04926053 -0.12099862 -0.026681483 -0.032661475
-0.051993337 0.02524974 -0.046864398 -0.010459977 -0.00964574 -0.026743783 -0.027673349 0.07305036
0.022871902 -0.13474345 0.027642956 0.05541547 0.05180046 -0.044467267 -0.16102311 0.10901699
0.05177243 -0.09292517 0.031040037 -0.084478 -0.0037033546 0.034875687 0.056946993 0.0829419
-0.11563464 -0.09870725 0.07143439 -0.030141387 -0.04580066 0.11907992 0.023684643 -0.11130255
-0.002621892 0.10738779 0.07038468 -0.14836392 -0.05722508 -0.038489867 -0.013411853 -0.044633385
-0.014848913 -0.01788752 0.096200675 -0.11965375 0.02341166 0.059710898 -0.023166858 0.14041302
0.096159495 0.14121963 0.00020217452 0.07566769 -0.08939614 0.047301643 0.05011958 0.06380439
0.04208554 -0.037242696 0.103487074 -0.0654222 -0.02858845 -0.015327399 -0.14218035 0.12552969
-0.04401467 -0.10897671 -0.06788878 -0.07793373 0.034435134 0.124809556 0.060087487 -0.15973723
0.06940643 -0.12641123 -0.016047627 0.12298734 -0.04635548 0.090884104 -0.091531076 0.07412539
-0.049775388 0.15881324 0.12718111 -0.114690326 0.05706598 0.04486234 -0.04120401 -0.01074909
0.034596317 0.052177392 0.021897618 0.18432018 -0.016044691 0.07140579 -0.03109667 0.0694753
0.12686653 0.13102616 -0.1478422 -0.11885428 0.018618219 0.113942444 0.013064365 0.067771256
-0.0032623236 0.072473675 0.039331328 0.042941306 0.15831079 -0.014128063 0.0018202852 -0.085961245
-0.02555806 -0.09216507 0.10149006 -0.027837267 -0.014640876 0.019787185 -0.00927724 -0.09912563
-0.06341467 0.047595184 -0.035409044 -0.028422555 0.054949284 -0.05571093 0.11999274 0.021283813
0.010988888 -0.013403153 0.073100045 0.004724485 -0.013330366 -0.11510623 -0.02135166 -0.0031549651
0.063589714 -0.012587054 0.059013873 0.110861644 0.080433846 -0.109057516 0.095469244 0.044219784
-0.09081986 0.07929819 -0.061790757 0.03239073 0.07011422 0.038843572 0.04425464 -0.04652613
0.03215551 -0.023372872 -0.081993684 -0.1474986 0.07063751 0.08393049 -0.09773011 -0.07729663
-0.042733952 -0.055048693 0.0027438405 0.011680504 -0.059217356 -0.15193382 0.11807419 -0.031237835
0.07550781 0.07493812 0.02518049 0.15323655 0.06510454 0.016278595 0.080979496 -0.104354285
-0.00630379 -0.071317896 0.090173505 -0.020619622 -0.04981887 0.026010307 -0.07771237 -0.111874804

rnn_layer.bias_ih_l0 f4 [624]
00000000: ab06 9d3c 9a00 cc3d 733a 6cbc 8e36 f83b
00000010: ef96 d03d a75e a13d a291 053d 20a6 9c3c
00000020: 4d5d 653d d41a 013e 031a 893d 36d5 9c3d
00000030: dd02 2c3a 5d8c ebbc ad0e 483c fbdf 103d
00000040: 99c5 8fbc 8c4f d2bb 6e04 ab3c 03a6 803d
00000050: fb3f 7b3c 8957 c43b 29f7 a6bc 7c36 06bc
00000060: bd68 beb9 2713 8e3d eb5d b03c aaef ee3d
00000070: 08d6 e63c c1fd af3d 2504 a23d b88c d2bc
00000080: 4970 d33c 12dc 963d 5ab1 0f3d 6184 b03d
00000090: 91e0 3fbd c069 ac3d 00b2 e03d 0b46 20bd
000000a0: 87f0 4fbd 1c5b 1cbd 5bf8 e0bc ffb5 1d3d
000000b0: 5285 30bd 3e9e 2c3c 3f10 8dbc 2d39 f23d
000000c0: 27f4 d13c 196a 003b b98e d83c 58d3 3e3c
000000d0: 87b2 54bb 3f6c 353d 5a5d ab3d ca97 8d3d
000000e0: 679b 093e 9bff 5a3d dc58 d3bc 3433 2c3d
000000f0: a855 013a 02fb eabb b956 8a3d 1135 80bb
00000100: c136 35bd e07d 9abb e0f3 2e3d 1547 c8bc
00000110: 6ace 453d 1c6f da3c cfe1 be3c 033a cf3d
00000120: 3492 013e fff3 1d3d b12a 7c3d ab24 863d
00000130: d569 0abd 8fc5 3cbd 92b3 cf3d e327 9f3d
00000140: 9e2a 423d ed2a b03d 96b4 443d 00de bb3d
00000150: ebbc f23d 4db8 9c3d 74a6 583c c4be 3fbb
00000160: 2a66 983d 198e c23d 38de 8b3a b34b 033d
00000170: 0337 8f3d bf49 f23d 28a7 383c 8417 8ebc
00000180: c6d5 3e3c 0fbb 9b3d d652 313d 7664 cc3d
00000190: 4df6 713c 2073 9d3c c9cb bf3d d6d1 333d
000001a0: 47fc 15bd 34da 9a3d 4ba9 f03c 9a48 c5bb
000001b0: 055d 573d b12b 1f3c a15c 22bd f7e3 0c3e
000001c0: a1bc 813d 69d1 dc3d ff74 1bbd 580a 843d
000001d0: 0447 d8bc bb99 b7bc f87a 343d 3af5 423d
000001e0: 15ff b13d accf 683d 2ee3 ed3d 590f 0f3b
000001f0: a81f cf3c 2175 8c3c bfd8 b13b 5a68 023d
00000200: 29dd 7d3c 7ba1 a43d a0c2 403d 9e6c 053c
00000210: d99e 8e3d ee33 173d 270d a63d 298e 0bbd
00000220: 4429 b7bc 41d1 b73d d5bb 783d 7865 6f3d
00000230: 4f42 c13d 1866 a23b 1c6f af3d 6e2a 843d
00000240: 738b 2ebd bb70 9b3d fb78 8c3d ed60 12bd
00000250: 8562 c63c df02 0a3e 4c68 1e3d a0e6 8f3c
00000260: 7706 8cbb 601c 9d3d 9b19 903d fd57 733d
00000270: 6904 95bc c626 6dbd 57a9 bd3c 3310 9ebc
00000280: 37ef 2c3c d437 2f3c 2cad 96bd 2e55 96bd
00000290: 0254 2e3d b753 acbb b94f 3a3d 5570 33bd
000002a0: 0621 25bd e13b 21bc 6bb6 a4bd c070 6a3d
000002b0: 1c4e 71bc eae5 c7bc 1874 3ebd 7842 02bd
000002c0: 3df1 ac3d bdb7 743c 2a41 19bd 1c5d b2bd
000002d0: 3c24 fb3c e267 85bd 8559 72bc d5a9 943b
000002e0: 6cda 8d3d c4ec b3bc c013 abbd d955 8ebd
000002f0: ea39 143d e548 98bc f515 5c3d 0d66 283d
00000300: bc2c 24bd 0381 423c ac07 073d 41a8 863d
00000310: d1e8 ee3c 1c41 a2bd 6619 bdbc aa61 4cbd
00000320: d68a 9ebc a55b 69bc 7cd2 87bd 5c1b cf3c
00000330: 0cb7 113d c119 6fbd f296 96bd 6e37 30bd
00000340: 1e22 73bd 398f 513d 6bc9 5fbd 56b4 5abd
00000350: 34e9 97bc 9d82 2b3d 0624 96bd 8ae3 46bd
00000360: 941c 16bd 3f68 053c 6451 3e3d 9091 973b
00000370: 9d05 4a3d f9a1 81bd acb8 2ebd a6fa 6c3d
00000380: a3ec a0bc 8a69 033d 8902 cf3c 14f2 c7bd
00000390: dacf bfbc 6086 d7bd 0639 80bc e3a5 d53c
000003a0: e813 e7bc 49a1 09bd fa63 f0bc 6e06 d839
000003b0: 465a 8a3d ee85 babc 4e29 89bc 3b60 46bd
000003c0: e2b0 043c dfbc 9abd 9b7c 56bd 6e6f 1a3d
000003d0: 8a8c b23c 3bf4 e73c 192b 8abd 744a 96bc
000003e0: faa1 9b3d af43 b7bd 78cf 90bd 092d 0b3d
000003f0: 5066 12bd b458 bd3c 757e 113c 1648 253b
0.019168219 0.09961052 -0.014418232 0.007574863 0.10185038 0.078793816 0.03260959 0.019122183
0.05599718 0.1260789 0.066944145 0.07657854 0.0006561706 -0.028753454 0.01221053 0.035369854
-0.017550277 -0.006418174 0.020876136 0.06281664 0.015335078 0.0059918803 -0.020381527 -0.008191701
-0.0003631766 0.06937247 0.021529159 0.11666806 0.02817823 0.085933216 0.07910947 -0.025701866
0.025810378 0.07366194 0.035081245 0.08618999 -0.046845023 0.08418608 0.10971451 -0.0391293
-0.050766494 -0.038172826 -0.027462175 0.038503643 -0.043095894 0.010535775 -0.01721966 0.11827312
0.025629116 0.001959449 0.026435243 0.011647068 -0.0032455043 0.044292685 0.08367415 0.06913717
0.13438188 0.05346642 -0.025799207 0.04204102 0.0004933723 -0.0071710357 0.06754822 -0.003912576
-0.04424167 -0.0047147125 0.042713046 -0.024447957 0.048292555 0.02666431 0.023301033 0.10118487
0.12653428 0.03856277 0.06156415 0.065499626 -0.033792336 -0.046086844 0.10141672 0.0777128
0.047403924 0.086019374 0.048023783 0.091732025 0.118524395 0.0765234 0.013223279 -0.0029257992
0.07441361 0.09499759 0.0010671085 0.032054614 0.069929145 0.11830472 0.011270322 -0.017345197
0.011647647 0.07604038 0.04329189 0.09980099 0.014768195 0.019219935 0.09365041 0.043901287
-0.036617544 0.0756115 0.0293776 -0.0060206177 0.052578945 0.009715007 -0.03963912 0.13758837
0.06334806 0.10782129 -0.037953373 0.064472854 -0.02640105 -0.022412172 0.044062585 0.047597148
0.08691231 0.056838676 0.11615597 0.0021829216 0.02528365 0.017145695 0.0054274495 0.0318378
0.015494623 0.080386125 0.04706061 0.008143572 0.069638915 0.03691476 0.08107977 -0.03407112
-0.022358544 0.08975459 0.060726006 0.058446378 0.094364755 0.004956018 0.08566114 0.06453405
-0.042613458 0.07589861 0.06859013 -0.035736967 0.0242169 0.13477658 0.038673684 0.017566025
-0.0042732316 0.07671428 0.07036134 0.059410084 -0.01819058 -0.057898305 0.023152037 -0.019294834
0.01055508 0.010694463 -0.07357249 -0.073404655 0.042560585 -0.005259003 0.045486186 -0.0438083
-0.040314697 -0.009840936 -0.08042606 0.057236433 -0.014728095 -0.024401624 -0.046497434 -0.03180167
0.0844445 0.014936385 -0.03741566 -0.087091655 0.030656926 -0.06513955 -0.014791851 0.004536847
0.06926426 -0.021963485 -0.083533764 -0.06949968 0.036188044 -0.018589446 0.053731877 0.04111295
-0.040081725 0.011871579 0.0329663 0.06575061 0.02916375 -0.07922575 -0.0230834 -0.049897827
-0.019353312 -0.014243041 -0.066319436 0.0252816 0.035574958 -0.05837417 -0.07353009 -0.043021612
-0.05935871 0.05116198 -0.054635447 -0.053394638 -0.018543817 0.04187261 -0.0733109 -0.048556842
-0.036648348 0.00814253 0.04646434 0.0046255067 0.04932176 -0.06329722 -0.042656586 0.057856224
-0.019644087 0.03208307 0.025269764 -0.097629696 -0.023414541 -0.10523677 -0.01565219 0.026080078
-0.028207734 -0.03360108 -0.029344548 0.0004120352 0.067554995 -0.02276894 -0.016743328 -0.048431616
0.008098813 -0.075555556 -0.052364927 0.037703924 0.02179553 0.0283147 -0.067465015 -0.018346049
0.07599254 -0.089484565 -0.070708215 0.033978496 -0.035742104 0.023113586 0.008880247 0.0025219969

rnn_layer.bias_hh_l0 f4 [624]
00000000: 154f 843d d6dd d8bc ab1f 00bd 3266 2a3c
00000010: b14f 9a3d 5453 843d 2251 e73d dec6 debc
00000020: c1c3 13bd df5d 583d 173f 093c 493b 343d
00000030: 5bf6 ee3d 2b22 debb 6b96 1dbd 0966 993c
00000040: f9bc 9e3c 1c37 d03c 26d0 c63d 23f3 013a
00000050: ef71 1e3d fde1 af3d 0006 52bd 467c da3b
00000060: 3aca 08bd 29eb d63c 59dd 513d 88fc b83d
00000070: bb31 d33d 12d3 073d 8b11 4dbd 9c8d 0d3c
00000080: 488e 1c3d 4e62 a7bc a802 e53d 4094 52bc
00000090: 5330 b9bc f7f3 853d ceab e93d d9a3 003d
000000a0: 780e 483d f163 13ba 847f bb3c bf70 5f3d
000000b0: 60f7 4c3d 800c 48bc 190b 913d 1a6a b3bc
000000c0: 6181 493c 2b74 dcbc a6d0 4abc 6e81 abbb
000000d0: 5376 953d 2b51 c2ba 706a 27bd 5103 9cbc
000000e0: 5380 063e 0f61 093d f45d 6f3d c668 2bbc
000000f0: ace6 833c 6196 1b3c 3986 323d 8769 583a
00000100: be48 833d c19c 943c 5c65 60bc 47d3 463d
00000110: d85f f73d 47bf da3d 7d96 65bd 33d6 543d
00000120: 0751 62bc 8764 c63b 574f 833d 80d0 ca3d
00000130: f340 c13b 89e0 603d dcb8 c53c 9044 9c3b
00000140: a751 69bd 4c7d 983d 8e88 fe3d f7be 4c3d
00000150: 5a6e 9f3d 24ef be3c 46f8 5c3d 688b 8cbc
00000160: 46e8 a33b f791 ce3b f0ce e53d c365 853d
00000170: 3495 a83a 3111 923d 9ef6 ab3d c0d3 343d
00000180: 0532 84bc 8c3d 013e af7f 8b3d 489a b83d
00000190: b4bc 753d efb0 c33d 2290 703d f357 963d
000001a0: 9f75 6d3d 6293 e63a ba83 9a3d 959f 083c
000001b0: fe49 c83d 3872 8b3d 6bf4 9c3c 14ed 133d
000001c0: 1c3c bb3d f918 5c3d 11ba 273d e506 45bd
000001d0: 0e03 f23b 2597 9d3d 62c7 02bd c8fc 883d
000001e0: e3a7 273d c194 483c f9ae 853d 10e4 923c
000001f0: c3f3 a63d 84a1 ad3d 3766 a23c bcfa e83c
00000200: b951 abbc 6de0 dc3d 362f 22bd f67b 1abc
00000210: 3dad 853d ad52 73bc a0ff 9e3c f1ee 03bd
00000220: 505d e2bc 7026 7d3d 0c6c 263d 23bb d13d
00000230: 5693 9e3d 85f1 34bd be35 76bc f024 6b3c
00000240: 53d0 c5bc 8e95 46bc bf2c b13d aea8 f4bc
00000250: 1001 ce3d 154b 5c3c e99b 94bc 9493 5c3d
00000260: a1ca cf3d 4628 bc3c a3f6 0a3c 2df3 0bbc
00000270: 662b 81bd 4938 47bd 0138 bd3c 6ef1 71ba
00000280: c704 45bd 20fb 20bd ef16 7e3d 948c 7fbd
00000290: 5e4e d5bc f17f c73c 1e0a c9bc bec6 29bd
000002a0: 3626 a33d 5d98 96bd 6d5e e93c 4f68 41bd
000002b0: 5093 8abd f64b febc 50f3 6d3d 7b71 f73b
000002c0: 41fe ad3d ca1b 88bd cd12 a5bd 3410 8fbd
000002d0: 333b a33d adb0 0b3c 7d06 f0bc 386c b8bd
000002e0: 6eb2 413d fa2d 80bc aa84 b2bd 1e8e 36bc
000002f0: 63c9 76bc c923 c3bd 4f4a 20bd 2c37 f53c
00000300: c059 89bd 5db5 813d 9943 513b 2a7a 233d
00000310: 89e8 d03c 95b7 583d 3868 973d b726 77bd
00000320: 4915 46ba 0a61 99bd d0b5 923d 3105 34bd
00000330: a371 4d3d 6395 8bbd bb53 a3bd a6da cc3c
00000340: 4ecd 7cbd 9c1c 6bbd 1b4b 79bd b4cd b33c
00000350: e6fc f0bb ca10 fdbb 726b 38bd 4981 a1bc
00000360: 60b5 57bd d1c4 7b3c 0bd7 a53b 3c76 d2bc
00000370: c376 a3bd 6102 1c3d dea3 103d 6758 a6bc
00000380: 6634 0f3c 8880 353d 55c2 1cbd 7e42 9cbd
00000390: 6a7b 59bd e4ab d5bd 5326 73bc 3f2e 923c
000003a0: 42ba 70bd bda5 44bd 4bc2 a03c 83f3 1a3d
000003b0: 434a 9f3d ae7e 35bd 2936 8abc fc0d 433d
000003c0: 292f 553d aebb 80bd 7b96 a4bd 7233 2abd
000003d0: 0d00 a0bd d21e e9bc 1898 a8bd 9bfc 53bd
000003e0: 517f 66bd 4a43 a53c 2a3e 75bd 7509 7e3d
000003f0: 6604 79bd 5605 47bd 7c4d ea3b 4016 dbbb
0.06460396 -0.026472967 -0.0312802 0.010400342 0.07534731 0.06461206 0.11294772 -0.027194437
-0.036075357 0.052823897 0.008376858 0.04400185 0.11668082 -0.0067789755 -0.038473528 0.018725412
0.019377219 0.025416903 0.0970767 0.00049571897 0.038682874 0.08588026 -0.051275253 0.0066676466
-0.033395983 0.02623518 0.051236484 0.090325415 0.1031222 0.033160277 -0.05006556 0.008639719
0.038221627 -0.020432618 0.11182147 -0.012852728 -0.02260605 0.06540673 0.11409722 0.031406257
0.048841923 -0.00056224974 0.022887953 0.054550882 0.050040603 -0.0122100115 0.07082195 -0.02190118
0.012298913 -0.026910862 -0.012378847 -0.005233935 0.07297959 -0.0014825215 -0.04087299 -0.01904455
0.1313489 0.033539828 0.05843921 -0.010461992 0.016101204 0.009496302 0.043585036 0.0008255471
0.06410359 0.018141152 -0.013696041 0.048541334 0.120788276 0.106810145 -0.05605172 0.05196209
-0.013813264 0.0060544643 0.06411617 0.099030495 0.005897635 0.054901633 0.024136 0.0047689155
-0.056962635 0.074457735 0.124283895 0.049986806 0.0778472 0.02330739 0.05394771 -0.017156318
0.0050020544 0.0063040215 0.11221111 0.0651355 0.0012861849 0.07132185 0.08396648 0.044147253
-0.016137132 0.12621135 0.06811463 0.09013802 0.059994414 0.09555232 0.058731206 0.07340994
0.0579735 0.0017591531 0.07544656 0.008338829 0.09779738 0.06808895 0.019159516 0.036114767
0.09142324 0.053734753 0.04094893 -0.04810228 0.007385618 0.07694844 -0.031928428 0.06688839
0.040931594 0.012242497 0.06527514 0.017931014 0.081519626 0.08478072 0.01982413 0.028439872
-0.020912992 0.10784993 -0.039595805 -0.009428969 0.06527183 -0.014851254 0.019409 -0.032210294
-0.027632385 0.061804235 0.040630385 0.102407716 0.07742946 -0.044175643 -0.015027462 0.014352068
-0.024147188 -0.012120618 0.08651113 -0.029865589 0.100587964 0.013445635 -0.01814075 0.05385168
0.1014607 0.022968423 0.008481654 -0.008541864 -0.06307106 -0.048637662 0.023097994 -0.0009229396
-0.04810026 -0.03930199 0.06203359 -0.062389925 -0.026038345 0.024353 -0.024540957 -0.0414493
0.079662725 -0.0735328 0.028487409 -0.047218617 -0.06766379 -0.03104208 0.05809337 0.0075513697
0.08495761 -0.06645925 -0.080602266 -0.069855124 0.07970276 0.0085260095 -0.029299969 -0.09005016
0.047289304 -0.015646923 -0.0871671 -0.011142282 -0.015062663 -0.0952831 -0.039133366 0.029933535
-0.067065716 0.063334204 0.003193116 0.039911427 0.025501506 0.052909452 0.07392925 -0.060339656
-0.00075562723 -0.07489212 0.07163584 -0.043950263 0.0501572 -0.06815603 -0.07974955 0.025006603
-0.06171923 -0.05740033 -0.06086264 0.021948673 -0.0073543666 -0.0077229487 -0.045024343 -0.019714968
-0.052663207 0.015366749 0.0050610355 -0.025691144 -0.079816364 0.038088206 0.035312526 -0.020305825
0.00874052 0.04431203 -0.038271267 -0.0762987 -0.053096212 -0.10433176 -0.01484068 0.017844317
-0.05877138 -0.048009623 0.019623896 0.037829887 0.07777836 -0.044310264 -0.016871529 0.04762076
0.05204693 -0.06285797 -0.08036514 -0.04155297 -0.0781251 -0.02845708 -0.082321346 -0.051754575
-0.056273762 0.020173687 -0.059873737 0.062020738 -0.06079521 -0.048589073 0.00715035 -0.006686002

dense_layers.0.weight f4 [64, 156]
00000000: 86a8 b63d 58e7 b03d 4912 6e3d 08c7 9fbd
00000010: 5005 553d 3e0b f43d 4e0e 703d a475 5cbd
00000020: e176 96bd 19b3 b23d 68fa a53d 1c5b 053d
00000030: e839 303d 0afa 81bc b43a 20bd bbbc 03bd
00000040: 9cb0 8fbd 934b 063d 2420 ab3b fe88 8a3d
00000050: bae6 9ebd ad77 bc3d ffd9 14bd 382f 5e3d
00000060: 378e 853d a0bd 9ebb c626 67bc 9a9f bf3d
00000070: 6e95 77bd 7b39 903c a9d5 b53c 0bf8 d5bd
00000080: 4204 5e3d b8d3 003c 8748 cc3b 0ac7 753d
00000090: 98a7 c6bc dce3 7a3c e6ab cd3d 6add 203d
000000a0: ab0b 903c f90d 1abd baae 09bd fd18 11bd
000000b0: 3731 adbd c171 bebd e15f 0bbd d2c0 9d3d
000000c0: e447 6cbd a659 27bc 7481 ffbd d3a3 5b3d
000000d0: f1d8 90bd 7bb6 59bc caf1 a13d b160 e23c
000000e0: 855f 363d 030a 1d3d 43e6 5dbd cc24 653d
000000f0: b487 b93b b865 7b3d 69df 08bd 6738 d3bb
00000100: 9972 783d f961 663d 99c0 f13c 0f50 5b3d
00000110: f595 ba3d 184c 8a3d 7b3f 0abd bbb4 6cbd
00000120: ec19 ca3d 5adb e83d 7e1b 963d 7273 583b
00000130: ece7 f03c 58f6 323d ac76 c5bb 700a e13d
00000140: 53bb 113d 1f21 14bd 9654 2b3d 694e b2bd
00000150: 0bb7 6c3c 2c51 1b3d c597 d93d 7235 a83c
00000160: e261 48bd af5b aabb 6334 7dbd ae1a 1ebd
00000170: 4fe2 02bd 37c2 0d3d c3a1 fa3d e764 10bd
00000180: 7ead 81bd 9506 bf3c 7c6f 903b 2d08 113d
00000190: 5442 dfbd f813 4ebd d076 53bd 7a92 30bd
000001a0: f071 283d d7d0 c83b 58da cebd 40c0 bd3c
000001b0: db38 323d 8222 91bc 4992 243d 018e a53d
000001c0: e5f7 a63d 5b71 b5bc 3cf7 29bd d0db 7a3d
000001d0: 86b4 30bd b30c edbd a4af 3ebd 7ca5 b33d
000001e0: 1ae9 e8bc 0904 46bd a2dd ea3d 25c4 8cbd
000001f0: 752b 04bd 525a d8bc 1e39 9fbd 1cb8 c8bd
00000200: 285e 0cbd 64a4 ddbc 89a9 933d f8f6 d9bc
00000210: 49a0 02bc e64b 843d 492b 25bb 6131 2e3c
00000220: fc38 4abd 9c49 4c3d 8467 d23c b478 58bd
00000230: 6913 b6bc f040 34bd d832 73bd e2b4 d7bd
00000240: 3702 f4bd 68f4 f8bd bfee 453d f5aa a83c
00000250: 204f 6e3d f38d 0e3d 1954 4e3d 5539 2f3d
00000260: fa74 f33d 6df1 843d 12e5 33bc 05c3 febb
00000270: bc89 d3bc ef39 c33d 7ab9 123d b662 1cbd
00000280: f30a 683d c2bb fa3c cb6d 283d 49e7 183d
00000290: f0b9 bebd 6914 a1bb 1bf9 7d3d 2168 45bd
000002a0: 1975 8b3d b801 ce3d 7cd3 2f3d fa2d 96bc
000002b0: e423 ebbc 7a2a 783d fa17 c6bc 2071 ba3d
000002c0: 905d 66bc dbc4 743c b043 fdbc 2de4 23bc
000002d0: 23c1 1cbb a214 57bd 9b7b 32bd 5b23 633d
000002e0: 0b47 583c 52ec 1abd 7a66 86bb 9f6c 743c
000002f0: 41c8 be3d 3c3a c23c 609f df3a 1fe6 2cbd
00000300: 36e9 1c3d bad5 c63c 6981 253d 9900 e73b
00000310: 8dd1 833c f847 b13d 9f4e 88bc d57d b2bd
00000320: f4b7 613d e5c7 6d3d f1e4 2ebd 0169 f23d
00000330: 55fc b2bd 98c8 96bd 6990 babb 940c 6c3c
00000340: bd1e c5bd 9629 a6bd 8650 2e3c 83db a1bc
00000350: 7e21 ab3d 587b 8dbd eed1 863d 7e68 b4bc
00000360: 3a8c cf3b e53a 20bd 6cdd e2bc e19d 1e3d
00000370: d25a 0bbd f79a 6b3d e401 adbc 1313 5d3d
00000380: ade7 803d 3316 133d bf0f b83d bdc1 d43c
00000390: 9c75 2a3b 745e ac3c 90fc 1b3d 5c02 39bd
000003a0: 97e4 14bd 1d6a 68bc b7d9 82bd 7227 9f3d
000003b0: 46f4 84bd d83c 413d a003 4bbc fdf9 923b
000003c0: db40 c63d 150d b33d 7780 833b 8db4 863d
000003d0: c20c d53c 4928 ac3d b4ec 01bd e183 26bc
000003e0: a698 97bd aee8 e7bd af69 843d 00e8 21bb
000003f0: 9f60 9dbd 520b 89bd 9bef 29bd a36c 69bd
0.08918862 0.08637875 0.058122907 -0.07801634 0.05200702 0.11916207 0.058607392 -0.05382313
-0.07346893 0.087255664 0.08104402 0.03255759 0.043023974 -0.015866298 -0.039118484 -0.03216241
-0.070161074 0.032786917 0.0052223373 0.067644104 -0.07758851 0.09202514 -0.03634071 0.05424425
0.06521266 -0.0048443824 -0.014108365 0.093566135 -0.06044524 0.017605534 0.022196608 -0.10447701
0.05420328 0.007862978 0.006234232 0.06000427 -0.024249837 0.015313115 0.10042553 0.039273657
0.017583689 -0.03761098 -0.033613898 -0.03542422 -0.084566526 -0.092990406 -0.034026984 0.07702793
-0.057685748 -0.010214245 -0.12475863 0.05362303 -0.07072628 -0.013288136 0.07907446 0.027633997
0.04452469 0.038339626 -0.054174673 0.055943295 0.005661929 0.061376303 -0.033416186 -0.0064459327
0.060656164 0.056245778 0.029510783 0.053543147 0.09110633 0.06752795 -0.033751946 -0.057789546
0.098682255 0.11369963 0.073294625 0.0033027795 0.029407464 0.043691963 -0.0060261097 0.10988319
0.035579037 -0.0361644 0.041828714 -0.08706362 0.014447938 0.03791921 0.10624651 0.020533297
-0.048921473 -0.005198918 -0.061817538 -0.038599662 -0.031954106 0.034609046 0.12237885 -0.035252478
-0.06331919 0.023318568 0.004407821 0.035408188 -0.10901323 -0.050312012 -0.05162698 -0.04310844
0.041124284 0.0061284113 -0.101002395 0.023162961 0.043511253 -0.01771665 0.04017857 0.08083726
0.08152751 -0.022148779 -0.041495547 0.061244786 -0.04314091 -0.11574688 -0.046554223 0.08771798
-0.028431464 -0.048343692 0.11468054 -0.06873349 -0.032268006 -0.026410256 -0.07774566 -0.09800741
-0.034269482 -0.027055927 0.07210071 -0.026607022 -0.007972785 0.06459789 -0.0025202802 0.01063189
-0.04937075 0.049874887 0.025684126 -0.052849486 -0.022226052 -0.04400724 -0.05937466 -0.105325475
-0.11914485 -0.12155992 0.04832339 0.020589331 0.05818093 0.034803342 0.05037317 0.042779285
0.11887546 0.06491361 -0.010979908 -0.007774713 -0.025822513 0.09532534 0.035821415 -0.038180076
0.056651067 0.030607108 0.04112033 0.037329946 -0.093128085 -0.004915763 0.062005144 -0.04819501
0.06809444 0.100589216 0.042926297 -0.01833247 -0.028703637 0.060587384 -0.024181355 0.09103608
-0.014060393 0.014939512 -0.030916065 -0.010003132 -0.002391883 -0.05250991 -0.04357491 0.05545364
0.013200532 -0.03782303 -0.0041015716 0.014918475 0.09315539 0.023709409 0.0017061047 -0.042211648
0.038308345 0.024271835 0.04040662 0.007049632 0.016091133 0.08656305 -0.016639052 -0.08715407
0.055107072 0.058051962 -0.042698804 0.11836434 -0.08739535 -0.07362479 -0.0056934846 0.014407296
-0.096250035 -0.08113401 0.0106393155 -0.019757992 0.083559975 -0.069082916 0.0658301 -0.022022482
0.006333855 -0.039118666 -0.027693473 0.038724784 -0.03402216 0.057520833 -0.021119066 0.05397327
0.06294189 0.035909843 0.08987378 0.025971288 0.0026010042 0.021041133 0.03808266 -0.045168266
-0.036350813 -0.014185456 -0.06389182 0.077711955 -0.06491904 0.047177166 -0.012391001 0.0044853673
0.09680339 0.087427296 0.004013117 0.06577406 0.02600706 0.08406121 -0.03171988 -0.010163278
-0.07402162 -0.11323677 0.0646547 -0.0024704933 -0.07684445 -0.06691612 -0.04148827 -0.05698837

dense_layers.0.bias f4 [64]
00000000: 589c 653d 6806 49bc 531c 10bc 42e1 1b3d
00000010: f40a 8dbd a487 903c 2427 7bbc cc41 a7bc
00000020: c019 c03c 9114 1fbd 86f9 073c f83e 163c
00000030: e86b 953d 3f66 0dbc 45bb 793d 05be 54bd
00000040: dc35 ed3c 7148 583d a5ca 863c d443 963d
00000050: 0150 f9bc 6fee 6f3d a410 a0bd e165 9ebd
00000060: cdf6 3c3d b14c c83d a7f4 ab3c 332c 813d
00000070: 9b83 da3c bf6d 873b 3cd6 e83b f2d1 613d
00000080: b08b e83b 9116 b2bc b446 143d b148 513d
00000090: 819c 753d bdfe 933d 5b3a 893b a59d 643d
000000a0: 06ad 12bd 3636 103d 49d2 2ebd 09f8 d5bc
000000b0: 438e 95bd 2074 85bc 7460 0d3c 7e2e 333d
000000c0: dba4 dcbc c209 a93c 62ce 7dba fea9 5abd
000000d0: 672c 9a3b feab 293d 95e2 81bd f1a7 a0bd
000000e0: 77e1 a63d 952f 89bd 4d08 63bd 7bdf f63c
000000f0: b939 20bd 9578 9cbd ba25 9c3b 50ac b13d
0.056057304 -0.012269594 -0.0087958155 0.03805662 -0.06886855 0.017642803 -0.015329156 -0.020417117
0.023449779 -0.038837973 0.008299237 0.009170286 0.07295972 -0.008630334 0.06096961 -0.05193903
0.028956346 0.05280346 0.01645405 0.07337156 -0.030433657 0.058576997 -0.07815674 -0.077342756
0.046133805 0.09780253 0.020990683 0.063072585 0.026674083 0.004132956 0.007105617 0.05513186
0.00709673 -0.021739276 0.03620024 0.051094715 0.059963707 0.07226322 0.0041878647 0.055814404
-0.03580954 0.03520795 -0.042681012 -0.026119249 -0.07302525 -0.016290724 0.008628953 0.04374551
-0.026934078 0.020634536 -0.00096819375 -0.053384773 0.004705 0.04142379 -0.06342045 -0.07844532
0.08148473 -0.06698529 -0.055427838 0.03013586 -0.03911755 -0.07640187 0.0047652395 0.08675444

dense_layers.2.weight f4 [14, 64]
00000000: 3846 e53d 4f46 a13d fe58 8abd 15ac a13d
00000010: a8fb ab3d e485 263e 5934 d0bd dac1 383e
00000020: b3e3 7f3d c944 163e 0b08 d13b 5d5d a13c
00000030: 5210 99bd 79bb be3d 756b d7bd f77a 7bbd
00000040: 5ae3 b03d 4e73 433d 9256 1cbe 5775 133e
00000050: 1f42 273a f237 bf3d 502a 1dbd a202 23be
00000060: d3e1 393d 42c1 983c 214d 6e3d 0dff 1bbe
00000070: b556 2a3d f133 a13d 10c5 c4bd 92ee a2bd
00000080: aa7b d7ba 46cc dfbd aab1 35bd 9bf1 173d
00000090: 6563 85bd 038d febd a094 b03b 24e0 eb3d
000000a0: 279d 1338 d1ed 933d 3e8c 0c3e 812b 9ebd
000000b0: 244d 4ebd 3bc0 ec3d 0f9c 36be e374 eb3d
000000c0: 0e76 00be b889 48be 5c10 cd3d 537e e3bd
000000d0: f42c 323e 9074 a03c 8e8f 3cbd 5dc4 2bbe
000000e0: 5344 fb3c 7788 703d 1c57 e1bb da0d b63d
000000f0: 11b4 8d3d 80bc a43d a828 22b9 1432 0b3e
00000100: 5dcd 6b3d 8e1d fd3d 8ed3 863d 171a 3a3d
00000110: 81e2 013e 536f cf3d 49a6 43bd 1cd8 03bd
00000120: 6ba2 f4bd c93e a0bd 0045 273e 8b2a 0d3d
00000130: 0d9f 193e 5735 ba3d 2cba 66bd f775 463d
00000140: b130 54bd 628e 87bd e501 96bb e46d 02be
00000150: 765e 1b3d 3e96 15be a577 993d 659f 9cbd
00000160: 05da 0d3d d740 f2bd 699a 1c3e b319 0abe
00000170: ca54 68bd d977 0a3e e0c5 86bd 1bb7 143e
00000180: d142 bfbc 8436 0abe 9ba8 f93b 2cea 06bd
00000190: cd10 633d cb46 0c3e 0005 21be 1be4 1b3e
000001a0: 6272 b83d b61a d53c e262 573d 8f25 8a3d
000001b0: ba3a 233e 7a5c c2bb d32b b7bd caca 8a3d
000001c0: 4390 e13c e31b 2abe 08da 8f3d 82ab 6cbd
000001d0: f9e6 733b e8c4 c73c 3964 cd3d a6ea ec3c
000001e0: af91 18be 9baa 973d 5f50 003e 96ba 2fbd
000001f0: 9953 c0bd 7b9e 4e3d c73c 1abe 7f02 1e3d
00000200: 10d0 30be 499f 1fbe 063b 65bc 66f8 a53d
00000210: dd3c e23d 0391 19bd 7665 4fbd 2e85 58bc
00000220: 0b28 f43d 2b06 9c3d 2f7b 3abe dc50 ddbd
00000230: 6f8a 69bd 3a6c 043d e575 1d3e 32a7 813d
00000240: 8e19 bf3c bbd2 92bd c437 63be 2482 083d
00000250: 5b45 cebd 3656 58bd 4f4a 96bd 5c0e 7f3b
00000260: d8c8 d7bd 01d8 bd3d 2e27 133d 74a8 1e3c
00000270: 98da 403e ffba 62bc b376 28bd a864 24be
00000280: dc18 b53d 4401 54bd c69c 19be fa01 2b3d
00000290: 0b11 9a3d 11f6 50be 82b6 a13d 6d7e 23be
000002a0: cd8c 95bd 18ca 3fbd 057c 013e fa6f 1c3e
000002b0: 186f 0cbd ffba 303d 7bdf da3d d649 983d
000002c0: c37b 1b3d 6984 32bd b664 dabb a5da 393e
000002d0: 209e 893d 05b5 03be 8197 87bc 3011 70bd
000002e0: 0d40 65bd c7cc 9b3d 59a3 e13d c927 6cbc
000002f0: 9496 3f3e 6f7a 00bd 193f 0c3e 9b07 ffbc
00000300: e980 0a3e 960b 1b3e 1681 713d f162 55bd
00000310: d04a d53d 3f0a 323c 530d 563d 1300 9cbd
00000320: d319 433a cb6b eabd bb13 073e 3c3c 713c
00000330: cbd3 40bd fbc8 b2bd 49d1 dbbd 799e 7dbc
00000340: dec5 b73d 1e38 d2bd bfd6 0fbc 4e5f 01be
00000350: a7ca 76bd 2375 56bd 8238 a43d 11b8 cc3d
00000360: 003a 043e a288 16bc cb0d 66bc 414a 80bb
00000370: 5b09 4a3c ed25 243e f7aa 62bd 2c72 0bbb
00000380: edee 9abd de19 18be e6ca 75bc 950c 873d
00000390: e420 3ebd 0ead 263d 90f9 18be 1f03 173e
000003a0: 6039 0a3e 7733 843c 682e 01be fc41 22be
000003b0: f374 1f3e 421e d6b9 7c0d 9bbd 63f9 9dbb
000003c0: a7ff 093e 1a69 eebd 134f d5bd 60de c0bd
000003d0: cf19 cf3d 23ba 47bd 5429 313e 1746 99bd
000003e0: 96b3 72bd 405e fcbd 48dd fcbd 33ed 2e3d
000003f0: 75bb b8bb 6ed1 313e ed92 1abe f386 28be
0.11195034 0.078747384 -0.06755255 0.0789415 0.08397609 0.16262013 -0.101662345 0.18042699
0.06247301 0.14674677 0.0063791326 0.01969784 -0.07473816 0.09313101 -0.10518543 -0.061396565
0.08637114 0.047717385 -0.15267399 0.1440023 0.0006380397 0.093368426 -0.03837043 -0.15918973
0.04538138 0.01864684 0.058179025 -0.15234013 0.041586597 0.07871235 -0.09607899 -0.0795566
-0.0016440053 -0.10927634 -0.044358887 0.037095647 -0.065130986 -0.124292396 0.005388811 0.11517361
3.519389e-05 0.07223094 0.13725373 -0.077231415 -0.050366536 0.115601026 -0.17832969 0.11496904
-0.12545034 -0.19583786 0.10012886 -0.11108079 0.17399961 0.019586831 -0.046035342 -0.16774125
0.030672228 0.058723893 -0.0068768393 0.08889361 0.069191106 0.08043766 -0.0001546467 0.13593322
0.057568897 0.12359153 0.065833196 0.045435037 0.1268406 0.10128655 -0.047766004 -0.03218852
-0.11945041 -0.07824475 0.16334915 0.0344644 0.1500208 0.09092205 -0.05632989 0.048452344
-0.05180425 -0.06618954 -0.0045778626 -0.12737232 0.03793188 -0.14608094 0.074935235 -0.076475896
0.034631748 -0.118287735 0.15293278 -0.13486366 -0.056721486 0.13522281 -0.065807104 0.14522974
-0.02334729 -0.13497359 0.0076189763 -0.032938167 0.055435944 0.1369888 -0.15724564 0.15223734
0.09006192 0.026013713 0.052584536 0.06745445 0.15940371 -0.005931434 -0.08943906 0.0677696
0.02753461 -0.166122 0.07024008 -0.05778075 0.0037216528 0.024385884 0.100288816 0.028920483
-0.14899324 0.07405587 0.12530659 -0.04290255 -0.09390945 0.050444108 -0.15062247 0.0385766
-0.1726687 -0.15588106 -0.013991123 0.08104019 0.11046765 -0.03749181 -0.05063387 -0.013215346
0.119217 0.07618364 -0.18211053 -0.10806438 -0.057016786 0.032329775 0.15377004 0.06330718
0.023327615 -0.071691 -0.22189242 0.033327237 -0.10071822 -0.052816592 -0.07338392 0.003891847
-0.10536355 0.09269715 0.035926037 0.009683717 0.18833387 -0.013838529 -0.041128825 -0.16054022
0.08842632 -0.05175902 -0.1500121 0.041749932 0.07522782 -0.20406367 0.07896139 -0.15966196
-0.07302246 -0.04682359 0.12644966 0.1527709 -0.034285635 0.043147083 0.10687157 0.07435958
0.037959825 -0.043583307 -0.0066648377 0.18149813 0.06719613 -0.12862022 -0.016551735 -0.05861014
-0.055969287 0.076074176 0.11017484 -0.014413782 0.18709785 -0.03136676 0.13695945 -0.031131556
0.13525738 0.15141138 0.058960997 -0.05209631 0.1041466 0.010866701 0.0522588 -0.07617202
0.0007442508 -0.11446341 0.1319112 0.014723834 -0.04707698 -0.0872974 -0.10733277 -0.015479677
0.08973287 -0.1026461 -0.008779227 -0.12634012 -0.060251858 -0.052357804 0.080185905 0.099960454
0.1291275 -0.009187849 -0.014041374 -0.0039151018 0.012331332 0.16030093 -0.055338826 -0.0021277769
-0.07565103 -0.14853618 -0.015001988 0.06594197 -0.046418086 0.04069238 -0.1493895 0.14747284
0.1349845 0.016137822 -0.12615359 -0.15845484 0.15571956 -0.00040839805 -0.07570931 -0.004820989
0.1347643 -0.1164114 -0.10415473 -0.09417415 0.101123445 -0.0487615 0.17300922 -0.07484072
-0.059253298 -0.12322664 -0.123468935 0.04270668 -0.005637581 0.17365047 -0.1509511 -0.16457729

dense_layers.2.bias f4 [14]
00000000: f056 783d 6b23 c83d f114 abbc c9d6 66bd
00000010: 6721 51bd ef27 65bb 23c5 393c f9b1 c83d
00000020: a390 2ebd e652 94bd a886 4cbd 802d bbbd
00000030: dadf d0bd c0dc ba3c
0.060629785 0.097723804 -0.02088401 -0.05635718 -0.051057246 -0.003496643 0.011338505 0.097995706
-0.042618405 -0.07242374 -0.049933106 -0.09139538 -0.10198946 0.02281034
