New_project/modelo_simples5.onnx (onnx, 183092 bytes, 5 tensors)

output_layer.weight f4 [14, 100]
-0.15315385 -0.06748092 0.0619987 -0.5001004 -0.17896232 0.007269195 0.19114172 -0.021905178
0.07024113 0.15054175 -0.2860901 0.0675819 -0.033663575 0.07191602 -0.15808491 -0.055127304
-0.0628206 0.28310248 0.03138114 -0.045338936 0.024797918 0.29978538 0.16626388 -0.12251827
-0.1942272 -0.023420675 -0.028111925 -0.0052300077 -0.0054505044 0.14951882 -0.026945492 0.02540327
0.12475491 0.021319682 -0.092192315 0.13830903 0.20255956 0.060175434 -0.15077311 0.097395636
-0.09189381 0.13689528 -0.2738933 -0.06458647 -0.029253833 -0.045296088 -0.1037102 -0.014031181
-0.06372384 0.09245273 0.03972632 -0.005155056 0.3677301 -0.06499004 -0.024799682 0.041868065
0.02967269 -0.29150373 0.19635788 0.142095 0.28830594 -0.24449286 0.049793065 -0.2275799
-0.3129146 0.05121926 0.09435621 -0.19379419 -0.076683015 0.027605508 0.10176263 0.074376814
-0.02131527 0.024589278 -0.21762021 -0.21968853 0.042875722 -0.33048153 -0.42277837 0.008502028
-0.07755687 0.016870264 -0.19624922 -0.19317204 -0.21208787 0.14023796 0.0026658294 -0.22488405
-0.13849935 -0.029890118 -0.17930822 0.059566263 -0.09929949 -0.17909418 0.12674454 -0.19295663
-0.10900241 0.2003681 -0.14627516 -0.026501248 0.038784612 -0.065572955 0.01260871 0.03206636
-0.18195952 0.15271759 0.065579854 0.13210995 0.05891038 -0.0047453735 0.017013269 0.12353443
-0.010708431 -0.087721914 -0.039348036 -0.11730713 0.08127617 -0.05674308 0.11845059 0.044805236
0.088172406 0.11927244 -0.017077554 -0.07360307 0.0588212 0.15256415 -0.14840451 -0.03258207
-0.07366618 -0.058181588 0.020953564 -0.054985646 -0.004343268 0.17484358 0.039743282 -0.034366358
0.057034567 0.080559805 -0.061661847 -0.10881041 0.10557179 0.16284531 0.05794413 -0.17723271
-0.1031354 0.07681033 -0.12634856 -0.042975012 0.14148049 0.098260455 -0.092842944 -0.14547354
0.082484856 -0.16139811 0.15793182 0.09386901 0.100033365 0.07371028 0.10901438 -0.022891745
0.10759881 0.033134557 0.072711155 0.014381918 0.10108799 -0.13673502 -0.07722383 -0.14041568
-0.039767154 -0.060371187 0.066244274 -0.124548055 0.15567692 -0.08965711 0.07982013 0.09877344
-0.075785175 0.09790108 -0.005108406 -0.053481545 -0.054130934 -0.12970982 -0.10137613 -0.0816386
-0.07107619 -0.116511546 -0.00302429 -0.07702598 -0.09609823 -0.038953096 0.012568186 0.012086658
-0.11727825 -0.15509677 0.063120134 0.022348862 0.18070944 -0.06731521 0.035555463 0.08910464
-0.15263256 -0.23478332 -0.07578357 -0.051715005 0.16280471 -0.009622253 0.1297903 -0.008206263
0.05158639 0.1642843 0.09326176 -0.10955795 0.2483952 0.05783885 -0.08152655 0.12702024
-0.24371515 0.20784533 -0.14288585 -0.19345133 -0.31948265 0.01716139 0.3685016 0.04312261
-0.02649064 -0.1804671 0.088210545 -0.024078669 0.12318066 -0.07784609 -0.08659866 0.1220868
-0.23464586 0.24747318 -0.27625564 -0.104008295 0.007764243 -0.10482834 0.055844165 0.08504084
-0.010070757 -0.28418127 -0.39577305 -0.045851097 0.10382008 -0.066938326 0.07273945 0.24191688
-0.16164467 -0.013393289 0.121309735 0.04051211 -0.1612326 0.015259022 -0.023269705 -0.06488827
00000000: 5dd4 1cbe 7033 8abd 59f2 7d3d 9406 00bf
00000010: e641 37be 6d32 ee3b a8ba 433e 7d72 b3bc
00000020: 95da 8f3d 9e27 1a3e 677a 92be 6168 8a3d
00000030: d1e2 09bd b548 933d 03e1 21be 2bcd 61bd
00000040: 16a8 80bd cff2 903e 8389 003d 52b5 39bd
00000050: 0125 cb3c 787d 993e 1441 2a3e dcea fabd
00000060: 7fe3 46be b7dc bfbc fb4a e6bc 7c60 abbb
00000070: 259a b2bb 761b 193e cbbc dcbc 851a d03c
00000080: 817f ff3d 9da6 ae3c 53cf bcbd e2a0 0d3e
00000090: c66b 4f3e 847a 763d 4464 1abe 5d77 c73d
000000a0: d232 bcbd 472e 0c3e be3b 8cbe e945 84bd
000000b0: bca5 efbc 6488 39bd 0366 d4bd 0ae3 65bc
000000c0: a581 82bd db57 bd3d 11b8 223d beeb a8bb
000000d0: 1f47 bc3e 8019 85bd b428 cbbc d97d 2b3d
000000e0: 2414 f33c fa3f 95be 0a12 493e 5a81 113e
000000f0: d69c 933e 565c 7abe d0f3 4b3d b50a 69be
00000100: 5836 a0be 49cb 513d d43d c13d fc71 46be
00000110: fc0b 9dbd f224 e23c ed68 d03d df52 983d
00000120: 5c9d aebc 746f c93c d5d7 5ebe 08f6 60be
00000130: 749e 2f3d e034 a9be 6876 d8be 174c 0b3c
00000140: 23d6 9ebd 8233 8a3c 8ef5 48be e4ce 45be
00000150: 902d 59be 8a9a 0f3e 32b5 2e3b 0148 66be
00000160: c6d2 0dbe 1fdc f4bc 939c 37be c1fb 733d
00000170: 885d cbbd 7764 37be 52c9 013e 6c96 45be
00000180: a83c dfbd 4c2d 4d3e 28c9 15be 2519 d9bc
00000190: 9ddc 1e3d 1d4b 86bd c394 4e3c 0458 033d
000001a0: 9953 3abe 0062 1c3e bb4e 863d d547 073e
000001b0: 034c 713d 147f 9bbb 695f 8b3c 9fff fc3d
000001c0: 6a72 2fbc 8ca7 b3bd 682b 21bd b83e f0bd
000001d0: 1f74 a63d 6f6b 68bd 3996 f23d b285 373d
000001e0: bc93 b43d 1c45 f43d 3ae6 8bbc 35bd 96bd
000001f0: 80ee 703d c739 1c3e 5af7 17be c774 05bd
00000200: 4bde 96bd d14f 6ebd cfa6 ab3c a138 61bd
00000210: f951 8ebb 320a 333e dac9 223d bdc3 0cbd
00000220: 149d 693d 8afc a43d 2291 7cbd fed7 debd
00000230: 0636 d83d ecc0 263e d356 6d3d 7e7c 35be
00000240: a738 d3bd bc4e 9d3d 8461 01be 9106 30bd
00000250: 43e0 103e c73c c93d 7124 bebd 04f7 14be
00000260: d2ed a83d 8c45 25be e1b8 213e 653e c03d
00000270: 4bde cc3d 6af5 963d ee42 df3d 7887 bbbc
00000280: c45c dc3d 1ab8 073d 96e9 943d 23a2 6b3c
00000290: 3807 cf3d 4404 0cbe 8727 9ebd 21c9 0fbe
000002a0: e2e2 22bd c747 77bd 14ab 873d 0d13 ffbd
000002b0: c569 1f3e 269e b7bd bc78 a33d bb49 ca3d
000002c0: 4235 9bbd 5d80 c83d 6a64 a7bb 770f 5bbd
000002d0: 66b8 5dbd a7d2 04be 4a9e cfbd 2332 a7bd
000002e0: 6590 91bd 9b9d eebd 2b33 46bb ccbf 9dbd
000002f0: 26cf c4bd 488d 1fbd cbea 4d3c 1e07 463c
00000300: 942f f0bd b0d1 1ebe 2145 813d f614 b73c
00000310: e50b 393e 8fdc 89bd 9ba2 113d 7e7c b63d
00000320: b64b 1cbe 0a6b 70be 6b34 9bbd 1dd3 53bd
00000330: 47b6 263e a7a6 1dbc c0e7 043e 9073 06bc
00000340: 404c 533d 253a 283e 0600 bf3d eb5f e0bd
00000350: 505b 7e3e 6ee8 6c3d 64f7 a6bd 9811 023e
00000360: 7790 79be 68d5 543e ab50 12be 1b18 46be
00000370: 3b93 a3be 0b96 8c3c 3eac bc3e 55a1 303d
00000380: e602 d9bc 5ecc 38be bba7 b43d a140 c5bc
00000390: 2446 fc3d c56d 9fbd a35a b1bd a508 fa3d
000003a0: 0147 70be 9c69 7d3e 6171 8dbe 4d02 d5bd
000003b0: 316b fe3b 3eb0 d6bd dabc 643d e429 ae3d
000003c0: d1ff 24bc 3580 91be c4a2 cabe 5cce 3bbd
000003d0: 9f9f d43d f616 89bd 6cf8 943d 0fb9 773e
000003e0: 2e86 25be 876f 5bbc 3d71 f83d 07f0 253d
000003f0: 291a 25be fa00 7a3c 1ca0 bebc 24e4 84bd

output_layer.bias f4 [14]
0.05337318 -0.020346604 -0.07140817 -0.081072256 -0.043596774 0.015506881 -0.024878047 0.08753852
-0.032015435 0.037129607 -0.07154778 -0.046344932 -0.10927387 0.05007142
00000000: d69d 5a3d ecad a6bc 723e 92bd 3609 a6bd
00000010: 8892 32bd 9310 7e3c 0ccd cbbc 6547 b33d
00000020: 9e22 03bd 3715 183d a487 92bd 2fd4 3dbd
00000030: fbca dfbd b017 4d3d

onnx::LSTM_122 f4 [1, 400, 7]
0.07562601 0.017683623 -0.061686575 -0.0091974195 0.055020325 0.06363898 -0.10487447 0.15345265
-0.0051553333 -0.0221769 -0.07344957 0.039566796 0.06164103 0.07483352 0.08682707 -0.04844578
-0.027778793 0.030121882 0.006203151 -0.08552868 -0.038488712 -0.18365848 0.045522764 0.061305437
0.04353065 -0.047926184 -0.2330531 -0.047377396 0.00336539 -0.027508918 -0.1232502 -0.07003407
-0.0011368414 -0.17455658 0.023837147 -0.0046723965 0.24708794 -0.08301909 -0.054736536 0.085563585
-0.078901574 0.03350671 0.12875165 0.06793833 -0.06320853 0.070767395 -0.018551473 -0.1267396
-0.029830031 -0.07471065 -0.11896639 0.11570931 -0.018883973 0.0005761842 -0.18773001 0.002898882
0.16140659 0.13610215 0.11740966 0.07483382 0.097437896 -0.15538505 0.18221362 0.0003199846
0.05382385 0.010287265 -0.081093766 0.021800004 0.038994305 0.04650711 0.08741967 -0.07378616
0.1303637 0.12802693 0.03755474 -0.10189805 0.07362371 -0.12852228 -0.045577113 -0.06641308
0.03713707 -0.10670202 -0.12129384 0.019954927 -0.1462775 0.074931294 -0.11422302 -0.041355673
-0.057084553 0.030736668 -0.063179396 -0.058298044 0.1602352 0.04862239 -0.06435949 0.028282117
-0.19894668 -0.020261407 -0.10608006 -0.035397995 0.0767095 -0.009894389 0.009807675 0.0057212464
0.02169856 -0.03420614 -0.1511277 0.017488727 -0.06490405 -0.07090268 0.07908203 0.05541306
0.051793527 0.15719539 -0.038451467 -0.0012535965 0.11433361 -0.13320689 0.11996254 0.017178671
-0.10392955 -0.05639094 -0.07545278 0.12197232 -0.11540735 -0.028021486 0.13225247 0.16977465
0.048658803 -0.08478398 -0.02771107 -0.29955056 -0.08491987 0.02617724 -0.08541906 -0.021686548
-0.11177316 -0.057235513 -0.055617187 -0.0049665654 0.11408965 -0.0049394234 0.1438955 -0.04058587
-0.010589971 0.011211312 0.04385306 -0.045826543 -0.1047623 0.031710975 -0.05872653 -0.013164217
-0.024616241 -0.11597856 0.15441492 0.06851539 -0.13492906 -0.13526398 -0.07469554 0.15339378
0.106696755 0.05430768 0.06836522 0.06597241 -0.058291677 0.024552217 -0.036498893 0.09830787
-0.024850832 -0.1317647 0.0748838 0.0056131994 0.06651228 -0.004983168 -0.06618885 0.03759088
0.042523734 0.09666264 0.06966613 0.05016093 -0.15942495 0.04979451 -0.20324327 -0.009527361
0.02342124 -0.0850056 0.046777572 0.045305092 -0.13593517 -0.14627227 -0.035524093 -0.024253264
0.0006236449 -0.12981267 0.03381018 0.012278737 0.0634156 0.049516175 -0.061077677 0.05503188
-0.06662723 -0.059548695 0.018264696 -0.10816571 0.031770322 0.022557259 0.12809256 0.09417057
-0.078545295 -0.0955647 0.06301174 -0.039987557 -0.026483841 -0.020581001 0.06790778 0.0057899123
0.04541443 -0.03193424 -0.012124884 -0.050457638 0.012284452 -0.105668485 0.0028578248 -0.08492387
0.014141067 0.007378304 -0.023830924 -0.0010433686 -0.029988658 0.0032635268 0.10188465 0.07620707
0.12770389 -0.09257113 0.050796784 0.0064133634 -0.112174086 0.09848359 0.15977629 0.05812162
0.007559019 -0.041122984 0.013873523 -0.054667346 0.12794071 -0.13988708 -0.120305955 -0.048800837
0.10949236 0.054595992 0.13411957 -0.04972502 0.023192387 0.0006091388 -0.09541023 -0.12940152
00000000: cfe1 9a3d 3fdd 903c 10ab 7cbd c6b0 16bc
00000010: fe5c 613d 2755 823d 6dc8 d6bd b122 1d3e
00000020: 12ee a8bb 55ac b5bc ba6c 96bd cb10 223d
00000030: 4e7b 7c3d 5142 993d 64d2 b13d 156f 46bd
00000040: 5a90 e3bc 2ac2 f63c cd43 cb3b a929 afbd
00000050: 57a6 1dbd f810 3cbe 1476 3a3d 691b 7b3d
00000060: 324d 323d 3f4e 44bd 79a5 6ebe cd0e 42bd
00000070: e08d 5c3b 625a e1bc 9a6a fcbd 066e 8fbd
00000080: 1102 95ba f6be 32be 1f46 c33c e71a 99bb
00000090: 9f04 7d3e ea05 aabd 6b33 60bd f63b af3d
000000a0: 2697 a1bd 553e 093d 79d7 033e 4023 8b3d
000000b0: 7973 81bd 7fee 903d 42f9 97bc 07c8 01be
000000c0: 1c5e f4bc e601 99bd a7a4 f3bd 01f9 ec3d
000000d0: 90b2 9abc 110b 173a 4c3c 40be 2bfb 3d3b
000000e0: c547 253e 5d5e 0b3e 7a74 f03d 7942 993d
000000f0: 858d c73d 421d 1fbe 3596 3a3e 9bc3 a739
00000100: 6676 5c3d eb8b 283c 7d14 a6bd ec95 b23c
00000110: 7eb8 1f3d 3d7e 3e3d 1509 b33d 331d 97bd
00000120: 107e 053e 7e19 033e 00d3 193d edaf d0bd
00000130: 07c8 963d 589b 03be 11af 3abd 9503 88bd
00000140: 0a1d 183d 9786 dabd e868 f8bd 8478 a33c
00000150: c5c9 15be 9475 993d c2ed e9bd 9164 29bd
00000160: 7ed1 69bd 77cb fb3c 3364 81bd eec9 6ebd
00000170: b214 243e 4528 473d e9ce 83bd e6af e73c
00000180: aeb8 4bbe 40fb a5bc 8140 d9bd 7dfd 10bd
00000190: df19 9d3d 131c 22bc 5fb0 203c 4b79 bb3b
000001a0: 2ec1 b13c bd1b 0cbd 38c1 1abe 8544 8f3c
000001b0: 6aec 84bd 6d35 91bd c2f5 a13d cef8 623d
000001c0: 7325 543d d4f7 203e 497f 1dbd b84f a4ba
000001d0: bd27 ea3d 6367 08be ecae f53d 49ba 8c3c
000001e0: 04d9 d4bd 30fa 66bd fd86 9abd a0cc f93d
000001f0: b05a ecbd 518d e5bc 316d 073e 68d9 2d3e
00000200: 744e 473d 39a3 adbd 5302 e3bc b15e 99be
00000210: 78ea adbd a771 d63c 30f0 aebd fda7 b1bc
00000220: 54e9 e4bd c96f 6abd d9ce 63bd 92be a2bb
00000230: d6a7 e93d e3da a1bb 5859 133e 5f3d 26bd
00000240: 8f81 2dbc a7af 373c 449f 333d 9db4 3bbd
00000250: 9e8d d6bd 5ee3 013d 3b8b 70bd baae 57bc
00000260: 00a8 c9bc 2b86 edbd f21e 1e3e cc51 8c3d
00000270: d82a 0abe a482 0abe faf9 98bd 4213 1d3e
00000280: d483 da3d bb71 5e3d 1103 8c3d 8b1c 873d
00000290: 41c3 6ebd bb21 c93c dd7f 15bd a355 c93d
000002a0: f993 cbbc 53ed 06be ae5c 993d eeee b73b
000002b0: 9737 883d d849 a3bb 058e 87bd e5f8 193d
000002c0: 5e2d 2e3d 10f7 c53d 1ead 8e3d 8c75 4d3d
000002d0: 4b40 23be 54f5 4b3d 011f 50be a618 1cbc
000002e0: e6dd bf3c 6a17 aebd d799 3f3d d591 393d
000002f0: 9732 0bbe 66c8 15be b681 11bd c8ae c6bc
00000300: 1a7c 233a 9ded 04be 8b7c 0a3d c12c 493c
00000310: 0ae0 813d 79d1 4a3d 962c 7abd 1c69 613d
00000320: db73 88bd 55e9 73bd d89f 953c fc85 ddbd
00000330: 9921 023d 00ca b83c b22a 033e 80dc c03d
00000340: 5bdc a0bd 6db7 c3bd 4d0c 813d fec9 23bd
00000350: a4f4 d8bc 7d99 a8bc 3c13 8b3d 4eb9 bd3b
00000360: 7b04 3a3d 7acd 02bd 73a7 46bc abac 4ebd
00000370: ba44 493c b868 d8bd 584a 3b3b 91ec adbd
00000380: efaf 673c b3c5 f13b 1239 c3bc a4c1 88ba
00000390: c6aa f5bc e5e0 553b e6a8 d03d 7412 9c3d
000003a0: cfc4 023e ef95 bdbd 4a10 503d 3127 d23b
000003b0: 87bb e5bd c4b1 c93d 659c 233e f010 6e3d
000003c0: a6b1 f73b 9370 28bd c64d 633c deea 5fbd
000003d0: e402 033e 8f3e 0fbe f862 f6bd 63e3 47bd
000003e0: 883d e03d 0ca0 5f3d a456 093e 76ac 4bbd
000003f0: f6fd bd3c 9dae 1f3a 7066 c3bd d581 04be

onnx::LSTM_123 f4 [1, 400, 100]
-0.0047304956 -0.12635787 -0.030315988 0.11645554 -0.013259696 0.15938546 0.07547831 -0.0068719373
0.041932948 0.1201981 -0.17534992 -0.08071602 -0.02352918 -0.022824908 0.19317505 0.08700446
0.18972608 0.11779989 -0.018364161 0.01469553 0.10291259 0.050069917 -0.006405257 -0.0284304
-0.07257614 0.040357187 0.11707211 0.09280946 -0.015945885 0.10911525 0.09487284 0.04702937
0.12093374 0.16033754 -0.032151308 -0.027124928 0.027806342 0.24232931 -0.16480926 -0.08117136
-0.0932574 0.15676214 -0.096201554 0.08794738 0.10796696 0.18409987 -0.028412316 -0.11755021
-0.03531429 -0.055080123 0.02290236 -0.10717054 -0.09910416 -0.023121113 -0.07520964 -0.017639993
0.07096997 0.04956085 0.23369262 -0.10357764 -0.12489433 -0.022354688 -0.13833539 -0.036523137
-0.016849352 -0.034546483 0.05230272 -0.13688295 0.12560773 -0.09366784 -0.037567135 -0.022500336
0.12065172 0.05431944 0.09589853 -0.0074534193 0.08354905 -0.05758399 -0.04381968 -0.08353094
0.0023553001 -0.1371627 -0.093965955 -0.051693622 0.05579028 0.03629091 -0.03596632 0.028714683
-0.114714414 -0.040026736 -0.016364343 0.07772745 -0.1760468 -0.07793195 -0.01475672 0.03948213
0.12294119 0.18206866 -0.19851266 0.0023588294 -0.07232139 -0.11218635 -0.04421548 0.030469943
-0.047175154 0.05021107 0.04647992 -0.104799114 -0.012743974 0.05025333 -0.019799 0.07890329
0.031332187 -0.08441993 -0.049540557 0.11737074 0.05877958 0.08156654 0.0060767033 -0.12087284
-0.024757408 -0.004467227 0.15678255 -0.097048506 -0.016679145 -0.030069638 0.04959397 0.073540844
-0.082742505 0.061296165 0.085182056 0.16322188 0.04215254 0.13672043 0.02878667 0.16221423
-0.11009074 -0.042945452 0.03972338 0.03475173 -0.048430774 0.01663579 -0.18516874 0.14907464
0.056282774 -0.04152735 0.0056553297 0.05650587 -0.06801304 -0.095670246 -0.0016263662 -0.07444015
-0.030283408 -0.07026379 -0.035357926 -0.1315594 -0.13609454 0.011858003 0.090155944 -0.066980004
0.10433993 0.023934038 0.017096484 -0.014674698 -0.013651444 0.023330942 0.043543752 -0.14569439
0.09049872 0.029640004 -0.008305433 0.13721028 0.01789023 0.098799795 -0.04291414 -0.07672955
0.010776833 -0.20690209 0.07057864 -0.105966054 0.057449345 -0.059890818 -0.12783305 -0.02928158
-0.079016574 0.18300964 0.088133655 -0.058533482 -0.033017643 -0.049928285 0.06138207 0.15995793
-0.042077396 -0.09880404 -0.13900517 0.07357721 -0.026749648 0.113714255 -0.04166736 -0.00820251
-0.06306551 -0.0009760988 -0.0084428 0.004741691 0.0066732713 0.09140979 0.06883545 -0.06444095
0.17051367 0.104965515 -0.044375416 0.05846922 0.15179497 0.04192513 0.113991566 -0.050825197
-0.032065444 0.068824664 0.12431219 -0.040686775 0.058651984 0.054969143 0.15633948 0.08218468
-0.15887539 -0.06284639 0.13958573 -0.043221947 -0.018233657 0.121428974 0.048018355 0.049617
0.11567346 0.18267319 0.07031569 5.767153e-05 -0.059918676 0.07539995 -0.010205928 0.02792175
-0.06924839 -0.0068758177 -0.047380846 -0.0049526445 0.15991952 0.08903062 0.10308507 -0.03955073
-0.06461195 -0.048562653 0.019579561 -0.047458358 0.09954633 0.07064296 0.038515057 -0.04504352
00000000: 4602 9bbb f563 01be 3c59 f8bc 3e80 ee3d
00000010: 323f 59bc f135 233e 5f94 9a3d fd2d e1bb
00000020: e2c1 2b3d 6c2a f63d ee8e 33be 714e a5bd
00000030: 44c0 c0bc 4dfb babc aecf 453e 652f b23d
00000040: 8e47 423e 1241 f13d 7070 96bc 85c5 703c
00000050: d6c3 d23d 1d16 4d3d 31e3 d1bb dfe6 e8bc
00000060: cda2 94bd 944d 253d 81c3 ef3d e312 be3d
00000070: f2a0 82bc d177 df3d b14c c23d dea1 403d
00000080: 1cac f73d 862f 243e 17b1 03bd 1935 debc
00000090: 20ca e33c 2d25 783e c2c3 28be 2c3d a6bd
000000a0: bcfd bebd 4186 203e 5205 c5bd c21d b43d
000000b0: c81d dd3d ad84 3c3e f2c0 e8bc 2abe f0bd
000000c0: b8a5 10bd b29b 61bd bb9d bb3c 3a7c dbbd
000000d0: 1ff7 cabd 7d68 bdbc 8307 9abd bf81 90bc
000000e0: b458 913d 5100 4b3d 1e4d 6f3e 8420 d4bd
000000f0: 99c8 ffbd 2e21 b7bc cba7 0dbe 4999 15bd
00000100: a707 8abc 9d80 0dbd 603b 563d 0b2b 0cbe
00000110: 509f 003e edd4 bfbd ffdf 19bd a052 b8bc
00000120: 4018 f73d 107e 5e3d 7366 c43d d03b f4bb
00000130: c41b ab3d 31dd 6bbd 447c 33bd 4512 abbd
00000140: 615b 1a3b 6174 0cbe 3971 c0bd b1bc 53bd
00000150: 5984 643d c7a5 143d 6c51 13bd 0e3b eb3c
00000160: 64ef eabd 13f3 23bd 840e 86bc 922f 9f3d
00000170: 9d45 34be c99a 9fbd 2bc6 71bc 04b8 213d
00000180: 97c8 fb3d 3570 3a3e e746 4bbe 9796 1a3b
00000190: 3d1d 94bd f5c1 e5bd 4b1b 35bd 1a9c f93c
000001a0: bc3a 41bd 1faa 4d3d bb61 3e3d eba0 d6bd
000001b0: 1acc 50bc 70d6 4d3d 8331 a2bc 0c98 a13d
000001c0: 2e56 003d 5be4 acbd 0aeb 4abd 1260 f03d
000001d0: dbc2 703d 5c0c a73d 151f c73b 2e8c f7bd
000001e0: 0cd0 cabc d161 92bb 9b8b 203e 5ec1 c6bd
000001f0: b4a2 88bc 9a54 f6bc 0c23 4b3d 959c 963d
00000200: e774 a9bd b011 7b3d ee73 ae3d a323 273e
00000210: 24a8 2c3d 7100 0c3e 06d2 eb3c 7d1b 263e
00000220: 4177 e1bd 92e7 2fbd fcb4 223d d457 0e3d
00000230: 595f 46bd c847 883c e09c 3dbe 06a7 183e
00000240: c488 663d 9518 2abd 5850 b93b b372 673d
00000250: 6c4a 8bbd c3ee c3bd cb2b d5ba 1474 98bd
00000260: e914 f8bc 76e6 8fbd 79d3 10bd 82b7 06be
00000270: 5e5c 0bbe 1248 423c aea3 b83d d02c 89bd
00000280: 2cb0 d53d 5111 c43c ed0d 8c3c 256e 70bc
00000290: 4eaa 5fbc 8820 bf3c ef5a 323d e930 15be
000002a0: 6557 b93d 98cf f23c 8313 08bc da80 0c3e
000002b0: 888e 923c 8c57 ca3d bdc6 2fbd 6224 9dbd
000002c0: 5091 303c 24de 53be 898b 903d bb04 d9bd
000002d0: 0150 6b3d 1350 75bd abe6 02be eddf efbc
000002e0: 71d3 a1bd e166 3b3e 6b7f b43d cec0 6fbd
000002f0: 823d 07bd 9a81 4cbd c46b 7b3d 03cc 233e
00000300: 5959 2cbd c659 cabd 5f57 0ebe a6af 963d
00000310: 1422 dbbc 05e3 e83d 65ab 2abd d263 06bc
00000320: 7d28 81bd e2e0 7fba ab53 0abc 3060 9b3b
00000330: 75ab da3b 0e35 bb3d 9af9 8c3d 9ef9 83bd
00000340: 239b 2e3e 29f8 d63d ffc2 35bd 6c7d 6f3d
00000350: 2470 1b3e afb9 2b3d 6974 e93d 152e 50bd
00000360: 0e57 03bd f2f3 8c3d 6497 fe3d 2da7 26bd
00000370: 103d 703d 5327 613d 7517 203e 7150 a83d
00000380: 3bb0 22be 9cb5 80bd 90ef 0e3e 7f09 31bd
00000390: c05e 95bc c1af f83d e5ae 443d 323b 4b3d
000003a0: 35e6 ec3d ae0e 3b3e ac01 903d 55e4 7138
000003b0: 496d 75bd 4a6b 9a3d c436 27bc 27bc e43c
000003c0: 1ad2 8dbd 8a4e e1bb 6b12 42bd cb49 a2bb
000003d0: f1c1 233e b055 b63d 441e d33d f2ff 21bd
000003e0: 4553 84bd a2e9 46bd 5165 a03c b263 42bd
000003f0: f2de cb3d 42ad 903d f7c1 1d3d 8e7f 38bd

onnx::LSTM_124 f4 [1, 800]
0.11400596 0.07385113 0.07657238 0.07648508 -0.016529115 0.12175573 -0.011780375 -0.051125526
0.020720825 0.10979103 0.05802067 -0.047093026 0.011781398 -0.010087642 -0.02785824 0.017758075
0.043398086 0.1341984 0.040762197 0.049064994 -0.020149568 0.08457249 0.03962295 -0.010766261
0.03944466 0.11560085 -0.024869328 -0.033260018 0.10382035 -0.050882056 -0.10307059 0.018886726
0.043768823 0.10175229 -0.035920985 -0.054954886 0.14942966 0.041893937 0.008275708 0.07512408
-0.05177741 0.022359218 -0.09483192 0.043434687 -0.010769709 0.08811072 0.07094656 0.0075456887
0.12113612 -0.02278522 -0.06470681 -0.011332438 0.22233456 0.063140444 0.058776345 0.1269997
0.086399384 -0.0043565347 0.1318862 0.103331074 0.0056498996 -0.00031092257 0.10759702 0.12345878
0.12998247 0.08864027 0.0063022645 0.089507945 0.11319609 0.0094643105 -0.021709237 0.12028978
0.008225317 0.029809058 0.090111956 0.06927885 -0.03527048 0.15821211 0.0990723 0.008156567
0.08554679 0.09729716 0.06537253 0.0854611 -0.012447176 0.060848374 -0.11481333 -0.007386279
0.053495042 0.012303708 -0.010444705 -0.021006476 0.13146752 0.07672391 0.099975795 0.01060396
0.20165165 0.05044194 0.036517337 0.13409841 -0.0005262774 0.05201044 -0.017913552 0.012897705
0.17194907 0.16700506 -0.042351563 0.13432717 0.08334027 -0.0058498825 0.115841344 0.062916376
-0.01643623 -0.009109018 0.041134886 0.09126298 0.08637047 0.01521265 0.18045396 -0.061810743
-0.066963285 0.051152952 0.045135148 0.11306275 -0.043095887 -0.030484796 -0.0062234784 0.120422654
0.06364642 0.02876286 0.043089338 0.08352165 0.013562692 0.22105125 0.009991484 -0.06325618
0.05709782 0.013956488 -0.030423367 0.020517778 0.031093037 0.120475896 -0.07651241 0.01626198
-0.048533686 -0.023929512 -0.061270397 0.053839713 0.16145408 0.033468843 -0.0150164 0.13030979
0.0625452 -0.018135149 0.019960713 0.074999705 0.035605125 0.093615554 0.034447048 0.05747236
0.088246256 0.12994154 0.13453837 -0.02515678 0.14815544 0.02778139 -0.020555818 0.0076647433
0.05042312 -0.078609206 0.08691329 0.007092359 -0.0006553223 0.0141048385 0.014548291 0.059658065
-0.009344692 0.048644397 0.07943798 0.0049925004 0.05293244 -0.010682922 0.12174807 0.06057467
-0.011743822 -0.057226792 -0.0005667862 -0.031281035 0.09252654 0.09007131 0.051234946 0.048336484
0.10897715 0.03525415 -0.02763208 -0.016908878 0.13685733 -0.027284715 0.10305099 0.12702945
0.079489216 0.021099744 0.05579061 -0.06976371 0.08361483 0.086594604 0.044369597 -0.093469225
0.052048467 0.057705432 0.0013725824 -0.12359005 -0.032112185 -0.087902516 -0.006415255 0.019792348
-0.004602454 -0.06267742 -0.0030740218 -0.048703063 -0.11830899 0.0376629 -0.11185433 -0.022428852
-0.06188118 -0.077461146 -0.06811256 -0.087396026 0.056243237 0.0641829 0.0705242 -0.08695584
0.01797548 0.1538899 -0.00781169 0.09556406 0.058929134 0.003205166 -0.109883174 -0.025687529
-0.12797062 -0.14804019 -0.11445782 0.019939829 0.031661917 -0.08169623 -0.016185775 -0.05674443
-0.01205499 -0.06206442 0.0014669849 -0.045055874 -0.13513255 -0.08137321 0.017160576 -0.04060092
00000000: f57b e93d 433f 973d fbd1 9c3d 36a4 9c3d
00000010: 1168 87bc 115b f93d 7902 41bc 0069 51bd
00000020: b8be a93c 1fda e03d 15a7 6d3d 9ee4 40bd
00000030: c406 413c a346 25bc f736 e4bc 6279 913c
00000040: 31c2 313d 4e6b 093e 43f6 263d 60f8 483d
00000050: b510 a5bc 5734 ad3d ad4b 223d f964 30bc
00000060: b990 213d 23c0 ec3d c3ba cbbc a83b 08bd
00000070: c39f d43d b469 50bd ac16 d3bd 56b8 9a3c
00000080: f046 333d 8163 d03d e221 13bd 6018 61bd
00000090: 1704 193e fa98 2b3d d696 073c a7da 993d
000000a0: 8d14 54bd ae2a b73c 3d37 c2bd 92e8 313d
000000b0: 6f73 30bc 6573 b43d 6e4c 913d d341 f73b
000000c0: 3716 f83d 12a8 babc 0185 84bd b1ab 39bc
000000d0: acab 633e c74f 813d 77bf 703d 360c 023e
000000e0: 29f2 b03d 43c1 8ebb 2d0d 073e 3e9f d33d
000000f0: cb22 b93b 5203 a3b9 d45b dc3d f5d7 fc3d
00000100: 201a 053e 0889 b53d 3a83 ce3b f14f b73d
00000110: 5ad3 e73d 3210 1b3c 92d7 b1bc 7d5a f63d
00000120: 7bc3 063c 2032 f43c 9e8c b83d 12e2 8d3d
00000130: c777 10bd 5b02 223e 6be6 ca3d 1fa3 053c
00000140: 2833 af3d bc43 c73d 08e2 853d 3b06 af3d
00000150: 3def 4bbc 253c 793d 4023 ebbd 9908 f2bb
00000160: 9e1d 5b3d 7e95 493c 4520 2bbc c615 acbc
00000170: 6c9f 063e 6d21 9d3d 1cc0 cc3d 3bbc 2d3c
00000180: c57d 4e3e 359c 4e3d 3493 153d 1851 093e
00000190: e1f5 09ba e608 553d 71bf 92bc e550 533c
000001a0: 6b13 303e 6003 2b3e d578 2dbd 108d 093e
000001b0: 4eae aa3d 5fb0 bfbb 3a3e ed3d 4dda 803d
000001c0: 46a5 86bc fe3d 15bc 0e7d 283d 16e8 ba3d
000001d0: 00e3 b03d 7b3e 793c ecc8 383e 432d 7dbd
000001e0: 0c24 89bd c285 513d a2df 383d 718d e73d
000001f0: 5085 30bd 40bb f9bc 52ee cbbb 27a0 f63d
00000200: 0e59 823d 17a0 eb3c 727e 303d 660d ab3d
00000210: 0e36 5e3c 425b 623e 52b3 233c 758c 81bd
00000220: 67df 693d c1a9 643c 6d3a f9bc e614 a83c
00000230: d3b6 fe3c 11bc f63d 8ab2 9cbd d837 853c
00000240: 42cb 46bd d307 c4bc abf6 7abd 0887 5c3d
00000250: 3854 253e a016 093d 5907 76bc ee6f 053e
00000260: b317 803d 2a90 94bc a684 a33c 7299 993d
00000270: aed6 113d 83b9 bf3d 5918 0d3d 2368 6b3d
00000280: 74ba b43d 650f 053e 6dc4 093e 9715 cebc
00000290: 0fb6 173e cc95 e33c ad64 a8bc 8728 fb3b
000002a0: 7988 4e3d ddfd a0bd 98ff b13d 0567 e83b
000002b0: efc9 2bba fb17 673c f55b 6e3c 045c 743d
000002c0: 7b1a 19bc 593f 473d 61b0 a23d 2198 a33b
000002d0: b0cf 583d 6c07 2fbc 0d57 f93d 251d 783d
000002e0: 2969 40bc a466 6abd 6194 14ba 8b20 00bd
000002f0: 8e7e bd3d 4f77 b83d bcdb 513d 7afc 453d
00000300: 692f df3d a866 103d ac5c e2bc 7d84 8abc
00000310: 5424 0c3e 3284 dfbc 660c d33d 0214 023e
00000320: 3ecb a23d 5fd9 ac3c b284 643d 47e0 8ebd
00000330: 413e ab3d 8358 b13d e5bc 353d cb6c bfbd
00000340: c630 553d 885c 6c3d 39e8 b33a c81c fdbd
00000350: 1188 03bd 3c06 b4bd 0f37 d2bb 9023 a23c
00000360: 2fd0 96bb 055d 80bd 8775 49bb dd7c 47bd
00000370: fc4b f2bd 6a44 1a3d e213 e5bd b6bc b7bc
00000380: 1f77 7dbd f3a3 9ebd 997e 8bbd b0fc b2bd
00000390: 4f5f 663d 5372 833d fe6e 903d e715 b2bd
000003a0: 5041 933c 5095 1d3e 35f9 ffbb 17b7 c33d
000003b0: ad5f 713d c30d 523b 6e0a e1bd a76e d2bc
000003c0: bb0a 03be d997 17be dd68 eabd da58 a33c
000003d0: edaf 013d 5a50 a7bd 0898 84bc d96c 68bd
000003e0: 4b82 45bc 4337 7ebd d847 c03a 828c 38bd
000003f0: 3060 0abe ffa6 a6bd 5694 8c3c 264d 26bd
