New_project/modelo_simples2.onnx (onnx, 851934 bytes, 11 tensors)

decoder_input f4 [1, 1, 128]
0	0xb9254ff1	-0.00015765407
1	0x39964058	0.0002865817
2	0xbabbf357	-0.0014339489
3	0xba24d05c	-0.00062871515
4	0xb973db56	-0.00023255995
5	0xb9f40f40	-0.0004655067
6	0x3895bf22	7.140475e-05
7	0x39eefafa	0.0004558189
8	0xb8bd34b4	-9.022039e-05
9	0xb8b671cd	-8.699633e-05
10	0xb89ccaf7	-7.476465e-05
11	0x3916e226	0.00014389362
12	0xba2a6059	-0.0006499342
13	0x3a252372	0.0006299532
14	0x39c24127	0.00037051106
15	0xb8bb947e	-8.944514e-05
16	0x39450614	0.00018789648
17	0xb8e5b923	-0.00010954055
18	0xb88edda6	-6.812373e-05
19	0xba466c6a	-0.00075692555
20	0xb98da7aa	-0.00027018535
21	0xb8d1639e	-9.984452e-05
22	0x398e05b0	0.00027088588
23	0xbb170cdc	-0.0023048436
24	0x38dd7331	0.00010559557
25	0x39fe02fa	0.00048448873
26	0xba04d0b4	-0.00050664996
27	0xb9055c0c	-0.00012718159
28	0xb8e7c638	-0.000110518595
29	0xb8409800	-4.591793e-05
30	0x390695e0	0.00012835069
31	0xba3e619b	-0.0007262469
32	0x3874ee67	5.8396163e-05
33	0xb905211c	-0.00012696203
34	0x39c513e2	0.00037589582
35	0xb89e2910	-7.5416756e-05
36	0xb8eeb00e	-0.00011381517
37	0xba8a4c03	-0.0010551218
38	0x38d89b00	0.000103285536
39	0x3a1225ea	0.00055751076
40	0x390b104e	0.00013262147
41	0x3906c352	0.00012851998
42	0xb840e313	-4.5987847e-05
43	0x38cd5ea2	9.7927885e-05
44	0x3acec71a	0.001577589
45	0xb9cb323e	-0.0003875661
46	0xb9c48215	-0.00037480952
47	0x3957916e	0.00020558175
48	0x3987a9b6	0.0002587565
49	0x3a7931d5	0.0009506022
50	0x3a00fc50	0.000492041
51	0xb9abae22	-0.000327454
52	0xb92fbac0	-0.0001675887
53	0xb95943d0	-0.00020719995
54	0x3a7fb181	0.0009753928
55	0xb9e37228	-0.00043381867
56	0xba2bf131	-0.00065590726
57	0x34469000	1.8492574e-07
58	0xb89d39a0	-7.497077e-05
59	0x39973738	0.00028842106
60	0x39b9209e	0.0003531025
61	0x3a1d8017	0.00060081616
62	0x3a1ea31d	0.00060515275
63	0xb9814c31	-0.00024661564
64	0x39bf2a38	0.00036461814
65	0x38be019c	9.060206e-05
66	0x38bfc70c	9.144665e-05
67	0x3a0ded7f	0.0005414113
68	0xb913f250	-0.00014109281
69	0xba3b9ee5	-0.0007157161
70	0x39b3127b	0.0003415531
71	0x396dc776	0.00022676386
72	0x38cd5308	9.7906275e-05
73	0x39224534	0.00015475304
74	0x37fc2220	3.0056632e-05
75	0xb8f9f8c6	-0.00011919583
76	0x3a03ce16	0.00050279626
77	0xba510620	-0.000797363
78	0x3a05dc0a	0.0005106336
79	0x3914094f	0.00014117848
80	0x3a1f56ad	0.00060782844
81	0x36135e60	2.195964e-06
82	0xba59377a	-0.000828616
83	0x39b9135d	0.00035300376
84	0xba41b358	-0.000738909
85	0xb972395a	-0.00023100284
86	0xb91b2522	-0.00014795785
87	0x38e9c249	0.00011146494
88	0xb99692c6	-0.00028719584
89	0x3914a95a	0.00014177468
90	0xba0b4cb0	-0.00053138565
91	0x39599d52	0.00020753339
92	0x3986eb36	0.00025733717
93	0x386d1a68	5.6529796e-05
94	0x3a576821	0.00082171155
95	0x393bd2cb	0.00017912236
96	0x3984cf5c	0.00025331497
97	0xba3bc513	-0.000716285
98	0xb9789d12	-0.00023709636
99	0xb9f24f9c	-0.0004621715
100	0x385129ac	4.9868293e-05
101	0x3a09f034	0.00052619283
102	0x39b98184	0.00035382446
103	0xb98a863a	-0.00026421418
104	0x39d8c51e	0.00041345594
105	0x39d6bf82	0.00040959945
106	0xba555433	-0.0008137852
107	0x3ab043ba	0.0013447918
108	0x39226b0a	0.00015489399
109	0xba6eff76	-0.0009117046
110	0x3a65aaff	0.0008761137
111	0x3a1b29ce	0.000591901
112	0x3926e4a9	0.00015916176
113	0xba59c4ef	-0.00083072385
114	0x396b267e	0.00022425686
115	0xb83f9c08	-4.5683264e-05
116	0x3a07b41c	0.00051766797
117	0x39df4b6e	0.00042590074
118	0xb982be3b	-0.00024937265
119	0x39e1acf2	0.00043044199
120	0xb912a324	-0.0001398442
121	0xb9c049cc	-0.00036676077
122	0x391252d4	0.00013954501
123	0x3a0a3412	0.00052720413
124	0x392d685f	0.00016537447
125	0x399ed517	0.00030294873
126	0xba2c2d77	-0.0006568054
127	0x39da38db	0.0004162256

dense_layers.0.weight f4 [64, 128]
0	0xbd909089	-0.07058818
1	0xbbe1df3d	-0.006893067
2	0x3976b6c7	0.00023528478
3	0xbd04c57e	-0.032414906
4	0xbdad7839	-0.08470196
5	0xbd6437f8	-0.05571744
6	0xbd1bc74c	-0.03803186
7	0xbd8c9fcb	-0.068664156
8	0xbcfdc29c	-0.030976586
9	0x3dbc1f95	0.09185711
10	0x3d28b92f	0.04119223
11	0x3b8aa7c3	0.0042314245
12	0x3d3f9b59	0.04677901
13	0x3d49cf28	0.049269825
14	0xbc8d92d2	-0.017281923
15	0x3b72cb86	0.003704758
16	0xbcf77b32	-0.030210111
17	0xbd14a7de	-0.036292903
18	0xbc804ded	-0.015662158
19	0x3d9982de	0.07495664
20	0xbdaf3c0d	-0.08556376
21	0xbdab3c23	-0.083610795
22	0x3d879c42	0.06621601
23	0x3d1726ea	0.036902346
24	0x3dbe039e	0.09278034
25	0xbc9aaaf5	-0.018880347
26	0x3c3d94b1	0.011571095
27	0x3da63f11	0.08117498
28	0x3dca2a15	0.09871308
29	0x3cb18051	0.021667631
30	0x3dd038e9	0.10167105
31	0x3ce37e35	0.027770141
32	0x3d3d3c90	0.046200335
33	0x3c53ca39	0.012926632
34	0x3d275b45	0.040858526
35	0xbd974ce6	-0.07387714
36	0x3cef1823	0.029186314
37	0x3cc75fb1	0.024337621
38	0xbe03a682	-0.12856486
39	0x3d0bdce5	0.03414621
40	0x3dfc6e71	0.123257525
41	0x3dd2130e	0.10257541
42	0xbd6ca176	-0.05777117
43	0x3c3b96b3	0.011449504
44	0x3dd1ba17	0.10240572
45	0xbda456af	-0.08024346
46	0x3dca05b5	0.0986437
47	0xbd1079d4	-0.035272434
48	0x3c8c652f	0.017138092
49	0x3d585f9c	0.052825555
50	0xbd53e883	-0.051735412
51	0x3d9ac30c	0.075567335
52	0x3dc2a5fb	0.095043145
53	0x3c8584dc	0.016298704
54	0xbd5205ca	-0.051275052
55	0x3ce6da6c	0.028180324
56	0xbdeafd7b	-0.11474129
57	0x3da2e88a	0.079545096
58	0x3d77c06d	0.060486246
59	0x3d8d279a	0.06892319
60	0x3d8d2292	0.068913594
61	0x3d974c5b	0.073876105
62	0x3e0b5754	0.13607532
63	0xbc9d973b	-0.019237151
64	0x3d08684a	0.033302583
65	0x3d29d1f5	0.041459996
66	0xbca3b1f1	-0.01998231
67	0xbc67ad0b	-0.014140378
68	0xbda266b2	-0.07929744
69	0x3c2a1a1e	0.010382203
70	0x3d04373e	0.032279246
71	0x3d1abcce	0.037777714
72	0xb9e858e2	-0.0004431671
73	0xbda9db0b	-0.08293732
74	0x3d0c2abd	0.034220446
75	0xbd5fdd8e	-0.05465465
76	0x3e30416e	0.1721246
77	0x3d86490d	0.06556902
78	0x3bb69e73	0.005573088
79	0xbd5bdbc1	-0.05367637
80	0x3cd5d07e	0.026100393
81	0x3d9c6366	0.07636146
82	0xbc4bf520	-0.012448579
83	0xbd491fe4	-0.04910268
84	0xbd881aab	-0.066457115
85	0xbc028c60	-0.007968038
86	0xbd3984ca	-0.045292653
87	0xbdad3ab1	-0.0845846
88	0xbd021d97	-0.0317665
89	0xbd900e96	-0.07034032
90	0xbdca72c0	-0.09885168
91	0xbdc92ba4	-0.09822777
92	0x3d9af7f2	0.07566823
93	0x3db8acfa	0.09017368
94	0x3c93d59f	0.018046198
95	0xbd3ee462	-0.04660452
96	0xbd381f56	-0.04495176
97	0xbdaba136	-0.08380358
98	0xbd0e2151	-0.03469974
99	0xbe2b89b0	-0.16751742
100	0xbd436f61	-0.04771364
101	0xbd129fb8	-0.03579685
102	0x3d15bca2	0.036556847
103	0x3d8ef640	0.06980562
104	0x3db8f3ce	0.09030877
105	0xbd48cbf0	-0.049022615
106	0xbda76e92	-0.081753865
107	0x3d651211	0.055925433
108	0x3dfd9bd5	0.12383238
109	0x3ab25b5f	0.0013607553
110	0xbd902f4d	-0.07040272
111	0xbd0ec493	-0.034855437
112	0x3d5e86ca	0.054327764
113	0x3d8c390f	0.068468206
114	0x3b2a946f	0.0026028415
115	0x3c9b5332	0.018960569
116	0x3d51fa5d	0.051264156
117	0xbd35dbd2	-0.04439909
118	0xbd83bd76	-0.06432621
119	0x3e0e7e56	0.13915381
120	0xbd8e5b66	-0.069510266
121	0x3d1e5147	0.03865173
122	0x3c74343b	0.014905031
123	0x3d5623cc	0.052280232
124	0x3d9657f4	0.073409945
125	0x3e079691	0.1324103
126	0xbcbcba99	-0.023038195
127	0x3c895d13	0.016768014
128	0x3cebff23	0.028808182
129	0xbca5830c	-0.02020409
130	0xbd39e834	-0.04538746
131	0x3d9ad25b	0.07559653
132	0x3c821241	0.015877845
133	0xbd9ceb4f	-0.07662069
134	0xbd446cc0	-0.047955275
135	0xbda7c3f6	-0.081916735
136	0x3d888c3e	0.06667374
137	0x3e0cd6d0	0.1375382
138	0xbc838a76	-0.016057234
139	0x3d1cecac	0.038311645
140	0x3d0ced50	0.034406006
141	0xbd92de3e	-0.071712956
142	0xbd7639e2	-0.060113795
143	0xbdb67d9d	-0.089106776
144	0x3cd9e47b	0.026598206
145	0xbd81da91	-0.06340516
146	0xbd9e18c4	-0.077195674
147	0x3d3d1e3c	0.046171412
148	0xbdc2b902	-0.09507944
149	0xbd7cf1a9	-0.061753903
150	0xbd6ee5fd	-0.058324803
151	0xbd843583	-0.06455519
152	0x3d701562	0.058614142
153	0x3c470139	0.012146288
154	0xbd647dae	-0.05578392
155	0x3c97cc0d	0.018529916
156	0x3cafc096	0.021454137
157	0x3a81d76a	0.0009906117
158	0x3d30f6bb	0.04320405
159	0x3d9709ac	0.07374892
160	0x3d3ff9e0	0.04686916
161	0x3da09659	0.078411765
162	0x3e22612c	0.1585738
163	0x3d1d9c7f	0.038479324
164	0x3d0b7fd5	0.034057457
165	0x3daa8c70	0.083275676
166	0xbde16f33	-0.11007538
167	0x3d1547d3	0.03644545
168	0x3d5b0627	0.053472664
169	0x3c7e2a72	0.015513049
170	0xbdeea7da	-0.11653109
171	0xbb8f35b9	-0.004370418
172	0xbd3f915f	-0.046769496
173	0xbd7eaca1	-0.06217635
174	0x3bcd9b4a	0.0062746154
175	0x3d4066d3	0.04697306
176	0x3cfa233a	0.030534375
177	0xbd4655ec	-0.048421785
178	0x3bf1039f	0.007355168
179	0x3d3f7b9a	0.046748735
180	0xbb0ee82e	-0.002180587
181	0xbc941aef	-0.01807925
182	0x3cd67fa0	0.026183903
183	0x3d621a33	0.055200767
184	0xbd8ea4e2	-0.06965043
185	0xbd9af676	-0.0756654
186	0xbd0c1cf4	-0.0342073
187	0x3cf008ac	0.02930101
188	0x3daf4852	0.08558716
189	0xbce1fffc	-0.027587883
190	0xbd162131	-0.036652748
191	0xbd842255	-0.06451861
192	0xbd4d0baf	-0.05005997
193	0x3c959510	0.018259555
194	0xbd71aef6	-0.059004746
195	0xbc2e8643	-0.010652128
196	0x3c08fbb5	0.008360793
197	0xbce5dd31	-0.028059574
198	0x3c1f4533	0.009721088
199	0xbd2df7d0	-0.04247266
200	0xbc194e2a	-0.009357015
201	0x3dae39b0	0.08507097
202	0xbd9b8a6b	-0.075947605
203	0xbd5d3144	-0.05400206
204	0x3a4a76a1	0.00077233656
205	0xbcf0dd85	-0.029402504
206	0xbb6eff54	-0.0036468105
207	0xbcd728f8	-0.026264653
208	0xbd082c88	-0.033245593
209	0x3dd3c7aa	0.10340817
210	0x3d89ed22	0.067346826
211	0xbca108cb	-0.019657513
212	0xbc04c57b	-0.008103724
213	0x3d824294	0.06360355
214	0xbd0931d8	-0.0334948
215	0xbccb6254	-0.02482716
216	0xbd017225	-0.031602997
217	0xbde526fc	-0.11189076
218	0x3c66118e	0.014042271
219	0x3da9dde6	0.08294277
220	0x3d6d29b9	0.057901118
221	0xbd27d961	-0.040978793
222	0x3d42b254	0.04753335
223	0x3cfd56c5	0.030925164
224	0x3d5cde2d	0.05392282
225	0xbd9aab04	-0.0755215
226	0xbc318986	-0.010836011
227	0xbdf27f29	-0.1184066
228	0xbb99736b	-0.0046829483
229	0xbd9d21cc	-0.07672462
230	0xbd9f69e0	-0.07783866
231	0x3811a3f8	3.47234e-05
232	0xbd8ef86d	-0.06980977
233	0x3d8927fe	0.06697081
234	0x3ba5ad07	0.005056027
235	0x3db51bb7	0.08843177
236	0xbda75f1f	-0.0817244
237	0xbd93a754	-0.0720965
238	0x3d8a7be7	0.06761914
239	0xbd3295c6	-0.043599866
240	0x3caf41c1	0.021393659
241	0xbce0f419	-0.027460145
242	0xbc38fe86	-0.011291152
243	0xbd35ed4e	-0.044415765
244	0x3d535d11	0.051602427
245	0xbd824e65	-0.06362609
246	0xbc46056f	-0.012086256
247	0x3d89d155	0.0672938
248	0xbc834772	-0.016025279
249	0xbde94ee7	-0.113920026
250	0x3dab2880	0.08357334
251	0x3c38026e	0.011231048
252	0x3cf505a2	0.029909912
253	0xbbd7d3ee	-0.0065865433
254	0xbda95171	-0.08267487
255	0xbb568eff	-0.003273904

dense_layers.0.bias f4 [64]
0	0x3d52d408	0.05147174
1	0x3c84dd3f	0.01621878
2	0xbdbb8994	-0.091571
3	0x3c8916c2	0.016734485
4	0xbc535951	-0.012899713
5	0xbb7fd995	-0.00390396
6	0xbcf57963	-0.029965108
7	0xbc006c48	-0.007838316
8	0xbd4b78fd	-0.04967593
9	0x3da7b3df	0.081886046
10	0xbcec0383	-0.028810268
11	0xbcaae383	-0.02086044
12	0x3d962c7b	0.07332703
13	0x3d78423a	0.060610034
14	0xbd03ae2c	-0.032148525
15	0xbd4e51ea	-0.050371088
16	0xbcb7a333	-0.022416687
17	0x3d0a9e53	0.033842396
18	0xbbb0f0cf	-0.0053998004
19	0x3d95a850	0.07307494
20	0x3d840c48	0.06447655
21	0xbd1b9fd4	-0.03799422
22	0xbd20ee57	-0.0392898
23	0xbc275c03	-0.010214808
24	0x3bf55b3c	0.0074876826
25	0xbd95a675	-0.0730714
26	0xbc5e4d7d	-0.013568279
27	0xbc7794ae	-0.015111132
28	0x3d86634e	0.065619096
29	0x3d5fe5f6	0.054662667
30	0x3c8f9288	0.017525926
31	0x3d7d9baf	0.06191605
32	0xbcc0f098	-0.023552224
33	0xbd35bd7c	-0.04437016
34	0x3d8d9e97	0.06915014
35	0xbc9ec1eb	-0.019379577
36	0xbd532012	-0.051544257
37	0xbd20e4d1	-0.039280716
38	0xbdcebe70	-0.10094917
39	0x3cd0c20c	0.025483154
40	0xbcffb5bf	-0.031214593
41	0xbba7edcc	-0.005124783
42	0x3d0c4eac	0.034254715
43	0xbc761b74	-0.015021194
44	0xbd52cba4	-0.051463738
45	0x3dbea309	0.0930844
46	0x3c9c1fe7	0.019058181
47	0x3da8cb87	0.08241945
48	0xbd99b4d5	-0.07505194
49	0xbcc1b223	-0.023644513
50	0x3c036131	0.008018778
51	0x3b8ea1a9	0.0043527675
52	0xbc8cc246	-0.01718248
53	0xbd35f749	-0.044425283
54	0x3dccd5c8	0.10001713
55	0xbdbfa861	-0.093582876
56	0xbd1efb1b	-0.03881369
57	0xbc235b02	-0.009970428
58	0xbd9d3c9d	-0.07677577
59	0x3c18cbff	0.00932598
60	0x3d91234f	0.07086813
61	0xbd024c22	-0.031810887
62	0x3d18e0ae	0.037323646
63	0x3d08d510	0.033406317

dense_layers.2.weight f4 [14, 64]
0	0x3d9c4d30	0.0763191
1	0xbd6f377d	-0.058402527
2	0xbe6ea3b5	-0.23304637
3	0x3da6e51e	0.081491694
4	0xbdd3c0e3	-0.103395246
5	0x3e1f2873	0.15542774
6	0xbe1cd942	-0.15317252
7	0x3c84e7bb	0.016223779
8	0xbe534609	-0.20632185
9	0x3e417ca2	0.188952
10	0x3d870b7e	0.06593989
11	0xbe49b48b	-0.19697778
12	0x3d3fef92	0.04685933
13	0xbe46c0ea	-0.19409528
14	0xbccf810d	-0.02533009
15	0x3da84140	0.082155704
16	0x3dd9d21f	0.106357805
17	0x3e6e106d	0.23248453
18	0x3d79ad6c	0.060956404
19	0x3e941f69	0.28930214
20	0x3c984b56	0.01859061
21	0x3a001958	0.0004886589
22	0x3e2772c7	0.16352378
23	0xbd741c4d	-0.059597302
24	0xbaeda306	-0.001813025
25	0x3daebcce	0.085321054
26	0xbb8fb12d	-0.0043851347
27	0xbdb65958	-0.0890376
28	0x3c263fbe	0.010147033
29	0xbb610e6d	-0.0034340874
30	0x3e39c6b3	0.18142204
31	0xbd284705	-0.041083355
32	0x3d474b77	0.048655953
33	0xbe9c7b30	-0.30562735
34	0x3e1cfe09	0.15331282
35	0xbdc1a6ac	-0.09455618
36	0xbe54f30e	-0.20795843
37	0xbdce4477	-0.100716524
38	0xbe59272c	-0.21206349
39	0x3cfedb06	0.031110298
40	0xbe96fc04	-0.29489148
41	0xbe00fc12	-0.12596157
42	0x3e24f806	0.16110238
43	0xbe6f4a1a	-0.23368111
44	0x3d9ac66d	0.07557378
45	0x3e029008	0.12750256
46	0x3d25a138	0.040436953
47	0x3e77f082	0.2421284
48	0xbc9f1880	-0.019420862
49	0xbd922dcc	-0.07137641
50	0xbe70c852	-0.23513916
51	0x3e752722	0.23940709
52	0xbd79172f	-0.060813125
53	0x3d98d6a3	0.07462814
54	0x3e7beff6	0.24603257
55	0xbe2b6514	-0.16737777
56	0x3c57ddf7	0.013175479
57	0xbe0edb20	-0.13950777
58	0xbcd7ff3c	-0.026366822
59	0x3d96e514	0.07367912
60	0x3e88728f	0.266499
61	0xbe2b817b	-0.16748612
62	0x3d71ee41	0.059065107
63	0xbdad977f	-0.08476161
64	0x3d83a3db	0.06427737
65	0x3ce05a13	0.0273867
66	0xbb193c8e	-0.002338204
67	0xbce07e48	-0.027403966
68	0x3dc191df	0.09451651
69	0x3d3ce6ec	0.04611866
70	0xbd0b07fc	-0.03394316
71	0x3d3bc57e	0.04584264
72	0x3cfe1042	0.031013612
73	0x3e0a8e08	0.13530743
74	0x3c100892	0.008791106
75	0xbd61d352	-0.05513317
76	0x3db1387f	0.08653354
77	0x3c4b1532	0.01239519
78	0x3debdb67	0.11516457
79	0xbdc45cc0	-0.09588003
80	0x3d58d89e	0.052940957
81	0x3d594e46	0.053053163
82	0xbc21d061	-0.009876342
83	0xbdf982ea	-0.12183173
84	0x3d449fb0	0.048003852
85	0xbdb8d5c2	-0.09025146
86	0x3de6548a	0.11246593
87	0xbc9aabd8	-0.01888077
88	0x3debf4ce	0.11521302
89	0xbde4bbaa	-0.111686066
90	0x3db66d70	0.08907592
91	0xbcc291c1	-0.023751142
92	0x3d5ae4bc	0.053440794
93	0x3de7038e	0.11279975
94	0x3d8a7dc3	0.067622684
95	0x3b7f1fbe	0.0038928832
96	0x3c12476f	0.008928164
97	0x3cb766e2	0.022387926
98	0x3d6d6208	0.057954818
99	0xbd5a4d89	-0.0532966
100	0xbc01ab01	-0.007914306
101	0x3dbd3d5d	0.0924022
102	0x3cbfd01a	0.02341466
103	0x3dc4066d	0.09571538
104	0xbb4dee10	-0.0031422414
105	0x3ca0dc25	0.019636223
106	0x3dca97e6	0.098922536
107	0x3c1b4304	0.009476427
108	0xbdd3a3bd	-0.10333965
109	0x3c17ae8e	0.009257926
110	0x3d038dd5	0.032117683
111	0x3b270fbe	0.002549156
112	0xbdf6f089	-0.12057597
113	0x3d695975	0.05697008
114	0xbbd25d5e	-0.0064198216
115	0x3db068f5	0.08613769
116	0x3c1d9d80	0.00962007
117	0x3c92fdb1	0.017943235
118	0x3d693b9d	0.056941617
119	0x3d814494	0.06311908
120	0x3db084f7	0.08619111
121	0xbdc54a2c	-0.09633288
122	0x3dedfe7a	0.11620803
123	0x3d3512a0	0.044207215
124	0x3cf8a3f7	0.030351622
125	0x3d6b1695	0.057394583
126	0xbdd6fd80	-0.1049757
127	0x3d4294d2	0.047505207
128	0x3d269afd	0.040675152
129	0xbe206122	-0.15662053
130	0x3e192008	0.14953625
131	0xbe79fe8e	-0.24413511
132	0xbdaadbdb	-0.08342715
133	0x3d229626	0.039693974
134	0xbc5be6ae	-0.013421698
135	0x3e132887	0.14370929
136	0x3d6cc151	0.05780155
137	0xbd1d992b	-0.03847615
138	0x3eaf976b	0.3429521
139	0x3d6d7203	0.05797006
140	0xbea6330d	-0.32460824
141	0xbe36cc94	-0.17851478
142	0x3c8cd348	0.01719059
143	0x3e2a377e	0.16622731
144	0xbe33c3c9	-0.17555155
145	0x3e7e7076	0.24847588
146	0x3f2fccc0	0.686718
147	0xba6d1085	-0.0009043294
148	0x3e507eb9	0.20360841
149	0xbeaf19fb	-0.3419951
150	0x3f010763	0.50401896
151	0xbf40bc91	-0.7528773
152	0xbce3d7b8	-0.027812824
153	0x3efeb52f	0.49747607
154	0xbc3be3b7	-0.011467866
155	0x3e721060	0.23639059
156	0xbe6379c0	-0.22214413
157	0xbe441f8d	-0.1915266
158	0x3e9b6476	0.30350083
159	0x3d27d878	0.040977925
160	0x3dc24e69	0.09487612
161	0xbde90d9a	-0.113795474
162	0xbdbfc4a3	-0.09363677
163	0xbd58bd33	-0.05291481
164	0xbe6f7ff0	-0.23388648
165	0x3c5d3c26	0.01350311
166	0xbd5a1f70	-0.053252637
167	0x3ba9c152	0.0051805163
168	0xbeed9ed6	-0.46410245
169	0xbeb3cccc	-0.35117185
170	0xbe0f9fde	-0.14025828
171	0xbcac6fb8	-0.021049365
172	0x3e7d3db2	0.24730566
173	0x3e3a082b	0.18167178
174	0xbdb592f6	-0.08865921
175	0xbe4ac0b6	-0.19800076
176	0x3e87e6e5	0.26543346
177	0x3ef23968	0.47309422
178	0xbf001140	-0.5002632
179	0x3de075de	0.109599814
180	0xbe9b48aa	-0.30328876
181	0xbe17e9ab	-0.14835231
182	0x3de95703	0.11393549
183	0x3ba5616a	0.005047013
184	0xbde868bb	-0.11348101
185	0x3de556f0	0.11198223
186	0x3da43057	0.080170326
187	0xbe59bc32	-0.21263197
188	0x3e7e1bd7	0.24815308
189	0xbdb70b5d	-0.08937714
190	0x3e1ab6e2	0.15108827
191	0x3c8c7e5b	0.017150095
192	0xbddf00dd	-0.108888365
193	0x3e817a23	0.25288495
194	0x3ea75ee1	0.32689574
195	0x3de3cf23	0.111234926
196	0x3e2e90d3	0.17047434
197	0x3e132e0c	0.14373034
198	0x3d250983	0.040292274
199	0xbc40e8fe	-0.0117743
200	0x3d992615	0.07477967
201	0x3c5dcfdc	0.013538327
202	0xbcdf34e3	-0.027246898
203	0x3db82dc5	0.08993105
204	0x3e448f45	0.19195278
205	0xbda45fa7	-0.08026057
206	0x3c58e3e9	0.013237932
207	0xbdf3a4f8	-0.118967
208	0xbdc5771d	-0.0964186
209	0xbdc3ba87	-0.09557062
210	0x3f0d2923	0.55140895
211	0xbe4520f3	-0.1925085
212	0xbcb6ae77	-0.022299988
213	0xbddfb638	-0.10923427
214	0x3d6c6032	0.057708926
215	0xbd50898b	-0.05091242
216	0x3dc45a22	0.09587504
217	0x3d19cede	0.0375508
218	0x3e099666	0.13436279
219	0x3cddba26	0.027066302
220	0xbd42be4c	-0.047544762
221	0x3d86b2c8	0.065770686
222	0x3d59ba55	0.053156216
223	0xbce6657e	-0.028124567
224	0x3d0b5fb9	0.034026835
225	0x3d9ca089	0.07647807
226	0x3e1f0983	0.15530972
227	0x3dd82339	0.10553593
228	0x3e40bdcc	0.18822402
229	0x3e09d495	0.1346
230	0x3db9c02f	0.09069859
231	0x3d85fe44	0.06542638
232	0x3e0b1241	0.13581182
233	0x3d8439fd	0.06456373
234	0x3d8e6e78	0.06954664
235	0x3e94f0cd	0.29089966
236	0xbe74c880	-0.2390461
237	0xbe7becc7	-0.24602042
238	0x3cc25172	0.023720477
239	0x3d4b974e	0.049704842
240	0xbc7f8cb0	-0.015597507
241	0xbe33089a	-0.1748375
242	0x3dc95e34	0.09832421
243	0xbccefe0f	-0.025267629
244	0xbd3d8e45	-0.046278257
245	0x3d28da33	0.041223716
246	0xbe677cfe	-0.22606274
247	0x3c88fa0f	0.0167208
248	0x3dd163cd	0.102241136
249	0x3d91a1ce	0.0711094
250	0x3e0a4c37	0.13505636
251	0x3dfc7193	0.1232635
252	0xbe12a94b	-0.14322393
253	0x3d08be76	0.033384763
254	0xbded162b	-0.11576494
255	0x3d8d7e22	0.069088235

dense_layers.2.bias f4 [14]
0	0xbcdc8ac7	-0.026921643
1	0xbd73ab79	-0.0594897
2	0x3d0af748	0.033927232
3	0xbd773fc8	-0.06036356
4	0xbca5e137	-0.020248992
5	0xbc9c4368	-0.01907511
6	0x3a677d40	0.00088306144
7	0xbc5263aa	-0.012841145
8	0xbd67941f	-0.056537744
9	0xba91639f	-0.0011092311
10	0xbd8960c1	-0.067079075
11	0x3bfcebea	0.007718553
12	0xbdf95f49	-0.12176377
13	0xbdf22f9c	-0.11825487

onnx::LSTM_218 f4 [1, 512, 7]
0	0xbeb38875	-0.35065046
1	0x3b3ed988	0.0029121358
2	0xbb29a47e	-0.0025885398
3	0xbd40979b	-0.047019582
4	0x3c6b8bb8	0.014376573
5	0xbe48bc1f	-0.19603013
6	0xbd31556b	-0.04329435
7	0xbc8dd3b2	-0.017312858
8	0x3df7612e	0.120790824
9	0xbd598359	-0.05310378
10	0x3d0ce0f0	0.034394205
11	0x3d9ff4ff	0.07810401
12	0xbdd6af12	-0.10482611
13	0xbcf1dded	-0.029524768
14	0xbd4e4e2c	-0.05036752
15	0xbdc9ddda	-0.09856768
16	0xbcd1dcc8	-0.025617972
17	0xbcb87bee	-0.022520032
18	0x3d4361f1	0.047700826
19	0x3e00cf8c	0.12579173
20	0xbdfad2cb	-0.12247237
21	0x3c241319	0.010014319
22	0x3e40b8eb	0.1882054
23	0x3d9a09ad	0.07521377
24	0xbcb4a528	-0.022051409
25	0x3de4ae6b	0.1116608
26	0xbe22ab67	-0.15885697
27	0xbceca1dc	-0.028885774
28	0xbe1cb177	-0.15302072
29	0xbd9c3999	-0.076281734
30	0xbd44b828	-0.048027188
31	0x3d3a9872	0.04555554
32	0xbda3dd4b	-0.08001193
33	0xbdc9ebc0	-0.09859419
34	0xbdc6ccf4	-0.097070605
35	0x3d51cffc	0.05122374
36	0xbd0963e8	-0.033542544
37	0x3d853f0e	0.06506167
38	0x3cd3a35c	0.025834732
39	0x3d7bfd7b	0.061521035
40	0x3dbc4177	0.09192174
41	0x3cb5e4d7	0.022203846
42	0x3d3b8fa3	0.04579128
43	0x3bb42bd0	0.005498387
44	0x3c58976e	0.013219697
45	0x3d41d73a	0.047324397
46	0x3c4d93f6	0.012547484
47	0xbc959194	-0.018257894
48	0x3de95ce5	0.11394671
49	0x3d8d2838	0.06892437
50	0x3d91401e	0.070923075
51	0xbd8608f7	-0.06544679
52	0x3d6d8c53	0.05799515
53	0xbd8953d7	-0.06705444
54	0x3d1ac68a	0.037786998
55	0xbbeeadbb	-0.007283894
56	0x3ce57eba	0.02801453
57	0xba5c0ccb	-0.000839424
58	0xbd0ca397	-0.0343357
59	0xbd965f6a	-0.073424175
60	0x3d251b42	0.0403092
61	0xbd80fade	-0.06297849
62	0xbba8477f	-0.005135476
63	0x3dfb0090	0.12255967
64	0xbb56fb04	-0.0032803426
65	0xbd0fb6c9	-0.035086427
66	0xbda6300b	-0.08114632
67	0xbd55c2b4	-0.052187636
68	0x3da86618	0.08222598
69	0x3d3ffcc9	0.046871934
70	0x3d58bc31	0.05291385
71	0xbcff17cd	-0.031139279
72	0x3d757917	0.059929933
73	0xbc967e9f	-0.018370925
74	0x3c682988	0.014170058
75	0xbb053c75	-0.0020330225
76	0x3b07a1f0	0.0020695888
77	0x3daee2a7	0.08539324
78	0x3cf6f928	0.030148104
79	0xbd4bdd43	-0.04977156
80	0x3c8bc30b	0.017060777
81	0x3d88c7b2	0.06678714
82	0x3d4f889c	0.05066739
83	0xbd1e13aa	-0.03859297
84	0xbe1e9cc9	-0.15489496
85	0xbc50553e	-0.012715636
86	0xbd08d6b4	-0.03340788
87	0xbc584829	-0.013200798
88	0x3da54557	0.08069866
89	0xbdb6e915	-0.089311756
90	0x3d8a787c	0.06761262
91	0xbdd4d0a9	-0.10391361
92	0x3beb4664	0.007180022
93	0x3bba3e50	0.0056836978
94	0xbc70b4b4	-0.0146915205
95	0x3bea8a1e	0.007157578
96	0x3d9e3eaf	0.077268
97	0xbd8170d2	-0.06320347
98	0x3cdc69a0	0.026905835
99	0x3dbdb85c	0.092636794
100	0x3c92f261	0.01793784
101	0x3d88af2f	0.066740386
102	0xbc4fd922	-0.012686046
103	0x3d88dedc	0.06683132
104	0x3e0d5c6a	0.13804784
105	0xbe146c03	-0.14494328
106	0xbddef11b	-0.10885831
107	0x3df17b11	0.11791051
108	0xbd8f1cca	-0.06987913
109	0x3c6a36e8	0.014295317
110	0xbd9da9b4	-0.07698384
111	0xbd90ba46	-0.07066779
112	0xbe15d255	-0.14631017
113	0xbc01e72d	-0.007928652
114	0x3d5747a5	0.05255856
115	0xbd581bea	-0.052760996
116	0xbd61c823	-0.055122506
117	0x3aeecee7	0.0018219621
118	0xbe1ba08b	-0.15197961
119	0xbc94e1a3	-0.018173998
120	0x3ccd9047	0.02509321
121	0x3a8d4361	0.0010777527
122	0xbd1b3c1e	-0.03789913
123	0x3dab2d56	0.083582565
124	0xbd5857a0	-0.05281794
125	0x3d806ee3	0.0627115
126	0xbafc5f36	-0.0019254449
127	0xbca13163	-0.01967687
128	0x3c6c2b48	0.014414616
129	0x3d38eff9	0.04515073
130	0x3cc5abdd	0.024129802
131	0x3c117d47	0.008879966
132	0x3d67b2ff	0.05656719
133	0x3da94b67	0.08266335
134	0x3cd0166c	0.025401317
135	0xbc4843f0	-0.012223229
136	0xbd294851	-0.041328732
137	0xbc785fff	-0.015159606
138	0x3cd73dad	0.026274526
139	0x3d4a802d	0.049438644
140	0xbd371212	-0.044694968
141	0x3d9603be	0.073249325
142	0x3ce48437	0.027895076
143	0x3d9250a8	0.0714429
144	0x3da8b2e5	0.082372464
145	0xbe05102c	-0.1299445
146	0x3c563f18	0.013076566
147	0xbcde9314	-0.027169742
148	0x3d68645b	0.05673633
149	0x3ce8a779	0.02840017
150	0xbd033287	-0.03203061
151	0xbc2e4dbe	-0.010638652
152	0x3cfe2ce5	0.031027267
153	0xbd2aeef2	-0.041731782
154	0xbe01a2c3	-0.12659745
155	0x3d551e4d	0.05203085
156	0x3d8b8dc5	0.0681415
157	0xbd46c49a	-0.048527338
158	0xbcb8d0ed	-0.022560561
159	0xbd9d8e52	-0.07693161
160	0x3b625cc3	0.0034540154
161	0x3cb21579	0.021738755
162	0xbdb4f110	-0.088350415
163	0x3d5465a5	0.05185475
164	0x3d36f4b3	0.044666957
165	0xbd4eb55d	-0.05046593
166	0xbd0b7b83	-0.034053337
167	0x3d0a34b3	0.033741664
168	0x3d458e2f	0.0482313
169	0x3ce4fc20	0.027952254
170	0x3daee921	0.085405596
171	0xbd38aa90	-0.045084536
172	0xbcedd56d	-0.029032433
173	0x3cac11fd	0.021004671
174	0x3d8b7750	0.068098664
175	0x3d6c786e	0.05773204
176	0xbd7c3eb2	-0.06158323
177	0x3dadfa21	0.08494974
178	0x3c99ef7c	0.018790953
179	0x3d1683dd	0.03674685
180	0x3dacf3ef	0.08444964
181	0x3d2fefab	0.042953175
182	0xbd00ec97	-0.03147563
183	0x3e08b1a2	0.13349012
184	0x3ca36d91	0.019949706
185	0x3cef9b8e	0.029248979
186	0x3c61fbef	0.013792976
187	0xbdce8693	-0.10084262
188	0xbc904790	-0.017612249
189	0xbd4ea82a	-0.050453342
190	0x3d8a173f	0.06742715
191	0xbcd3f42c	-0.025873266
192	0x3dd7351c	0.10508177
193	0x3d7e1ead	0.062040973
194	0xbb89ee38	-0.004209306
195	0x3c85573c	0.016276948
196	0xbe0ef9cd	-0.13962479
197	0x3d0b60d8	0.034027904
198	0x3d8b5a01	0.06804276
199	0xbdad9ff3	-0.084777735
200	0xbd8346a9	-0.06409962
201	0xbe212e76	-0.1574038
202	0xbd9972fc	-0.07492635
203	0x3dc0e59a	0.09418793
204	0xbd943414	-0.072364956
205	0xbd96081d	-0.07325766
206	0xbd731026	-0.059341572
207	0x3cd2ef44	0.025748856
208	0xbd149472	-0.03627438
209	0x3d431b0a	0.04763321
210	0xbdbd58ea	-0.09245475
211	0xbd517f09	-0.05114654
212	0xbc615390	-0.013752833
213	0x3dad9958	0.084765136
214	0xbd248fe3	-0.040176284
215	0x3b171ab8	0.0023056697
216	0xbbe4f5e0	-0.0069873184
217	0x3df01b1e	0.11723922
218	0x3e360318	0.17774618
219	0x3deda937	0.11604541
220	0x3d43a68b	0.04776625
221	0x3d682b5b	0.056681972
222	0xbd3839d3	-0.04497702
223	0x3dacf497	0.08445089
224	0xbdc1ca4f	-0.094624154
225	0xbd5381f8	-0.05163762
226	0x3ccc450c	0.024935268
227	0x3c6fa6df	0.0146271875
228	0xbd41ae20	-0.0472852
229	0xbd7b8aec	-0.061411783
230	0xbe00cdd4	-0.12578517
231	0x3d22dd92	0.039762087
232	0xbc45fa52	-0.012083607
233	0xbd600519	-0.05469236
234	0xbdc46203	-0.09589007
235	0xbdba594f	-0.090990655
236	0x3d00dae7	0.03145876
237	0x3d8a20d7	0.06744545
238	0xbd567738	-0.05235979
239	0xbe18193c	-0.14853376
240	0x3dde0abf	0.108418934
241	0x3d20540b	0.03914265
242	0xbc0da68f	-0.008645668
243	0xbe09362f	-0.13399576
244	0xbde63e51	-0.11242355
245	0xbd220c7d	-0.03956269
246	0xbd12940a	-0.035785712
247	0xbd39f9d0	-0.045404255
248	0x3d7de3c0	0.061984777
249	0xbca2ac67	-0.019857598
250	0xbdb189d2	-0.08668865
251	0xbd24aee1	-0.04020584
252	0xbd27e9a0	-0.040994287
253	0x3cc95d80	0.024580717
254	0x3d11af5e	0.035567634
255	0xbc1b210a	-0.009468326

onnx::LSTM_219 f4 [1, 512, 128]
0	0x3c164ccb	0.009173582
1	0xbdfb24a4	-0.12262848
2	0xbe088b15	-0.13334306
3	0x3e51cb5b	0.2048773
4	0xbd538394	-0.051639155
5	0xbd9d1384	-0.07669738
6	0xbc3b1898	-0.011419438
7	0xbde5aaec	-0.112142414
8	0xbc908b83	-0.01764465
9	0xbdfad662	-0.122479215
10	0xbdb03bbb	-0.08605143
11	0x3dd91400	0.10599518
12	0x3cf7c1f2	0.030243848
13	0x3d9f1bdf	0.07768988
14	0xbe11a470	-0.14222884
15	0xbc9929de	-0.018696722
16	0x3d31ce7a	0.043409802
17	0x3d1340cf	0.03595048
18	0x3dea366c	0.114361614
19	0x3dd52670	0.10407722
20	0xbe368f47	-0.17828093
21	0xbe042584	-0.12904936
22	0x3e0a0c45	0.13481243
23	0xbdfd77d6	-0.123763725
24	0x3dcd9be2	0.10039498
25	0x3e13519d	0.14386602
26	0x3d34d842	0.044151552
27	0xbdeac73e	-0.11463784
28	0x3dbd3b2c	0.09239802
29	0x3d7ae94f	0.061257657
30	0xbd81ab4b	-0.063315
31	0x3e052162	0.13001016
32	0x3d36b3bf	0.044605013
33	0xbc6402f8	-0.013916723
34	0xbd2c669b	-0.04209004
35	0xbc62e3cc	-0.013848256
36	0x3d5abcc2	0.05340267
37	0xbe5d1da3	-0.21593337
38	0xbe3369be	-0.17520806
39	0x3cf48a0b	0.02985098
40	0xbd1e5c6d	-0.038662363
41	0xbdfd2fac	-0.12362608
42	0xbe2cdba2	-0.16880658
43	0x3d4b3650	0.049612343
44	0x3ca2bc3c	0.019865148
45	0xbda5b0b1	-0.08090342
46	0x3df5cd34	0.1200203
47	0xbe115c63	-0.14195399
48	0x3d2a4ff5	0.04158016
49	0x3d8173b4	0.06320897
50	0xbdc2f89c	-0.09520075
51	0x3e19719f	0.1498475
52	0xbdde5641	-0.108562954
53	0xbd9ef9a0	-0.07762456
54	0xbd3118bd	-0.043236483
55	0x3e4f2e2e	0.2023246
56	0x3d283a4c	0.04107122
57	0xbd7ba6fc	-0.061438546
58	0xbcd3f2af	-0.025872556
59	0xbd81820e	-0.06323634
60	0x3e45b90c	0.19308871
61	0xbd8f85f8	-0.070079744
62	0xbc857f65	-0.016296098
63	0xbd3322aa	-0.04373423
64	0xbdc21827	-0.09477263
65	0x3e4d3277	0.20038782
66	0xbe19fb94	-0.15037376
67	0x3d8d1592	0.0688888
68	0xbdce6496	-0.10077779
69	0x3d8d78a0	0.06907773
70	0xbd896ba5	-0.06709985
71	0xbc6b5c0e	-0.014365209
72	0xbd869f16	-0.06573312
73	0x3dbca577	0.092112474
74	0x3dceec6f	0.1010369
75	0x3d985bef	0.0743941
76	0x3d8a40d0	0.06750643
77	0xbd4d0a2c	-0.05005853
78	0x3c163271	0.0091673
79	0x3dd18540	0.102304935
80	0x3e069908	0.13144314
81	0x3d9e263c	0.077221364
82	0xbd43089c	-0.047615632
83	0x3d46c4e5	0.048527617
84	0xbcb48f6f	-0.02204105
85	0x3d2db9f0	0.042413652
86	0x3e2d11a4	0.1690126
87	0xbd932730	-0.07185209
88	0xbe345404	-0.17610174
89	0x3c8d3c61	0.017240705
90	0x3de5125e	0.11185144
91	0xbde5450c	-0.1119481
92	0xbcd7c7e6	-0.026340436
93	0x3db4f973	0.08836641
94	0x3d23b5f1	0.039968435
95	0x3e5e5dcf	0.21715473
96	0xbca7c8d5	-0.020481506
97	0x3dab5723	0.083662294
98	0x3dca90aa	0.09890874
99	0x3d5fbfdd	0.054626334
100	0x3d9794fc	0.074014634
101	0x3dc5d4ca	0.09659727
102	0xbc5ad9a3	-0.013357553
103	0xbdce2c3e	-0.10067032
104	0x3d9b2814	0.07576004
105	0xbdbe499b	-0.09291383
106	0x3d831077	0.06399625
107	0x3e166da0	0.14690256
108	0xbe196f44	-0.1498385
109	0xbdfc5bb7	-0.12322181
110	0xbda074d8	-0.07834786
111	0xbcf69b47	-0.030103339
112	0xbc537055	-0.0129052
113	0x3e400338	0.18751228
114	0x3ce58181	0.028015854
115	0xbdd35c21	-0.103203066
116	0xbe355b6b	-0.17710654
117	0x3d31f160	0.043443084
118	0xbd072cc3	-0.033001672
119	0x3cc82f46	0.024436604
120	0xbd1ca5a6	-0.038243912
121	0x3c97feae	0.018554058
122	0x3d8bc267	0.06824189
123	0xbd1c5c68	-0.038174063
124	0x3dae34ae	0.085061416
125	0x3d1368fd	0.035988797
126	0x3cc81e1e	0.024428423
127	0xbd7c4ec9	-0.061598573
128	0x3d28a889	0.041176353
129	0xbda4d7ea	-0.08048995
130	0x3d1c2324	0.03811945
131	0x3d66e710	0.056372702
132	0xbcf7f28f	-0.030267028
133	0xbd28e5da	-0.04123483
134	0xbcec67a2	-0.02885801
135	0x3ccf3fd0	0.025298983
136	0xbd8e57da	-0.0695035
137	0xbd7eb456	-0.0621837
138	0xbc298e79	-0.01034891
139	0xbb9ffda5	-0.0048825317
140	0x3d069394	0.032855585
141	0x3c2624a1	0.010140569
142	0x3ca7d16c	0.020485602
143	0x3c23b6b5	0.009992291
144	0x3dda8297	0.10669439
145	0xbd9216f8	-0.07133287
146	0x3d795c8e	0.060879283
147	0xbd54250c	-0.051793143
148	0xbd276eb4	-0.04087706
149	0xbdac1fe1	-0.08404518
150	0x3d35983b	0.04433463
151	0xbd907623	-0.07053783
152	0xbd82f6ff	-0.06394767
153	0x3c8e5e13	0.017378842
154	0x3c3db02a	0.011577645
155	0xbc385929	-0.011251726
156	0x3d7fbb05	0.062434215
157	0x3db21ab8	0.086965024
158	0xbdc9af68	-0.09847909
159	0x3d275735	0.04085465
160	0xbd3beaf8	-0.04587838
161	0xbca3140e	-0.019907024
162	0x3d2cbe78	0.042173833
163	0xbce3e28c	-0.027817987
164	0x3d8ac292	0.067753926
165	0xbd7d639a	-0.061862566
166	0xbd7b4a2a	-0.061350025
167	0xbd14ad02	-0.036297806
168	0x3d5f2bd7	0.05448517
169	0x3dc3d2bc	0.09561679
170	0xbdba4eb8	-0.09097046
171	0x3cef3ae2	0.029202882
172	0xbc37b8b6	-0.011213472
173	0xbba6b38e	-0.0050873226
174	0x3ca3365f	0.019923387
175	0xbdb7b56c	-0.0897015
176	0xbd992003	-0.07476809
177	0x3d04a402	0.032382973
178	0x3c124c43	0.008929315
179	0xbd78db01	-0.060755733
180	0xbcf22f39	-0.029563533
181	0x3ce59f18	0.028029963
182	0x3d58fb8c	0.05297427
183	0x3e04ffa6	0.12988147
184	0xbd16523c	-0.03669952
185	0xbd95ce3e	-0.07314728
186	0x3d7d0306	0.06177046
187	0x3ca2985a	0.019848038
188	0x3d9493b8	0.072547376
189	0xbc168910	-0.009187952
190	0x3d94f38b	0.07273015
191	0x3c7b356a	0.015332559
192	0x3d714020	0.058899045
193	0x3d8f8ad3	0.070089005
194	0x3d1dab84	0.03849365
195	0x3db065c8	0.08613163
196	0x3d32b8bf	0.04363322
197	0xbd224028	-0.039611965
198	0x3971a1fe	0.00023043898
199	0x3c3be0a7	0.0114671355
200	0xbd244ee9	-0.040114317
201	0xbd4c246a	-0.049839415
202	0x3d86bdaf	0.06579148
203	0xbcd5756e	-0.026056971
204	0xbd378493	-0.044804167
205	0xbcb4fd9a	-0.022093583
206	0x3c8bbf5c	0.01705902
207	0x3bb5fee2	0.005554066
208	0xbb578666	-0.0032886504
209	0xbd4f96bf	-0.050680872
210	0x3da17fc5	0.07885698
211	0x3ceb1a96	0.0286992
212	0x3d69b1ac	0.057054207
213	0x3d58cda7	0.0529305
214	0x3d97a064	0.07403639
215	0x3d5401cf	0.051759537
216	0x3ca39468	0.019968227
217	0xbe0f57dc	-0.1399836
218	0xbd1f72d0	-0.038927853
219	0x3d0f6c9a	0.03501568
220	0xbcd5ae79	-0.026084172
221	0x3d80a064	0.06280592
222	0x3d6e49aa	0.05817572
223	0x3dacc6b6	0.084363386
224	0xbdb1311b	-0.08651944
225	0xbdb3633e	-0.08759163
226	0xbcb13bc2	-0.02163494
227	0x3d995c2b	0.07488283
228	0xbd38560d	-0.04500394
229	0x3da1d424	0.07901791
230	0x3cec18ff	0.028820513
231	0x3d91b25e	0.07114099
232	0x3d8c7dcc	0.06859931
233	0x3d0b289b	0.03397427
234	0x3d662f42	0.056197412
235	0x3cde31d1	0.027123364
236	0x3c993302	0.01870108
237	0x3d93bf74	0.07214251
238	0x3db7a419	0.08966846
239	0x3d001a49	0.031275067
240	0x3c7eebe8	0.015559174
241	0x3de4df88	0.11175448
242	0xbc2db08e	-0.010601176
243	0xbd83ddea	-0.06438811
244	0x3d58c629	0.052923355
245	0xbd7a69c4	-0.061136022
246	0x3d325315	0.043536264
247	0x3d7477ef	0.05968469
248	0x3db66708	0.089063704
249	0x3d78e82c	0.06076829
250	0x3dbfab40	0.09358835
251	0x3d9ee25c	0.077580184
252	0x3da477e1	0.080306776
253	0x3d80773f	0.062727444
254	0xbd965a3e	-0.07341431
255	0x3d65d731	0.056113426

onnx::LSTM_220 f4 [1, 1024]
0	0x3c2397ec	0.0099849515
1	0x3d487098	0.048935503
2	0xbc6f372f	-0.014600559
3	0xbd071302	-0.03297711
4	0x3cdc48cc	0.026890181
5	0xbd487e43	-0.048948538
6	0xbda2bbce	-0.07945977
7	0x3b52742c	0.00321127
8	0xbdc41701	-0.095747
9	0x3d18bdf6	0.037290536
10	0xbdd3e705	-0.10346798
11	0xbdb288aa	-0.08717473
12	0xbdd6159f	-0.10453343
13	0x3d100429	0.035160217
14	0x3d3ef1d0	0.04661733
15	0x3ca1078b	0.019656917
16	0xbe0a6eba	-0.13518801
17	0x3d51b990	0.051202357
18	0x3cf415e9	0.029795604
19	0x3cb240e2	0.021759454
20	0x3dca7632	0.09885825
21	0x3d5a54ed	0.053303648
22	0xbceb15e1	-0.028696956
23	0x3ba3f8ff	0.005004048
24	0x3d336b23	0.043803345
25	0xbd8d7f3b	-0.06909033
26	0x3d108308	0.03528121
27	0xbd8addd0	-0.067805886
28	0x3e160705	0.14651115
29	0xbcbd05ca	-0.02307405
30	0xbb1f8179	-0.0024338646
31	0xbd11978d	-0.03554492
32	0xbcc6e9cc	-0.024281405
33	0x3dabe625	0.08393506
34	0x3e1401c9	0.14453806
35	0x3d9079ef	0.07054507
36	0x3d1f3220	0.038866162
37	0x3ddc0442	0.107429996
38	0xbcfc3193	-0.030785358
39	0x3da2c8f7	0.07948487
40	0x3e32a9ab	0.17447536
41	0xbc68c0a5	-0.014206086
42	0x3e1d1506	0.15340051
43	0xbd8c4dd7	-0.06850784
44	0xbcda77df	-0.026668487
45	0xbd138177	-0.03601214
46	0x3c208e24	0.009799514
47	0x3c3bc6d6	0.01146098
48	0xbd294f6d	-0.041335512
49	0xbbc17b07	-0.0059045586
50	0x3d1bd0eb	0.038041037
51	0xbdcbc1fd	-0.0994911
52	0x3c244ae5	0.010027622
53	0xbc02ca31	-0.0079827765
54	0x3db3d62c	0.087810844
55	0xbd3e17d1	-0.04640943
56	0xbca2bbd3	-0.019864952
57	0xbd6d2e1f	-0.057905313
58	0xbd5ba658	-0.053625435
59	0xbcd45fa8	-0.025924519
60	0xbce11418	-0.027475402
61	0x3df5298b	0.11970814
62	0x3d748c8b	0.059704345
63	0x3d9defb2	0.07711734
64	0x3d0e43f4	0.034732774
65	0x3c2816fa	0.010259384
66	0x3d6474f2	0.05577559
67	0x3c26022a	0.010132352
68	0xbdaf913e	-0.085726246
69	0xbd71ba1f	-0.05901539
70	0x3cfa5ff0	0.030563325
71	0x3dcb0490	0.099129796
72	0xbdc04f7e	-0.09390162
73	0x3cf1879b	0.029483607
74	0xbdd9e6f7	-0.10639756
75	0x3d498cf7	0.0492067
76	0x3d6f1034	0.058365062
77	0x3d3bd4e3	0.04585732
78	0xbcb37a01	-0.021908762
79	0xbdbda49f	-0.092599146
80	0x3c224709	0.009904631
81	0x3cf687ad	0.030093992
82	0xbc37ecf2	-0.011225926
83	0xbd51f8b9	-0.05126259
84	0x3d431a55	0.047632534
85	0xbc96a4cb	-0.018389126
86	0x3d77c89c	0.06049405
87	0xbdf0f900	-0.11766243
88	0xbbffaaed	-0.0078023584
89	0xbd9d43b9	-0.07678933
90	0x3c2af8d3	0.010435301
91	0xbd266657	-0.040624943
92	0xbdc10389	-0.094245024
93	0x3b1cd997	0.0023933405
94	0xbdfcecc3	-0.12349846
95	0x3d9c1ddf	0.07622885
96	0x3c94f027	0.01818092
97	0xbccb173a	-0.024791349
98	0xbda03823	-0.07823207
99	0x3e42e350	0.19032025
100	0x3e0e930a	0.13923278
101	0xbd85aeb1	-0.0652746
102	0xbca4aa6f	-0.0201008
103	0xbafcda55	-0.0019291142
104	0xbcdfb076	-0.027305823
105	0xbda61e9b	-0.08111306
106	0x3d01d209	0.031694446
107	0x3d975cc8	0.073907435
108	0x3dcfae9b	0.10140725
109	0xbdb5e46f	-0.08881461
110	0xbd88a73a	-0.06672521
111	0xbd8e56b0	-0.06950128
112	0x3cca75fb	0.02471446
113	0x3db4346b	0.087990604
114	0x3db5af90	0.088713765
115	0x3d74f77f	0.059806343
116	0xbc6a5982	-0.014303567
117	0xbd4f833a	-0.050662257
118	0x3d0f1995	0.034936506
119	0xbd1894d9	-0.037251327
120	0x3cb665af	0.022265283
121	0x3d3ad51b	0.04561339
122	0xbc923c9e	-0.01785117
123	0xb7a1edf0	-1.9303494e-05
124	0x3d3c7b29	0.046015892
125	0x3d6176e1	0.055045012
126	0xbd0b8d88	-0.03407052
127	0x3c3cbbfb	0.011519427
128	0x3cfa8274	0.030579783
129	0xbdf791a4	-0.120883256
130	0xbd68494c	-0.056710526
131	0xbda52d09	-0.080652304
132	0xbd24593c	-0.040124163
133	0x3b8dea3c	0.0043309014
134	0x3c3691c2	0.01114315
135	0xbd7538fb	-0.059868794
136	0xbd5abd90	-0.053403437
137	0xbc7c2940	-0.015390694
138	0x3d807832	0.062729254
139	0xbc53a61b	-0.012918021
140	0xbd8ac2f2	-0.06775464
141	0x3d0664a9	0.03281084
142	0xbb801f08	-0.003909949
143	0x3c6d9ccf	0.014502718
144	0xbdc55e52	-0.09637131
145	0xbd79bd22	-0.060971387
146	0xbe0b6190	-0.13611436
147	0xbd14e9bd	-0.036355723
148	0xbd34b510	-0.044117987
149	0xbd7e5406	-0.06209185
150	0xbd9c36ef	-0.07627665
151	0x3d5a0310	0.053225577
152	0xbd59cf52	-0.05317623
153	0xbc6bbe3b	-0.014388616
154	0xbc11a440	-0.008889258
155	0xbe0795c5	-0.13240726
156	0x3d1b5529	0.037923012
157	0xbd81fd38	-0.06347126
158	0x3cfd1933	0.030895805
159	0x3cc8518d	0.024452949
160	0xbe219f89	-0.15783514
161	0xbd5156b7	-0.05110809
162	0x3d5d3199	0.054002378
163	0xbda658cc	-0.081224054
164	0xbdc3f6b9	-0.09568543
165	0xbcadf447	-0.021234645
166	0xbd9222cc	-0.07135543
167	0xbe023c01	-0.12718202
168	0x3d0e6c87	0.03477147
169	0xbdae0b80	-0.08498287
170	0x3d8d8e4c	0.069119066
171	0x3c31be12	0.010848539
172	0xbcf59d13	-0.029982125
173	0xbdcb186d	-0.09916768
174	0xbcc87766	-0.024470996
175	0xbc9e5938	-0.019329652
176	0xbdb3cd6f	-0.08779418
177	0xbc5f37f5	-0.013624181
178	0xbcc4aff8	-0.02400969
179	0x3d03b634	0.032156184
180	0xbc29f42d	-0.010373157
181	0xbe0442b6	-0.12916073
182	0xbce9651f	-0.028490601
183	0xbcacd835	-0.02109919
184	0x3bae9096	0.0053272946
185	0xbd9dccd9	-0.07705087
186	0xbe1ecbb7	-0.15507399
187	0xba0e923c	-0.0005438661
188	0x3da8793d	0.08226249
189	0x3dac1cb4	0.08403912
190	0xbcc569bf	-0.024098275
191	0x3da53ad6	0.08067863
192	0xbdce12dd	-0.10062192
193	0x3d50679a	0.050880052
194	0x3cac57ed	0.02103802
195	0xbcecb3c8	-0.02889432
196	0x3d37b3af	0.044849094
197	0xbd5cb73f	-0.053885695
198	0xbd7bbde5	-0.061460394
199	0xbd257aea	-0.040400423
200	0x3d7ab153	0.061204266
201	0xbd75bdbb	-0.059995394
202	0xbd4410c7	-0.047867563
203	0xbd19f183	-0.03758384
204	0x3d32b495	0.043629248
205	0xbc853703	-0.016261583
206	0x3d288924	0.041146412
207	0xbde77ac2	-0.11302711
208	0xbd3dcf02	-0.046339996
209	0xbe408848	-0.18801987
210	0x3d8dfced	0.069330074
211	0xbd55358e	-0.052053027
212	0xbe5758e5	-0.21030004
213	0x3c86ad0e	0.01643994
214	0x3dd1a68a	0.10236843
215	0xbe0cd8aa	-0.13754526
216	0xbd72be48	-0.059263498
217	0xbd66836f	-0.05627769
218	0xba93b33e	-0.0011268628
219	0xbdf6179d	-0.120162226
220	0xbd94b6ed	-0.07261453
221	0x3cb5787e	0.022152182
222	0xbe2774a4	-0.16353089
223	0x3cb06728	0.021533564
224	0xbd1d1c36	-0.038356982
225	0xbc1c8289	-0.009552606
226	0xbd750aed	-0.059824873
227	0x3db4d256	0.08829181
228	0x3db3597c	0.08757302
229	0xbdd2538b	-0.10269841
230	0xbddb459e	-0.10706638
231	0x3d0934b6	0.033497535
232	0x3c7d8090	0.015472546
233	0xbe12a827	-0.14321958
234	0x3b41a70d	0.0029549033
235	0xbcc867cf	-0.024463562
236	0x3d228a0a	0.039682426
237	0x3d101ce5	0.035183806
238	0xbc0df750	-0.008664921
239	0xbdcdc346	-0.10047011
240	0xbdd42d21	-0.1036017
241	0x3dca2b75	0.0987157
242	0x3d404525	0.04694094
243	0x3b95a1a4	0.004566388
244	0x3cd3beee	0.025847878
245	0xbdfd7ace	-0.12376939
246	0xbd959564	-0.073038846
247	0xbd408c33	-0.047008704
248	0xbd7002b0	-0.058596313
249	0xbdff5bce	-0.12468682
250	0x3df204ac	0.11817297
251	0x3cdff1b0	0.027336925
252	0xbc32a997	-0.010904691
253	0xbd9b8d0e	-0.075952634
254	0x3bac0dda	0.0052506747
255	0xbdd857c6	-0.105636165

onnx::LSTM_240 f4 [1, 512, 128]
0	0xbd7e3951	-0.06206638
1	0xbd987733	-0.074446104
2	0xbd18ddea	-0.03732101
3	0xbc0d11d3	-0.008610207
4	0x3d94bdf2	0.07262792
5	0xbd59a754	-0.053138092
6	0xbc1c3179	-0.00953328
7	0x3cd2a33d	0.025712604
8	0xbd2b4361	-0.041812304
9	0xbd5d5e69	-0.054045115
10	0x3dab2f06	0.083585784
11	0x3d388ea2	0.0450579
12	0xbda07b78	-0.0783605
13	0xbd12602e	-0.035736255
14	0x3dc6000c	0.09667978
15	0xbbb94f30	-0.005655192
16	0x3cc5317d	0.02407145
17	0x3ce1ad8f	0.02754858
18	0xbd7d37a3	-0.061820637
19	0xbd3dfd94	-0.04638441
20	0x3c4868d2	0.012232022
21	0xbc473168	-0.012157775
22	0xbd1cd0ce	-0.03828507
23	0xbda83db5	-0.08214895
24	0xbd38a9b7	-0.045083728
25	0xbd5218cf	-0.05129319
26	0x3d2e8717	0.0426093
27	0x3c4bf768	0.012449123
28	0x3d1a9fcc	0.03775005
29	0x3c9a4ae8	0.018834546
30	0x3d6c6c11	0.057720248
31	0xbd47f302	-0.048815735
32	0xbb1e8244	-0.002418653
33	0xbddc2ddc	-0.107509345
34	0x3cd50bdc	0.026006632
35	0x3d772e32	0.06034679
36	0xbd4fddf1	-0.05074877
37	0x3d3fbae1	0.04680908
38	0xb9f4cb1d	-0.00046690638
39	0x3cf5d97f	0.030010937
40	0x3d420fd3	0.047378372
41	0x3d7faa4b	0.062418263
42	0xbc7a7363	-0.015286299
43	0xbd62e922	-0.055398114
44	0x3d42aa6a	0.0475258
45	0x3ce58af9	0.028020369
46	0x3d3270e9	0.04356471
47	0x3d57ee76	0.05271765
48	0x3c98cfac	0.018653713
49	0xbcd9f708	-0.026607051
50	0x3d2a3861	0.041557673
51	0xbc8f2b0c	-0.017476581
52	0xbd0cb973	-0.034356546
53	0xbdb2763a	-0.08713956
54	0x3db4e59b	0.08832856
55	0xbd88f829	-0.06687958
56	0xbcd029bb	-0.025410524
57	0xbd58226d	-0.052767206
58	0xbd9e5639	-0.077312894
59	0x3d67ebcd	0.05662136
60	0xbd12ac73	-0.03580899
61	0x3bdf7ad3	0.0068200617
62	0xba0f75a0	-0.00054725446
63	0x3ba48373	0.005020553
64	0x3c59d4e6	0.013295388
65	0x3cf646e2	0.030063096
66	0x3c3ce993	0.011530298
67	0x3c9aa029	0.018875198
68	0xbd98ebfa	-0.07466884
69	0xbdb50a91	-0.08839906
70	0xbda9f010	-0.082977414
71	0x3d48963e	0.048971407
72	0x3d0488cd	0.032357026
73	0x3c8824f0	0.016619176
74	0x3da565b9	0.08076043
75	0xbce40d90	-0.027838498
76	0xbd595f67	-0.0530695
77	0x3dbad298	0.09122199
78	0x3d84569e	0.064618334
79	0x3db11f1b	0.08648511
80	0xbd3daaaa	-0.046305336
81	0x3d87e0c5	0.06634668
82	0xbd910199	-0.07080383
83	0x3d44c3b9	0.04803822
84	0x3cacab41	0.021077754
85	0xbc887d81	-0.016661407
86	0xbd199342	-0.03749395
87	0x3df5a097	0.11993521
88	0x3cd8a76e	0.026447024
89	0xbd87c348	-0.06629044
90	0xbc034c9b	-0.00801387
91	0xbda847e0	-0.08216834
92	0xbd380feb	-0.044937056
93	0xbc4d2437	-0.012520841
94	0xbcc497a5	-0.023998091
95	0x3d564d94	0.052320078
96	0x3d7a4299	0.06109867
97	0x3c69812b	0.014251987
98	0xbdcb3a97	-0.099232845
99	0xbd69a32e	-0.057040386
100	0xbda07652	-0.07835068
101	0xbb269229	-0.0025416708
102	0xbc48daef	-0.012259229
103	0xbd93e89f	-0.07222103
104	0x3acd91f8	0.0015683761
105	0xbcd3acbe	-0.025839206
106	0xbd17cb70	-0.037059247
107	0xbd801071	-0.06253136
108	0x3dbb349d	0.091408946
109	0xbd3ed7ce	-0.046592526
110	0x3d066866	0.032814406
111	0x3cb637ee	0.022243466
112	0xbbec86a1	-0.0072181975
113	0xbdae6ecb	-0.08517226
114	0x3dc9b45c	0.09848854
115	0xbddeed7c	-0.1088514
116	0x3d50727b	0.050890427
117	0x3c3df10c	0.011593115
118	0xbb3d98d4	-0.0028930204
119	0x3d9a9b2a	0.075491264
120	0xbd8a098d	-0.06740103
121	0x3d8e4597	0.06946867
122	0xbd761cf6	-0.060086213
123	0x3cfd94e7	0.030954791
124	0x3deacd19	0.114649005
125	0xbccb3c62	-0.024809066
126	0xbd1fe91f	-0.03904068
127	0x3d66a0bf	0.056305643
128	0xbcba80a7	-0.022766424
129	0x3de413f4	0.11136618
130	0xbdaaceff	-0.083402626
131	0x3d9a8b22	0.07546069
132	0x3dacae5b	0.08431693
133	0xbd129922	-0.03579057
134	0xbd7392ce	-0.059466176
135	0x3da629c5	0.08113436
136	0x3db949cf	0.09047281
137	0x3d5af456	0.053455673
138	0xbd5eccfc	-0.054394707
139	0xbd954ca2	-0.07290007
140	0x3d193fcf	0.03741437
141	0xbd2f16e0	-0.042746425
142	0xbd9f8d6d	-0.07790647
143	0x3c774538	0.015092187
144	0x3dd33ba9	0.10314114
145	0xbd20bdf9	-0.039243672
146	0x3d5524e2	0.052037127
147	0xbd0a711d	-0.03379928
148	0x3d93cfce	0.0721737
149	0x3d121731	0.03566665
150	0xbc84aae5	-0.01619477
151	0x3d2541da	0.040346004
152	0xbd990176	-0.07470982
153	0x3d50b843	0.050956976
154	0x3d7a9f05	0.06118681
155	0x3c0d30c5	0.008617585
156	0xbd2241d2	-0.039613552
157	0x3dc9a817	0.09846514
158	0xbd94b578	-0.07261175
159	0x3b883f00	0.004157901
160	0xbd868c7f	-0.06569766
161	0xbd64185c	-0.055687293
162	0xbd21e233	-0.03952236
163	0x3d263367	0.040576365
164	0xbca9adf1	-0.020712825
165	0xbd828139	-0.063723035
166	0xbda550aa	-0.08072026
167	0xbc9e6573	-0.019335484
168	0x3d16e3d7	0.03683838
169	0x3d05ea4c	0.032694146
170	0xbd20ac72	-0.039226957
171	0x3d123004	0.035690323
172	0x3d661b6e	0.056178503
173	0xbd08dfef	-0.033416685
174	0xbd726b0a	-0.05918411
175	0xbd4e7e3d	-0.05041336
176	0xbc3f45d2	-0.011674361
177	0x3d90a618	0.0706293
178	0xbd2d49c7	-0.042306688
179	0x3da850e9	0.082185574
180	0x3d565afa	0.052332856
181	0xbd649e6d	-0.05581515
182	0xbdd78948	-0.10524231
183	0xbccb1391	-0.024789603
184	0xbc3f4e87	-0.011676437
185	0xbd88233c	-0.066473454
186	0xbd44861f	-0.04797947
187	0xbcb68196	-0.022278588
188	0x3dd604d4	0.1045014
189	0x3cd748de	0.026279863
190	0x3d02e02e	0.031952076
191	0x3d032808	0.0320206
192	0x3d2013b8	0.039081305
193	0xb95b7b30	-0.00020931358
194	0x3d99fd0d	0.07518969
195	0xbdb0dd3b	-0.08635946
196	0x3dd86720	0.105665445
197	0xbc5991d0	-0.013279393
198	0x3c801d2c	0.01563891
199	0xbd685c6a	-0.056728758
200	0xbd481304	-0.04884626
201	0x3d48e978	0.04905078
202	0xbd022478	-0.03177306
203	0xbc27375b	-0.010206069
204	0xbcb3a535	-0.021929363
205	0x3d37a060	0.04483068
206	0x3c0b2b92	0.008494275
207	0xba235705	-0.00062309235
208	0xbdafa178	-0.085757196
209	0x3c49e944	0.012323681
210	0xbd8c3038	-0.068451345
211	0x3ccd128c	0.025033258
212	0x3d41bfc3	0.04730202
213	0xbd4f6e01	-0.050642017
214	0x3d8da9a1	0.0691712
215	0xbd26e84d	-0.040748883
216	0xbd711cb5	-0.058865268
217	0x3d072e98	0.03300342
218	0x3d428140	0.047486544
219	0xbd1445bb	-0.036199313
220	0x3db567dc	0.088577
221	0xbdaca072	-0.0842904
222	0x3c29193b	0.010320957
223	0x3d89fc0c	0.06737527
224	0x3c870e4f	0.016486315
225	0xbd370d1f	-0.044690248
226	0x3d5c49fb	0.05378149
227	0xbd530de2	-0.05152691
228	0x3d7ff8d1	0.06249315
229	0x3dca800e	0.09887706
230	0x3d934072	0.07190026
231	0x3c315002	0.010822298
232	0x3ce32335	0.027726749
233	0x3cf04bf7	0.029333098
234	0x3bf2d45b	0.0074105687
235	0xbd634e6f	-0.055494722
236	0x3d798773	0.06092019
237	0x3c83bc7a	0.016081084
238	0xbbc486a4	-0.0059974957
239	0xbdab9b76	-0.08379261
240	0x384cc5d5	4.8821636e-05
241	0x3d9871fc	0.07443616
242	0xbdb6f009	-0.08932502
243	0xbcc7770a	-0.024348754
244	0x3dacb642	0.084332004
245	0xbd5b6671	-0.053564493
246	0x3c99cb5a	0.018773723
247	0xbd67a350	-0.05655223
248	0xbd346b4d	-0.044047642
249	0xbd503e0a	-0.050840415
250	0x3da9e3fc	0.08295438
251	0x3da1c326	0.0789855
252	0x3b1b7247	0.0023719238
253	0x3dab93e7	0.083778195
254	0x3d930c22	0.071800485
255	0xbccb34c4	-0.024805434
