New_project/modelo_simples6.onnx (onnx, 183092 bytes, 5 tensors)

output_layer.weight f4 [14, 100]
000000 7d 58 83 3d 0a 9a 12 3e 52 6c 50 be 5b e2 69 bb
       0.06413362 0.14316574 -0.20353821 -0.0035687897
000010 c7 94 a1 be 75 20 2e 3e 35 db e5 bd 97 2c 17 ba
       -0.3155882 0.17004569 -0.11223451 -0.0005766837
000020 fc 44 b4 3e 62 b7 46 be d5 8c e3 3a f8 76 5a be
       0.3520888 -0.19405892 0.0017360697 -0.21334445
000030 e2 26 0d be 71 e8 74 3e 5c 8e f7 3d 22 8f 25 be
       -0.13784364 0.23916794 0.120877 -0.16167882
000040 69 5f 8b bd 52 77 98 3e 70 3a 97 3e 3b 83 f5 3d
       -0.068053074 0.29778534 0.29536772 0.11987921
000050 5b 44 39 be 9e 78 06 3d 32 c8 97 bd 7d 25 35 3d
       -0.18092482 0.032829873 -0.07411231 0.044225205
000060 6b 78 09 3e 4e d5 06 3e d8 64 72 3d e3 1e b5 bd
       0.13424842 0.13167307 0.059178203 -0.08843782
000070 e9 34 56 3d 00 95 9a be c0 b8 9f 3d e3 69 34 3e
       0.052296553 -0.30191803 0.0779891 0.17618518
000080 95 4f c2 bb ba bd 14 3d 09 ee 5e 3e be 3e 50 be
       -0.005929897 0.03631375 0.2177049 -0.20336434
000090 50 10 15 3e ec 4c 1c 3e b2 4d 67 be 68 d1 41 be
       0.14557004 0.15263718 -0.22588232 -0.18927538
0000a0 37 db 96 3c 8f 86 06 3d 8e 10 f5 bc 38 89 56 be
       0.018415077 0.03284317 -0.02991512 -0.20950782
0000b0 80 9f ad 3b 81 d3 a6 3e dd 78 4a 3e 06 95 ee 3d
       0.005298555 0.3258324 0.19772668 0.11649518
0000c0 1d f2 14 3e 12 d6 d1 bd f4 d6 81 bd 72 7b 2b be
       0.14545484 -0.10245909 -0.06339827 -0.1674631
0000d0 a8 ef b6 3b 90 d8 3d 3e 47 ad 5b 3e c9 9f 5e be
       0.0055827685 0.18539643 0.21452819 -0.2174064
0000e0 a7 81 fd bd 2d 93 63 3d bc cd bd be ad 3c 8c 3e
       -0.12378245 0.05556028 -0.37071025 0.27390042
0000f0 56 79 92 3e 82 58 18 be 68 35 27 be 7b ce c1 bd
       0.28608197 -0.14877513 -0.16328967 -0.09463211
000100 94 01 bb be 02 a3 db 3d 28 e0 ea 3e 13 71 da 3d
       -0.36524642 0.10724451 0.45874143 0.106660984
000110 c9 50 14 be e9 43 c3 bd 92 26 36 3e 91 45 31 3e
       -0.14483942 -0.09534437 0.17788151 0.17311694
000120 c6 d6 cb 3d e1 a1 04 3e a7 1c a8 bd cb b8 8f bd
       0.09953074 0.12952377 -0.0820859 -0.07017668
000130 bc f2 b4 bc bb 3c 59 be db 65 23 be 33 fd 5b be
       -0.022088401 -0.21214573 -0.15956824 -0.21483307
000140 40 cd 54 be 34 f4 39 3e d9 f3 20 3e 55 7a f6 bd
       -0.20781422 0.18159562 0.1571802 -0.12035052
000150 fd d4 99 3d e3 e0 d2 3d af 7c 1b 3e 39 e2 95 be
       0.075113274 0.102968 0.15184282 -0.29274157
000160 65 04 2e 3d 01 55 a2 3c d6 db da 3d 66 b0 9a 3c
       0.04248466 0.019815924 0.10686462 0.018882941
000170 46 31 24 3e 02 ed 19 be c3 e5 8c 3d 50 5d b7 bd
       0.16034421 -0.15031818 0.06879761 -0.08953345
000180 40 51 3d 3d a0 08 4c be 66 c9 4d bd 4e 0d 0e 3e
       0.046220064 -0.19925165 -0.050240897 0.13872263
000190 36 d5 11 3e d6 f9 56 3d 9d cb 6d 3d a2 e0 f6 bd
       0.1424149 0.052484356 0.05805551 -0.12054564
0001a0 06 0e cc bd 68 32 8a 3d 41 c1 1f be c9 a2 bc bd
       -0.09963612 0.067478955 -0.15601064 -0.09210736
0001b0 ed 24 a8 bd 12 3e 9e bc c5 0a ae 3d 18 2d fb bd
       -0.08210168 -0.019316707 0.08498148 -0.1226446
0001c0 48 e4 53 bd d8 d1 89 bd fb e9 ca bd c7 cc 25 3d
       -0.051731378 -0.06729478 -0.099079095 0.040478494
0001d0 63 72 b0 3d f5 2f 17 3c c9 ab 90 3d e9 87 ed 3d
       0.086155675 0.009227742 0.070640154 0.115981884
0001e0 58 02 fb 3d d3 d1 46 bd 4a 56 08 3e 24 3a 2c 3d
       0.122563064 -0.048539948 0.13314167 0.042047635
0001f0 db 40 af 3c de 8e 29 be 76 ed c6 bd 59 69 05 be
       0.02139323 -0.16558406 -0.09713261 -0.13028468
000200 c2 43 fd 3c c6 23 99 3d 07 23 2c 3e 8b 3c bb 3d
       0.030916099 0.07477526 0.16810237 0.09142407
000210 fb ee d6 bd 5b f4 dc 3d 0f de e7 3d b9 56 56 bc
       -0.10494801 0.107887946 0.11321651 -0.0130822
000220 3b f1 cb 3d 94 ee ac bd 75 9d 01 3e 27 92 2b 3d
       0.099581204 -0.08443943 0.12657721 0.04188743
000230 6b 48 8e 3d 9c e9 a8 3d 59 05 c9 3d 61 44 87 bd
       0.069474064 0.082476825 0.09815473 -0.06604839
000240 4f f4 0b 3e 27 4e 72 bd 88 de 25 3c b8 bb 08 be
       0.13667415 -0.059156563 0.010123856 -0.13352859
000250 ee 37 ba bd 32 7d 90 bd c8 be 36 3d be 2f c1 bd
       -0.09092699 -0.07055129 0.044615537 -0.09432934
000260 8c 0a a9 3c b1 8b b5 3c 58 4d f0 3d 61 15 18 be
       0.020634912 0.022161337 0.11733502 -0.14851905
000270 33 54 86 3d 9d 93 3d 3e 79 68 86 bd db cb 81 bc
       0.065590285 0.18513341 -0.06562895 -0.015844276
000280 f8 d5 98 bd 67 ae 48 bd 83 4c 9f ba c6 69 4d 3e
       -0.07462686 -0.048994448 -0.001215354 0.2005988
000290 5f b7 c9 bd 3d a1 35 3d b2 18 41 be 38 6c ac 3d
       -0.098494284 0.044343222 -0.18857077 0.084190786
0002a0 09 9f 25 be ee c3 e5 3d 9f 1b dd bc e5 d6 a5 3c
       -0.16173948 0.11219011 -0.02699071 0.020244071
0002b0 ef 14 bf bd 22 bf ed 3d 6f 92 84 bb 37 e1 50 bd
       -0.09330165 0.11608721 -0.0040457766 -0.05099603
0002c0 94 aa 40 bc 04 30 00 3e b8 ba 3c bd b7 3d 4b bd
       -0.011759419 0.12518317 -0.046076506 -0.049619403
0002d0 9f 62 2c be cd 27 b1 bd 41 d3 1f be 61 f5 e3 3d
       -0.16834496 -0.086501695 -0.1560793 0.11130787
0002e0 bb 1e 0a 3d 70 12 14 3e 0e c9 28 3d 0a 87 66 3d
       0.033720713 0.14460158 0.041207366 0.056281127
0002f0 73 51 a6 bd 9e 8a 23 3d 2f 6a 46 be c5 f0 ee 3b
       -0.08121004 0.039927118 -0.19376443 0.0072918856
000300 db d4 e5 3c 41 d7 92 bd fb 20 b3 3d a2 64 5e bd
       0.028055599 -0.07169963 0.08746525 -0.05429519
000310 19 c8 11 bd bb 59 ae bd 5d 6a 2d be e7 9a e6 bc
       -0.03559122 -0.085132085 -0.16935106 -0.028150035
000320 e1 1d de 3d 4a 38 74 3d e2 8f 1d 3f d3 45 92 bd
       0.10845543 0.059623994 0.6154767 -0.07142224
000330 67 c8 3d 3e 54 5e 3e be 72 6a aa 3d 63 5c 4d 3c
       0.18533479 -0.18590671 0.08321084 0.012534234
000340 27 7a d8 bd 1f 64 f8 3d 85 00 07 bd 12 fd 70 3a
       -0.10570174 0.121284716 -0.03295948 0.0009192984
000350 38 e2 a7 be 46 ca a4 3e 01 20 ff bc 62 6d 9a be
       -0.3278978 0.32185572 -0.03114319 -0.30161577
000360 8b 9c 14 3f 48 e8 39 3e 81 c3 e6 bd 85 c0 f7 3b
       0.58051366 0.18155015 -0.11267758 0.007560792
000370 04 ea 23 3e aa fb 98 bd 4d f8 23 3e 89 7c e3 3d
       0.16007239 -0.07469876 0.16012688 0.111077376
000380 b1 1d 11 be c7 eb 87 3d 63 9d 81 3e e9 60 0c bd
       -0.14171483 0.06636768 0.2531539 -0.03427211
000390 39 c5 8a 3e bf cf 34 3d 36 99 e1 bd 92 9d b6 bd
       0.27103594 0.044143435 -0.11015551 -0.08916773
0003a0 f1 37 02 3e 19 29 80 bd 09 99 8d ba 64 35 19 bf
       0.12716652 -0.06257839 -0.0010803054 -0.5984709
0003b0 34 57 0b 3e 65 db ab 3d fa e3 80 bd 15 2c ea 3a
       0.13607484 0.083914556 -0.06293483 0.0017865921
0003c0 cb 99 9d bd cd f7 d5 3c 6d ba 9a 3b 5f 6e e6 3d
       -0.07695349 0.026119137 0.0047219307 0.1125152
0003d0 c4 ca 14 3e 79 d9 03 3f da ec 1c be 64 26 61 3e
       0.14530474 0.5150371 -0.15324727 0.21987301
0003e0 66 d4 fe 3c fb 86 bc 3c 4a cf f2 be dc 49 ee 3d
       0.031107139 0.023013582 -0.47423774 0.11635181
0003f0 27 b5 c1 3e 0b 09 d4 bd 48 af 3c 3d 95 0f 8b ba
       0.3783352 -0.10353287 0.0460656 -0.0010609502

output_layer.bias f4 [14]
000000 3a 71 b7 3d 12 97 cc ba 84 06 ba bd c0 f4 d7 bd
       0.08957143 -0.0015608987 -0.09083274 -0.10544729
000010 33 23 da bd a8 0c 84 3c 90 3d b6 bc 07 d9 82 3c
       -0.10651245 0.016119316 -0.022246152 0.015972627
000020 df ef 1a bd 14 24 1d 3c f5 eb e4 bd 21 13 0d bd
       -0.037826415 0.009591121 -0.11177818 -0.03444207
000030 77 a5 01 be 1d e3 6d bd
       -0.12660776 -0.05807792

onnx::LSTM_122 f4 [1, 400, 7]
000000 0c 08 4e 3b ea e5 06 bd fb 46 11 bd 23 f9 9a 3c
       0.0031437902 -0.032934107 -0.035468083 0.018917626
000010 4e f7 c0 bd 4a 5e 06 3c c4 db 12 3d 01 07 a0 3d
       -0.094221696 0.008201191 0.035854116 0.07813836
000020 64 93 9f bd fd 1e 02 3c 8f e4 aa 39 1b f2 17 bd
       -0.077917844 0.0079419585 0.00032595216 -0.037096124
000030 17 18 2d be c5 4e 13 3d 12 18 c1 3d a5 eb e5 3c
       -0.16903721 0.035963792 0.09428419 0.028066466
000040 5c 62 e0 bd aa ae 4f bd ed c9 9e bd 82 53 8f bc
       -0.109562606 -0.050703682 -0.07753358 -0.017495874
000050 b9 8c 39 3d 86 55 f0 3c e9 b9 5d 3d 5a 83 ce 3c
       0.04530022 0.029337656 0.054132376 0.025209118
000060 aa 52 c2 3d a7 33 ac 3d 9e ca 40 be 96 5c f4 3d
       0.09488423 0.084082894 -0.18827292 0.11931722
000070 32 e7 ef 3b fc ee e6 bc ad 7f 94 bd d8 2d 24 bc
       0.007321262 -0.028190129 -0.07250915 -0.010020696
000080 93 6b 53 bd 94 23 a1 3d 8c 50 9c bd 2e 95 14 3e
       -0.051616263 0.07868114 -0.076325506 0.14510033
000090 b9 74 f3 3c 3d f7 64 3d 14 57 6e 3b e7 19 83 bd
       0.029718744 0.055899847 0.003636782 -0.06401425
0000a0 34 75 cd bd b0 0c ad 3d 81 bc 0e be 66 13 0f be
       -0.1003212 0.084496856 -0.13939096 -0.13972244
0000b0 7c 3f 8f bd 88 59 05 bd 03 43 db 3c 32 e4 53 3d
       -0.069945306 -0.032556087 0.026765352 0.051731296
0000c0 80 70 5c bd 6d 44 0a 3e 67 6b 14 3e d8 82 80 3c
       -0.053818226 0.13502665 0.14494096 0.015687391
0000d0 66 15 11 3e 17 3a ba 3d b4 8b 5b be 54 97 56 3e
       0.14168319 0.09093111 -0.21440011 0.20956165
0000e0 a1 b8 c5 bd fd 99 d5 39 82 8f f3 3d 1b f8 86 bc
       -0.09654356 0.00040741256 0.11892606 -0.016475728
0000f0 b4 f5 06 3d 49 13 86 be 6f 87 6a bd 10 89 37 3e
       0.032949165 -0.26186588 -0.057258066 0.17923379
000100 f8 1c 6a 3a 45 95 4b bd e1 46 b7 bc 6f a8 ee bc
       0.0008930708 -0.0497029 -0.022372665 -0.02913305
000110 04 76 a2 bb 5b 33 71 3d 4f 50 04 be 59 ab 5f bd
       -0.004957916 0.058886867 -0.1292126 -0.05460677
000120 ed 7f 95 bd eb 55 4b bb 10 2b 3a 3d 25 b3 ed 3d
       -0.072997905 -0.0031026553 0.045451224 0.11606435
000130 90 35 8a 3c 08 9a a0 bd 3b 7c 36 3d 95 34 d1 bd
       0.016871244 -0.07841879 0.04455207 -0.10215107
000140 a1 a9 be bd f7 de 31 bd e3 e8 be bd 52 e7 60 3c
       -0.09309698 -0.043425526 -0.09321763 0.013727026
000150 a0 1f 7b 3c 9e 8a 62 3e 87 50 e6 bd f3 ee bb 3c
       0.015327364 0.22123191 -0.11245828 0.022941088
000160 62 13 b3 bd c6 dd 40 3e 08 95 10 3e 32 dc 2f 3e
       -0.08743931 0.188346 0.14119351 0.17173842
000170 a8 30 f6 bc cd 3b 87 bd 5a c2 be bd 40 cc 37 bd
       -0.030052498 -0.06603203 -0.09314413 -0.044872522
000180 a0 a4 bb bd 8c 10 f3 bd ad 3d 62 3c 5c 12 11 3e
       -0.09162259 -0.118683904 0.01380865 0.1416716
000190 c2 9d 84 3d 55 ef 1d bd 36 23 21 3d f9 35 64 bd
       0.064754024 -0.038558323 0.03934022 -0.055715535
0001a0 27 cb 5d bd 9a 4c b8 bc 16 cb 2f be 91 d9 b3 3d
       -0.05414882 -0.022497464 -0.17167315 0.08781732
0001b0 73 bf ae 3d b7 ac 6a 3e 53 3d f4 3c 9c 52 e9 3d
       0.0853261 0.22917448 0.029814398 0.113927096
0001c0 76 83 e0 3d df ee 7e 3c f6 b0 2e bc 07 93 3c bd
       0.10962574 0.015559881 -0.010662308 -0.046038654
0001d0 f1 17 58 3d 22 28 0a bc bd 6d 6d 3d 86 0f 17 3d
       0.052757207 -0.00843242 0.057965983 0.03688004
0001e0 a4 ed e6 3d 58 4f 3a bd ae 43 25 3d f6 a1 10 bd
       0.11275795 -0.045485824 0.040347748 -0.035310708
0001f0 76 f8 89 3d 52 8d b3 bc de 44 1c be 7f 79 0b bd
       0.06736843 -0.021917973 -0.15260646 -0.034051415
000200 d3 c0 f2 3d e5 a2 6d 3d 2d f7 0f 3e 19 04 6a be
       0.118531846 0.058016676 0.14059134 -0.22853126
000210 ca 2f b8 3d 21 df fb 3d bb 8e 79 bc c7 bd 5a 3d
       0.0899349 0.12298418 -0.0152317835 0.053403642
000220 f0 75 07 be 3a 99 d7 3c 3d 42 bf 3c 9f 60 aa bd
       -0.13228583 0.026318181 0.023347015 -0.0831921
000230 b2 14 83 bd ea 64 d6 3c fe ff 36 bc 89 46 65 3c
       -0.06400432 0.026171166 -0.011169432 0.013993868
000240 c8 b0 47 bd 69 e1 35 be 2f bb b6 3d c0 9c 5a 3d
       -0.048752576 -0.17761768 0.08922421 0.053372145
000250 81 33 25 3d 61 36 b5 3d e1 a5 ac bd 9c 9d 15 3c
       0.04033232 0.088482626 -0.084300764 0.009131815
000260 2e 69 bf bd 1f 19 67 3d 4b 2a 28 bd 8d ac 3e bd
       -0.09346233 0.05642044 -0.04105596 -0.046551276
000270 83 b5 c6 bd b1 71 bf bd 35 39 df bd 88 e7 a9 bd
       -0.09702589 -0.09347857 -0.10899583 -0.08296114
000280 3f fc cd bc 8c 93 a0 3d d2 83 f2 3c 4a 14 72 bd
       -0.025144694 0.07840642 0.029603872 -0.05910138
000290 34 ab 5e 3d b4 01 ce 3d d5 b3 19 bc b4 4b 26 3e
       0.05436249 0.100589186 -0.009381254 0.16239816
0002a0 f3 d2 6e bc 11 2c fd bc e3 71 e2 bc 3e cd ce ba
       -0.014576661 -0.030904802 -0.027642196 -0.001577772
0002b0 3f 24 d8 bd cf 82 25 bd 50 6c 0c bd 8c cf 6b bd
       -0.105537884 -0.040407952 -0.034282982 -0.05757098
0002c0 6c 2c bf bd 37 56 0b bd 37 3c 03 bd 09 3c 1b 3d
       -0.09334645 -0.034017768 -0.032039847 0.03789905
0002d0 09 7f 80 bd ca f5 e2 3c 7c c2 fd 3d ff c7 09 3e
       -0.0627423 0.027705092 0.123906106 0.13455199
0002e0 db 38 0c 3e b2 90 81 3c 94 be a0 3d d7 4d 6e be
       0.13693564 0.015816066 0.0784885 -0.23271881
0002f0 ea da 3b 3e dd ac 3b 3d 46 8a a4 3d 34 c6 e0 bc
       0.18345228 0.045819152 0.08034186 -0.02743826
000300 67 c8 d4 bd 01 02 cd bd c2 84 f6 b9 68 ed 05 be
       -0.10389786 -0.10010148 -0.0004701969 -0.13078845
000310 1b a3 31 3c 38 7d 38 3d f6 0e 5c 3d d1 81 ae bc
       0.01084211 0.045041293 0.053725205 -0.021302136
000320 c6 4f cc 3d df 5c fb bd 61 48 26 3c 8b 0e 53 bd
       0.09976153 -0.12273573 0.010149092 -0.05152754
000330 d7 ad b4 3d 2d bd c5 3d b4 d3 99 3c 6a 6b 67 bc
       0.0882222 0.09655223 0.018777706 -0.014124731
000340 af f3 2d 3c b0 26 d9 3d 17 6f 4f 3d 3a 85 78 3e
       0.010617181 0.10603082 0.050643053 0.24269572
000350 4f 76 83 bc 50 6d 85 3d 73 ac 1d bd f0 d4 e2 bd
       -0.016047625 0.0651499 -0.03849454 -0.11075771
000360 e9 a3 59 3d 34 a5 6d be c9 38 10 be 16 a0 ff 3d
       0.053134833 -0.23207551 -0.14084162 0.12481706
000370 2a 65 21 3d d1 0f ca bd a9 08 9c bc 77 35 e6 bd
       0.03940312 -0.09866298 -0.019047098 -0.11240666
000380 8c 68 07 3e 3e 8b 1b 3e 54 a8 e8 3d df f9 b0 bc
       0.13223475 0.15189835 0.11360231 -0.021603523
000390 6c 08 91 3d 08 f3 1b be cc 79 13 3e 85 35 03 3e
       0.070816845 -0.15229428 0.1440193 0.12813385
0003a0 51 39 55 3d c3 c4 be 3d 87 47 68 3d 0f 20 a3 3d
       0.052056614 0.09314873 0.05670884 0.07965099
0003b0 0e d1 83 be e9 f9 55 3e 61 8b 0d be 45 58 f9 bd
       -0.25745434 0.20896114 -0.138227 -0.12175039
0003c0 8f 80 9e 3d 91 fe 02 bd 4d 01 c4 bd 79 c1 aa 3d
       0.07739364 -0.031981055 -0.095705606 0.08337683
0003d0 f1 c4 b4 3a 10 0c 38 bc f7 b1 f9 3d c4 37 e7 3b
       0.0013791603 -0.011233345 0.12192147 0.0070562083
0003e0 9e c6 12 bd 34 64 bf bd c9 34 7c bd 3c 7a 22 3c
       -0.035833947 -0.09345284 -0.061573777 0.009916838
0003f0 15 eb b4 3d 07 2b d5 3c f0 ad 2d 3d ba f7 39 3d
       0.08833901 0.026021494 0.042402208 0.045402266

onnx::LSTM_123 f4 [1, 400, 100]
000000 60 4e 4e bd 1e 2a 99 bb f7 b3 5b bd 54 5a 1a bd
       -0.050367713 -0.00467421 -0.053638425 -0.0376838
000010 25 29 8d 3d 8c 19 d5 bd 47 c9 a8 bb 0a 04 b2 bd
       0.06892613 -0.10405263 -0.0051509473 -0.08692177
000020 d2 2b 51 3c 8c 2e ca bd 82 b4 e3 bc 69 15 83 3d
       0.012766795 -0.09872159 -0.027796034 0.06400568
000030 e3 e4 6a be d0 b2 82 3d a7 56 22 bd e4 ab d9 bd
       -0.22938876 0.06381762 -0.03963342 -0.10628489
000040 ec e8 3f bb 9f 48 ef 3d c8 77 12 3e 7b 18 94 bd
       -0.002928312 0.11683773 0.14303505 -0.07231232
000050 5a 09 86 3b ae 57 07 bd 42 90 f8 bd 35 12 8e 3d
       0.0040904703 -0.033042602 -0.1213689 0.069370665
000060 20 01 08 3c a7 6a c3 3d cb a0 0d be a2 f0 53 3d
       0.0083010495 0.09541827 -0.13830869 0.051743157
000070 23 6e 69 bd e1 93 be bc b7 c5 24 3e 6d 4a f5 3c
       -0.0569898 -0.023263874 0.16091047 0.029942716
000080 a9 90 0b be 76 b3 6d 3d 96 11 64 bd ff de 47 bc
       -0.13629402 0.058032475 -0.055680834 -0.0121991625
000090 b9 d2 f0 bc 95 59 23 3c 20 62 90 3c 4b b7 87 3c
       -0.029397355 0.0099700885 0.017624915 0.016566893
0000a0 db 71 3e bd e6 33 a4 bd 98 45 65 bd ef 89 2a bd
       -0.0464953 -0.08017711 -0.055974573 -0.04163545
0000b0 c7 e8 04 3d cb fe c8 3d f7 14 85 bd 0c f9 e3 3c
       0.032448556 0.09814223 -0.06498139 0.027828716
0000c0 44 5e 8a 3d 08 a5 e4 3c e3 02 40 bd 9c d7 ac 3d
       0.06756261 0.027910724 -0.046877753 0.08439562
0000d0 f9 41 e3 bb 41 8d f9 3d 31 10 9e 3d e4 4c 13 bd
       -0.006935355 0.12185145 0.07717932 -0.035962
0000e0 66 96 eb bd fd d7 98 bd ba 90 4e bd 24 9f cc 3d
       -0.115032956 -0.074630715 -0.05043099 0.09991291
0000f0 57 7b 7f bd 9e ce fc 3c 89 88 bb bd b8 8b 1e be
       -0.062373485 0.030860242 -0.091569014 -0.15482986
000100 71 13 a5 bd cc 8a da bc 43 5b 83 3d 40 00 f5 3d
       -0.08060349 -0.026677512 0.06413891 0.11962938
000110 31 83 7c 3c ac a0 10 be 67 2c 95 bd ba 62 88 bd
       0.015412138 -0.14123791 -0.0728386 -0.066594556
000120 c7 67 07 3e 25 97 26 3d 1d bd c4 3c da 5d f5 3d
       0.13223182 0.040671486 0.024015957 0.119807914
000130 08 dd 8d 3c e3 25 12 be 6e 55 47 be 51 59 1d bd
       0.01731731 -0.14272265 -0.19466183 -0.038415257
000140 83 e6 91 bd 6a 50 35 3e b8 24 01 3e a9 63 9c bd
       -0.07124045 0.17706457 0.12611663 -0.07636196
000150 1a 4c 12 3e 9c eb 67 3c 2c ec 2a bd 49 83 18 be
       0.14286843 0.014155295 -0.041729137 -0.14893831
000160 53 7f bb bc d4 99 d7 bd c0 61 e4 3d 6c 08 af 3d
       -0.022887861 -0.10527387 0.11151457 0.08546528
000170 47 37 1d 3e 52 b9 08 3d ed 05 71 bd 8d 4c 1d be
       0.15353118 0.03337986 -0.058843542 -0.15361233
000180 a9 89 30 3c e0 63 89 3c a8 40 87 3b fe 3f c3 3d
       0.010775008 0.016771257 0.0041275807 0.0953369
000190 80 0d ac 3d e2 ea 1c bd 52 aa 17 3d 9c 35 4d bd
       0.084010124 -0.03830994 0.037027664 -0.050099954
0001a0 32 34 3a 3e 24 e9 ee 3b a0 c4 8b bd f8 00 b5 3d
       0.18183973 0.007290976 -0.068246126 0.088380754
0001b0 e3 b4 c6 bd 71 d3 8a 3d f3 7d a6 bd e1 6d 8e 3d
       -0.0970247 0.067786105 -0.08129492 0.069545515
0001c0 ac a2 0a 3c c4 88 14 be 31 c7 8a 3d 07 f6 bd bc
       0.008461636 -0.14505297 0.06776274 -0.023188604
0001d0 3f 4c 7d bd 54 99 0d 3d 6c 15 3d be d1 4b 21 bd
       -0.061840292 0.034570053 -0.18465203 -0.039378945
0001e0 0b e7 d9 3d 46 1a aa bd fa 1a c0 3d 27 b1 c5 3b
       0.10639771 -0.083057925 0.09380145 0.006033081
0001f0 c1 9e d0 3c c7 c4 ae bd 3f 9b b7 3d 6f 28 02 bd
       0.025466325 -0.08533626 0.08965158 -0.03177684
000200 6c da e1 3c a7 83 af 3d eb da ae bd 3c ff d7 3d
       0.027569972 0.085700326 -0.08537849 0.10546729
000210 72 21 13 bc 9b b4 df bd f1 f6 14 3d 46 f1 69 ba
       -0.008980142 -0.1092312 0.036368314 -0.0008924197
000220 60 78 a2 bd 80 7e ba 3d 7a 61 d0 3a 99 a9 91 bd
       -0.07933116 0.09106159 0.0015898191 -0.07112426
000230 bd 3f 6e 3c c6 7f 68 bd 42 29 13 bd 2a 0d 0c bd
       0.014541564 -0.05676248 -0.03592802 -0.03419224
000240 00 7f b7 3d 3a 7d 71 be 35 59 c8 3d 39 e5 d1 3d
       0.0895977 -0.23582926 0.0978264 0.10248799
000250 bf 3d 7d bc 11 56 6d 3d ad 24 11 bd 78 58 e7 ba
       -0.015456616 0.057943407 -0.035435367 -0.0017650267
000260 07 01 8b bd 05 19 93 bd 2e 73 03 be 9c f1 91 3d
       -0.06787305 -0.071825065 -0.12836906 0.071261615
000270 3a 4b d5 3d a9 78 24 3d 42 1b 1b 3e 38 01 e7 bd
       0.10414739 0.040154133 0.15147117 -0.11279529
000280 06 ef c7 3d 87 21 71 bc 27 b9 00 3e c0 8c f3 3b
       0.09762387 -0.014717466 0.1257063 0.00743255
000290 e7 35 c9 3d f6 59 88 3d 34 e7 2f 3b 42 4c 19 bd
       0.09824734 0.06657784 0.0026840689 -0.03742624
0002a0 fa 50 04 bd 99 50 50 bd 1b 27 a2 bd 2d ca cc bc
       -0.032303788 -0.050858114 -0.07917615 -0.024998749
0002b0 82 fe a5 bd e9 1b 77 bd 7d 2f 01 bd d4 a3 6f 3d
       -0.08105184 -0.06032935 -0.03153943 0.058505848
0002c0 a9 80 d8 3a 57 9a 32 3d 29 78 1b 3d 2e 35 70 3d
       0.0016517836 0.04360422 0.03795639 0.058644466
0002d0 7a f8 42 3c 88 a5 1f be ff 18 ee bd 75 f6 b9 3d
       0.011900062 -0.15590489 -0.116258614 0.09080211
0002e0 39 a9 c8 3b a3 f9 3f bd 66 8e 9f bd 78 50 d1 3d
       0.0061236885 -0.04686893 -0.07790832 0.10220426
0002f0 e6 d5 cd 3b da 74 ba 39 39 4d 0a be 5f e6 df bd
       0.006281602 0.00035563746 -0.1350602 -0.10932612
000300 c5 46 8e bd c7 75 06 3d 51 ed f9 bc 9f 49 9c bd
       -0.06947092 0.032827165 -0.03050867 -0.076312296
000310 df 5f 85 bd 9a ed 97 3d 5b 99 c7 bd 27 77 a5 bd
       -0.065124266 0.07418366 -0.09746047 -0.08079367
000320 54 42 04 bd 96 d1 f8 3d cf dc b4 bd d0 2c 91 bd
       -0.032289818 0.1214935 -0.088311784 -0.070886254
000330 27 37 b3 3d d9 f2 9a bd a3 39 f1 3d de ff ec bd
       0.08750754 -0.07565851 0.117785715 -0.1157224
000340 92 6a 65 bd 0b 26 bc bc 05 8c 2f be 57 e2 f7 3d
       -0.056009836 -0.022967359 -0.17143257 0.12103718
000350 dc 2f e8 bd cc 7a a6 3b 9d fe 06 be 24 1c e7 bd
       -0.113372535 0.0050805565 -0.13183065 -0.11284664
000360 7e 22 0d bd 50 d1 1a 3d 9a f5 24 3e 34 0c 91 bd
       -0.034456722 0.037797272 0.16109315 -0.07082406
000370 8c f4 bb bd 31 3d 9b bd 22 a2 44 bd 64 01 cf 3d
       -0.09177503 -0.07580031 -0.048006184 0.10107687
000380 80 60 0e 3d 30 2b 51 3e 21 e4 04 be bf 42 b3 3c
       0.03476 0.20426631 -0.1297765 0.021882413
000390 dd 8b ff 3d 07 b9 4f 3d 29 1c e2 3d 64 2b 07 be
       0.12477849 0.050713565 0.110405274 -0.13200146
0003a0 fd fb 87 bd 1b 48 bf 3d 29 79 ec 3c b3 3f f0 bc
       -0.0663986 0.09339925 0.028866367 -0.02932725
0003b0 84 69 9d bc 3a 1a 76 bd 05 ec 95 bd 40 da ea 3c
       -0.019215353 -0.060083605 -0.07320408 0.028668523
0003c0 95 2f 64 bd d6 ee bb 3d c7 db d0 bd 9f 2f d0 3d
       -0.05570944 0.09176414 -0.10198169 0.10165333
0003d0 b3 a0 b5 bc f8 0a 5b 3e a0 d5 35 3d 06 ef 31 be
       -0.022171354 0.21390903 0.04439318 -0.17376336
0003e0 b8 22 02 3e c1 aa bc 3d 16 52 92 bd e7 3b bc 3d
       0.12708557 0.09212256 -0.07144563 0.09191113
0003f0 5f 0f 31 bd 41 fd 70 3d 7e 8e 0e 3e 0a b9 22 bd
       -0.04322755 0.05883527 0.13921544 -0.03972725

onnx::LSTM_124 f4 [1, 800]
000000 7f fd 32 bd a0 eb a8 3d 90 b5 be bc 07 30 9a bd
       -0.043698784 0.08248067 -0.023279935 -0.07528692
000010 cd b6 18 3e 87 1b b7 bb 04 d1 42 3d f4 a3 26 3d
       0.14913483 -0.0055879983 0.047562614 0.0406837
000020 02 85 84 3c 62 c9 8d bd a1 25 56 bd 92 32 ac 3d
       0.016176704 -0.06923176 -0.05228198 0.08408083
000030 3a 70 b8 3d fd 9c 82 3d 91 3e 59 3d 49 03 f2 3c
       0.090057805 0.063775994 0.053038184 0.029542582
000040 ff 4d fa 3c 10 75 b3 3d 16 dc 54 3d cf 7f b5 3d
       0.03055477 0.08762562 0.051967703 0.08862268
000050 2e 08 18 bc 72 4a f1 bd a3 31 58 bd e0 0f 43 3e
       -0.009279294 -0.117817774 -0.052781712 0.19049025
000060 66 59 a1 bc 52 0d 6b bc 68 5a 69 3c 98 ee 87 3d
       -0.019695949 -0.0143464375 0.014242746 0.06637305
000070 cf b8 8a 3d 14 b5 ce bc 80 78 f4 3d c8 23 82 bd
       0.06773531 -0.02523283 0.11937046 -0.06354481
000080 f0 05 7b bd ba ae 68 bd 57 78 77 3d 8f 7c 70 bd
       -0.06128496 -0.056807257 0.0604175 -0.05871254
000090 32 cd bf 3d 6e eb 74 bd 28 0b b3 3d e5 57 17 bd
       0.0936531 -0.059794836 0.08742362 -0.036949057
0000a0 7b b8 f7 b8 f8 25 8a bd ae 27 9c bc cf 60 66 bd
       -0.0001181224 -0.06745523 -0.01906189 -0.056244668
0000b0 a8 aa 67 3c 5a 88 88 3d c1 72 fa 3d 62 4e df 3d
       0.014139809 0.06666632 0.12228919 0.10903622
0000c0 46 0d c7 bc da d5 16 bd 71 19 fb 3d e8 d8 c6 3d
       -0.024298321 -0.03682504 0.12260712 0.0970934
0000d0 33 e8 be bc 5c b2 a4 bd 16 e4 6f bd 6f 20 c8 3d
       -0.02330408 -0.08041832 -0.05856713 0.09771811
0000e0 fe 2f 9b 3d 7b ec ec 3c 08 0b ca 3d 52 ee db 3d
       0.07577513 0.028921356 0.09865385 0.10738815
0000f0 c1 08 39 bd 58 85 bb bd 83 92 1c 3e 03 c0 ab 3d
       -0.045174364 -0.09156293 0.15290265 0.08386233
000100 51 7f ca 3d 5a 7f 21 3c 82 a6 70 3e be 59 c1 3c
       0.09887565 0.009857023 0.23501018 0.023602363
000110 23 29 06 3e 9a 07 f7 3b a8 cd ac 3c ff ed b2 3d
       0.1310163 0.007538748 0.021094158 0.087368004
000120 76 3f f9 3a 23 38 09 bd 65 8d f2 3c 21 f9 3a bd
       0.0019016105 -0.0335008 0.029608438 -0.045647744
000130 ac 8d 09 bb e7 b7 ca 3d 34 84 07 bc 61 f8 21 3c
       -0.0020988984 0.09898358 -0.008271266 0.009885878
000140 52 83 5d 3d 5d e0 92 3c c7 f0 ba 3d d8 64 9d 3d
       0.054080315 0.01792925 0.09127956 0.0768525
000150 22 cb 95 3b 4b 50 0a 3d d5 fe 05 3d de 94 75 bd
       0.0045713345 0.03376798 0.03271373 -0.059956424
000160 31 97 8e 3c 49 d8 da 3c 06 d9 cd 3d 3c eb 7b bd
       0.017406078 0.02671446 0.100511596 -0.061503634
000170 fd 3f 2a bd 73 d5 19 3d a0 98 5b bd d7 b2 ae bd
       -0.04156493 0.037557077 -0.05361235 -0.08530205
000180 41 a1 fb bd 3b fa 4c 3b e3 c8 e8 bc 9c 90 af bd
       -0.12286616 0.0031277079 -0.028416103 -0.08572504
000190 4a 51 fa 3b 55 dc 70 bd 0e 60 64 3d 55 da 49 3d
       0.007639085 -0.058803875 0.055755667 0.049280483
0001a0 f0 cd 2f 3e b7 c1 62 bd 73 1a 8c 3d cf 6b 36 3d
       0.17168403 -0.055360522 0.06840982 0.044536408
0001b0 56 8c 97 3d e6 13 dc bd 6a 3e 8d 3d 9c a9 75 bd
       0.07399814 -0.10745983 0.0689667 -0.059976205
0001c0 66 0e b1 bb b0 05 f4 3d df 63 d6 3d 93 9e 2f 3e
       -0.0054033278 0.11915147 0.10468268 0.17150335
0001d0 a1 da 41 bd 7f 23 a5 3b ca ec d6 bd 8c 13 ac 3d
       -0.04732764 0.005039632 -0.10494383 0.08402166
0001e0 56 99 bc bc ab 06 1e bd 78 53 e8 3d 09 ab 1c 3e
       -0.023022335 -0.038580578 0.113440454 0.1529962
0001f0 11 5c b2 bc 43 04 8b 3d 2b f6 b3 bd f4 b7 8e 3c
       -0.021772416 0.06787922 -0.08787187 0.0174217
000200 24 c3 7d 3d 54 9c 8b bd 5f 3b 1e 3d d9 95 1e bd
       0.06195368 -0.068169266 0.03863084 -0.038717125
000210 f0 b4 57 3d 7e 1f fe 3d 70 2c 8b 3d 92 71 4d bd
       0.05266279 0.124083504 0.06795585 -0.050157137
000220 b9 07 e4 3d 97 01 c5 3b 0d 40 bb 3c eb 0a cc 3d
       0.111342855 0.0060121524 0.02285769 0.0996302
000230 99 4e e4 bd 33 41 db 3d e8 ca 7d bd 63 01 85 3d
       -0.11147804 0.10705795 -0.061961085 0.06494405
000240 79 9e c1 3d ec c3 31 3e d8 fa eb bc 60 a0 8f 3c
       0.094540544 0.17359895 -0.028806135 0.017532527
000250 52 b8 e5 3d 80 3f 31 bd fd a8 5f bc d7 0d a1 3d
       0.11216797 -0.04327345 -0.01365113 0.07863968
000260 7f fa 10 bd 24 9c 71 bd ed a4 6a 3d 72 8a fb 3d
       -0.03539514 -0.058986798 0.05728619 0.12282266
000270 e7 81 d8 3d 4f 6f 87 3c 47 e7 1b bc c5 c3 a0 3c
       0.10571652 0.016532568 -0.00951559 0.0196246
000280 c3 8f 48 bd 7f f3 91 3d d1 9f 56 3e b0 92 5f 3d
       -0.048965227 0.07126521 0.20959403 0.05458325
000290 4c 38 1e 3e 5b 2b b8 3d 1c 34 a7 3d f8 d7 34 bd
       0.15451163 0.089926444 0.08164236 -0.044151276
0002a0 ff 24 4e bd 47 cb 0b 3e fb 23 a4 3d 20 0c 92 bd
       -0.05032825 0.13651763 0.08014675 -0.07131219
0002b0 88 2c a2 3d 16 4e d5 bb 3a 9c ef 3d de d3 11 3d
       0.0791865 -0.0065095527 0.1169972 0.035602443
0002c0 03 5c aa bc 6e e5 26 3e 8a 79 36 bd fd 9e f7 3d
       -0.020795828 0.16298458 -0.044549502 0.120908715
0002d0 0e d0 5b ba 89 cf 22 3e 57 4e 10 bd 76 ab 38 bd
       -0.00083851896 0.15899481 -0.03523096 -0.045085393
0002e0 58 34 0e bd fd 43 66 3d 08 57 87 bd 09 be 22 3d
       -0.034717888 0.056217182 -0.06608397 0.039732013
0002f0 79 69 84 3b 04 55 18 bd 07 78 33 3e e5 9b ba 3d
       0.0040408936 -0.037190452 0.17526256 0.09111766
000300 17 f9 52 bd c5 a4 11 3c 29 16 6b 3d f8 68 e7 bd
       -0.05150708 0.008889382 0.05739418 -0.11299318
000310 4b 97 03 be 53 d2 95 3d 7b 1d 0f 3e e0 c0 94 3d
       -0.12850682 0.07315507 0.1397609 0.072633505
000320 7a fa d2 bd 26 74 ce 3c aa f5 4e bd eb 2b d5 bc
       -0.10301681 0.025201868 -0.050527252 -0.026021918
000330 77 51 64 bd dc bb da 3d d9 4a e0 bd 86 7f e5 3c
       -0.055741753 0.106803626 -0.10951776 0.02801491
000340 38 83 22 bd ca c1 e6 3c 72 84 89 3d 61 1a 79 bd
       -0.03967592 0.028168578 0.06714715 -0.060816173
000350 65 2c 73 3d 12 80 99 be f1 bf cd 3d 10 91 05 3e
       0.05936851 -0.29980522 0.100463755 0.13043618
000360 4f b3 12 be 51 73 a3 3d 12 85 aa bc fb b2 41 3e
       -0.14326213 0.07980979 -0.020815406 0.18915932
000370 b6 bd a8 bd 76 25 b6 3b c9 dd a8 bd ff fc cc bd
       -0.082393095 0.005558665 -0.08245427 -0.10009193
000380 2e 78 fc bd a5 46 b1 bc a4 8c 34 3d ef 91 a1 3d
       -0.1232761 -0.021640131 0.044079438 0.07889163
000390 22 d6 24 bd 0f 76 f1 bd b2 b6 4c bb 2f 0f 8d 3d
       -0.040243275 -0.11790096 -0.0031236825 0.06887662
0003a0 6f 54 1a bd 04 82 9f bd a0 90 86 3d 9a 74 02 be
       -0.03767818 -0.077884704 0.06570554 -0.12739792
0003b0 4d 57 29 3d 2d 4c b1 bd 95 a1 9a bd 54 88 2a be
       0.041343022 -0.086571075 -0.075503506 -0.16653568
0003c0 49 38 ad bd 8f 7b 36 bd ba b1 d5 3c a7 3f 80 3d
       -0.08458001 -0.04455143 0.026085723 0.06262141
0003d0 2b 7d b5 bd f6 d5 33 bd ec 57 de bd d0 05 54 bd
       -0.088617645 -0.04390522 -0.108566135 -0.051763356
0003e0 b3 4f 31 3c 53 b4 61 bd 5b ba ec 3d 79 d1 69 3d
       0.010822224 -0.05510361 0.11558982 0.057084534
0003f0 e3 e7 8a 3d 2f e7 b2 bd e9 ee 2b bd b6 ef a4 bd
       0.0678251 -0.08735501 -0.04197589 -0.08053534
