New_project/modelo_checkpoint.pth (torch, 459448 bytes, 8 tensors)

rnn_layer.weight_ih_l0 f4 [624, 7]
0	0xbcf90de2	-0.030402128
1	0xbcbb7e74	-0.022887446
2	0x3d645ea3	0.055754315
3	0x3c154f1c	0.009113099
4	0x3d26bd78	0.040708035
5	0x3d7f4692	0.06232316
6	0xbba68a1e	-0.005082383
7	0xbd617dab	-0.055051487
8	0x3d7a7500	0.061146736
9	0xbd68aa37	-0.056802955
10	0xbd4d7618	-0.05016145
11	0xbd9ad703	-0.075605415
12	0x3ceb5c6b	0.028730592
13	0xbd2299c6	-0.03969743
14	0x3bd73120	0.0065671355
15	0x3d9674d2	0.073465005
16	0x3c10a6ff	0.0088288775
17	0x3d185a62	0.03719557
18	0xbd7bfc53	-0.061519932
19	0xbd426b67	-0.047465708
20	0x3d5de9e2	0.054178126
21	0x3d072198	0.032991022
22	0xbc448925	-0.011995588
23	0xbcd4f391	-0.025995048
24	0x3b1a83a8	0.0023577008
25	0x3da154be	0.078774914
26	0x3c02504c	0.007953715
27	0xbd972f66	-0.073820874
28	0xbd091095	-0.03346308
29	0x3d604377	0.05475184
30	0x3c939c10	0.018018752
31	0xbcd30956	-0.025761288
32	0xbd970a09	-0.07374961
33	0x3d832e69	0.064053364
34	0x3d626d66	0.05528011
35	0x3d819dbf	0.06328916
36	0xbcbc097c	-0.022953741
37	0x3ce21b1f	0.027600823
38	0xbd00ad10	-0.031415045
39	0x3d742f20	0.059615254
40	0x3af0e159	0.0018377706
41	0x3d6845d6	0.056707226
42	0xbcce7ae2	-0.02520508
43	0x3cce5937	0.025189025
44	0xbd19dc12	-0.03756339
45	0xbca90407	-0.020631803
46	0x3d874fc5	0.06607012
47	0x3d2635d5	0.040578682
48	0x3d921aa8	0.071339905
49	0x3ca511d6	0.020150106
50	0x3d19fde1	0.037595633
51	0xbd029c0c	-0.0318871
52	0x3bb90181	0.005645931
53	0x3ca42a83	0.020039802
54	0x3c165d91	0.009177581
55	0xbafd45cf	-0.0019323173
56	0x3cc8f5b1	0.024531217
57	0x3cffcc58	0.031225368
58	0xbd8f1746	-0.06986861
59	0x3d04f4b3	0.032459926
60	0x3d9b83b2	0.07593478
61	0x3d01d864	0.031700507
62	0x3d3ddec2	0.046355017
63	0x3d848401	0.0647049
64	0xbd2d08f8	-0.04224488
65	0x3d298311	0.04138476
66	0xbd5d57db	-0.054038864
67	0xbd12e085	-0.03585865
68	0x3d03443c	0.032047495
69	0x3c9868be	0.018604632
70	0xbd8f5373	-0.069983386
71	0xbd0fdc0d	-0.035121966
72	0xbb73a8f5	-0.0037179564
73	0xbd0f26b5	-0.034949023
74	0xbc52200c	-0.012825023
75	0x3c663a35	0.014051964
76	0xbbce4256	-0.006294529
77	0x3bc37329	0.005964656
78	0x3d819955	0.06328074
79	0xbd856d1d	-0.06514952
80	0x3d1f269b	0.038855176
81	0x3d31c09e	0.043396585
82	0xbda1ce67	-0.07900696
83	0xbd8860ba	-0.06659074
84	0x3d805403	0.06266024
85	0xbd4ac75a	-0.049506523
86	0xbbc5e20f	-0.006038911
87	0x3d4cbd41	0.049985174
88	0x3d7c76b4	0.06163664
89	0xbc99aa2e	-0.018757906
90	0x3c85d1cc	0.01633539
91	0xbca6c4c4	-0.020357497
92	0x3d9afde8	0.0756796
93	0x3cc17eae	0.023619976
94	0xbce094cf	-0.027414707
95	0xbcaf3d05	-0.021391401
96	0xbc5f2f01	-0.013622046
97	0x3d7b8e44	0.061414972
98	0xbc2bee58	-0.010493837
99	0x3c996c40	0.018728375
100	0xbcbc44bb	-0.022981992
101	0x3c884742	0.01663554
102	0xbd0c3e62	-0.03423918
103	0xbd656f0b	-0.056014102
104	0xbb728935	-0.0037008051
105	0x3d8996e5	0.06718234
106	0xbc848a13	-0.01617912
107	0xbd145f07	-0.036223438
108	0x3d8c0998	0.06837767
109	0xbcdcbed8	-0.02694647
110	0xbc466f2c	-0.012111466
111	0x3c60f234	0.013729621
112	0xbd66aa0e	-0.05631452
113	0xbda10c30	-0.07863653
114	0xbc44ac4b	-0.0120039685
115	0x3d46f7cd	0.048576165
116	0x3ccce456	0.025011223
117	0xbcc6d1b1	-0.02426991
118	0xbcd58449	-0.026064055
119	0x3d81b5cb	0.063335024
120	0xbd830490	-0.063973546
121	0xbd8922d7	-0.06696098
122	0x3d5563f5	0.05209728
123	0xbc8e551f	-0.017374573
124	0x3c6436f4	0.0139291175
125	0xbd758af2	-0.05994696
126	0xbc07fa6b	-0.00829945
127	0xbd66f074	-0.056381658
128	0xbd16a11c	-0.03677474
129	0xbc1d0521	-0.009583742
130	0xbc2f64a7	-0.01070515
131	0x3d1a2e49	0.037641797
132	0xbd463742	-0.04839254
133	0xbd9b8c04	-0.07595065
134	0x3d9fed25	0.078089036
135	0x3d5128ae	0.051064186
136	0xbd825423	-0.06363704
137	0x3c9bcb85	0.019017944
138	0x3d19a3ba	0.037509657
139	0xbd2b8f0a	-0.04188446
140	0x3d8723b0	0.06598604
141	0xbceb1b7d	-0.02869963
142	0x3d533a81	0.051569466
143	0x3d9e3c74	0.07726374
144	0xbc792b5e	-0.015208093
145	0xbc9aef57	-0.018912954
146	0xbcd2239c	-0.025651745
147	0x3c3e8d66	0.011630392
148	0xbd9f0535	-0.07764665
149	0xbc2a410a	-0.010391483
150	0x3d9d9593	0.07694545
151	0xbc928d53	-0.017889654
152	0x3d4af24c	0.04954748
153	0xbc97932c	-0.018502794
154	0xbd865978	-0.065600336
155	0x3cee4b6b	0.029088696
156	0x3c3f614a	0.01168091
157	0xbd0c7fe2	-0.034301646
158	0x3d11595c	0.03548561
159	0xbd2c55ff	-0.0420742
160	0x3d59cff4	0.053176835
161	0x3d19fa98	0.0375925
162	0x3d97eb72	0.074179545
163	0x3cd1b86d	0.025600636
164	0x3c71a396	0.014748475
165	0xbd47a085	-0.048737068
166	0x3c4c4a2c	0.012468856
167	0xbd3b238a	-0.04568819
168	0x3bf63114	0.007513175
169	0xbd810851	-0.06300414
170	0xbd8ba2f0	-0.06818187
171	0x3c9d7ab9	0.019223558
172	0xbd3e2b92	-0.04642827
173	0xbd9cdbc5	-0.07659105
174	0x3c352a13	0.011057395
175	0x3d4c746b	0.049915712
176	0xbd4d2caf	-0.05009144
177	0xbd55f87c	-0.052238926
178	0xbcf2654d	-0.02958932
179	0x3cf6c924	0.030125208
180	0xbd9a641c	-0.075386256
181	0x3d3365ef	0.043798383
182	0x3d14aa8c	0.03629546
183	0xbd4bb851	-0.049736325
184	0xbda1e308	-0.07904631
185	0x3c413dab	0.011794488
186	0xbd33c7b1	-0.043891612
187	0xbd57c7cf	-0.052680787
188	0xbc775182	-0.015095117
189	0xbca1946c	-0.019724093
190	0x3d806577	0.06269353
191	0x3d39c141	0.045350317
192	0xbd9a595a	-0.07536574
193	0x3d2b809b	0.041870695
194	0x3d9b5181	0.07583905
195	0xbd07dd22	-0.033169873
196	0x3cc16e07	0.023612035
197	0xbd10a38b	-0.035312217
198	0x3d764a91	0.060129706
199	0xbd9fa25b	-0.07794639
200	0xbd43df26	-0.047820233
201	0xbbc3d73e	-0.0059765866
202	0x3c6ab334	0.014324952
203	0xbd5952b4	-0.053057387
204	0x3d70b1c0	0.058763266
205	0x3c2deeb7	0.010615996
206	0x3d437765	0.047721285
207	0x3d1c2ee3	0.038130652
208	0x3c99d94d	0.018780375
209	0xbd43d2fd	-0.047808636
210	0xbb5742a9	-0.003284613
211	0x3cda5717	0.026652856
212	0xbcf7f35c	-0.03026741
213	0x3bb9a1df	0.0056650485
214	0x3cec81c6	0.028870475
215	0x3b316481	0.0027067962
216	0x3d0208f6	0.031746827
217	0xbc51807b	-0.01278698
218	0x3cdf6e98	0.027274415
219	0x3c45cdc4	0.012072984
220	0xbd837610	-0.06419003
221	0x3d6d8e23	0.05799688
222	0xbd099f3a	-0.033599116
223	0xbd8b3a0f	-0.06798183
224	0x3bc9fc43	0.006164105
225	0xbd6b9882	-0.05751849
226	0xbd42d42f	-0.047565635
227	0x3c73e64a	0.014886448
228	0xbd448545	-0.04797866
229	0xbcd73b18	-0.026273295
230	0xbc97084d	-0.018436575
231	0x3d958bb9	0.073020406
232	0xbcafcde6	-0.021460485
233	0x3c183aab	0.009291331
234	0x3d1a4af1	0.037669126
235	0xbd5d2d46	-0.053998254
236	0xbbe255e4	-0.0069072116
237	0x3c356e7d	0.011073706
238	0xbc71e33c	-0.01476365
239	0xbd404314	-0.04693897
240	0xbcbd5be0	-0.023115098
241	0x3d5eeb5c	0.054423675
242	0xbc0883f8	-0.008332245
243	0xbd2904ba	-0.041264273
244	0xbd6ebe10	-0.058286726
245	0x3cffab99	0.031209754
246	0x3d0f05d0	0.034917653
247	0xbaff5783	-0.0019481037
248	0xbd4b0753	-0.04956753
249	0xbd85ffb6	-0.065429136
250	0x3ca914cd	0.020639801
251	0xbd296cd5	-0.041363556
252	0xbd0e38cc	-0.034722134
253	0xbd5b44b1	-0.053532306
254	0xbd2e1eac	-0.04250972
255	0x3d7f2d70	0.062299192

rnn_layer.weight_hh_l0 f4 [624, 156]
0	0xbd60b72d	-0.05486219
1	0x3d34e147	0.044160154
2	0x3d1014e8	0.035176188
3	0x3d45e0cd	0.04831009
4	0x3cee4388	0.029084936
5	0xbc2fd18a	-0.01073111
6	0x3d8f76c9	0.07005078
7	0xbd958e92	-0.07302584
8	0x3afcbf4d	0.0019283086
9	0xbd72b93f	-0.059258696
10	0xbd8389e9	-0.06422789
11	0x3d6577ee	0.056022577
12	0x3d41ce8e	0.047316127
13	0x3cf3b330	0.02974853
14	0x3c706841	0.014673294
15	0xbd761ae1	-0.060084227
16	0x3d99b5ca	0.07505377
17	0xbd5c694c	-0.053811356
18	0x3d94a2dc	0.072576255
19	0xbcf73477	-0.030176384
20	0xbc84d2bb	-0.016213765
21	0x3c3f5566	0.011678075
22	0xbd2c1055	-0.042007763
23	0xbd8f263f	-0.06989717
24	0x3d48dfbe	0.049041502
25	0xbc81f3c3	-0.015863305
26	0xbd383384	-0.044971004
27	0xbd84e0be	-0.06488179
28	0xbd8b9bd9	-0.06816835
29	0xbd0e437a	-0.03473232
30	0xbcc23f47	-0.023711814
31	0xbd0438f5	-0.03228088
32	0x3d5150aa	0.051102318
33	0xbcd434f4	-0.025904156
34	0xbd060d01	-0.032727245
35	0xbd5511be	-0.052018873
36	0xbcf5ea90	-0.030019075
37	0xbd9280a1	-0.0715344
38	0xbd1d2f31	-0.038375083
39	0xbd8dab57	-0.06917446
40	0xbd20edbd	-0.039289225
41	0x3d9b1682	0.075726524
42	0xbd8cdfbf	-0.06878614
43	0x3d2d678c	0.042335078
44	0x3cef6d0d	0.029226804
45	0x3d477d52	0.0487035
46	0x3abf2633	0.0014583528
47	0x3d88ef96	0.066863224
48	0x3d995c94	0.07488361
49	0x3d1ce639	0.038305495
50	0x3d7fe484	0.06247379
51	0xbd366d37	-0.04453775
52	0xbcbca258	-0.02302663
53	0x3cdfc9fd	0.027317995
54	0xbbb06141	-0.0053826873
55	0x3d9251ab	0.07144483
56	0xbd57e0cf	-0.05270463
57	0x3da3eb22	0.080038324
58	0x3d02bc79	0.031918023
59	0x3d2e26a3	0.042517316
60	0xbd27d208	-0.040971786
61	0x3d3a2da2	0.045453675
62	0x3d96c5a5	0.073619165
63	0xbda2ba6c	-0.079457134
64	0x3bfe2af4	0.0077565853
65	0x3d03583b	0.032066565
66	0xbd58b216	-0.05290421
67	0x3d524f16	0.051344953
68	0x3d8d1e4a	0.06890543
69	0xbca559a3	-0.020184344
70	0xbd627a8a	-0.055292644
71	0xbd029e02	-0.03188897
72	0x3d9bf956	0.076159164
73	0xbac8ed01	-0.0015329422
74	0xbd787a91	-0.060663763
75	0x3d69e9fb	0.057107907
76	0x3d8e2af6	0.06941788
77	0x3cf5bdbf	0.029997705
78	0x3d22da95	0.039759237
79	0x3d2783fd	0.04089736
80	0x3d071188	0.032975703
81	0x3d4e6a3d	0.050394285
82	0x3bb03a06	0.0053780107
83	0x3d989cc3	0.07451775
84	0x3d1a97f9	0.03774259
85	0x3d2931d5	0.04130729
86	0xbd3eb710	-0.0465613
87	0xbc9bd707	-0.019023431
88	0xbd021c99	-0.031765554
89	0xbd82835d	-0.06372712
90	0xbd831896	-0.06401174
91	0xbac5af38	-0.0015082126
92	0xbd4f2bbc	-0.050578818
93	0xbd3e5227	-0.046465065
94	0xba57fc40	-0.00082391873
95	0xbc9ec682	-0.019381765
96	0x3c8ae17e	0.016953226
97	0xbda0a044	-0.07843068
98	0xbd38a575	-0.045079667
99	0x3d048981	0.032357696
100	0x3d4d02d0	0.05005151
101	0xbd5fbe11	-0.05462462
102	0xbd44ad15	-0.048016626
103	0x3c072f4c	0.008251023
104	0x3b3af744	0.002852873
105	0x3bbb8619	0.005722773
106	0x3c89fc3b	0.016843906
107	0x3d18a87f	0.037270065
108	0xbc0d7c63	-0.008635613
109	0xbd6301f0	-0.05542177
110	0xbd200021	-0.039062623
111	0xbd8e949e	-0.0696194
112	0x3d58c5e4	0.0529231
113	0x3c821b13	0.01588205
114	0x3d3bb563	0.04582728
115	0x3d573965	0.05254497
116	0x3d4c2e6e	0.049848966
117	0xbd4047c3	-0.046943437
118	0xbcff019a	-0.031128693
119	0x3d133fcf	0.035949524
120	0x3c9218a7	0.01783402
121	0xbd43bfd8	-0.04779038
122	0x3c63ae72	0.0138965715
123	0xbb0c5d8f	-0.002141807
124	0x3cff9748	0.031200066
125	0x3ca5bdfa	0.02023219
126	0x3d915234	0.07095757
127	0xbc6a8fb2	-0.014316486
128	0x3d8f2adb	0.06990596
129	0x3d4a76e4	0.04942979
130	0xbcd7b107	-0.02632953
131	0x3d8d5a19	0.069019504
132	0x3ba9c8c9	0.005181406
133	0xbd86eba0	-0.06587911
134	0xbd82650e	-0.06366931
135	0x3d9963bd	0.07489727
136	0x3c6681a0	0.014068991
137	0x3d8b711c	0.06808683
138	0xbbcd6c3f	-0.0062690075
139	0x3d6d7794	0.057975367
140	0x3d31ccfa	0.04340837
141	0x3bfc5017	0.007699977
142	0xbd5140f3	-0.05108733
143	0xbd1f0792	-0.03882558
144	0xbb324be3	-0.0027205877
145	0xbd682ed4	-0.056685284
146	0xbd920496	-0.07129781
147	0xbd36850e	-0.044560485
148	0xbd75df67	-0.060027506
149	0xbd6e9948	-0.05825165
150	0xbd9a0f82	-0.07522489
151	0xbd90bf6d	-0.070677616
152	0x3d934f6b	0.07192882
153	0x3d677dd6	0.05651649
154	0xbd034ec3	-0.032057535
155	0xbd5ce770	-0.053931653
156	0xbd938c97	-0.0720455
157	0xbc9a1368	-0.018808082
158	0x3d1a5b60	0.0376848
159	0x3cdc9464	0.026926227
160	0xbc7d17f9	-0.01544761
161	0x3d3c18a5	0.04592194
162	0xbc43e76a	-0.011957029
163	0x3c94a2a2	0.018143956
164	0x3c1dc77c	0.00963008
165	0x3d84f0b2	0.064912215
166	0x3bd1e1f5	0.00640511
167	0x3d1fbd3a	0.03899882
168	0xbcea47e6	-0.028598737
169	0x3d80f348	0.06296402
170	0x3c927262	0.017876808
171	0xbd1b93d8	-0.03798279
172	0xbca7b68f	-0.020472793
173	0x3d8782f6	0.06616776
174	0x3d410fe7	0.047134306
175	0x3c261080	0.01013577
176	0x3d95cf97	0.07314985
177	0x3d3b8700	0.045783043
178	0xbccd9ee3	-0.025100177
179	0xbd85244c	-0.06501064
180	0xbd9c17c4	-0.076217204
181	0xbca2128b	-0.019784233
182	0x3d8e00ec	0.069337696
183	0x3d4c55c8	0.049886495
184	0xbd77110e	-0.060319
185	0xbd3f2c51	-0.046673123
186	0x3cc6da70	0.024274081
187	0xbd2bab8a	-0.04191164
188	0x3c86492c	0.016392313
189	0x3d956249	0.07294137
190	0x3c003ed5	0.00782748
191	0xbc7dd033	-0.015491533
192	0x3d073be3	0.033016097
193	0xbd29181f	-0.04128277
194	0x3cca14e7	0.02466817
195	0x3c9ab5b7	0.018885477
196	0xbd4e38d2	-0.050347157
197	0x3d2a76f9	0.041617367
198	0xbd937ee4	-0.07201937
199	0x3a44b32e	0.00075035065
200	0x3c225924	0.009908948
201	0x3d90d345	0.070715465
202	0xbd8da0a6	-0.06915407
203	0xbd326d37	-0.043561187
204	0xbba2f4d3	-0.004973033
205	0x3c87fd8f	0.016600398
206	0xbce96027	-0.028488232
207	0x3d717d50	0.058957398
208	0xbc765ad5	-0.0150363045
209	0xbcdf81fd	-0.027283663
210	0x3ca26bbc	0.019826762
211	0x3d26d895	0.040733892
212	0xbbda5a93	-0.0066636293
213	0x3d59d6a3	0.05318321
214	0xbd52b6b5	-0.051443774
215	0x3d83d505	0.064371146
216	0x3d82de48	0.06390053
217	0x3cddf727	0.02709539
218	0xbcf97177	-0.030449612
219	0xbd38f1e6	-0.045152567
220	0x3d50643e	0.05087685
221	0xbda143fe	-0.078742966
222	0x3d0257f4	0.03182216
223	0x3d3158f9	0.04329774
224	0x3d66e3d3	0.056369614
225	0xbbb54041	-0.0055313413
226	0xbd12b341	-0.03581548
227	0x3d9c4410	0.076301694
228	0xbd08f6df	-0.03343856
229	0x3d2168de	0.03940665
230	0xbd3f2ae2	-0.046671756
231	0x3b4a7766	0.003089392
232	0xbd96750e	-0.07346545
233	0xbc6d4e2d	-0.014483971
234	0x3d834d32	0.06411208
235	0x3cee15cc	0.029063128
236	0x3d48af65	0.048995394
237	0x3d7899b3	0.060693454
238	0xbc04ddd2	-0.008109527
239	0x3d1ef16f	0.038804468
240	0xbda3c14f	-0.07995855
241	0xbcee1dce	-0.029066946
242	0x3d4b9156	0.04969915
243	0xbcbe40a8	-0.02322419
244	0xbd5b9cf9	-0.053616498
245	0xbd9a9e5f	-0.07549738
246	0xbcf77685	-0.030207882
247	0x3c87e04c	0.016586445
248	0x3d87903e	0.06619309
249	0xbd048f68	-0.032363325
250	0x3d88c759	0.066786475
251	0x3d3c1991	0.04592282
252	0xbd1505c5	-0.036382455
253	0xbd9a84e0	-0.07544875
254	0x3d9a2664	0.07526854
255	0xbd5bc2c6	-0.053652547

rnn_layer.bias_ih_l0 f4 [624]
0	0x3d3f22a3	0.04666389
1	0xbcf73581	-0.03017688
2	0xbbb354d2	-0.005472758
3	0xbd8b8e05	-0.068141975
4	0x3d0f6b8b	0.03501467
5	0x3d63f7b2	0.055656143
6	0xbcb7453f	-0.022371886
7	0x3d572878	0.05252883
8	0x3d99f297	0.075169735
9	0x39fc8088	0.0004816095
10	0xbc0d50f4	-0.008625258
11	0x3d9036f2	0.0704173
12	0x3c5e885a	0.013582313
13	0xbcd9cefc	-0.026587956
14	0xbc9d50e4	-0.01920361
15	0x3c08e12a	0.008354465
16	0x3d3eb583	0.04655982
17	0x3d3f7541	0.04674268
18	0xbc4555ab	-0.012044351
19	0xbc0bbaf2	-0.008528458
20	0x3cf7baea	0.030240495
21	0x3d883ce5	0.0665224
22	0x3bf02384	0.0073284525
23	0x3d0cfe2f	0.034422096
24	0xbd41aa19	-0.04728136
25	0xbd0ed25a	-0.034868576
26	0xbd1f9ea4	-0.03896965
27	0x3d05fde4	0.032712832
28	0x3d65ca91	0.056101386
29	0x3d6b3c5d	0.057430614
30	0xbd8371f6	-0.06418221
31	0xbc0de26e	-0.008659942
32	0xbd53742e	-0.05162447
33	0xbc7eb739	-0.015546613
34	0xbd5f1b54	-0.05446942
35	0x3bfe2106	0.0077554015
36	0x3bbb4da7	0.005716044
37	0xbd93cfe2	-0.07217385
38	0xbd7d3a7d	-0.061823357
39	0xbb28a025	-0.002573022
40	0xbd7109c0	-0.05884719
41	0xbd9c5b10	-0.07634556
42	0x3d9ed514	0.07755485
43	0x3d3c8a04	0.04603006
44	0x3d995784	0.074873954
45	0x3ce85265	0.028359601
46	0x3d47dc49	0.048794065
47	0xbd3c5546	-0.04597976
48	0xbd96e633	-0.07368126
49	0xbb92bcb4	-0.0044780616
50	0x3d54f2c2	0.051989324
51	0xbcf8745c	-0.030328922
52	0x3d4b8ef4	0.049696878
53	0xbbd491ca	-0.006487106
54	0xbd8bcdc8	-0.06826359
55	0xbd07a97c	-0.033120617
56	0xbcd9ab2c	-0.026570879
57	0xbc47b6d6	-0.012189588
58	0x3d8a128d	0.067418195
59	0x3c3eb43b	0.01163965
60	0xbd155453	-0.03645737
61	0x3d5e2a63	0.054239642
62	0xbd829c71	-0.06377495
63	0xbb8c5dcc	-0.0042836424
64	0xbd0bddc6	-0.034147047
65	0x3d9dc759	0.07704038
66	0xbd0392e0	-0.032122493
67	0x3d4c489f	0.049873944
68	0xbd7e60aa	-0.062103905
69	0xbd9ec43f	-0.07752275
70	0x3d6178fc	0.05504702
71	0x3d3617ad	0.044456173
72	0xbbb12f43	-0.0054072454
73	0xbd131d64	-0.0359167
74	0xbc9e2275	-0.01930354
75	0x3d8c7f95	0.06860272
76	0xbce5ed72	-0.028067324
77	0x3d131579	0.03590915
78	0xbc06bec4	-0.008224193
79	0x3bfd6ae1	0.007733688
80	0x3d78089b	0.06055508
81	0xbd297f9d	-0.041381467
82	0x3d884811	0.066543706
83	0x3b1e7d97	0.0024183744
84	0x3b879ed3	0.0041388064
85	0x3ba634da	0.0050722184
86	0xbd98c3ac	-0.074591964
87	0xbd0019e5	-0.031274695
88	0xbc8c906b	-0.017158708
89	0xbd626643	-0.055273306
90	0xbc95da33	-0.018292522
91	0xbb5df8ff	-0.0033870337
92	0x3d19c97f	0.037545677
93	0xbd6c91f2	-0.05775637
94	0x3d6abe27	0.05731025
95	0xbbaddd9f	-0.0053059603
96	0x3d6cae73	0.057783555
97	0x3d6861d7	0.056733932
98	0xbb40a8e9	-0.0029397553
99	0x3d13b87e	0.036064617
100	0x3b073695	0.0020631899
101	0x3d2e63a1	0.042575482
102	0x3afa3862	0.001909029
103	0x3d9df81d	0.077133395
104	0x3c72f140	0.014828026
105	0xbd63104a	-0.055435456
106	0x3d0eca39	0.034860823
107	0xbd9ac085	-0.075562514
108	0x3d065424	0.032795087
109	0x3d971258	0.07376546
110	0x3b2de1b4	0.0026532235
111	0xbd8f1413	-0.06986251
112	0xbd9619a8	-0.07329112
113	0xbc8cc0c2	-0.017181758
114	0x3d1e981a	0.038719274
115	0xbcd44f99	-0.025916861
116	0xbd1f5a2b	-0.03890435
117	0x3cda9c3f	0.026685832
118	0xbbbee96f	-0.0058261673
119	0x3da0a684	0.0784426
120	0x3a0e1dc1	0.0005421304
121	0xbd90d9b5	-0.07072774
122	0x3ccfcd79	0.025366532
123	0xbd333c38	-0.0437586
124	0x3bcdd39c	0.0062813293
125	0xbd968e16	-0.073513195
126	0x3d83fe94	0.06445041
127	0x3d896289	0.06708247
128	0xbd81e5d5	-0.06342665
129	0x3d9a4444	0.07532552
130	0x3d3c1ba1	0.045924786
131	0xbd534d26	-0.051587246
132	0xbc31c06a	-0.010849098
133	0xbd6397cc	-0.055564687
134	0x3d010b78	0.031505078
135	0x3c996d36	0.018728834
136	0xbd5a42ea	-0.05328647
137	0xbd28d2c2	-0.04121662
138	0xbce4f821	-0.027950348
139	0x3c96df17	0.018416924
140	0x3d730d81	0.05933905
141	0x3c93d49b	0.018045714
142	0x3d789a5a	0.060694076
143	0x3d573ccc	0.052548215
144	0x3d384fc5	0.04499795
145	0xbd9b4dec	-0.07583222
146	0xbc2a42ec	-0.010391932
147	0x3bd3d3f5	0.006464476
148	0xbbda71cb	-0.006666397
149	0xbc12a987	-0.008951551
150	0x3d108caf	0.035290416
151	0xbd4d3e6b	-0.050108355
152	0x3d100d5d	0.035168994
153	0xbd22845b	-0.039677005
154	0xbd63f7d0	-0.055656254
155	0xbcb6c252	-0.022309456
156	0xbd882293	-0.066472195
157	0xbcb72db5	-0.022360662
158	0x3d5c0463	0.05371512
159	0xbd84601d	-0.06463645
160	0x3d0d85e5	0.03455152
161	0x3cbd6d3a	0.023123372
162	0xbd9450fe	-0.072420105
163	0x3d606cae	0.054791145
164	0xbd978430	-0.0739826
165	0x3d75316f	0.059861597
166	0xbced3bb4	-0.028959133
167	0xbd907fce	-0.07055627
168	0xbda09ded	-0.07842622
169	0xbc20a531	-0.00980501
170	0x3d88506d	0.06655965
171	0xbd87f282	-0.066380516
172	0x3d4e5662	0.05037535
173	0xbd95d952	-0.07316841
174	0x3ca00ad4	0.019536413
175	0x3d0a8a34	0.033823207
176	0x3c6cd9ec	0.0144562535
177	0xbbf8623f	-0.007580071
178	0xbd1894f3	-0.037251424
179	0x3cf4f0a9	0.029899912
180	0xbd684aa1	-0.056711797
181	0xbc42df2a	-0.011894027
182	0xbd637986	-0.055535816
183	0xbd91543e	-0.07096146
184	0xbd80c8d8	-0.06288308
185	0x3d0cde5c	0.034391746
186	0xbd380f80	-0.044936657
187	0xbd3281fb	-0.04358099
188	0x3da29e30	0.07940328
189	0x3d68199f	0.05666506
190	0xbd127ff4	-0.035766557
191	0x3ca425e9	0.020037608
192	0x3bf70b40	0.007539183
193	0x3c788ac2	0.015169801
194	0xbd83a25c	-0.06427452
195	0x3b4ee9e9	0.0031572527
196	0x3d6dfd32	0.058102794
197	0x3d37b9a1	0.044854764
198	0xbd0cd9b5	-0.03438731
199	0xbd873bd5	-0.06603209
200	0xbcb6b059	-0.022300886
201	0x3d8a38f6	0.06749146
202	0xbcf58533	-0.02997074
203	0xbd6a6e5c	-0.057234153
204	0x3bceb61c	0.00630833
205	0xbd9ad4ba	-0.075601056
206	0xbd06ffe3	-0.032958876
207	0xbcc1adfb	-0.02364253
208	0x3bcca052	0.0062446976
209	0xbd1b2108	-0.037873298
210	0x3c9ec03e	0.019378778
211	0x3cd41b2d	0.025891865
212	0xbce1e4c7	-0.02757491
213	0x3d34526c	0.044023916
214	0x3cee362f	0.029078571
215	0x3d80c353	0.06287255
216	0x3cabfffa	0.020996083
217	0xbd62bd58	-0.055356354
218	0x3ba497a4	0.00502296
219	0xbd9103f2	-0.07080831
220	0xbd8077b8	-0.062728345
221	0x3d5f96a8	0.054587036
222	0x3cba9bfe	0.022779461
223	0xbcec0b52	-0.028813992
224	0x3ce1486f	0.02750036
225	0xbd364e30	-0.04450816
226	0x3d3b602b	0.04574601
227	0xbd88d41e	-0.06681083
228	0xbd7ab424	-0.06120695
229	0xbcb6886a	-0.022281844
230	0x3c08e702	0.008355858
231	0xbd96e5d2	-0.073680535
232	0xbda1a14c	-0.07892093
233	0xbb9f5185	-0.004862013
234	0xbc406a0f	-0.011744036
235	0xbc353a87	-0.011061317
236	0x3cb5b3ce	0.022180464
237	0x3c1d16fc	0.009587999
238	0x3d59ca54	0.05317147
239	0x3d5ca192	0.053865023
240	0xbb16dc07	-0.002301933
241	0xbcf22888	-0.029560342
242	0xbd148b64	-0.036265746
243	0x3cc8de64	0.024520107
244	0x3d9460d5	0.07245032
245	0x3d527aee	0.051386766
246	0x3a96cbb2	0.0011504798
247	0x3cdf5b85	0.02726532
248	0x3d971a8c	0.0737811
249	0x3d1aa77e	0.03775739
250	0x3d983910	0.07432759
251	0xbd895b76	-0.06706898
252	0x3d460946	0.048348688
253	0xbc2559ad	-0.010092181
254	0xbd53dd68	-0.05172482
255	0x3cd60954	0.026127495

rnn_layer.bias_hh_l0 f4 [624]
0	0xbbcad966	-0.0061904667
1	0xbcbe9c36	-0.023267847
2	0xbd7030e1	-0.058640365
3	0x3d9e815d	0.07739518
4	0x3cc89fb4	0.024490215
5	0xbd5b74a9	-0.053578053
6	0xbcd6d828	-0.026226118
7	0x3bf66b49	0.0075201136
8	0xbd02d4e2	-0.031941302
9	0x3d288982	0.041146763
10	0x3d9b0aa9	0.07570393
11	0x3d8325a5	0.064036645
12	0x3d3f6ec7	0.046736505
13	0xbd1db561	-0.038503055
14	0x3ce3e3e8	0.027818635
15	0x3d9b7cb4	0.075921446
16	0xbd64749b	-0.055775266
17	0xbd624eaa	-0.0552508
18	0xbd15afdb	-0.036544662
19	0x3d6ca9ed	0.05777924
20	0xbd8cf99a	-0.06883545
21	0xbd028731	-0.03186721
22	0xbc051807	-0.008123404
23	0x3d8d19cc	0.06889686
24	0xbcd3f415	-0.025873223
25	0x3d4b85db	0.0496882
26	0xbd51fbe9	-0.05126563
27	0xbd04fb7e	-0.032466404
28	0xbca30cbe	-0.019903537
29	0xbd45d0ba	-0.04829476
30	0xbcd83b3d	-0.026395435
31	0x3d7029ef	0.05863374
32	0xbcfe79bc	-0.031063907
33	0x3d5a94ec	0.05336468
34	0xbd96e128	-0.07367164
35	0x3caa3927	0.020779205
36	0xbcfda25d	-0.03096121
37	0xbd894d07	-0.06704145
38	0xbd19ca0f	-0.037546214
39	0x3ce57b09	0.02801277
40	0xbd0e412f	-0.034730133
41	0xbc7f87df	-0.015596359
42	0x3d6c96dc	0.05776106
43	0x3d8705a9	0.065928765
44	0xbd1a8b7e	-0.037730686
45	0xbc995203	-0.018715864
46	0x3cb234d4	0.021753706
47	0xbcf967a3	-0.030444926
48	0xbd889703	-0.06669428
49	0x3d99caf1	0.07509411
50	0xbcea0849	-0.028568404
51	0xbab7ad4f	-0.0014013442
52	0xbd04bd13	-0.032406878
53	0xbd8d3924	-0.06895664
54	0xbd4fc3bf	-0.050723787
55	0x3d5a1e35	0.053251464
56	0x3c1023bb	0.008797581
57	0xbc854881	-0.016269924
58	0xbd025eb0	-0.031828582
59	0x3cf4f7c9	0.02990331
60	0x3c332042	0.010932984
61	0x3cbf4596	0.02334861
62	0xbd942ac6	-0.07234721
63	0x3c8c03d3	0.017091667
64	0xbd727fa7	-0.05920377
65	0x3d1c3956	0.038140617
66	0x3c4a03de	0.012330024
67	0xbd95a004	-0.07305911
68	0xbd63f297	-0.055651274
69	0x3d86529d	0.06558726
70	0x3d9089de	0.07057546
71	0x3d8265e0	0.06367087
72	0x3d1c4611	0.038152758
73	0x3d388a09	0.045053516
74	0x3d33bc71	0.043880884
75	0x3d7fa7d9	0.06241593
76	0x3d429709	0.04750732
77	0xbc9e75fc	-0.019343369
78	0xbc844113	-0.016144311
79	0xbc11b340	-0.008892834
80	0xbda118c0	-0.07866049
81	0xbd7e19ff	-0.06203651
82	0xbc48fa04	-0.01226664
83	0x3d198c85	0.037487525
84	0x3d711385	0.058856506
85	0xbd97e708	-0.074171126
86	0x3d95155a	0.07279463
87	0x3d17770d	0.03697877
88	0xbce982dc	-0.028504781
89	0xbd50b670	-0.050955236
90	0x3d90779b	0.07054063
91	0xbcd05c4f	-0.025434641
92	0x3bf7fe2b	0.007568141
93	0x3d5d1896	0.053978525
94	0xbd56a93d	-0.052407492
95	0xbcd18f7e	-0.025581118
96	0xbd65c61b	-0.05609713
97	0x3c640c33	0.013918924
98	0xbcad9739	-0.021190273
99	0x3d351a4b	0.044214528
100	0x3d35ad78	0.044354886
101	0xbd572c13	-0.052532267
102	0x3bc5136a	0.006014277
103	0xbd87dc9c	-0.06633875
104	0xbc68bfce	-0.014205886
105	0x3d878279	0.066166826
106	0x3d9110eb	0.07083305
107	0xbd0f3e65	-0.034971613
108	0xbd8333d8	-0.06406373
109	0xbd0c214f	-0.034211453
110	0xbd603737	-0.054740157
111	0x3d774ef7	0.06037804
112	0xbd917a6e	-0.0710343
113	0xbd15b76f	-0.03655189
114	0x3cec5074	0.028846957
115	0xbda04be9	-0.07826979
116	0x3c2d39b0	0.010572836
117	0xbc87bd02	-0.016569618
118	0x3c11378d	0.008863342
119	0x3c0faeeb	0.008769731
120	0x3d9aef17	0.07565134
121	0x3c1f9503	0.009740117
122	0x3cc4db0d	0.024030233
123	0xbce5fad1	-0.0280737
124	0xbbc54322	-0.0060199657
125	0x3ce41353	0.027841246
126	0x3d7020d1	0.058625046
127	0x3ce9b843	0.028530246
128	0xbcf63a96	-0.030057233
129	0x3c958937	0.018253906
130	0xbc6eaa7f	-0.014567017
131	0xbd83f160	-0.06442523
132	0x3d508f63	0.050917994
133	0x3cc07788	0.023494497
134	0xbd5d7943	-0.054070722
135	0x3c2a2b76	0.010386338
136	0x3d37c8c3	0.044869196
137	0xbd0caf27	-0.034346726
138	0x3d7b4055	0.06134065
139	0xbd038c3b	-0.032116156
140	0xbb820f72	-0.0039691264
141	0x3cc28007	0.023742689
142	0x3c88b4de	0.016687807
143	0xbd7056ca	-0.05867652
144	0x3d635240	0.05549836
145	0x3c9ddfa0	0.019271672
146	0x3b4fe5f4	0.0031722756
147	0x3d765607	0.060140636
148	0xbd1bda78	-0.038050145
149	0x3cf2b6f2	0.02962825
150	0xbd5656a7	-0.052328732
151	0x3d0bde8c	0.034147784
152	0x3d9b93ee	0.07596575
153	0xbd2e18c2	-0.04250408
154	0xbd7037f9	-0.05864713
155	0x3d723b56	0.05913862
156	0x3d2ffb83	0.04296447
157	0x3d8d532a	0.06900628
158	0x3d66b0d0	0.056320965
159	0xbd513f99	-0.051086042
160	0xbd91642e	-0.07099186
161	0xbc296c64	-0.010340784
162	0xbd37e253	-0.044893574
163	0x3c094686	0.0083786305
164	0xbc4d06f7	-0.012513868
165	0xbd40acd0	-0.047039807
166	0x3cdca3a4	0.026933499
167	0x3d3ba23b	0.045809012
168	0x3d7316f6	0.05934807
169	0x3d9446e1	0.072400816
170	0xbd8a047e	-0.06739138
171	0x3cf8db20	0.030377924
172	0xbd8774b6	-0.06614058
173	0xbd9c4be5	-0.07631663
174	0xbd70a662	-0.058752425
175	0x3cc7fdda	0.024413038
176	0xbd8df7b1	-0.06932009
177	0x3cddc365	0.02707071
178	0xbd007712	-0.031363554
179	0x3d1fd2c6	0.03901937
180	0xbd069308	-0.032855064
181	0xbbd5a454	-0.0065198336
182	0xbce57888	-0.028011575
183	0xbd2d6467	-0.04233208
184	0xbd8b951e	-0.06815551
185	0x3d9fd3e2	0.07804085
186	0x3befa4f0	0.0073133633
187	0x3d158813	0.036506724
188	0xbd92bc35	-0.07164804
189	0x3d8c5c16	0.068535015
190	0x3d97fd6c	0.07421383
191	0x3d600f60	0.054702163
192	0xbd3133ec	-0.043262407
193	0xbd013f0a	-0.03155426
194	0x3d98deab	0.074643455
195	0x3c72956b	0.014806132
196	0xbc561a39	-0.013067775
197	0x3d093ced	0.03350537
198	0xbc5c6f90	-0.013454333
199	0x3c471b6e	0.012152536
200	0xbd81fa95	-0.06346623
201	0xbda00317	-0.07813089
202	0x3d5a7c39	0.053341124
203	0xbbad2059	-0.005283397
204	0xbd9d3581	-0.07676221
205	0xbd29ab6e	-0.041423254
206	0x3c2c9e7c	0.0105358325
207	0xbd8cc000	-0.068725586
208	0xbd3cd735	-0.046103675
209	0x3d00a5bf	0.031408068
210	0xbd971f78	-0.07379049
211	0xbb05b7b7	-0.0020403692
212	0xbbb28e80	-0.005449116
213	0xbcb87e99	-0.022521304
214	0xbd0877fd	-0.033317555
215	0xbd1fc3c0	-0.03900504
216	0x3d337005	0.043808002
217	0xbcb3e47f	-0.021959541
218	0xbd8d1c14	-0.06890121
219	0x3c2017d7	0.009771309
220	0xbca1f070	-0.01976797
221	0x3d78ff9f	0.060790654
222	0x3d5b6990	0.05356747
223	0x3d6b0c44	0.057384744
224	0xbc4f6b93	-0.012659925
225	0xbc73c224	-0.01487783
226	0x3d902cef	0.070398204
227	0x3d8d5ff4	0.06903067
228	0xbd9e9d4d	-0.077448465
229	0xbd1694d7	-0.03676304
230	0xbcf9451c	-0.030428462
231	0xbcb64ac9	-0.022252457
232	0x3d336b85	0.04380371
233	0xbc4c39ae	-0.012464924
234	0xbd1d2bfd	-0.03837203
235	0x3c43a433	0.011941004
236	0x3d010bfa	0.031505562
237	0xbd16e4d0	-0.036839306
238	0xbd2b9476	-0.04188963
239	0x3d9c056f	0.07618224
240	0xbd8d0d22	-0.068872705
241	0x3cf8bdbd	0.030363912
242	0x3d2de1bc	0.042451605
243	0xbd64b460	-0.05583608
244	0x3d4b5e1d	0.0496503
245	0x3c735b37	0.01485329
246	0xbca4a312	-0.02009729
247	0xbd81c30e	-0.06336032
248	0xbc15309b	-0.009105827
249	0x3d927b12	0.0715238
250	0x3d3604f3	0.044438314
251	0x3c407230	0.011745974
252	0xbd60c761	-0.054877643
253	0xbc56f752	-0.013120489
254	0xbd81f9a3	-0.063464426
255	0x3d413531	0.047169868

dense_layers.0.weight f4 [64, 156]
0	0xbc27a682	-0.01023257
1	0xbd7edfd1	-0.062225167
2	0x3b0040d6	0.0019569895
3	0xbc386e2f	-0.011256739
4	0xbd73c991	-0.0595184
5	0xbd95e66c	-0.0731934
6	0x3d7892af	0.060686763
7	0xbd8d2721	-0.06892229
8	0x3ce02890	0.027363092
9	0xbd0ae96e	-0.033914022
10	0x3d9f1661	0.0776794
11	0xbcf10223	-0.029419964
12	0xbd956d7c	-0.07296273
13	0xbcc981ec	-0.024598084
14	0x3b285ea7	0.0025691183
15	0xbd579626	-0.052633427
16	0x3d5e575c	0.05428253
17	0xbcd6fe8c	-0.026244424
18	0xbcc16319	-0.023606824
19	0xbc1d3c6a	-0.009596923
20	0x3d8b6c7b	0.068078004
21	0x3d37857d	0.04480504
22	0x3d58de31	0.052946273
23	0xbca26db2	-0.019827697
24	0x3d8711de	0.06595205
25	0xbd5e117f	-0.054215904
26	0x3d0ab1dd	0.03386103
27	0x3d66dd32	0.056363292
28	0x3d64e47e	0.05588197
29	0x3d4a2a23	0.04935659
30	0xbd7dce59	-0.061964367
31	0xbd8acaa1	-0.0677693
32	0x3d9161e1	0.07098747
33	0x3d5544df	0.052067634
34	0x3c872095	0.016495029
35	0x3d2a53a5	0.041583676
36	0x3d8f80b8	0.07006973
37	0xbc0304af	-0.007996722
38	0xbd0e3c7b	-0.034725647
39	0xbd8fdc98	-0.07024497
40	0xbae50552	-0.0017472899
41	0xbd98f658	-0.07468861
42	0x3d5e0659	0.054205272
43	0xbd221258	-0.039568275
44	0x3d691fd2	0.05691511
45	0xbd7f9576	-0.062398396
46	0x3d8b6e61	0.068081625
47	0x3c8fd02f	0.017555324
48	0x3d228286	0.039675258
49	0xbd244ba9	-0.040111218
50	0xbd04d9fa	-0.03243444
51	0x3b38b31f	0.0028182936
52	0xbc0f6c25	-0.008753811
53	0x3d816ca9	0.063195534
54	0xbc96b1cb	-0.018395325
55	0xbd00352d	-0.031300712
56	0x3d733cfb	0.059384327
57	0x3d74fbae	0.059810333
58	0x3d20b3d0	0.039233983
59	0x3d4a4d3a	0.049390055
60	0xbd408ac7	-0.04700735
61	0xbd983ab6	-0.07433073
62	0xbd75c46e	-0.060001783
63	0x3c9c0f92	0.019050393
64	0xbcc179b3	-0.023617601
65	0x3d4c19c6	0.049829267
66	0xbd8e46ca	-0.06947096
67	0x3d9e8c8f	0.07741653
68	0x3d590047	0.05297878
69	0x3d9e1f38	0.07720798
70	0x3c5afd44	0.013366047
71	0x3cb7c91d	0.022434765
72	0x3d96bd8a	0.073603705
73	0xbc9d6086	-0.019211065
74	0x3cd0f7da	0.02550881
75	0xbd09f4b1	-0.03368062
76	0xbd0def94	-0.034652308
77	0xbd9c8f71	-0.07644547
78	0x3cef8d3d	0.029242152
79	0xbc0af5ca	-0.008481452
80	0x3d25115e	0.040299766
81	0xbd586911	-0.052834574
82	0x3d60cede	0.054884784
83	0xbc069de6	-0.008216357
84	0x3d4f9bfc	0.050685868
85	0x3d39a501	0.045323376
86	0xbc218837	-0.009859136
87	0xbd90a92b	-0.07063516
88	0x3a994ec5	0.0011696449
89	0x3d986f73	0.07443132
90	0x3d9bec85	0.07613472
91	0xbd95747d	-0.07297609
92	0xbcec81ea	-0.028870542
93	0x3c858f5d	0.016303713
94	0x3cd8eaa9	0.026479082
95	0x3d3c0cbf	0.045910593
96	0x3d9836cd	0.074323274
97	0x3d8c8501	0.06861306
98	0x3d130e23	0.035902154
99	0x3c79c0a6	0.015243685
100	0xbcf5acc0	-0.0299896
101	0xbd41fa55	-0.047357876
102	0xbcdcfc27	-0.026975704
103	0x3d8d0a61	0.06886745
104	0x3da1dac5	0.07903055
105	0x3d23d24d	0.03999548
106	0x3bf3b736	0.007437612
107	0xbd2ce512	-0.042210646
108	0x3cb80184	0.02246166
109	0xbce891b5	-0.028389791
110	0xbd9d8a0f	-0.07692348
111	0x3d28e5fe	0.041234963
112	0x3d11ccb6	0.03559562
113	0xbd9bcac6	-0.07607035
114	0xbc169ea8	-0.0091931
115	0xbc677b39	-0.0141285
116	0x3cf5e509	0.030016439
117	0xbd9b28ff	-0.07576179
118	0xbcd80356	-0.026368778
119	0x3c83aae5	0.0160727
120	0x3d082de6	0.033246897
121	0x3cf4eee6	0.029899072
122	0x3cfbd0ab	0.03073915
123	0xbd60827c	-0.05481194
124	0x3d69ecbc	0.057110533
125	0xbd7ecf6c	-0.06220953
126	0x3d0843bf	0.033267733
127	0x3d129b53	0.03579266
128	0xbd78c97b	-0.06073902
129	0xbcab6df6	-0.020926457
130	0xbc893e61	-0.016753377
131	0xbd1bb48f	-0.03801399
132	0x3d8d4ee9	0.068998165
133	0x3cc62069	0.024185376
134	0x3d6ca2ae	0.05777233
135	0xbcb48c35	-0.022039512
136	0xbd8727f8	-0.0659942
137	0xbd8f40bc	-0.06994769
138	0x3d060477	0.0327191
139	0xbd7289c5	-0.05921342
140	0xbd4bd319	-0.049761865
141	0xbcd3fb40	-0.025876641
142	0x3d131b51	0.035914723
143	0x3d24bb70	0.040217817
144	0x3d10a52a	0.035313763
145	0x3d1f4564	0.038884535
146	0x3d3ecac7	0.046580102
147	0x3ce97c8e	0.028501775
148	0xbc88beef	-0.016692607
149	0xbd0328be	-0.032021277
150	0x3ba6ecc2	0.0050941417
151	0x3d480fd1	0.04884321
152	0x3cbf505b	0.023353746
153	0xbd194aaa	-0.03742472
154	0xbd3837ec	-0.044975206
155	0x3d6c8756	0.057746254
156	0xbbbe1a4e	-0.0058014756
157	0x3d9b866f	0.075940005
158	0x3cddc541	0.027071597
159	0xbb285186	-0.0025683357
160	0xbad06fd3	-0.0015902467
161	0xbc7ad263	-0.015308949
162	0x3d7b4f91	0.061355177
163	0xbd8f2f19	-0.06991405
164	0xbd68956e	-0.056783132
165	0xbd01a342	-0.031649835
166	0xbd399aef	-0.04531377
167	0xbd865b47	-0.065603785
168	0x3da045c6	0.07825808
169	0x3d08f912	0.033440657
170	0xbd994188	-0.07483202
171	0xbd9c8f09	-0.07644469
172	0xbd91d1c4	-0.07120088
173	0x3c40336b	0.011731009
174	0xbd9d7959	-0.07689161
175	0x3d825f0b	0.06365784
176	0x3d78c465	0.06073417
177	0x3d3d2442	0.046177156
178	0xbb2c2a27	-0.0026270242
179	0x384250c5	4.6328427e-05
180	0x3d2be528	0.041966587
181	0x3cd83a7b	0.026395073
182	0x3d944bc2	0.07241012
183	0xbce10d6d	-0.027472222
184	0x3d931c1c	0.07183096
185	0x3d626bf0	0.05527872
186	0x3da37949	0.07982118
187	0xbd0b7e68	-0.034056097
188	0x3d113b58	0.035456985
189	0x3d00bd11	0.031430308
190	0xbd51ef7b	-0.051253777
191	0x3d85bb45	0.065298595
192	0x3d6135a4	0.054982796
193	0x3da1259d	0.07868502
194	0x3da212f7	0.079137735
195	0x3d4871a5	0.048936505
196	0x3d0b68be	0.034035437
197	0xbd3d0a5e	-0.046152465
198	0x3adfa676	0.0017063159
199	0xbd0e38b2	-0.034722038
200	0x3d6f63d8	0.058444828
201	0xbcb5b216	-0.022179645
202	0x3d5e6fb8	0.054305762
203	0xbd2a6897	-0.04160365
204	0xbd4fa394	-0.05069311
205	0x3c653eed	0.013992053
206	0x3d67d260	0.056597114
207	0x3d8c4f71	0.0685109
208	0x3bf87480	0.0075822473
209	0x3d1d8326	0.03845515
210	0x3d73f4b0	0.059559524
211	0xbd319e1c	-0.043363675
212	0x3d5cff30	0.053954303
213	0xbd5fbae5	-0.054621596
214	0xbd16fc15	-0.036861498
215	0xbd48431c	-0.048892125
216	0xbda0174a	-0.07816942
217	0x3c35973e	0.011083422
218	0xbd84381e	-0.06456016
219	0x3d0a12db	0.03370939
220	0xbcb4fecd	-0.022094155
221	0xbd91594d	-0.07097111
222	0x3d928809	0.07154853
223	0xbcda51e8	-0.026650384
224	0x3bbeea8e	0.005826301
225	0x3d1e12ce	0.038592152
226	0xbca7cfcd	-0.02048483
227	0x3b98969f	0.0046566273
228	0x3bd32b58	0.006444376
229	0xbd6955c3	-0.056966554
230	0xbd98341f	-0.07431816
231	0xbc8a6bc7	-0.016897095
232	0x3d8caa5c	0.06868431
233	0x3d3721a1	0.044709805
234	0xbd2d9f40	-0.0423882
235	0xbda35f7e	-0.07977198
236	0x3c93ac60	0.01802653
237	0x3c93a4ba	0.018022884
238	0x3cce927b	0.025216332
239	0x3d1301c4	0.035890356
240	0x3d47638d	0.048678923
241	0xbda1f76c	-0.0790852
242	0xbd8b8b0b	-0.0681363
243	0x3d626264	0.055269614
244	0x3d6d016a	0.057862677
245	0xbd3eafe8	-0.046554476
246	0x3d8e30dc	0.06942913
247	0x3d58614d	0.05282717
248	0x3c670402	0.014100077
249	0xbcb83ac3	-0.022488957
250	0xbd95b7cf	-0.07310449
251	0xbc02e40e	-0.007988943
252	0x3d056edb	0.032576423
253	0x3cd2a064	0.025711246
254	0xbba809c9	-0.0051281196
255	0x3d9eca82	0.07753469

dense_layers.0.bias f4 [64]
0	0x3cddcd15	0.02707533
1	0x3d0e7c2c	0.03478639
2	0x3d54249f	0.051792737
3	0xbd3e4a58	-0.04645762
4	0xbc61db79	-0.0137852365
5	0xbd482753	-0.048865627
6	0x3b96722f	0.0045912485
7	0xbc1605b2	-0.009156631
8	0x3d35a1d2	0.044343777
9	0x3d052967	0.032510187
10	0xbd9492ce	-0.07254563
11	0x3c69871f	0.014253407
12	0xbc78927c	-0.015171643
13	0x3d09556d	0.033528734
14	0x3d035bb4	0.032069877
15	0xbd8284c6	-0.06372981
16	0x3cba1cf3	0.022718882
17	0xbd5e8c79	-0.054333184
18	0x3d0d2814	0.03446205
19	0xbd47f5e3	-0.04881848
20	0xbd24e2e1	-0.04025543
21	0xbd2009c9	-0.03907183
22	0x3cada379	0.021196114
23	0x3da042a3	0.0782521
24	0x3cd62fe1	0.026145877
25	0xbd28b18a	-0.04118494
26	0xbd1b07c0	-0.037849188
27	0x3cabf9ea	0.020993192
28	0xbc594deb	-0.013263206
29	0xbd998ac9	-0.07497174
30	0x3b2c410d	0.002628389
31	0xbd5c98a7	-0.053856518
32	0xbd0c0976	-0.03418871
33	0xbd9f4e96	-0.07778661
34	0x3ce6edc5	0.02818955
35	0x3c10da51	0.008841113
36	0xbd8d439b	-0.0689766
37	0xbd60b8d9	-0.054863784
38	0xbd57b14a	-0.05265931
39	0xbd8eb3ce	-0.06967889
40	0xbd1dfef5	-0.038573224
41	0x3cd61e9b	0.02613764
42	0xbc11b25e	-0.008892624
43	0x3c261d46	0.010138815
44	0xba5bb369	-0.0008380921
45	0xbd05153a	-0.032490946
46	0xbd7fa5db	-0.06241403
47	0x3c4e9434	0.012608577
48	0x3cde12b2	0.027108524
49	0xbd9cb5c5	-0.07651857
50	0x3be15490	0.0068765357
51	0xbda240c8	-0.07922512
52	0x3cd7f352	0.026361141
53	0x3d10a131	0.035309974
54	0xbd6e1faf	-0.058135685
55	0x3d08070c	0.033209845
56	0x3d5a8499	0.05334911
57	0x3cefe15d	0.029282266
58	0x3cf22afe	0.029561516
59	0x3d899782	0.06718351
60	0xbd6c9211	-0.057756487
61	0xbd55b98e	-0.052178912
62	0x3cfb181a	0.030651141
63	0xbbff8c46	-0.0077987043

dense_layers.2.weight f4 [14, 64]
0	0x3dec60d8	0.11541909
1	0x3c960370	0.018312186
2	0xbd02c260	-0.03192365
3	0x3bcd1c40	0.006259471
4	0xbde62198	-0.11236876
5	0x3de4f3da	0.111793235
6	0xbd5b4c54	-0.05353959
7	0x3d756254	0.059908226
8	0xbdf9431e	-0.12171005
9	0x3d68ce94	0.056837633
10	0xbdde5396	-0.108557865
11	0xbd958382	-0.07300474
12	0x3d8fbc40	0.07018328
13	0x3d9d76f6	0.076887056
14	0xbc1594b0	-0.009129688
15	0xbd0f8020	-0.0350343
16	0x3c833660	0.016017139
17	0xbd2fbc3c	-0.042904124
18	0x3cb18510	0.021669894
19	0x3dbaeacc	0.09126815
20	0x3df0bec2	0.11755134
21	0xbdb7c6d0	-0.08973467
22	0x3dcc1b08	0.09966093
23	0x3dfd619a	0.12372132
24	0xbb9841a0	-0.004646495
25	0x3d2e99c8	0.042627126
26	0xbda74088	-0.08166605
27	0x3c0b4720	0.008500844
28	0xbd2401f4	-0.040040925
29	0x3d3be6c0	0.045874357
30	0xbcbe4998	-0.023228452
31	0xbcb24cf8	-0.021765217
32	0xbc811fc0	-0.01576221
33	0x3c774ad0	0.01509352
34	0x3d58bfe4	0.052917376
35	0xbb86a600	-0.004109144
36	0xbd70c92c	-0.058785602
37	0xbdf0a230	-0.11749685
38	0xbdc0f0d4	-0.09420934
39	0xbdabd2fa	-0.0838985
40	0x3d24c4c4	0.040226713
41	0xbd4a4d58	-0.049390167
42	0x3c908fe8	0.017646745
43	0x3ddacf8e	0.10684119
44	0x3d73f194	0.05955656
45	0x3d09d78c	0.033652827
46	0x3d85a9e4	0.06526545
47	0xbd56d628	-0.05245033
48	0xbdeb9b06	-0.11504178
49	0x3d43f2b8	0.047838897
50	0x3d93b176	0.07211582
51	0x3d2ce7d8	0.04221329
52	0x3cfa4a78	0.030553088
53	0x3ddf4d24	0.10903385
54	0xbd8d849a	-0.06910057
55	0x3c906e58	0.017630741
56	0x3d7c3f58	0.061583847
57	0x3d3456dc	0.044028148
58	0xbd62b1ac	-0.055345222
59	0x3da72866	0.08162002
60	0x3daca2a2	0.08429457
61	0x3d77c9b8	0.06049511
62	0xbdf3d070	-0.11904991
63	0x3dee3674	0.1163148
64	0x3b87f4a0	0.0041490346
65	0x3de9ece8	0.114221394
66	0x3df1a3d8	0.11798829
67	0xbd540344	-0.051760927
68	0x3dba057a	0.09083076
69	0xbdb74dae	-0.08950363
70	0x3db444b2	0.08802165
71	0xbdcba348	-0.09943253
72	0xbd53179c	-0.051536188
73	0x3bd73ca0	0.0065685064
74	0x3d05feb8	0.03271362
75	0x3dd92bbe	0.10604046
76	0xbda8ce12	-0.0824243
77	0x3dd6c122	0.10486056
78	0x3c8c8aa8	0.01715596
79	0x3c6dbab0	0.014509842
80	0x3d21b010	0.039474547
81	0xbcb9ebc0	-0.022695422
82	0x3c0c36e0	0.008558005
83	0xbd92f390	-0.07175362
84	0xbd594fac	-0.053054497
85	0xbd5dc470	-0.054142416
86	0x3d417ac4	0.04723622
87	0xbc786fe0	-0.015163392
88	0x3d872b26	0.06600027
89	0x3d2e8e24	0.042616025
90	0xbd7b05ac	-0.061284706
91	0x3c8c1460	0.01709956
92	0xbdc34d20	-0.09536195
93	0x3cc3f668	0.023921207
94	0xbda59194	-0.080844074
95	0xbdb5fd2c	-0.08886179
96	0x3d6d0918	0.05787
97	0x3c999730	0.01874885
98	0xbdacd3cc	-0.084388345
99	0xbd2b5a4c	-0.04183416
100	0xbd1ef1c8	-0.0388048
101	0x3d90fe08	0.070797026
102	0xbcee55f0	-0.029093713
103	0x3d70da40	0.05880189
104	0x3d9bf2ce	0.07614671
105	0x3dd9f1b8	0.10641807
106	0xbd7bd7b4	-0.061485007
107	0x3c90a1d0	0.017655283
108	0xbd80c5ba	-0.06287713
109	0x3de5ddba	0.112239316
110	0x3d40fa30	0.047113597
111	0xbd403b14	-0.04693134
112	0x3dd8dd4e	0.105890855
113	0xbdd50996	-0.10402219
114	0xbc9b7f50	-0.018981606
115	0x3d873a88	0.06602961
116	0x3ddb3678	0.107037485
117	0x3b47d540	0.0030492097
118	0xbccf5988	-0.025311247
119	0xbd8c1474	-0.068398386
120	0xbdb74984	-0.08949569
121	0x3dae3180	0.08505535
122	0xbdbe8fd0	-0.09304774
123	0xbd8f04a2	-0.069833055
124	0x3db29704	0.0872021
125	0x3d7b7e04	0.061399475
126	0x3dcb2dae	0.09920822
127	0x3dce863e	0.100841984
128	0x3d74f0bc	0.059799895
129	0x3d3f36d8	0.046683162
130	0xbdcf0434	-0.101082236
131	0x3cc5f290	0.024163514
132	0xbd9c8864	-0.07643202
133	0xbd272ee8	-0.040816218
134	0x3d8aa994	0.06770626
135	0xbc177be0	-0.009245843
136	0xbd7a22d0	-0.061068356
137	0xbda34328	-0.079717934
138	0xbd5c6870	-0.053810537
139	0x3d544f0c	0.051833197
140	0x3d609494	0.054829195
141	0x3de5c1ca	0.11218603
142	0x3d9d84c2	0.07691337
143	0xbd8bf652	-0.06834091
144	0x3c4195b0	0.011815473
145	0x3d025c74	0.03182645
146	0x3df5ebb6	0.12007849
147	0xbb6d9780	-0.003625363
148	0x3cd01a60	0.025403202
149	0xbd4eec94	-0.050518587
150	0x3dda3dda	0.106563285
151	0x3dcca018	0.09991473
152	0xbdd63a3e	-0.104603276
153	0xbdbd1444	-0.09232381
154	0xbd6d41f0	-0.05792421
155	0xbbfc76a0	-0.007704571
156	0x3cf641b0	0.03006062
157	0x3d290470	0.041263998
158	0x3d79c760	0.060981154
159	0xbd6df590	-0.058095515
160	0x3ddca242	0.10773136
161	0xbdd9734e	-0.10617696
162	0xbc05a030	-0.008155867
163	0x388d2800	6.7308545e-05
164	0xbd8d539e	-0.06900714
165	0xbd5b4860	-0.05353582
166	0xbd942572	-0.072337046
167	0xbdb3a422	-0.0877154
168	0x3d998280	0.07495594
169	0x3a65bc00	0.0008763671
170	0xbdbed08a	-0.093171194
171	0x3d90ef0e	0.07076846
172	0x3ccc3998	0.024929807
173	0xbdb077ba	-0.08616586
174	0xbd6f5cb4	-0.058438018
175	0x3dd95b3e	0.10613106
176	0xbd0abbd8	-0.033870548
177	0xbd9600d2	-0.07324375
178	0xbde79ce0	-0.113092184
179	0xbdfa763e	-0.12229584
180	0x3cacd330	0.021096796
181	0x3ddb81fc	0.10718152
182	0xbdda9698	-0.10673255
183	0xbd87266c	-0.06599125
184	0x3d7fc0ac	0.062439606
185	0xbd967f48	-0.07348496
186	0xbaa88200	-0.0012856126
187	0xbd85592c	-0.06511149
188	0x3d822116	0.06353967
189	0xbdbd44b2	-0.09241618
190	0xbdd4237e	-0.10358332
191	0xbdd5bba8	-0.10436183
192	0xbbe577a0	-0.007002786
193	0xbdf97672	-0.12180795
194	0x3dd33628	0.10313064
195	0x3b3c5700	0.002873838
196	0x3d6f933c	0.058490023
197	0xbde52ffe	-0.111907944
198	0xbda55d84	-0.08074477
199	0x3da75d32	0.081720725
200	0xbcbf0308	-0.023316875
201	0x3ccdac80	0.025106668
202	0x3dde1ab4	0.10844937
203	0xbdeaf332	-0.11472167
204	0xbd9fa1e0	-0.07794547
205	0x3d062e10	0.032758772
206	0xbde42b30	-0.1114105
207	0x3d5f1418	0.054462522
208	0xbc5aee10	-0.013362423
209	0xbcc8cfa8	-0.02451308
210	0xbcb482c8	-0.022035018
211	0xbc8a8258	-0.016907856
212	0xbd98760a	-0.07444389
213	0xbda0e422	-0.07856013
214	0x3de07918	0.10960597
215	0xbb35d640	-0.002774611
216	0xbde4bea8	-0.11169177
217	0x3cd8a708	0.026446834
218	0x3da3c11a	0.079958156
219	0xbdd15134	-0.102205664
220	0xbb816000	-0.0039482117
221	0x3bbdc540	0.0057913363
222	0x3d84ec94	0.06490436
223	0xbd8d7a7e	-0.06908129
224	0xbcc04988	-0.023472562
225	0x3daf76e2	0.08567597
226	0xbde56e54	-0.11202684
227	0x3d9d5730	0.07682645
228	0xbc21b830	-0.009870574
229	0xbc8ca5f8	-0.017168984
230	0xbb9ccbe0	-0.004785046
231	0xbd3e95c0	-0.04652953
232	0x3df8a018	0.121399105
233	0xbda9f9ac	-0.08299574
234	0xbd91c2d2	-0.07117237
235	0xbdf874a0	-0.121316195
236	0xbc3b53b0	-0.011433527
237	0xbdfd02c4	-0.12354043
238	0xbdebc2fe	-0.11511801
239	0xbdd397e6	-0.10331707
240	0x3d31b038	0.043380946
241	0xbd9de350	-0.07709372
242	0x3d37a4dc	0.044834957
243	0xbdc48d58	-0.09597272
244	0x3dda5754	0.10661188
245	0xbd2e4d84	-0.042554393
246	0x3da43698	0.080182254
247	0x3bab5400	0.0052285194
248	0xbc9503a8	-0.01819022
249	0x3b967920	0.004592076
250	0xbd960eaa	-0.07327016
251	0x3d44948c	0.047993228
252	0xbde1cbfa	-0.110252336
253	0xbc3578c0	-0.011076152
254	0xbdad3142	-0.08456661
255	0x3d873702	0.06602289

dense_layers.2.bias f4 [14]
0	0xbdd199b8	-0.10234398
1	0xbd58efd0	-0.052963078
2	0xbdb34210	-0.08752835
3	0xbd8eb7b8	-0.06968635
4	0x3dc011f0	0.09378421
5	0xbce8f200	-0.028435707
6	0x3d10af50	0.03532344
7	0xbd0cfd84	-0.03442146
8	0xbd5efad4	-0.054438427
9	0xbcada808	-0.021198288
10	0xbdca7dd4	-0.09887281
11	0xbcedff38	-0.029052362
12	0x3da59314	0.080846936
13	0xbdc241ea	-0.09485228
