New_project/modelo.pth (torch, 319988 bytes, 8 tensors)

rnn_layer.weight_ih_l0 f4 [512, 7]
000000 96 17 70 bd fb ce af bc ed 24 8f bd 90 08 25 3d
       -0.058616243 -0.021461 -0.06989465 0.04029137
000010 06 62 9d bd cf 7a 92 bb ee af 58 3d b6 db 53 3d
       -0.07684712 -0.0044702063 0.052902155 0.051723205
000020 ed 70 cc bd 9a 1a b3 bc c9 4e 05 bd f6 4d 52 bd
       -0.099824764 -0.02186327 -0.03254584 -0.05134388
000030 55 9d 11 bd 5e 04 72 bd 18 00 8b bb e9 c7 ee 3c
       -0.035550434 -0.059086196 -0.0042419545 0.029148059
000040 d2 fa c2 bd a3 1c 9d bd 05 cf 87 3d f8 94 1c bd
       -0.095204964 -0.07671478 0.06631283 -0.038228005
000050 fb 0f d1 bc 3c c8 00 3e 64 90 49 3b bd d9 29 bb
       -0.025520315 0.12576383 0.003075623 -0.0025917136
000060 1a 43 86 3c 78 ba 20 bd f5 2f a2 3b e2 b1 dd 3d
       0.016389418 -0.03924033 0.0049495646 0.10824944
000070 df bd 5b 3d 2b 3a 87 bb b4 fe c0 3d eb 05 f4 bb
       0.053647872 -0.004126807 0.09423581 -0.0074469945
000080 7a e9 a9 bc f3 45 5f bb 6b bc e2 3d a1 ef 3f bd
       -0.020741213 -0.0034068793 0.11071094 -0.046859387
000090 4b 61 ad 3b 01 0b 20 bd 75 3f 34 3d 6a 16 16 bb
       0.0052911392 -0.039072994 0.04400583 -0.0022901543
0000a0 05 52 9b bd e6 6d d2 3c be fd 95 3c 9a ac 84 3d
       -0.07584003 0.02568717 0.01830947 0.06478234
0000b0 cc d5 e1 3d 30 59 c9 3d a8 a5 86 3b 9d d9 45 bc
       0.11027107 0.09831464 0.004109103 -0.012075809
0000c0 1d 64 64 3d 7d 4a 0c 3e fd 37 34 bd f6 35 94 bd
       0.055759538 0.1370029 -0.043998707 -0.07236855
0000d0 20 e2 e5 bc b7 05 be bb c7 c6 b4 3d ef 62 11 3e
       -0.028061926 -0.005799021 0.08826976 0.14197896
0000e0 08 c3 be bc 3b f5 28 bd 2b 90 24 3d 0d 7c 7b bd
       -0.023286358 -0.041249495 0.04017655 -0.0613976
0000f0 b0 24 96 bd ee 53 47 3c 14 3b 38 bb 49 8b 48 bd
       -0.07331216 0.0121660065 -0.0028111385 -0.048960958
000100 0b 3f c5 3d 31 be 2a bc 5e bc c7 bd 33 68 d9 bc
       0.09631165 -0.010421322 -0.09752725 -0.026538944
000110 9d 0c 7a 3c 6a b4 cf 3d c6 18 1e 3d b5 78 a0 3d
       0.015261796 0.10141833 0.038597845 0.07835523
000120 3c 4a 49 bd ed aa a6 3d f6 63 d2 3c ff 80 1a bd
       -0.04914306 0.0813807 0.02568243 -0.037720677
000130 5a 92 9b 3c f1 d7 5c bd 1d 21 bd 3d 61 f2 1f bd
       0.018990684 -0.053916875 0.092348315 -0.03904951
000140 26 9a 16 bd 3d 14 44 3c ce a0 37 bc 02 e9 5d 3d
       -0.0367681 0.011967716 -0.011207772 0.05417729
000150 4d 89 a5 bc 5d 6d d1 3c 1f 49 46 3d 33 88 94 bc
       -0.020207072 0.025564844 0.048409577 -0.018131351
000160 51 9c c4 bd 37 0b 0c bd 73 37 4d 3d c7 51 3c bd
       -0.096001275 -0.034190383 0.05010171 -0.045976426
000170 70 76 b7 3d 8b 35 2c 3d de 02 85 bc 9f d2 f0 bc
       0.08958137 0.04204325 -0.016236719 -0.029397307
000180 27 db 70 bd e6 12 a4 bb 2d 43 ee bc 90 3e 6b 3d
       -0.05880275 -0.0050071357 -0.029084766 0.05743271
000190 d7 a5 3e 3c 5c 07 84 bd 19 b1 8e 3c a9 fb d4 bc
       0.011636219 -0.06446716 0.017418431 -0.025998907
0001a0 c5 4c 5f bd b6 96 ac 3b 66 89 c2 bc e8 03 39 bd
       -0.054516573 0.0052669896 -0.023747157 -0.04516974
0001b0 3c 96 75 3d 14 77 cc bb 31 18 74 bd 71 75 ae 3b
       0.059957728 -0.006239781 -0.059593383 0.0053240587
0001c0 69 38 87 3c 3a a8 0a bd 44 9d 9a 3d 52 bf 8c 3c
       0.01650639 -0.03385184 0.07549527 0.017181072
0001d0 a6 46 41 3d af c6 e5 bd 08 b0 86 3c 35 04 65 3d
       0.047186516 -0.112195365 0.01644136 0.055912215
0001e0 2a c4 4a bd 50 2e c3 bd 67 ac 32 3d 5b 77 2f bc
       -0.049503483 -0.09530318 0.043621447 -0.010709609
0001f0 18 f7 11 3d b8 f0 5f 3d 2e 83 3d 3d e7 a3 28 bd
       0.035636038 0.054672927 0.04626768 -0.041171934
000200 4f 00 8c bd 61 93 b6 bd 72 89 6e bc b9 1c 05 bd
       -0.06835996 -0.08914829 -0.014559137 -0.032498095
000210 fe d8 a7 3c 91 ad 87 3d 9d 6f fc 3c 27 c6 98 bd
       0.020489212 0.06624902 0.03081494 -0.074596696
000220 c1 e8 5e 3d 12 46 22 3e 93 d4 2a 3d 06 8d bd 3d
       0.05442119 0.15847042 0.041706633 0.09255414
000230 a9 c5 12 bd 7c 42 49 bd 4a 5c f4 3c 60 50 d4 bd
       -0.035833035 -0.04913567 0.029829163 -0.10366893
000240 fb c5 c9 bd 94 d4 88 bc 1e 07 6a 3b 1c 07 30 3d
       -0.09852215 -0.016702928 0.0035709809 0.04297553
000250 d0 f9 ba bc f7 19 df bc 50 45 cb bd c3 2e 19 3c
       -0.022824198 -0.02723406 -0.0992533 0.009349528
000260 56 bf b1 3b f7 85 d9 bd 56 e2 7d bb 0c 6f 90 3d
       0.0054244203 -0.10621255 -0.0038739643 0.070524305
000270 24 61 50 3d 1d 02 00 bd 87 91 3c bb c0 14 35 3d
       0.05087389 -0.031252015 -0.0028773264 0.044209242
000280 82 f5 77 3d 7a 9a 2c bd 83 77 c4 3c 0d 6a 9d 3d
       0.06053687 -0.042139508 0.023982769 0.07686243
000290 a8 50 fb 3c 7c 6b 67 3d 98 0a 33 3d 69 c2 b9 bd
       0.030678108 0.05649899 0.043711275 -0.09070284
0002a0 80 b2 bb bc 2b 06 93 3d 97 74 78 3b 8c d8 22 bb
       -0.022912264 0.07178911 0.003791129 -0.002484831
0002b0 bf e9 d2 3d 78 da 1a bd 15 93 0c 3d 87 2a ad bd
       0.1029849 -0.037806004 0.034319956 -0.08455377
0002c0 0a 53 e2 bd e6 52 82 3d 9c a8 e3 bc 54 38 db 3c
       -0.11050995 0.06363468 -0.02779036 0.026760258
0002d0 22 5f ad 3d e3 e4 0c 3d a4 87 86 bc af 7e e5 3d
       0.08465411 0.03439797 -0.0164221 0.112058036
0002e0 2d 30 eb bc ba 0e a3 3d 96 5d 01 3d e1 ac d6 bc
       -0.028709495 0.07961793 0.03158339 -0.026205482
0002f0 57 dd fa bc 44 8e 3a bc d2 9e 60 bd 7a 34 ae 3d
       -0.030623121 -0.011386458 -0.054838963 0.08506103
000300 95 8b 23 bd 05 ff 68 bd 9b 89 34 bd ac 07 ab 3d
       -0.039928038 -0.05688383 -0.044076543 0.08351073
000310 ca 3d 40 bd 7d 58 1b 3d b5 f7 01 bd 61 a2 0c 3d
       -0.046933927 0.037926186 -0.031730372 0.034334544
000320 87 c7 2e bd f8 72 c6 bd 58 52 d9 ba 34 21 f6 bc
       -0.042670753 -0.09689897 -0.0016580326 -0.03004513
000330 4f f1 39 3b e5 1f 5e 3d c8 46 17 3d c0 e7 80 3d
       0.002837259 0.054229636 0.036932737 0.06294203
000340 a2 63 db bb 5d 9d d0 bb 5f f6 26 bc 18 86 49 3c
       -0.0066952268 -0.0063664154 -0.010190575 0.012300037
000350 cb b9 71 bd 57 64 80 3d e4 5b 7a 3d 2a d5 91 bd
       -0.059015077 0.06269138 0.06112279 -0.07120736
000360 4d d9 3f bd de f6 cd 3d 20 82 83 bc 54 71 94 3d
       -0.046838094 0.10056852 -0.01605326 0.07248178
000370 af 7d 01 bc ea 20 cb 3d f1 d0 cb bd 87 ed 18 3d
       -0.0079035 0.09918387 -0.09951962 0.0373359
000380 01 f2 80 bc 8b 9b ff bb ab bc d1 bd 4e 8f 0a 3d
       -0.015740396 -0.0078005246 -0.10241064 0.033828072
000390 27 1b 9b bd b4 ff 90 bc ae 5d 06 3d 5d ef be 3c
       -0.07573538 -0.017700054 0.032804184 0.023307497
0003a0 a7 30 df 3d 1c bd b2 bc 5f 61 93 bb 0c dc e4 3b
       0.108979516 -0.02181869 -0.0044976915 0.0069842394
0003b0 f0 74 e1 bd 81 47 ca bc 85 36 05 3e f8 ca d9 3d
       -0.11008632 -0.024692299 0.13009079 0.10634416
0003c0 bc 5c 99 3d 2e 27 22 bd f3 9a 8c 3d eb e1 55 bc
       0.07488391 -0.039588146 0.06865492 -0.013054351
0003d0 bf 21 01 3d 06 01 b2 3c f3 d0 ae 3d 1c bd b8 bc
       0.031526323 0.021729004 0.08535948 -0.022551112
0003e0 97 d1 97 3a ac 5d c5 3d 3c e9 15 be ab a2 af 3c
       0.0011582848 0.09637007 -0.14639753 0.02143987
0003f0 61 a3 9f ba 2d 6a 29 3b e0 4f a3 bb c1 51 12 3d
       -0.0012179428 0.002585064 -0.004983887 0.035722498

rnn_layer.weight_hh_l0 f4 [512, 128]
000000 86 f6 9c 3b 19 6f 03 bd 52 65 26 3c 1d 8a fd 3c
       0.00479013 -0.032088373 0.010155993 0.030949647
000010 f8 ee 69 3d 27 07 ea 3b 7e f3 20 bd 02 a7 b8 3d
       0.057112664 0.007141966 -0.039294712 0.09016229
000020 15 c8 aa 3d 45 b0 10 bd b2 d3 8b 3d b4 9a 6d 3d
       0.08338944 -0.035324354 0.06827487 0.058008865
000030 67 ac 99 3d c6 c9 07 3e 1c 9f e8 bc 7d 40 2c bd
       0.07503586 0.13260564 -0.028396182 -0.04205369
000040 0c 77 71 bd 7c c0 cc bd 6b dd a3 3d 65 ad 8c bc
       -0.058951423 -0.09997651 0.080012165 -0.017172525
000050 9c f9 de bc b4 c8 8d 3d ad ff 8c bd 9f 79 f1 bb
       -0.027218632 0.06923047 -0.06884704 -0.0073692347
000060 7a d5 b0 bd 88 aa 04 3e 3d ef fd 3a f3 db 53 bd
       -0.086344674 0.12955678 0.0019373667 -0.05172343
000070 f8 8a 42 bd c8 dc 8d 3d 5a 15 c2 3d 3e 00 e5 bd
       -0.047495812 0.06926876 0.09476729 -0.11181687
000080 f4 16 db bc c2 29 a8 bc 8f 63 6f 3d f8 1f e5 bc
       -0.026744343 -0.020527724 0.058444556 -0.027969345
000090 4f f3 5a bd e7 c6 1d be 99 82 8a 3d 7e 0e 46 bc
       -0.053454693 -0.15407906 0.06763191 -0.012088416
0000a0 7a 3a 7c bc c2 f4 fe bd 79 f3 23 3d 12 2c d5 bd
       -0.015394801 -0.124490276 0.040027115 -0.10408796
0000b0 fb 59 ba bd f9 b1 7a 3d 08 35 1d be a6 a2 17 3d
       -0.09099194 0.061204884 -0.15352261 0.037020348
0000c0 8e 19 7f bd 6f c4 7f 3d 5a 1e bb bd ab ff 0e 3e
       -0.06228023 0.062443193 -0.091366485 0.13964717
0000d0 c0 ff 13 bc 34 53 b5 3d d5 3d c8 bd 4b 8a fb bd
       -0.0090331435 0.0885376 -0.097774185 -0.12282237
0000e0 bc 96 fb 3d ca 4f b0 bd dd be e4 bc 5f 51 a7 bc
       0.1228461 -0.086089686 -0.027923042 -0.020424543
0000f0 84 b9 2a 3c 12 29 d4 3c 85 d0 f6 3d 97 58 06 3c
       0.010420207 0.02589849 0.12051491 0.008199832
000100 e9 cf ef 3d e7 fb ea 3d 32 12 76 bd 91 8e e9 bd
       0.117095776 0.11473828 -0.060075946 -0.114041455
000110 03 8a b7 bc 66 dc 35 bc 5c 45 6f 3a e2 7c 39 3c
       -0.022404676 -0.01109991 0.0009127462 0.011321278
000120 50 9d b9 bc 77 51 b1 3c c3 d8 50 bd 0a 0a db bd
       -0.02265802 0.02164529 -0.05098797 -0.10695274
000130 80 0c fc bd b3 4d 46 bd 38 9d 96 3d 7b 8e 8a 3c
       -0.12307072 -0.048413943 0.07354206 0.016913643
000140 e0 91 d9 bc d8 15 a4 bb e0 52 67 bb 03 7b 9b 3c
       -0.026558816 -0.005007487 -0.00352972 0.018979555
000150 6e 5a 9e 3d b8 8f 93 bc 60 bd e1 ba b8 a4 5b bc
       0.07732092 -0.018012866 -0.0017222576 -0.013405971
000160 0a 9c 6f 3d 5b 41 03 3e df 71 8c 3c 6e d5 b8 3c
       0.05849842 0.128179 0.017144142 0.022562709
000170 0a 6d b8 3d 6f 23 a9 3d c9 dd 8c 3c 02 f2 49 3d
       0.090051726 0.082587115 0.0171956 0.049303062
000180 cf 21 19 3e 7a 6c 24 bd 8f a7 ed 3d 57 8a 64 bd
       0.14954303 -0.040142514 0.11604225 -0.055795994
000190 65 fe a8 3d af e9 55 3d eb d3 9c 3d 57 76 20 bc
       0.08251647 0.05222481 0.07657608 -0.009793839
0001a0 d7 e4 df 3c 21 86 d5 bd 34 09 90 3d 83 f4 29 bd
       0.027330799 -0.10425974 0.07033005 -0.04149295
0001b0 c4 41 57 3d bf 48 c1 3d f6 89 34 3d fa 7c fa bd
       0.052552953 0.09437703 0.044076882 -0.12230869
0001c0 1d db a2 3a f9 ed 17 bd d5 7e 00 be e0 ee f9 bc
       0.001242492 -0.037092183 -0.12548383 -0.030509412
0001d0 c0 54 d8 bd 25 bf 89 bd ac a4 4e 3d ac 73 b4 3d
       -0.1056304 -0.06725911 0.050450012 0.08811125
0001e0 5f e1 84 3d 49 c2 62 3d cd bf 87 bd e9 0e 10 3e
       0.064882986 0.055361066 -0.0662838 0.14068188
0001f0 10 e0 60 3d 5f 0b 40 bd 27 57 05 bd 63 9d 8e bd
       0.054901183 -0.046885844 -0.032553818 -0.06963613
000200 32 a9 a1 3d 1c 06 1d bd 3e 50 73 3d bd cf 1a 3d
       0.078935996 -0.038335904 0.059402697 0.03779577
000210 2e 09 2c bc df e2 22 3d f4 61 92 3d 52 9c 0f bd
       -0.0105002355 0.039767142 0.07147589 -0.035061188
000220 68 1e 09 bd 07 9c 74 bd 14 48 07 3d 3b 14 ca 3c
       -0.033476263 -0.05971911 0.033027723 0.02466785
000230 2d ab 51 bd b9 06 3c bd 26 f7 51 bd 0e df a8 3d
       -0.051188637 -0.04590485 -0.05126109 0.08245669
000240 13 05 9b bd f8 68 2c 3c 03 f9 18 3c 31 2b a5 3d
       -0.07569327 0.010523073 0.009336713 0.08064879
000250 86 87 8e 3a 9b 27 6c 3d fb 25 2c bd 9c ef 04 bd
       0.0010874129 0.05765496 -0.04202841 -0.03245507
000260 b1 8d 99 3d b2 f0 01 bd d7 2b af 3c 36 f0 12 bd
       0.074977286 -0.031723686 0.02138321 -0.035873614
000270 63 82 af bd ad 7a d7 bc ce 93 34 3b 9d ec b7 bd
       -0.08569791 -0.026303614 0.0027553919 -0.08980677
000280 89 e7 3e bd 70 42 89 bd 7f 36 d1 bb 33 93 97 bd
       -0.046607528 -0.06702125 -0.0063846703 -0.07401123
000290 df 13 44 bd 07 11 ab bc 95 41 a1 bd 8a e2 bf 3d
       -0.047870513 -0.020882143 -0.07873837 0.09369381
0002a0 91 83 49 bd d0 a1 94 3c d8 95 84 3d 80 54 2b bd
       -0.049197737 0.018143564 0.06473893 -0.041828632
0002b0 e1 4e 97 bd a2 2a 67 3d 79 95 1c bd 8f 18 f1 3c
       -0.07388092 0.056437142 -0.038228486 0.029430656
0002c0 51 33 2b 3c 7c 74 c6 bd 48 80 fa bd b6 2c 36 bd
       0.0104492465 -0.096901864 -0.12231499 -0.044476233
0002d0 29 f3 ce bc 89 38 e4 ba cc bb bc bd b3 ef f3 3b
       -0.025262432 -0.0017411868 -0.09215507 0.007444346
0002e0 b2 0e 92 3a 7b 1b 65 3d 67 89 71 3c da 2b 11 3d
       0.0011143296 0.05593441 0.014742232 0.03544221
0002f0 f3 a9 3d bd 58 e7 05 3d 12 c8 5e 3d 0d ad fd bb
       -0.046304654 0.03269133 0.05439002 -0.0077415765
000300 2b 70 97 3d 01 0e c3 bd 58 36 a1 bd 4d 9a 97 bb
       0.07394441 -0.095241554 -0.078716934 -0.0046265484
000310 2f 6e 80 3d 6d b5 55 3c 57 de c6 3d 10 94 55 bd
       0.06271016 0.013043744 0.09710377 -0.052143157
000320 04 db 0f 3c 3a 9a fd bc 67 7b 96 3d 66 84 8c bd
       0.008780245 -0.03095733 0.07347756 -0.068611905
000330 db a4 42 bd 32 9f 3f bd 53 8e 3b bd 67 e4 e5 bb
       -0.0475205 -0.04678268 -0.045790028 -0.007015753
000340 bf 8a fa bd 12 76 fe bc f3 e9 5e 3d 8e c5 0a bd
       -0.12233495 -0.03106216 0.05442233 -0.03387981
000350 cd 22 7e 3d 7c fc b7 3d 76 d7 87 bd 3c a6 4e 3d
       0.062044907 0.089837044 -0.06632893 0.050451502
000360 f2 20 37 3c e7 7e a4 bc a2 38 2e bd 75 21 42 bd
       0.011177288 -0.020080043 -0.042534478 -0.04739519
000370 ff c8 6a 3a e2 e9 90 bd a4 9f 34 3d c0 2b 68 bc
       0.00089563424 -0.070758596 0.044097558 -0.014170587
000380 e1 e8 b1 3d 41 42 17 bd 07 43 bb 3d 15 e7 36 bd
       0.08686996 -0.03692842 0.09143644 -0.04465397
000390 b7 3c b9 bd 69 c6 a0 bd b1 cc 1b bd 8f 9a e4 3c
       -0.090447836 -0.07850344 -0.038037006 0.02790573
0003a0 77 41 10 3c ca c2 95 bd 57 3f 9a 3c f2 db 4f bd
       0.008804671 -0.07312544 0.01882903 -0.050746866
0003b0 e1 dc 13 bd 78 bf bc 3c 0d 4d 89 bd bb 8d bf bc
       -0.03609932 0.023040518 -0.067041494 -0.023383012
0003c0 c6 62 b5 bd cf 41 75 3b 54 ba d1 bc 7e dd 14 bd
       -0.0885673 0.0037423258 -0.025601543 -0.036344044
0003d0 5c 9f 22 bd fb 5d 5a bc 7b 70 b5 bd 8e 28 fd 3b
       -0.03970276 -0.013328071 -0.088593446 0.0077257818
0003e0 e9 96 a6 bb 7a c4 07 3d 64 94 2a bc 15 e9 db 3d
       -0.005083908 0.03314636 -0.010411356 0.10737816
0003f0 09 da 01 3d 8f 66 c1 3d fb 0b 1a bd 9f 27 98 3d
       0.031702075 0.094433896 -0.03760908 0.07429432

rnn_layer.bias_ih_l0 f4 [512]
000000 d0 11 bd 3d 94 6c 9c 3d a3 31 aa 3c 0a 78 52 bd
       0.09231913 0.07637897 0.020775622 -0.05138401
000010 f6 bc 66 3c fe 74 13 bd 3f b9 82 bd b3 01 90 3c
       0.014083138 -0.036000244 -0.06382989 0.017578935
000020 b2 23 1b 3c 12 a6 35 3e 21 ae 51 3c ec 5d cf 3d
       0.00946896 0.17739132 0.012797863 0.10125336
000030 cd e3 96 3d 99 6e 19 bd ce f3 97 3d b1 cd f2 bc
       0.07367668 -0.03745899 0.07419549 -0.029639097
000040 aa 81 86 3c 72 c1 f9 bb 17 47 43 bc ff 3d 05 3b
       0.01641925 -0.0076219374 -0.011918805 0.0020331142
000050 58 63 e2 bc 0a 56 d3 bc 8f 8b 14 3b 09 8b 90 bc
       -0.027635261 -0.025797863 0.0022666191 -0.017644422
000060 55 0a 41 3b 02 c3 6c 3d 96 21 41 3c 4b ae 00 bd
       0.0029455621 0.05780316 0.011787793 -0.03141622
000070 c8 2c 2a bb 35 19 0c bd 16 e8 cf 3d ac 65 43 bd
       -0.0025966633 -0.034203727 0.10151689 -0.047704384
000080 4f 3f 01 bd 43 88 9e 3d 4f 24 c9 3d 34 a0 83 3d
       -0.031554516 0.077408336 0.098213784 0.06427041
000090 d0 98 98 bc 43 4d ae 3c 11 05 b1 3d 39 84 3b bd
       -0.018627554 0.021277076 0.086435445 -0.045780394
0000a0 de 04 79 bd 30 63 60 bc 68 de 6d bc ae 76 fa bc
       -0.060795657 -0.013695523 -0.014518358 -0.030574169
0000b0 2d bd 20 3d 1b 00 3f bd 3f 5a fc bc 36 5a 06 bd
       0.039242912 -0.04663096 -0.030804751 -0.032800876
0000c0 28 7c 2e 3d 6e ba 50 3d f9 c5 4f 3d 91 73 ba 3d
       0.042598873 0.050959043 0.05072591 0.09104074
0000d0 bc b5 cc 3c fb c8 16 bd 56 3b 4d 3c 1a 40 3f 3c
       0.024989001 -0.036812764 0.012526354 0.011672998
0000e0 48 78 8d bc 4d 00 64 3d 1c f6 88 3d e7 3d 5b bd
       -0.017269269 0.05566435 0.06687567 -0.05352583
0000f0 82 b6 a9 bb 33 b6 7a 3d c7 f0 95 bb 36 01 c8 bc
       -0.0051792273 0.061208915 -0.004575822 -0.02441464
000100 22 81 de 3d 6b 32 9c 3d e7 7c db 3c 52 67 24 3c
       0.10864474 0.07626804 0.026792957 0.010034399
000110 3c 6d e7 3d 96 d4 8a bd ca 8e 39 3c 47 3f 90 b9
       0.11300132 -0.06778829 0.0113255475 -0.00027512966
000120 1b f1 4e 3d 55 09 7e 3d d0 c5 a2 3d 8f a0 16 bc
       0.050522905 0.06202062 0.07947886 -0.009193554
000130 73 9e 8c bc c9 b2 f4 bc 23 6b 82 3d 29 32 aa 3d
       -0.017165398 -0.029870408 0.06368091 0.083103485
000140 11 dc f5 bb f2 74 73 bd 2a a2 87 bb 93 59 6b bc
       -0.0075030406 -0.0594377 -0.0041392045 -0.014364618
000150 f0 b5 0f bd 40 c7 c4 3c d8 28 4b bd fa 8e 9e 3c
       -0.03508562 0.024020791 -0.0495995 0.019355286
000160 4a df ca 3c 6c 2b 3b bd d1 1c 40 3d e5 65 67 bd
       0.024764676 -0.045695707 0.04690248 -0.05649366
000170 f4 cc cd 3d 8c 6b aa 3c ce 99 f7 3d 17 c6 9f bc
       0.10048857 0.020803235 0.12089883 -0.019503636
000180 d0 23 5c 3d 1d 0f 50 bd cf 1f 85 bb df c0 12 bd
       0.05374509 -0.050795663 -0.00406263 -0.035828467
000190 c3 73 b2 3c 95 20 8d 3d 4f 3f 99 3d 15 9d a8 3d
       0.021783715 0.0689098 0.07482778 0.08233086
0001a0 86 ee d5 bc 49 d1 59 bd cd c8 dd 3d 40 45 83 3d
       -0.026114713 -0.053178106 0.10829315 0.06409693
0001b0 43 ff 26 bc 5d ac 8b 3d 02 73 81 3d 09 c4 b3 bc
       -0.010192695 0.06819985 0.06320764 -0.021944063
0001c0 07 8b 88 3d 18 d5 f2 3d 59 b3 1c bd 0c 07 cf bc
       0.06667142 0.11857051 -0.038256977 -0.025271915
0001d0 37 a3 74 bb 75 9d d6 3c c2 e3 c2 3c a0 da fe 3c
       -0.003732873 0.026198128 0.023790244 0.031110108
0001e0 9a e7 84 bc f1 bf a2 3d ec c5 e1 3c cb 36 8d 3d
       -0.016223717 0.07946766 0.027560197 0.068952166
0001f0 4d 4d c7 3c 2d 49 aa 3d 8a bd 3b 3d 9f 0e e6 3b
       0.024328852 0.083147384 0.045835055 0.007020786
000200 3a 69 77 bd 51 e4 b7 bd 82 19 be bd 5f 9d 59 3b
       -0.060403086 -0.08979095 -0.09282209 0.0033205373
000210 a7 17 46 3d 59 3f f3 bc 53 61 46 3d 30 95 f1 3c
       0.0483624 -0.029693292 0.04843266 0.029490083
000220 f7 3c bd bc ed b5 09 be cc d3 6a bd e6 0a 17 3d
       -0.02310036 -0.13448305 -0.05733089 0.036875628
000230 88 7d ec bc 54 a2 8e bd 4f b0 ae 3d 8f 2c 1e bd
       -0.028868452 -0.069645554 0.08529722 -0.038616713
000240 4c 3c 70 bd a2 65 77 3d d0 a6 1a bb df 98 b6 bd
       -0.058651254 0.06039966 -0.0023597963 -0.089158766
000250 cb 53 34 3c 12 eb 8d bd 7b b7 66 bd 74 b3 cb bd
       0.011006306 -0.06929602 -0.056327324 -0.09946337
000260 2c 47 8f 3d 93 81 5e 3c e2 de 63 3d ca 3e 16 bd
       0.06995997 0.013580698 0.05563248 -0.036680974
000270 55 4e 39 3c 45 69 3a bd ab 77 a9 3c 64 e9 a4 bd
       0.01131018 -0.04551055 0.020686945 -0.08052328
000280 e7 61 78 3d b7 ba 7f 3d 71 85 4d bc 65 8b 5a 39
       0.060640242 0.062433925 -0.012544022 0.00020842029
000290 0e 1c de bb 64 37 41 bc ab 73 33 3b ac 44 0c 3d
       -0.0067782467 -0.011792991 0.0027382176 0.034245178
0002a0 ea c9 52 bd c5 5c 07 bd fe 2b 99 3d 5c f5 9c bd
       -0.05146209 -0.033047456 0.07479094 -0.07663986
0002b0 65 24 aa 3d 83 35 81 bd 9f 5a 76 3c 17 2c a5 3d
       0.08307723 -0.06309035 0.015036254 0.0806505
0002c0 9d 87 ce bd 64 68 a6 bb 81 df 3d bc f0 2a a1 bd
       -0.1008446 -0.0050783623 -0.011588932 -0.07869518
0002d0 cd 25 fd bb cd 55 3e bd be 0a ae 3c 73 2b 05 bd
       -0.0077254535 -0.046468545 0.021245357 -0.03251214
0002e0 51 9d 23 bd 1a a0 2b 3d 71 f8 d6 bd e8 d2 ab 3b
       -0.03994495 0.04190073 -0.10496605 0.005243648
0002f0 d6 76 86 3d 02 31 ad bd 83 8f a4 bd 2e 45 52 bd
       0.06565635 -0.08456613 -0.08035185 -0.051335506
000300 28 6e c4 3b 29 fc 93 bd 5a 0c 9d bd 03 c5 6c 3d
       0.005994577 -0.0722583 -0.076683715 0.057805073
000310 43 9b 43 3d 31 03 9b 3c 24 9b 96 bc 2b c8 ea bb
       0.04775549 0.01892242 -0.018384524 -0.007164975
000320 be 27 17 3d ab 36 5c bd eb 65 04 bd a8 6c 75 3c
       0.036903135 -0.053763073 -0.03232376 0.014979519
000330 15 8e 2f bd d4 89 26 bb 23 2a 60 3d fa 8f 6b bd
       -0.04286011 -0.0025411742 0.054727685 -0.057510354
000340 27 f8 a2 bd ea 6d aa bc 0d b2 9a 3d 5d 4a ca 3c
       -0.079574876 -0.020804364 0.07553492 0.024693662
000350 d0 07 b3 bd bc b9 ed 3d 81 df 9c bd a8 51 da bd
       -0.087417245 0.11607692 -0.076598175 -0.10660106
000360 03 ee 46 bd 5f 94 93 bc 72 27 50 bd 7b 2a 23 3d
       -0.04856683 -0.018015085 -0.050818868 0.039835434
000370 5d c6 9d 3d f8 3d 2a 3d b3 c3 d9 bc 2b 6d 18 bd
       0.077038504 0.041563004 -0.026582574 -0.037213486
000380 4a b6 76 3c d1 d7 1b 3d c8 64 cb 3a de 58 b7 bc
       0.01505811 0.038047615 0.0015517706 -0.022381242
000390 89 56 80 bd 23 2b 72 3c 3d 43 c2 3c 9d 52 47 bd
       -0.06266505 0.014780792 0.023713702 -0.04866277
0003a0 5a 18 4b bd 68 bd ba bc 87 8b 0b bd 81 f2 89 3d
       -0.04958377 -0.022795394 -0.03406861 0.06735707
0003b0 ae ba af 3d 68 cb 9c 3c 27 9b f0 bc f8 88 94 3d
       0.08580528 0.01913996 -0.029370857 0.07252687
0003c0 3d 94 0c 3d 68 ca bb bd a5 bb 86 bd c9 66 27 3c
       0.03432106 -0.09169465 -0.06578759 0.010217377
0003d0 7c 1e 45 3d 4b fe 7a 3c 28 c5 94 bd ff 38 db bc
       0.048124775 0.015319417 -0.07264167 -0.026760576
0003e0 2e 10 9a bd 5e df 3b 3d 28 fd 70 bd 2b 9e 2a bc
       -0.07522617 0.045867316 -0.05883518 -0.010413687
0003f0 ba 45 6e bd 5e 5e a9 bc 53 38 02 3d 15 c9 21 ba
       -0.058171965 -0.02067488 0.031791996 -0.0006171626

rnn_layer.bias_hh_l0 f4 [512]
000000 a1 d2 2d bd 67 fa b7 3b a0 2b 88 3d ab c9 cc 3a
       -0.0424372 0.005614567 0.06648946 0.0015624067
000010 49 25 20 3c 20 cb 43 bc 48 0b 25 3d fa c1 ad ba
       0.0097745145 -0.011950284 0.04029396 -0.0013256662
000020 42 18 38 bd 7f 19 82 3e c9 23 08 3b 68 ea 25 bd
       -0.04494501 0.25410077 0.0020773283 -0.04050675
000030 8d 46 40 3b b6 00 b5 3d 53 33 39 3d 41 6c 4c bd
       0.0029338927 0.08838026 0.045214962 -0.049907926
000040 a5 2c f4 3d 28 d5 07 3e e2 1f ee 3d af ef db 3d
       0.11922578 0.13264906 0.11627175 0.107390754
000050 44 b3 38 3d d7 14 de bc c5 d2 e5 3d a1 c5 82 bd
       0.045092836 -0.027109547 0.11221842 -0.06385351
000060 c7 d8 92 3d 7f 9e fe 3d 7f 07 aa bc ee 89 8a 3d
       0.07170253 0.124325745 -0.020755528 0.06764589
000070 54 8d aa 3d 25 64 bb 3c 78 11 be 3d e3 9b e2 bc
       0.083277375 0.022874901 0.09280676 -0.027662223
000080 cc 0f 70 b9 e9 9a e0 3c f3 b8 93 3d 0e 62 2c 3d
       -0.00022894068 0.027417617 0.07213011 0.0420857
000090 0a 94 51 3d 92 fd c2 b9 a9 83 fc 3b a5 fb 75 3d
       0.05116657 -0.00037191488 0.007706125 0.06005444
0000a0 cc b9 9e bc 6c 62 10 bd 24 a5 15 3d f8 80 1a 3a
       -0.019375704 -0.035250112 0.036534443 0.00058938516
0000b0 f5 11 58 bd 6a 91 d4 3c 1d 86 14 bd ba 6f 32 bd
       -0.0527515 0.025948245 -0.036260713 -0.043563582
0000c0 2e a3 29 3d ca aa a2 3c e4 58 ca bc c9 4a 0f bd
       0.041415386 0.01985683 -0.02470059 -0.03498343
0000d0 13 e8 21 bc 4d f8 00 bb 77 fc bf 3b 38 6e 4d 3d
       -0.009881991 -0.0019679249 0.0058589536 0.05015394
0000e0 b1 73 8d 3d 03 65 4c 3d 12 cf 97 3d e0 0c 1f bc
       0.06906832 0.04990102 0.074125424 -0.0097076595
0000f0 c1 86 ce 3d 20 02 8e 3d c5 de 5b bc 64 d1 33 bc
       0.10084296 0.06933999 -0.013419812 -0.010975216
000100 37 b9 db 3a 26 4c 85 bd df 0a ae bc d3 8b 07 bd
       0.0016763572 -0.06508665 -0.021245418 -0.03309233
000110 33 bc a9 3c 68 0b b7 3d 4d 6d bd 3c b5 b9 9c 3d
       0.020719623 0.089377224 0.023123408 0.07652608
000120 6f 81 b7 3d 7a 9a ce 3d 95 05 9f 3d 92 40 9b 3b
       0.089602344 0.10088058 0.077647366 0.004737922
000130 ca 8e 7a 3d 50 36 b3 3d 5e 30 3a 3d c9 51 17 3d
       0.06117133 0.08750594 0.045456283 0.03694323
000140 8c f8 bb 3d e6 f9 79 3d fc 15 9b 3b 95 91 81 3d
       0.09178266 0.061029337 0.0047328454 0.06326596
000150 49 57 83 3d e7 be c8 bc 98 51 a2 bc 5f 3b 9f bc
       0.06413133 -0.024505092 -0.019814298 -0.01943749
000160 dc 3a 82 3d 3c 76 58 3d ce c4 92 3d 2b 96 b4 3d
       0.06358883 0.052847132 0.07166444 0.08817705
000170 34 42 e0 3d 4a a3 3b bc 99 fd f7 3d 12 91 5a bd
       0.10950127 -0.011452505 0.12108917 -0.053361006
000180 c8 23 52 3c 0e 8e 70 bd 6c 31 20 3e c7 15 2c 3c
       0.012825914 -0.058729224 0.15643853 0.010503239
000190 e0 42 33 3d 45 a9 42 bc 1b 95 67 3d 02 2e a5 bc
       0.04376495 -0.011881177 0.056538682 -0.02016354
0001a0 d9 66 9a 3d dd 37 82 3d 01 e9 c4 3d 54 0e 9e bc
       0.07539148 0.06358311 0.096147545 -0.019293942
0001b0 7e 06 1a bd a7 60 c8 3d b9 0e 51 3d 82 28 d4 3d
       -0.037603848 0.0978406 0.05103943 0.10359289
0001c0 d6 9d 7b bb 99 56 03 3e 77 b4 07 bd 46 d3 92 3d
       -0.0038393638 0.12826003 -0.03313109 0.071692035
0001d0 52 33 86 3c c5 21 63 3d c1 f1 8f 3d 96 16 47 3d
       0.016381893 0.055452127 0.07028533 0.048605524
0001e0 48 74 cb bc a0 af 44 bd 92 bb bb bb f3 90 a8 3d
       -0.02483572 -0.04801905 -0.0057291472 0.08230772
0001f0 db 2a 13 3d fc 51 cf 3c eb a0 dd 3d b4 26 18 3a
       0.035929542 0.025307648 0.10821708 0.0005804107
000200 9d 5f 59 3c 7c 76 0a 3d ad 94 10 bd 16 22 43 bd
       0.013267425 0.0338044 -0.03529804 -0.04763993
000210 a1 dd 2f 3d e7 1a 86 3c bd ec 6d bc 39 e3 89 3c
       0.04293597 0.01637025 -0.014521775 0.016831981
000220 d5 74 e0 bd 51 23 b7 bd 76 a9 2b 3b 01 f8 e4 3c
       -0.10959784 -0.08942283 0.0026193536 0.027950289
000230 07 2c 3b bd 9b e2 73 3d db e5 13 3d 1f 52 9a 3d
       -0.045696285 0.05954228 0.03610788 0.075351946
000240 c8 f1 39 bd 8b 41 ba 3d 13 85 ab 3c 0e 77 96 bd
       -0.045396596 0.090945326 0.020937478 -0.07346927
000250 e1 c6 1b 3c 83 39 e7 3c ef 2f 93 bd be 84 a8 bd
       0.009507866 0.028225666 -0.07186877 -0.082284436
000260 d8 4e b0 bc 4f 44 c7 bd 47 93 40 3d c5 6e 0a 3d
       -0.02152197 -0.09729826 0.047015455 0.033797044
000270 5c d4 c4 3c bc 1e 86 3c d9 f9 19 3d 26 13 af 3c
       0.024027042 0.016372077 0.03759179 0.021371435
000280 01 ce bc bd 47 a2 19 3d 2f ca a9 bd 88 94 2d 3d
       -0.092189796 0.037508275 -0.082905166 0.04237798
000290 9e 77 99 3d 0a 2d 9e 3d f0 25 68 bd 54 74 62 bd
       0.07493518 0.07723434 -0.056676805 -0.05528672
0002a0 9a c9 d0 bc 4d 21 24 bd 5f 6a 3e bd 67 9b b1 3d
       -0.025486756 -0.04007082 -0.046488162 0.08672219
0002b0 4e f5 87 bd 92 1e e3 bd c9 8d 0a bb 6d a5 0c 3c
       -0.06638585 -0.11089815 -0.002114164 0.008584362
0002c0 06 90 cc bd 1c 9d b4 3c e3 a0 8c 3d b1 62 9d bd
       -0.09988408 0.022047572 0.06866624 -0.076848395
0002d0 5f be 30 3c 53 7b f3 bc 92 57 85 bd 70 7d 76 bd
       0.0107875755 -0.029721892 -0.06510843 -0.06017822
0002e0 1d b6 6a bd 3b 79 8d bc 4d 61 71 bd db 55 6c 3d
       -0.057302583 -0.017269721 -0.058930684 0.057699066
0002f0 ac d3 a1 bd 26 01 ab 3c c4 20 a8 3d 37 4d c3 bd
       -0.07901701 0.020874571 0.082093745 -0.09536212
000300 09 87 ca bc 73 c4 c3 bd ef 8d b1 3b f9 2d 61 3d
       -0.024722593 -0.09558954 0.005418531 0.054975484
000310 c2 b7 6d 3d e6 f9 56 3d 75 57 dd bc d4 09 82 3d
       0.058036573 0.052484415 -0.027019242 0.06349531
000320 37 06 93 bd f7 2c 39 bc aa 40 28 bc ac 2f 7e bd
       -0.0717892 -0.011302224 -0.010269323 -0.062057182
000330 85 41 84 bd 38 cf 79 bc 7f 7e 7d 3d 68 bd 8b 3b
       -0.06457809 -0.015247159 0.061888214 0.0042645223
000340 f5 14 7c 3d cc 3d a4 bd f1 f9 07 3d dc aa 82 3c
       0.061543424 -0.08019599 0.033197347 0.015950613
000350 c0 e9 80 3c 6c 01 5a 3d 03 76 32 3c e5 91 5b 3d
       0.01573646 0.053224012 0.010892394 0.053605933
000360 07 39 ac 3c 6e d4 8f bd 82 38 f2 bc 7c 42 97 bc
       0.021023287 -0.070229396 -0.02956796 -0.01846432
000370 28 e4 6e bc e0 89 4f 3d 0c fa 02 3c 59 6e 85 3d
       -0.014580764 0.050668597 0.007994186 0.06515188
000380 32 0d 97 bd 06 57 a7 bc fe 93 29 bd b9 98 1e bd
       -0.07375564 -0.020427238 -0.041400902 -0.038719866
000390 ad 63 d8 3c 95 84 0b 3c 5c 36 43 3d 05 94 9d bd
       0.026414717 0.008515497 0.047659263 -0.07694248
0003a0 6d 7b 8a 3c 75 be b2 3d 24 ac 97 3d a9 18 dc 3d
       0.016904557 0.08727733 0.0740588 0.10746891
0003b0 40 5a 93 bd 1e de 7b 3d 0b 6b a9 bd 79 b9 1e bd
       -0.07194948 0.061491124 -0.0827237 -0.0387511
0003c0 16 b0 83 bd ea 4c 74 bd 5a e0 6b 3c 6e 7f ac 3b
       -0.0643007 -0.059643663 0.014396751 0.0052642142
0003d0 00 b9 da bc 30 07 30 3d 89 b4 5c 3c 82 61 dc b9
       -0.026699543 0.042975605 0.013470777 -0.0004203432
0003e0 15 e4 89 3c cb e8 53 bb 29 8f d7 3c 38 1e 30 bd
       0.01683239 -0.00323348 0.026313381 -0.04299757
0003f0 31 70 17 be b6 d1 6a bd 26 8b 85 3d e1 42 ec bd
       -0.14788891 -0.057328902 0.06520681 -0.11536194

dense_layers.0.weight f4 [64, 128]
000000 eb 6b fc 3c 8b ca b4 3d 8c e3 50 3d 0b be 2f 3d
       0.030813178 0.088276945 0.050998256 0.04290585
000010 22 de 80 3c eb a5 31 bd c4 62 04 3d 69 cc 00 be
       0.015730921 -0.043371122 0.032320753 -0.12577976
000020 bf b5 aa bc f1 0e 52 bc 1e 82 a8 3d 61 0d 4c 3c
       -0.020838616 -0.012820945 0.08227943 0.012454362
000030 d2 cf c1 bd fe 10 6a bd 53 f5 c4 bc ad f8 4d bd
       -0.09463467 -0.05714511 -0.024042761 -0.050285984
000040 47 d5 d5 bd 15 6e 46 bd 48 d7 e4 bd c7 23 88 3d
       -0.1044107 -0.048444826 -0.11173874 0.06647449
000050 5f 1f c9 bd c2 ee ca bd 6e e0 0c bd 34 a6 f6 ba
       -0.09820437 -0.09908821 -0.03439372 -0.0018817843
000060 aa d2 67 bd 26 2f a1 3d b0 13 97 bd e8 e2 c5 3d
       -0.05659739 0.07870321 -0.07376802 0.096624196
000070 ea 7c 27 bc c7 1a 06 bd 60 30 d7 3d c9 1f 40 bd
       -0.010222653 -0.03274038 0.10507274 -0.046905313
000080 74 04 c7 bc d8 d2 67 bd ec 9f c0 3d 58 fe 38 bd
       -0.024294116 -0.05659756 0.09405503 -0.045164436
000090 23 25 b0 bd 6f 19 2c 3c 85 14 2e bd 5b a5 c7 bd
       -0.08600833 0.010504111 -0.042500038 -0.09748336
0000a0 02 36 c6 bd 1e a3 c2 bd 65 20 c3 3c bb e5 48 bd
       -0.0967827 -0.095037684 0.023819158 -0.049047213
0000b0 bf af 84 bd 2f e5 1a bc 2e 92 4f 3c 8c 66 de bd
       -0.064788334 -0.009454056 0.012669129 -0.10859403
0000c0 f5 65 33 3d 1a 82 87 bd 87 15 59 bd ad 5f 0c bd
       0.043798406 -0.06616612 -0.052999046 -0.03427093
0000d0 66 ae 79 bc f1 1f 8b 3d 4b e6 47 bd 22 ea 3f bd
       -0.015239334 0.06793202 -0.04880361 -0.046854146
0000e0 78 1d c1 3d 6a 1d be bd 85 73 55 bd 68 5e f1 bd
       0.09429449 -0.09282954 -0.05211212 -0.11785585
0000f0 4a c9 02 bd be 05 35 3d 4f ae d2 3c 31 ed 54 3d
       -0.031930245 0.04419493 0.025717882 0.051984016
000100 57 bc bd 3d a7 88 68 3d b7 c1 51 bd 54 5e e5 3d
       0.092644386 0.056770947 -0.05121013 0.11199632
000110 ba bb a9 3d b6 69 a0 3d 66 63 a8 3d 89 8d 16 3d
       0.08287759 0.07832663 0.08222084 0.036756072
000120 2b b0 b7 bd e2 7a a4 3d ad 76 c6 bc 23 f0 e9 3c
       -0.08969148 0.080312505 -0.02422651 0.028556889
000130 dc f3 cd bd 83 ea 26 bd fc 9c 44 3d 45 7a cf bd
       -0.10056278 -0.04075099 0.048001274 -0.10130743
000140 8a 1d 5b 3c 05 39 b9 3d 17 22 51 3d a3 6c b9 3c
       0.013373742 0.09044079 0.0510579 0.02263481
000150 7b d8 5e 3d 09 d8 08 bd 64 f9 c3 3b ef 22 22 3d
       0.05440567 -0.033409152 0.0059806574 0.039584097
000160 f5 27 56 3c 58 ca 00 bd 7d b9 07 3c bb 48 8b 3c
       0.01307105 -0.03144297 0.00828397 0.017002454
000170 45 1c c8 bc 5f fd 83 3d 13 0b c1 3c 35 91 d8 3d
       -0.024427542 0.06444811 0.02356485 0.10574571
000180 e2 be 9b bc 35 c2 8c bd b7 ea 88 bd e8 cb 81 3c
       -0.019011918 -0.068729796 -0.06685393 0.0158443
000190 76 74 43 3d 09 4e a7 3c 61 89 69 3d d5 53 91 bd
       0.047718488 0.020422952 0.05701578 -0.07096068
0001a0 65 a6 42 bd 50 fe d4 bd 86 6c 49 3d d4 6b 8d bc
       -0.047521967 -0.10400069 0.04917576 -0.01726333
0001b0 12 de 1c 3d bd 28 50 3b 13 37 0c 3d 3a 79 af bd
       0.03829772 0.0031762563 0.03423221 -0.08568044
0001c0 b6 8c 06 bd 04 4c 7b 3d 05 13 58 bd f7 c5 0a 3c
       -0.032849036 0.06135179 -0.052752513 0.00847005
0001d0 1b e3 a4 3d 49 c4 50 bd 54 4e 1f 3d b0 a4 2e bc
       0.080511294 -0.050968442 0.03889306 -0.010659382
0001e0 65 2a 99 3d 0c 4f 9d bd 94 b9 01 bd cf ac c4 3d
       0.07478789 -0.076810926 -0.03167112 0.09603273
0001f0 02 53 d3 3c 2a 02 4c 3d 42 5e 83 bd f3 f9 bc bd
       0.025796417 0.04980675 -0.064144626 -0.092273615
000200 23 3a 5d bd db 2e fc ba 73 2e f8 bb 14 c6 5a 3d
       -0.05401052 -0.0019240038 -0.0075738966 0.05341156
000210 2d ff f8 bc 01 61 f1 3c 2d ea d9 bc 6a 2c 10 3d
       -0.030395115 0.0294652 -0.026600922 0.035198607
000220 8a 0a bb 3c 03 67 81 bd a0 7b 0b bd 29 2a 07 bd
       0.022832174 -0.06318476 -0.034053445 -0.03299919
000230 d3 38 bf bd 5a 07 f6 3d a7 12 64 bd d4 5f 13 3c
       -0.0933701 0.12013121 -0.05568185 0.008995015
000240 ae 6c d9 bd 0a 7e 9b 3d 76 7c df bc 5b 8a 14 3c
       -0.10616432 0.075923994 -0.027281027 0.00906619
000250 5c b1 14 bc ec a0 61 bc fb 2c e9 3d b8 c6 0a 3c
       -0.009075489 -0.013771277 0.113855325 0.00847023
000260 1b c3 83 bc 26 0b 47 3d 04 1e 4f bd 20 d2 36 bc
       -0.016084244 0.048594616 -0.050565735 -0.011158496
000270 ed f6 f6 3d ac da a4 bd c6 06 10 3c 65 4e 79 3d
       0.12058816 -0.08049521 0.008790677 0.06086578
000280 89 9e 54 bd 6a db db 3d 98 8f a1 3c c1 7f bc 3d
       -0.051909003 0.10735209 0.019721791 0.092040546
000290 26 f6 41 bc 9e f6 11 3c 36 2e 36 bb c2 7a c7 bc
       -0.0118384715 0.008908896 -0.002779854 -0.024350528
0002a0 45 44 e0 bd 1f 66 5a 3c bc db b3 3c 55 77 99 bd
       -0.109505214 0.013330012 0.021955363 -0.07493464
0002b0 de bb ee 3c 73 53 c7 3d 1b a0 bd bc 44 13 d4 bd
       0.029142316 0.097327136 -0.023147633 -0.10355237
0002c0 f7 cc 32 3d 4e 7c 9b 3d 70 c4 d3 bc 4f 6f 5b 3d
       0.0436525 0.075920686 -0.025850505 0.05357295
0002d0 08 f7 a5 3c 96 14 ec 3d 4e f6 43 3d b8 2f 78 bd
       0.020259395 0.11527364 0.047842316 -0.060592383
0002e0 d5 af 8c bc 64 fd c2 bd e2 70 08 3d e8 97 91 bd
       -0.017173687 -0.09520987 0.03331078 -0.07109052
0002f0 41 c9 69 bd 60 96 a5 bc 9d 88 54 3d 1a b9 c2 ba
       -0.057076696 -0.020213306 0.051888097 -0.001485619
000300 0d dc 17 3d 40 a7 d9 3c 53 75 7b 3d 26 cd a6 3c
       0.03707509 0.026569009 0.061391186 0.020361494
000310 8b 23 d4 3d b4 5d 65 3d 58 60 16 3d 7a 48 7b 3c
       0.10358342 0.055997565 0.036712974 0.015337104
000320 e7 e8 ea bd 99 f8 0a 3d ff 0f 28 3c ec f0 1c bd
       -0.11470204 0.033928487 0.01025772 -0.0383157
000330 d2 ca 5b bd 61 21 98 bd bd 4d e5 bd 37 98 d1 bd
       -0.05366022 -0.074282415 -0.11196468 -0.10234111
000340 7e 12 ac bc 21 f1 16 bd ee ae bb 39 15 f2 ce bd
       -0.021004912 -0.036851052 0.00035797752 -0.10104767
000350 74 d6 d5 3d f8 ff 60 3c 3a 2b 59 bc 03 05 e0 bd
       0.10441294 0.013732903 -0.013254935 -0.10938456
000360 45 1f 57 3d 86 94 20 3d 3d d4 d8 bd 29 39 1d 3c
       0.052520055 0.039204143 -0.10587356 0.009596148
000370 26 e7 ee bd 8b dd b8 3c 60 36 a0 bc a4 75 21 3d
       -0.11665182 0.022566577 -0.019557178 0.03941883
000380 24 6e ae 3d eb b8 36 bc 8a ec 98 3d 9c 4d eb 3c
       0.085171014 -0.011152486 0.07466991 0.02872353
000390 17 17 e3 3d 02 0c d6 bd d9 6c 40 ba 54 35 06 bd
       0.110883884 -0.10451509 -0.00073404383 -0.0327657
0003a0 93 4d c5 3c 97 bd b3 bd 5e c4 c5 3d a9 d8 8c 3d
       0.024084842 -0.08776396 0.09656595 0.06877262
0003b0 ec a6 b1 3d b5 4f b1 3c f6 1c 5e 3d fb a5 ce bd
       0.08674416 0.021644453 0.054226838 -0.10090252
0003c0 1b b7 ec 3d 46 e1 fd 3d 0d 7d d9 3d 80 11 27 3d
       0.11558362 0.12396483 0.10619555 0.040788174
0003d0 e7 35 fd 3d a8 04 c6 3d da 28 73 bd e4 ab d7 3d
       0.12363797 0.09668857 -0.05936513 0.105308324
0003e0 ca 91 2b 3c 95 52 de bc 12 4e 8c bd 35 87 a3 3d
       0.010471771 -0.027138988 -0.06850828 0.07984773
0003f0 ab 9b 03 bd 1b ea 8e bc c2 0f 4f 3d 3b af 2c bd
       -0.03213088 -0.017445615 0.050552137 -0.0421593

dense_layers.0.bias f4 [64]
000000 60 81 a1 bd 4e c7 4b bd 9c f4 9d bd 01 0c 8a 3d
       -0.078860044 -0.04975062 -0.07712671 0.06740571
000010 57 58 16 3d cb 07 31 bd d4 88 bb bd 21 fc b9 3d
       0.03670534 -0.043220323 -0.09156957 0.09081293
000020 5a a9 47 bd 23 ec 7a bd 73 10 0f 3d 65 14 98 3d
       -0.04874549 -0.061260354 0.034927797 0.07425765
000030 40 81 2b 3b 2e b8 02 bb 63 e4 b6 3c ad a9 e8 bc
       0.0026169568 -0.0019946205 0.0223257 -0.02840122
000040 33 da d0 3d cc 4c 8c bd 8d 99 75 3d 02 f2 c8 3c
       0.10197868 -0.06850585 0.05996089 0.02452946
000050 c2 bd d2 3d 59 b3 89 bc fb 96 31 bd 7d 7c 14 bd
       0.102901 -0.016809152 -0.043356877 -0.036251534
000060 57 c0 16 bd 49 ef fd 3c 2e e9 e8 3c fc f8 7b 3a
       -0.036804523 0.03099789 0.028431501 0.00096119917
000070 5e 76 73 bc 78 e6 85 bd e1 f0 95 bd 4e a6 59 3d
       -0.014859764 -0.06538099 -0.07321335 0.053137116
000080 e7 3d 05 3d c1 2e 19 3d 33 be 8e 3d b7 eb ff 3c
       0.032529738 0.037398104 0.06969871 0.031240327
000090 ad 72 30 3d 53 a2 93 bd cb 0e ad bd 9a d5 b0 bd
       0.043078113 -0.07208695 -0.08450087 -0.08634491
0000a0 d9 c6 79 bc 6c 3e aa bd 51 34 2c bd f9 f1 cb 3d
       -0.015245163 -0.08312687 -0.04204208 0.09958262
0000b0 7c 4b 14 bc cb 47 95 bd 40 ca 60 bd 18 d9 3f bd
       -0.0090512 -0.07289084 -0.05488038 -0.046837896
0000c0 90 07 96 bd b6 db f8 3c 4b ce 20 3d ab 33 77 bd
       -0.07325661 0.030378204 0.039259236 -0.06035201
0000d0 0c 86 7b bd c6 85 82 3d 26 2b 83 3d 2b 83 4a 3d
       -0.061407134 0.063731715 0.06404714 0.049441498
0000e0 48 36 01 3d 7a d8 97 bc cb 25 c7 3c e0 d1 78 3d
       0.031545907 -0.018535841 0.024310013 0.060747027
0000f0 4a 7b 05 bd ce db 63 bd aa e5 aa 3d fa 0a 79 ba
       -0.03258828 -0.055629544 0.08344586 -0.0009500232

dense_layers.2.weight f4 [14, 64]
000000 1f c0 de bd ff 9a be 3d 4c 43 1d be bb 85 dc ba
       -0.10876488 0.09306907 -0.15357703 -0.0016824523
000010 db e3 bd 3d 3b 47 59 be 29 45 14 be a6 28 54 3d
       0.092719756 -0.21218579 -0.14479508 0.051796578
000020 4b e6 37 bb 1d 07 94 3c 4d 4e e1 bd 59 70 46 3c
       -0.002806085 0.018069798 -0.11001263 0.012111747
000030 de 01 8b 3d 10 ca 2e 3d 11 ae 82 3d b8 f6 73 bd
       0.067874655 0.04267317 0.06380857 -0.05956146
000040 3b 12 f7 3d 0f 2a a3 bd 3a 68 22 3e 9c b0 4d 3d
       0.12064024 -0.079670064 0.15860072 0.050217256
000050 fe 29 04 3e 8d 06 12 be e2 71 f2 3c aa 8a 50 bc
       0.12906644 -0.14260311 0.02959532 -0.012728373
000060 cd 41 6f 3d a4 91 f2 bb 8e b7 4c 3d 4f 29 18 bc
       0.058412362 -0.0074026156 0.04997974 -0.0092871925
000070 85 a8 16 bd 05 29 15 bd 55 df a2 3d a0 56 1f be
       -0.036781806 -0.036416072 0.079527535 -0.15560389
000080 34 17 bf 3c 47 55 f3 3c 08 b6 ea 3d 8b f1 c5 3d
       0.023326494 0.02970375 0.11460501 0.09665211
000090 51 64 de 3d 35 a7 9a bd 20 3e 90 bd 87 ee 35 3d
       0.108589776 -0.075514235 -0.070430994 0.04441693
0000a0 c1 5d 2f 3d 9c 7f 41 3e e5 71 93 bd 4f 39 e0 bd
       0.04281402 0.18896335 -0.07199458 -0.10948431
0000b0 28 b7 cf bb 1f a7 50 3d eb 3a 0e bd f4 92 48 bd
       -0.0063389726 0.05094063 -0.034724157 -0.04896827
0000c0 cd 8c 6c bd 49 1e 82 bd 01 71 aa bd a1 a6 3e be
       -0.057751466 -0.06353433 -0.08322335 -0.18618251
0000d0 95 fb 50 be 99 a1 bf 3d 9b 3b b4 3c 57 aa 1d be
       -0.20408471 0.09356994 0.022001078 -0.1539701
0000e0 22 0e c4 3a b1 84 6b be b0 17 26 3d 72 cd da bc
       0.0014957825 -0.22999837 0.040549934 -0.026709292
0000f0 11 86 0e be f2 7e 49 3d ee d0 b4 bd fe a4 05 3e
       -0.1391833 0.04919333 -0.08828913 0.13051221
000100 23 f6 b8 3d 81 d7 e2 3d 90 88 d7 3d 07 0a a0 bc
       0.09031322 0.1107626 0.10524094 -0.019536031
000110 fb 6f 13 be a0 c9 96 bd 2a 19 80 3d 86 d1 a2 bd
       -0.14398186 -0.07362676 0.062548 -0.0795012
000120 76 b4 e1 ba d9 a0 ff 3c 36 ff 68 bd a6 c2 b1 3c
       -0.0017219919 0.031204628 -0.056884013 0.02169926
000130 05 97 f6 bd 38 3b 5c 3d a0 00 dd bd d2 af 0f bd
       -0.120405234 0.053767413 -0.10791135 -0.035079785
000140 26 b7 7a 3d 5a 0d 7d bd 8b 12 06 3d 70 df 30 bc
       0.06120982 -0.06178031 0.032732528 -0.010795459
000150 61 0e 59 bd 85 78 9e 3d b8 ff f3 3d ed 57 b0 bd
       -0.05299223 0.07737831 0.11914009 -0.086105205
000160 c6 81 2a be 60 32 64 bd 00 4d ee 3c 94 7f 0e bd
       -0.16651067 -0.055712104 0.02908945 -0.034789637
000170 52 c1 9e bd 2f e9 bd 3c ce 79 ee 3d c1 d1 4e bd
       -0.07751717 0.02318248 0.11644326 -0.050493006
000180 3c 22 0f bc 5d 4d 60 3d ca a3 87 3d 20 2f aa 3d
       -0.008736189 0.05476128 0.06623037 0.0830977
000190 af 32 86 3d 87 ec 63 3d 75 d9 93 3c c6 b2 a3 bd
       0.06552636 0.055645492 0.018048028 -0.07993083
0001a0 2d 5c 00 be 0c fc ff bd a7 af 0b 3d 0a cf 2a be
       -0.12535162 -0.12499246 0.034103062 -0.16680542
0001b0 14 7e 1f be 52 da 6d 3c 61 06 e8 bd 30 cc 9e bc
       -0.15575439 0.014517384 -0.11329342 -0.019384474
0001c0 e6 1b 52 bd 02 73 0b 3e 77 21 01 be ef 97 8e 3a
       -0.051296137 0.13618091 -0.12610422 0.001087902
0001d0 c8 e7 17 be f7 64 a4 3c 59 09 99 bd 47 a3 ed bd
       -0.14834511 0.020067675 -0.07472486 -0.11603408
0001e0 97 58 f3 3d fc d4 36 3d 80 91 06 3e a0 f0 99 bd
       0.118821315 0.04463671 0.13141441 -0.07516599
0001f0 0a f0 60 bd eb 2b a8 3d 66 79 b4 3c ec a0 58 3d
       -0.05491642 0.08211502 0.022030544 0.052887842
000200 9e 11 36 3d 86 4b 98 bd 3a 4c ec 3c 46 eb 3a be
       0.044450395 -0.0743628 0.028844941 -0.18253812
000210 87 d2 48 3c 27 2e 91 3d 83 cb 90 3d ef 63 c4 3d
       0.012257225 0.07088881 0.07070067 0.09589373
000220 eb 5a 49 be 1e 69 21 3e 83 29 23 bd 55 75 b7 3d
       -0.19663589 0.15762755 -0.03983451 0.08957926
000230 20 80 1f 3e 6e 5c ba bc 7f 90 e7 3d b3 31 d0 bd
       0.1557622 -0.022749152 0.11306857 -0.101657294
000240 c6 d2 af 3d 14 7f fa 3d 19 d4 e5 3c 0c 50 2b 3b
       0.08585124 0.122312695 0.028055238 0.002614024
000250 f9 3f 18 3e 88 e5 2a 3e be 14 19 be 09 fa 25 3e
       0.14868154 0.16689122 -0.14949319 0.16208662
000260 be 7b 44 3e e9 64 30 bd 8e 01 ef 3c 7f 46 11 bd
       0.19187829 -0.043064985 0.029175546 -0.03546762
000270 85 f8 4e 3e 88 2f 4c 3e 8f b8 45 3d d6 c4 65 bd
       0.2021199 0.19940007 0.048271712 -0.05609592
000280 6b 5b 5c be c4 50 b5 3d fd 0a c4 3d 12 a5 55 be
       -0.21519248 0.088532954 0.09572408 -0.2086375
000290 06 24 43 bd d7 e4 52 3c 74 bf 32 3e 66 67 a6 3d
       -0.047641777 0.0128719425 0.17455846 0.081251904
0002a0 eb 2c 7d 3d e9 67 14 3e 70 26 5b bd f5 b2 b5 bd
       0.061810415 0.14492764 -0.053503454 -0.08872024
0002b0 18 46 c4 3d 93 5b 56 3d f5 97 d2 bb 38 ab 78 3d
       0.09583682 0.052333426 -0.006426806 0.060710162
0002c0 b3 a5 bc 3c 2d 79 77 3d 05 f4 a8 bd 8d c9 a0 bb
       0.02302823 0.060418297 -0.08249668 -0.004906839
0002d0 26 4d 88 3c 26 54 94 bc 43 f8 81 bd ce 2b e9 3d
       0.01663835 -0.018106531 -0.0634618 0.11385308
0002e0 36 dc 6c bd 21 2f 95 bd 23 f6 57 bb 6c bc 0c be
       -0.057827197 -0.0728438 -0.0032953105 -0.13743752
0002f0 ee bd a6 bd 25 3c cb 3d 96 a6 13 3e b7 d3 1b 3e
       -0.08141695 0.09923581 0.14419016 0.15217482
000300 d2 fa b9 3d 45 98 0d bd cb be 9c 3c 41 08 0b 3e
       0.09081043 -0.034569044 0.019133946 0.13577367
000310 5b 54 b2 bd 99 ee ad bd 31 a1 bf 3d 06 84 0a be
       -0.08707496 -0.084927745 0.09356917 -0.13526925
000320 58 4c 11 3e ec f1 af bc 80 ba da bd 75 00 da bd
       0.14189279 -0.021477662 -0.10680103 -0.106446184
000330 75 54 c7 bb 65 05 b5 bd 77 15 72 bc 75 09 01 3d
       -0.006083066 -0.088389196 -0.014775625 0.03150316
000340 23 0b 01 be e9 00 85 3d b9 ae 33 3c 3d 89 e5 bd
       -0.12601905 0.06494314 0.01096695 -0.11207817
000350 6e 09 03 be 56 c1 6e bd 9f 5f 9d bd 01 ae c6 bd
       -0.12796566 -0.05828985 -0.07684254 -0.09701157
000360 23 7a fc bd 57 26 82 bd 2a 31 84 bb ce e8 cd 3d
       -0.12327983 -0.06354969 -0.004034181 0.100541696
000370 96 75 7c bd 3f d8 be b9 c6 5f 23 3d 40 f5 28 be
       -0.061635576 -0.0003640074 0.03988626 -0.16499805
000380 9d 61 b5 3d 81 a0 7f bd 86 f5 92 bc c8 46 73 bd
       0.08856509 -0.062408928 -0.01793934 -0.059393674
000390 6a 76 e5 3d ea 22 13 3e ba 62 a0 3d fb 9b 73 3d
       0.11204226 0.14368787 0.078313306 0.059474926
0003a0 e8 fa 26 bd e2 a8 47 bd 12 ec dd 3c e4 fc 1d be
       -0.040766627 -0.048745044 0.027090106 -0.15428501
0003b0 94 ed d7 bc 1d 8c a3 bc 34 f8 ba bd 5b 9f 2e 3d
       -0.026358403 -0.019964272 -0.09129372 0.042632442
0003c0 5d de 98 3d 8d 33 c2 bd 93 c5 8b 3d 3d 17 ba 3d
       0.074642874 -0.09482489 0.06824794 0.090864636
0003d0 bb c4 cd bd 74 e4 0b 3d 14 9c a4 bd 9a 76 00 bd
       -0.10047289 0.034153417 -0.08037582 -0.031363107
0003e0 8a 7d 29 bd 4a 88 b5 bd f0 14 a4 3d a8 c7 05 3e
       -0.04137949 -0.08863886 0.08011806 0.13064444
0003f0 6e 3f fd 3d 52 00 6d bd 71 b7 54 bd be 86 97 bd
       0.12365614 -0.057861634 -0.051932756 -0.07398747

dense_layers.2.bias f4 [14]
000000 65 f6 68 bd 21 ae cb bd 68 9d 03 3d 42 cd 62 3d
       -0.056875605 -0.09945322 0.032132536 0.05537153
000010 21 01 d4 3c 93 6b ac bd 2a c6 91 bd 50 75 d7 3d
       0.025879445 -0.08418956 -0.07117875 0.105204225
000020 66 0a c2 bd 4f d5 01 be ab 9c 21 3a 27 f4 59 bc
       -0.094746396 -0.12679027 0.0006165008 -0.013302839
000030 7d 28 94 bd 40 b6 d2 3b
       -0.07234285 0.0064304173
