New_project/model.pth (torch, 726632 bytes, 8 tensors)

rnn_layer.weight_ih_l0 f4 [800, 7]
000000 39 ef 78 3d 7b 75 29 3d a5 11 2c bb 80 87 88 bd
       0.060775016 0.041371804 -0.0026255634 -0.066664696
000010 98 8c 1e 3d 82 26 d2 3c 85 1d 65 bb 4b b2 1c 3d
       0.0387083 0.025653128 -0.0034960222 0.03825597
000020 b7 9a 4f bd f9 0c e5 3c 7e de c2 bc 0f 85 d1 bc
       -0.050684657 0.027960287 -0.023787733 -0.025576143
000030 f7 6d 0a 3d f7 e2 02 3d 44 c7 c9 3c 29 7e 1e bd
       0.033796277 0.03195473 0.02463115 -0.038694534
000040 3a 56 72 3c 34 96 1d 3d 79 d5 31 3d ba 3d 08 3d
       0.014791066 0.038473323 0.043416474 0.033261992
000050 3c 3c ba bc 84 49 d5 bb fc fd 59 bd c3 18 13 3c
       -0.0227338 -0.006509008 -0.053220734 0.008978072
000060 c9 cf 78 bd 1e 1e 53 3c 0e b3 44 39 b2 fe ff 3c
       -0.060745034 0.0128855985 0.0001875872 0.031249378
000070 38 50 0f 3d b0 1a 7f 3a 74 e8 86 bd 64 2a 0d 3d
       0.034988612 0.0009731455 -0.06587306 0.034464255
000080 b2 61 36 3c 96 b1 7f bc 1a 10 9c b9 a9 2c 27 3d
       0.011131691 -0.015606305 -0.00029766635 0.040814076
000090 61 cb 50 bd 15 18 53 3d 9f 09 9b 39 57 a1 48 3c
       -0.050975207 0.05153664 0.00029571072 0.012245498
0000a0 e7 e4 7f bd 9f bb 25 bd 4a f4 d6 bc f8 93 8e bd
       -0.062474158 -0.040462133 -0.026239533 -0.069618165
0000b0 2a cf 4e bd 4d 36 2a 3d 2a a2 11 bd 86 50 94 3a
       -0.050490536 0.04155569 -0.035555042 0.0011315502
0000c0 6d 0e 4c bd 6c 75 68 bd 96 b8 54 3d 67 04 7a bd
       -0.049818445 -0.056752607 0.051933847 -0.061039355
0000d0 98 86 82 bd 9d 1a 6e bd 0f ae 32 bd c6 eb 50 bd
       -0.06373328 -0.05813085 -0.043623026 -0.0510061
0000e0 21 48 3e bd fd c9 6a bd d1 89 4b 3d e1 be 53 3c
       -0.046455506 -0.057321537 0.04969198 0.012923927
0000f0 de 14 05 3d 8a 93 cd bc 98 20 69 bd 78 a9 6c 3d
       0.032490604 -0.025094766 -0.05691585 0.057778805
000100 be 84 2e 3d bd 6d ff bc 30 0f cb bc 12 1b 7b 3d
       0.04260706 -0.031180257 -0.024787515 0.061305113
000110 05 8a 2b 3d 83 83 1a bd 2f fe 9e bc 8d ea 4a 3d
       0.041879673 -0.037723076 -0.019408314 0.04954009
000120 da 3a d6 bc 05 56 6e bd d2 8c 87 bd 25 39 a9 bc
       -0.02615111 -0.058187503 -0.06618656 -0.020657131
000130 cb 8a bc bc 06 ef 2a 3b 00 d3 a3 bc 2a f3 58 bd
       -0.0230154 0.002608241 -0.019998074 -0.052966274
000140 1d 06 f2 bc eb ce 88 bd 67 df 4b 3d a8 69 07 bd
       -0.02954393 -0.066800915 0.0497736 -0.033059746
000150 e4 05 8c 3d 9b 81 17 3d 43 0b 16 3d 8c ca 91 3c
       0.06837061 0.036988836 0.036631834 0.017796777
000160 7b ef 89 bc 68 bb 80 3d ab d0 59 3d 8c 58 e3 bc
       -0.016837826 0.06285745 0.053177517 -0.027752183
000170 79 4c 5b 3d 86 ef 62 3d 62 22 e3 bb 9b 06 84 bd
       0.053539727 0.05540421 -0.006931589 -0.064465724
000180 65 4d 8b 3d 8f 3b b7 3c ef 4f a7 bb eb 38 dc 3c
       0.06801871 0.022367267 -0.0051059644 0.02688261
000190 a7 e6 55 bd b3 9c 07 bd 8a 0a 2b 3d bd 3f 8c 3c
       -0.05222192 -0.033108424 0.041758098 0.017120237
0001a0 2b 49 0b 3d d0 71 75 bd 50 22 18 39 d7 a7 5b bd
       0.034005325 -0.059922993 0.00014508632 -0.05362686
0001b0 4b 78 5c bd 2c 5a 98 bc 6c b2 38 bd ce 29 19 3d
       -0.053825658 -0.018597685 -0.04509203 0.037393384
0001c0 36 78 6d bd 1b 74 da 3c 90 a1 7d 3d 83 8b 22 bd
       -0.05797597 0.026666692 0.061921656 -0.03968383
0001d0 6a f1 3b 3d 6d 57 55 3d 1f 5f 25 3c 89 44 64 3d
       0.045884527 0.05208533 0.010093479 0.055729423
0001e0 1d 9b b6 3b fb 6d 4f bd e0 f6 7a 3b 9c 33 01 3d
       0.00557269 -0.050641995 0.0038294122 0.03154336
0001f0 f1 8c 3a bd 57 09 ba 3a 28 c6 02 3d a8 34 3e 3d
       -0.04554457 0.0014193457 0.031927258 0.046436936
000200 fd 3d 97 3c fb 7b 02 bd 4c 4d 1f bd b3 64 39 3d
       0.018462176 -0.03185652 -0.038892075 0.04526205
000210 d5 3f 90 bd 65 05 b5 3c aa 3d 54 bb 8c 63 aa bc
       -0.07043425 0.022097299 -0.0032385387 -0.02079942
000220 6b 33 34 bd 3c a3 17 bd b0 52 19 bc f3 e6 fc 3c
       -0.04399435 -0.037020907 -0.009358093 0.030871844
000230 3d d6 2a bc 5c f7 29 3c 01 6d 40 3d fa ad 62 bd
       -0.010427055 0.0103739165 0.046978954 -0.0553417
000240 37 90 20 3d 22 e2 70 bd 86 d2 2d bd a6 3b 3f bd
       0.039200034 -0.058809407 -0.0424371 -0.046687745
000250 12 51 80 bd 34 81 f2 bc 65 8b 07 3c 52 ba 73 3d
       -0.06265463 -0.029602624 0.00827298 0.05950386
000260 6a 57 fd 3c 1a 4d ed 3b e3 af 54 3d 1d cb 71 bd
       0.030925471 0.0072418572 0.05192555 -0.059031595
000270 33 7b 07 3d 89 d8 f5 bc 91 d2 51 bd 18 d1 77 3d
       0.033076476 -0.030010479 -0.051226202 0.06050214
000280 cf fa 80 3d 68 63 27 3d 8c 3d 41 3c 94 e1 33 bd
       0.06297838 0.040866286 0.011794459 -0.0439163
000290 69 62 3b 3d 89 91 fd ba 16 de 85 bd 23 98 1d 3d
       0.045748148 -0.0019345741 -0.065365 0.038475167
0002a0 3f a1 25 bd 19 63 06 3d fe 1c 1f 3c 04 67 63 bd
       -0.04043698 0.03280935 0.009711502 -0.055518165
0002b0 da cd 7d bd 5c cd 91 3c 66 bd 6e bc 2f c9 de bb
       -0.061963893 0.017798118 -0.014571523 -0.0067988853
0002c0 fa d3 7f 3d 4e ba 6d 3d a4 05 1f bd a5 0e 85 bc
       0.062458016 0.058039002 -0.03882374 -0.016242335
0002d0 f2 1d da bc 3c d6 d1 3c e1 62 81 bc 39 0b 5c 3d
       -0.026625607 0.02561485 -0.01579422 0.05372164
0002e0 ba 47 99 bc e0 f3 6c bd af af 62 bd d3 7d 9c 3c
       -0.01871096 -0.057849765 -0.055343326 0.019102966
0002f0 4c 9e 21 bd 03 52 5b 3d 61 ec 49 bd fb ff 01 3d
       -0.039457604 0.05354501 -0.049297694 0.031738263
000300 b2 2f 62 bd 65 75 1c bd b1 e8 4e bd f3 36 8e ba
       -0.055221267 -0.038197894 -0.05051488 -0.0010850116
000310 60 a1 3f 3c bb 45 17 3d f0 34 13 3d 93 ef f3 3c
       0.01169619 0.036931735 0.035939157 0.029777324
000320 fd 1d ce 3c fc 6c 6d 3d 52 d5 27 bd 30 72 72 3d
       0.025160784 0.057965264 -0.040974922 0.05919093
000330 51 1d 3c 3d c4 72 4d 3d 0b 0c 52 3c 3f b4 a6 3c
       0.045926396 0.050158277 0.012820254 0.02034962
000340 df 7d 85 bd ce f1 35 bd b4 34 45 3d 13 22 37 3d
       -0.06518149 -0.044420056 0.048145965 0.04471023
000350 86 4c e7 bc 01 47 58 3d e4 48 c5 bb 4a 0a 56 bd
       -0.028234731 0.05280209 -0.006020652 -0.052255906
000360 8e 3c 42 bd 77 ce c3 3c e3 f2 e0 3c b1 77 09 3d
       -0.04742103 0.023902161 0.027459567 0.033561412
000370 80 08 74 3d d6 a8 70 3d aa c4 17 3d 26 7d 8f 3d
       0.05957842 0.058754764 0.037052788 0.07006292
000380 aa 4f 50 3c 4b 1f 12 3d fd 6d 86 3c 92 59 73 3d
       0.012714306 0.035674375 0.016409868 0.059411593
000390 92 be 08 3d 2e 75 7e 3d 4b 4b 28 bd 1b ad e6 bb
       0.033384867 0.06212347 -0.04108743 -0.0070396787
0003a0 bf 60 83 bd f8 c8 20 ba 22 aa f3 ba 4d 6b 1d bd
       -0.06414937 -0.00061334623 -0.0018590132 -0.038432408
0003b0 55 14 48 3d 2f 3f 4b 3b ab 5c 41 3d 30 c2 06 3c
       0.048847515 0.0031013002 0.047207516 0.008225009
0003c0 1b 3a 84 3c 03 4e 44 bc 28 6d ff 3c 6f 22 dc 3b
       0.016140988 -0.01198149 0.03117998 0.006717972
0003d0 04 35 79 bd f5 89 98 bc 8e f1 ba ba 2f 18 80 3d
       -0.060841575 -0.01862047 -0.0014262663 0.06254613
0003e0 2a 67 bd b9 6a 01 04 3d cf 82 d3 3c ef 76 f9 3c
       -0.00036125752 0.03222791 0.02581921 0.03045222
0003f0 d9 1e 6c 3c 94 dc 72 3d 45 01 0f bd f4 d2 73 bd
       0.0144116515 0.05929239 -0.03491332 -0.059527352

rnn_layer.weight_hh_l0 f4 [800, 200]
000000 f0 4c 13 bd f5 96 39 3d 07 a3 08 bd 93 c1 4a bd
       -0.035962045 0.04530998 -0.0333586 -0.049501013
000010 55 4f 11 bd 8f 60 80 3b be 6a 90 3c 48 6f 82 3b
       -0.035476048 0.0039177607 0.017629024 0.003980551
000020 15 79 1a 3d e1 8f 82 bb 8f be 09 bd 71 7d 0d 3c
       0.03771313 -0.003984437 -0.033628996 0.008635865
000030 5f 29 31 bd 1d e5 35 3d 76 99 a3 bc 30 f9 f7 3c
       -0.043252345 0.044407953 -0.019970637 0.030270189
000040 96 81 43 b9 b7 6b 3b 3d 0c 70 f1 bc 6e d5 30 3d
       -0.00018644924 0.04575702 -0.029472373 0.043172292
000050 0b 3f 85 bd ec 99 89 bd 0e 0b 83 bb ca 8f a3 3c
       -0.06506165 -0.067188114 -0.0039991206 0.019966025
000060 59 b7 8a bd fe ea 75 bd 44 4f 5c 3d 54 42 61 bc
       -0.06773252 -0.06003856 0.05378653 -0.013748724
000070 e4 99 af b9 c7 ca 5d 3d 17 76 54 bc c1 66 1d bd
       -0.00033493259 0.05414846 -0.012967608 -0.038428072
000080 9e d7 2c 3d 67 ec 70 bc 2d f1 98 bc 5e 8d c4 bc
       0.042197816 -0.0147048 -0.01866969 -0.02399319
000090 5b 42 b4 bc fd 09 b7 3c c3 99 35 bd ef fc 8d bd
       -0.022004297 0.02234363 -0.04433609 -0.06933009
0000a0 c7 de 77 bc 5a 81 9d bb ea ff 93 3a cb fb 8c bd
       -0.015128798 -0.0048066797 0.0011291478 -0.06883963
0000b0 85 db b9 3b a5 a0 26 bd a8 ba 06 3d 9c 8b ce 3c
       0.0056719207 -0.040680546 0.032892853 0.025213055
0000c0 88 aa 9e bc c2 46 4c 3d a8 76 1f 3d dc 39 17 bd
       -0.019368425 0.049872167 0.03893152 -0.036920413
0000d0 e7 9a bf bc e2 20 40 3d 08 53 ee bc 00 f8 cd 3c
       -0.023389293 0.04690636 -0.029092327 0.02514267
0000e0 46 c9 ca 3c cf b1 fc 3c aa 44 6b bd 41 f7 e7 3b
       0.024754178 0.030846504 -0.05743853 0.0070790355
0000f0 c6 fd 16 3d f2 6b 27 3d f8 30 87 3d 1f 5f 1c bd
       0.03686311 0.04087443 0.06601137 -0.038176652
000100 7e a1 23 bd 4c a4 4b bc a4 11 91 3c f0 66 44 3d
       -0.039948933 -0.012429308 0.017708607 0.04794973
000110 00 33 2c 3d 32 ab 66 3b 7f 88 3a bd 99 3e d6 bc
       0.042040825 0.0035197255 -0.04554033 -0.026152896
000120 3b 34 29 3c e6 d8 88 ba 60 d5 74 bd 2b 27 6b bd
       0.010327394 -0.0010440617 -0.059773803 -0.0574104
000130 9e b5 46 3d 0c 26 09 3d f6 b0 85 bb 92 d4 5e bc
       0.048513047 0.03348355 -0.0040799333 -0.013600485
000140 10 d9 06 bc c6 fd eb bc 66 b4 b2 3a e8 73 2a 3d
       -0.008230463 -0.028807532 0.0013634085 0.041614443
000150 fc e0 b7 3c 1f b5 7f 3d 82 c4 69 bd 23 ed 99 3c
       0.022446148 0.06242859 -0.05707217 0.018789833
000160 49 94 08 3d 49 90 ac 3b e0 dd 8e bd e0 13 69 bd
       0.03334454 0.0052662236 -0.06975913 -0.05690372
000170 b5 bb d0 bc 4e e5 88 3d 25 31 ec 3c 5d 7d 37 3d
       -0.02548013 0.066843614 0.028832028 0.04479729
000180 36 dd e0 3b 0d 0e 12 3d a2 b9 80 bd de c3 8e 3d
       0.006862308 0.03565793 -0.06285407 0.069709525
000190 4f 3f 49 3d 65 e3 1c 3d b2 90 d2 bc 13 57 28 3d
       0.04913264 0.038302798 -0.025703762 0.041098665
0001a0 39 28 1d 3c 47 2d 08 bd ef e4 87 bd ea 71 fb ba
       0.009592109 -0.033246305 -0.066354625 -0.0019183729
0001b0 16 33 1a bd 1c d4 29 bd 2c a6 96 b9 72 de 51 3d
       -0.037646376 -0.04146205 -0.00028734037 0.05123753
0001c0 6d d7 3e ba 3e ec 3d 3d 6a 68 21 3d 63 d6 58 3d
       -0.0007280026 0.046367876 0.039406218 0.05293883
0001d0 a9 4d 83 bd 10 27 34 3b e8 3e 82 bd e8 b7 f1 3c
       -0.06411297 0.0027489103 -0.06359655 0.029506639
0001e0 2b 96 28 bd cf b3 2f bd 4e 71 a4 bc 41 87 cd bc
       -0.041158836 -0.04289609 -0.02007356 -0.025088908
0001f0 f2 8e 1f 3d d3 4c 19 bd e4 8a 87 3d 27 a8 c2 bb
       0.038954683 -0.03742678 0.06618288 -0.0059404555
000200 40 7b 2a 3d ad e4 48 bd 19 fa 8d bd 63 be 86 3c
       0.041621447 -0.049046207 -0.06932468 0.016448205
000210 89 32 54 bd d1 18 51 bd 58 f2 80 bc 17 6a 10 bc
       -0.051806007 -0.051049057 -0.015740559 -0.008814356
000220 3e 17 88 bd 03 9c 84 3d bd 3f 3f 3d 43 d6 3a 3c
       -0.06645058 0.064750694 0.046691645 0.011403623
000230 44 a8 00 3d 81 e7 27 bc 29 6d 8b 3c 0b 18 16 3d
       0.03141047 -0.010248066 0.017019825 0.036644023
000240 75 6a e1 bc 05 cf 33 bd 14 21 27 3d 6f a2 09 bd
       -0.027516583 -0.0438986 0.04080303 -0.033602174
000250 0b ad 88 3d 6c 0f ce bc 23 03 90 bd d8 19 85 bd
       0.0667363 -0.025153838 -0.07031848 -0.0649907
000260 f4 7e c1 bc 06 87 6a bc 3c 95 01 bd 7b 0a 7e 3d
       -0.023620106 -0.014314419 -0.03163646 0.062021714
000270 9d 38 57 3d 67 bc e0 3b 94 7e 3c bd 6c 12 ac 3c
       0.052544225 0.006858397 -0.04601915 0.021004878
000280 15 59 94 bc 3e d3 40 3d d5 8b 9f bc f8 56 32 bd
       -0.018108884 0.047076456 -0.019475857 -0.04353997
000290 00 08 8a 3c b8 12 b9 bc 1d 53 16 3d aa b9 1c 3d
       0.016849518 -0.022591934 0.036700357 0.038263
0002a0 46 2c 97 bc 0f 4a 3a 3d ed 76 4f 3d 89 80 42 3d
       -0.018453728 0.045480784 0.050650526 0.047485862
0002b0 1e 76 7f 3c 84 35 05 bd 3e 69 7b 3d 9e b3 9e 3c
       0.015592126 -0.03252174 0.061379664 0.019372758
0002c0 e5 f4 1d bd f2 64 3d bd bb 12 22 3c b1 20 68 ba
       -0.038563628 -0.046238847 0.009892161 -0.0008854969
0002d0 f5 cf c6 bc b8 b4 da 3a 90 6f 98 bc df 5b 6d 3d
       -0.024269084 0.0016685938 -0.018607885 0.057948943
0002e0 d4 9b 0f bc e1 51 a5 3c cd fe 7f bb 5f 61 60 bd
       -0.00876518 0.020180644 -0.0039061785 -0.05478036
0002f0 b3 90 8c 3c 16 bd 92 3c 19 a3 4b 3d e5 59 8e bd
       0.017158842 0.017912429 0.04971609 -0.0695074
000300 49 5b fb bb 7a 22 31 bc 12 7d 0a 3d 6f 4e b2 3b
       -0.007670794 -0.0108114425 0.033810683 0.005441479
000310 23 b5 00 3d 78 bb 3c bd a5 a8 57 bd 1d fd be 3b
       0.031422745 -0.04607722 -0.052651066 0.0058285133
000320 2c 5f 88 bc 46 ea 6e bd 7d ac 3c ba d2 46 12 3c
       -0.016646944 -0.05832889 -0.00071973336 0.008928018
000330 9f 0a 8c bd 39 8d 5f 3d 21 3f 9f 3c 98 96 c4 3c
       -0.06837963 0.05457804 0.019439282 0.02399759
000340 8d cb 88 bd 3f a1 8d bd a3 57 fa 39 f2 48 84 bd
       -0.06679449 -0.06915521 0.0004774901 -0.06459226
000350 9d c7 72 3d 28 85 03 bd fb 76 16 3d 69 9d 2e bd
       0.059272397 -0.03210941 0.036734562 -0.042630587
000360 ca fc 71 bd f7 5c 71 bd 07 1b f0 3c b3 2d 96 3c
       -0.05907897 -0.05892655 0.029309763 0.018332338
000370 cb 59 ad bc b8 e9 56 3b 10 18 75 3d 96 86 11 3d
       -0.02116098 0.0032793116 0.0598374 0.03552874
000380 c4 9e 37 ba 87 e1 7f 3b 0e c8 12 3d 3a c7 6d 3d
       -0.0007004554 0.0039044337 0.03583532 0.058051325
000390 d2 49 7b 3c 8c a5 5d bd b0 a5 1c 3c f5 70 8f bd
       0.015337424 -0.054112956 0.009560987 -0.07003967
0003a0 95 1a f2 3c e6 90 00 bd ed b0 2f bd 13 61 10 3c
       0.02955369 -0.031388186 -0.04289334 0.008812207
0003b0 d4 36 64 bc 9a bb c7 bc 15 e3 28 bd 18 07 c9 bc
       -0.013929088 -0.024381448 -0.041232187 -0.024539515
0003c0 b0 82 32 bd cb c2 df 3c a6 17 72 3d f6 ea fc 3c
       -0.043581665 0.027314564 0.059104584 0.030873757
0003d0 43 65 28 bd 58 eb 78 bd 58 27 77 3d ef 64 62 bd
       -0.041112196 -0.060771316 0.060340255 -0.05527204
0003e0 cf f3 8d bc 2c fe 89 bd fc f8 6b 3a ca 87 65 3d
       -0.017328171 -0.067379326 0.000900164 0.0560377
0003f0 c0 44 37 3d 85 36 09 bd 46 f4 3e 3d 0d 0c 87 bd
       0.0447433 -0.03349926 0.046619676 -0.065940954

rnn_layer.bias_ih_l0 f4 [800]
000000 ec b0 a8 bc 39 e4 3f 3d 9a 08 21 3d 55 b3 4c bc
       -0.020592175 0.04684851 0.039314844 -0.012493928
000010 ad 25 1d bd 42 5a e0 bb eb 72 de bb 56 28 74 3d
       -0.03836601 -0.006846697 -0.0067886016 0.05960878
000020 45 b1 cf 3b 78 33 16 bd 9a 7b 2c 3d 73 01 79 bd
       0.006338271 -0.03667018 0.042110063 -0.060792398
000030 3f 50 88 bd 98 79 ef ba 67 a5 0a 3d 0d e4 8e bd
       -0.06655931 -0.0018270491 0.033849146 -0.06977091
000040 e9 59 1f bc c9 50 85 bd f2 3c d7 3c 98 f2 ec 3c
       -0.009726026 -0.06509549 0.026274178 0.028924271
000050 db 2e d7 3c df 6c 69 3d 66 d2 05 bd 48 09 b9 3c
       0.02626746 0.056988593 -0.032671355 0.022587433
000060 b1 f0 e4 3a 9e 8b 46 bc e1 9c 71 bd d2 a7 87 3c
       0.0017466751 -0.012118248 -0.058987502 0.016559515
000070 94 7e f3 3c 21 a8 05 3d 55 85 30 3d ed cf c2 bc
       0.029723443 0.032631043 0.043095905 -0.023780787
000080 af 91 76 3d f8 f9 46 3d 7f 4d 05 bd 77 ee 08 bd
       0.06019753 0.048578233 -0.03254461 -0.033430543
000090 21 6d 3e bd e3 de 81 bd 74 57 0b 3c 57 df 00 3c
       -0.046490792 -0.063413404 0.008504737 0.007865748
0000a0 ab df 2d bb 13 57 a0 3c 78 e9 21 3c af 36 bc bc
       -0.0026531022 0.01957277 0.009882323 -0.022975294
0000b0 8d 7a 20 3c 0f 10 0e bc 33 e1 be bc fa cb 85 bd
       0.009794843 -0.008670821 -0.023300743 -0.06533046
0000c0 d4 9d 94 bc 0f e1 48 3d 8c ac c8 bc 2a b6 de bc
       -0.018141665 0.049042758 -0.02449634 -0.027186472
0000d0 29 f3 34 3d 44 d6 2b 3d 84 a1 eb bc 36 e7 87 bc
       0.044177208 0.041952386 -0.02876354 -0.016589742
0000e0 83 1c 18 3d c6 fe 28 bc e0 cf a8 3c 6a 76 21 3d
       0.037136566 -0.010314649 0.020606935 0.03941957
0000f0 91 fe ba bc b6 d7 50 3c 3b 8e b0 bc 5c 53 4e bc
       -0.022826465 0.012746742 -0.021552196 -0.012593117
000100 c7 11 3f 3d d7 1a fe 3c 7d f2 68 3d d3 30 f2 bb
       0.046647813 0.031018658 0.05687188 -0.007391074
000110 1c 4f 80 bc 04 67 1b 3d 75 b0 fb 3c 78 32 fb bc
       -0.015662722 0.03794004 0.03072379 -0.030663714
000120 6c 4c 8a 3d 22 44 35 3d cb a5 12 3d 8e 8e 41 bd
       0.067528576 0.04425443 0.035802644 -0.04725509
000130 78 01 02 bd af 4b 31 bd 62 31 57 bd cd ff 5e 3d
       -0.031739682 -0.043285068 -0.05253733 0.05444317
000140 9f 1c 8d bc ac be 83 bd 85 90 92 bc 39 7d 83 3d
       -0.017225562 -0.06432852 -0.017891178 0.06420369
000150 a6 d2 8b 3d ae 3e 15 bb 46 ac 3e bd b5 f8 37 3a
       0.068272874 -0.0022772956 -0.04655101 0.0007017956
000160 09 87 ca 3c 4a b9 e4 3c 65 e4 63 bd 34 87 b5 bc
       0.024722593 0.027920384 -0.055637736 -0.022159196
000170 53 ab ef 3c b9 a4 4b bb 2b ff 6e 3d 00 56 7a 3d
       0.029256498 -0.0031073524 0.058348816 0.061117172
000180 ed 37 69 bd 08 c1 19 bd 1d 61 d7 3c a6 3e 1a bc
       -0.0569381 -0.037537605 0.026291424 -0.009414351
000190 e4 23 1b 3d 45 7e 67 bd 97 48 50 3c dc 51 1d bd
       0.037876025 -0.056516904 0.012712619 -0.038408145
0001a0 44 7e 3d 3d e2 72 8e 3d f8 08 68 bc d0 7e 41 3d
       0.046262994 0.06955506 -0.014162295 0.04724008
0001b0 74 e1 95 3b 7b b7 b3 bc d9 60 c3 3c 0b 2d 4f 3d
       0.0045739952 -0.021938076 0.023849891 0.050580066
0001c0 7a 76 ec bc 49 37 43 3d b9 8c 4c bd 33 03 25 3d
       -0.028865088 0.047660146 -0.04993889 0.040286254
0001d0 fa 74 89 3c 07 24 81 bd a9 1c 3e bd ac e2 0f bd
       0.016779412 -0.063057 -0.04641405 -0.03512828
0001e0 29 53 f3 3c c8 e1 8c bd 42 68 bf 3c b4 87 43 3c
       0.02970274 -0.06879002 0.023365144 0.01193421
0001f0 26 4f 9d 3a 20 48 04 bd 38 87 6c 3d c9 47 51 3b
       0.0012001737 -0.032295346 0.057746142 0.0031933656
000200 f3 1a 81 3d eb ea 84 3d a1 1d 84 bd 2d 34 8c bc
       0.06303968 0.064901195 -0.06450964 -0.017114723
000210 88 3c a8 bb 21 c0 0c 3d 4a 92 68 bd 30 f6 17 bb
       -0.005134169 0.034362916 -0.056780137 -0.002318751
000220 d7 da 0c bd 8d 81 2d bd 95 8d 22 3d a6 67 3c 3d
       -0.03438839 -0.042359877 0.039685804 0.045997284
000230 41 1e 2d 3d 0d 0f 4e bc 93 f8 58 3d b6 07 2a bd
       0.04226518 -0.012576831 0.052971434 -0.04151126
000240 b3 ab 11 3d ac e7 db bb 39 91 4e bd ff f4 22 bd
       0.035564136 -0.006710967 -0.050431464 -0.039784428
000250 c7 52 43 3b 32 49 0b bd 29 15 70 3b a6 15 4c bc
       0.0029803978 -0.03400535 0.0036633706 -0.012456333
000260 ab 83 a6 bc 65 30 c1 bb 8f 0c 50 3c ae 66 3a 3d
       -0.020326456 -0.0058956617 0.012698307 0.04550808
000270 88 27 f3 3b f9 6e 2b bd a1 43 56 3d a1 a6 65 3d
       0.007420484 -0.04185388 0.05231059 0.056067113
000280 d8 c4 8d bd fa 0d b6 ba d7 34 a1 bc f6 d5 c3 bc
       -0.069223106 -0.0013889663 -0.019678516 -0.023905735
000290 d5 10 41 3d ac 3f b0 bc d5 2b 86 bd d9 4a 4b 3c
       0.047135193 -0.021514736 -0.06551329 0.012407982
0002a0 b6 53 7c bd 09 d8 b2 bb 3f 31 73 3d a6 01 8f bd
       -0.06160327 -0.0054578823 0.059373137 -0.06982736
0002b0 5c b8 19 bd 1e 7e 75 3d 8c 73 8a bd 8e 4c 20 3d
       -0.037529334 0.059934728 -0.0676032 0.03913551
0002c0 85 cd e3 3c fc de b9 bb 20 29 bc 3c 64 43 e1 ba
       0.02780796 -0.0056723338 0.022968829 -0.0017186222
0002d0 16 45 4e bd 6e 72 2a bc cb cf 83 bc 73 c3 32 3d
       -0.050358854 -0.010403259 -0.016090294 0.043643426
0002e0 cb 3b 79 3d 96 f3 53 3d 2a d1 34 bd 6a 75 d8 b9
       0.06084804 0.051745974 -0.044144787 -0.0004128621
0002f0 d0 3e 07 3d 41 b3 be bc 26 5c bd bc d2 51 19 3d
       0.033018887 -0.023278834 -0.023115229 0.037431546
000300 3e 4d 59 bd 5f b1 34 bb 1a 87 af bc fd 64 06 3c
       -0.05305218 -0.0027571542 -0.021426726 0.008202788
000310 6c 9a 4e 3c 1c 1f 1a 3c 6e 8c d1 bc 35 85 3d bd
       0.012610059 0.009406831 -0.025579657 -0.046269614
000320 62 72 01 bc 24 ab 8e bd e2 39 81 bd 61 b3 e1 bc
       -0.007900806 -0.06966236 -0.063098684 -0.027551355
000330 ed f8 8a bd a7 93 8a 3d e9 8c 4e bd 18 db 69 bd
       -0.0678576 0.06766444 -0.05042735 -0.05709371
000340 d6 84 82 3d 92 3e 23 3d 8a 5c 88 3c 75 c6 31 3c
       0.06372993 0.039854594 0.016645689 0.0108505385
000350 05 e4 60 bd d1 0b 8d bd 09 cc 63 3d 3e 8c 85 bd
       -0.054904956 -0.068870194 0.055614505 -0.0652089
000360 9b 7c 5e bd c7 e1 39 bc 44 ac fb 3c f8 97 cc ba
       -0.05431805 -0.011345333 0.030721791 -0.0015609255
000370 11 6d 08 3d 3d b7 83 3b a2 f4 00 3d 2c aa 3a bc
       0.03330714 0.0040196464 0.0314833 -0.011393111
000380 93 12 b2 3c a5 6e 80 3d 61 f5 74 bd 1f bd 7d bd
       0.021737373 0.06271104 -0.059804324 -0.061947938
000390 e4 b8 4d 3c b2 09 63 bd a6 91 9f bc dc 2b d6 3c
       0.012556288 -0.055429168 -0.01947863 0.02614396
0003a0 cc 61 8e bd 7e 82 80 3d f3 b8 11 3d a3 d7 83 bd
       -0.06952247 0.062748894 0.035576772 -0.06437614
0003b0 43 e5 0f bd 29 b2 8d 3d ea 29 79 bd 08 b0 73 3d
       -0.03513075 0.06918747 -0.060830988 0.05949405
0003c0 24 f3 40 3d 97 1d 25 3d 45 bc 8e bd 1a 2b 3f 3d
       0.047106877 0.040311422 -0.06969503 0.046671964
0003d0 2d c9 cb bc d5 3c 81 3d 2e e7 a4 bc b8 a2 89 3d
       -0.024876202 0.06310431 -0.020129766 0.06720489
0003e0 b2 19 64 3c 96 67 35 bd 02 a2 82 3d 19 d7 82 3d
       0.013922142 -0.04428824 0.06378557 0.06388683
0003f0 02 2c a2 bc 55 08 fe 3c c4 71 a2 bc 18 bb 08 3c
       -0.019796375 0.031009832 -0.019829638 0.008345388

rnn_layer.bias_hh_l0 f4 [800]
000000 7c cf 89 bd b2 f3 64 bc 25 37 38 3c 42 fb 31 3d
       -0.06729028 -0.013974117 0.011243616 0.04345251
000010 6b 66 e0 3b 4a e8 7e 3d f3 53 da bc 97 2d 85 3d
       0.0068481467 0.062233247 -0.026651358 0.06502836
000020 3a 78 38 bd 08 8f 41 3d 64 3a 9f bc 18 0b 7a bd
       -0.045036532 0.047255546 -0.019437023 -0.061045736
000030 9c 57 0e 3d 3e 51 27 bc 24 de 9f bc 52 10 11 3d
       0.03475152 -0.010212241 -0.019515105 0.035415955
000040 b0 29 12 bb 67 bf b1 3c f3 2e 24 3d bd f3 71 bd
       -0.002230268 0.021697713 0.040083837 -0.059070338
000050 85 1a 00 bd 86 58 2b 3b 69 5d 61 3b 72 04 4e bd
       -0.03127529 0.0026145293 0.0034387952 -0.050297208
000060 03 ed 5a 3d c5 86 9c 3c 4b 24 76 bd c4 16 90 3d
       0.05344869 0.019107232 -0.060093205 0.07035592
000070 67 76 5c 3c 75 8c 78 3d 1a fc 96 3c 29 76 61 3c
       0.013455964 0.060680825 0.018430758 0.013761082
000080 35 86 72 bc 73 9a 44 bd bb 7a 1e 3d 9c e0 48 bd
       -0.014802505 -0.047998857 0.038691264 -0.04904233
000090 14 46 4b bd e0 5d 4e bd f6 90 8d 3d e1 a7 7e bd
       -0.04962738 -0.050382495 0.06912415 -0.06217182
0000a0 97 89 07 bb 14 9a 65 3c 9a 18 7f bd 0c 79 c5 3c
       -0.0020681375 0.014013786 -0.06227932 0.024105571
0000b0 82 eb 7b bd 78 e8 6f ba 4c bb 6b bd fb 28 75 bd
       -0.061503895 -0.0009151767 -0.057551667 -0.059853535
0000c0 88 ff 15 3d 46 0a 96 3c c4 d9 d5 3c e4 dd 7a bd
       0.036620647 0.018315446 0.026104815 -0.061246768
0000d0 95 b7 c4 bb 9c d6 00 bd 6d 44 d5 3b 2f c9 61 bd
       -0.00600333 -0.031454667 0.006508401 -0.055123504
0000e0 78 83 41 bd 03 a6 ac bc 81 8f 46 bc 34 5f fa 3c
       -0.04724452 -0.021075254 -0.012119175 0.030562975
0000f0 56 db 44 bd 1a 85 7c 3d 3e d6 9b 3c 24 28 5e 3d
       -0.048060738 0.061650373 0.019023057 0.0542375
000100 73 3d 42 bd e5 4b 3c bb 15 6f 74 bd 84 a4 50 bd
       -0.047421884 -0.002873176 -0.05967625 -0.050938144
000110 ae f0 23 3d 57 ea 86 bd 28 93 f1 bc d2 9d eb bc
       0.040024452 -0.065876655 -0.029489115 -0.028761778
000120 95 f4 6c bd 5f eb e2 bc ce ea 58 bd eb be 3a 3d
       -0.05785044 -0.027700124 -0.052958302 0.04559223
000130 7d 1b c4 bc 26 52 98 3c 8e 63 1e bc ef 2d bc 3c
       -0.023938889 0.018593859 -0.00966729 0.022971122
000140 34 74 1b 3d e1 99 28 bd 23 20 b0 bc 71 2c 0d bd
       0.037952617 -0.041162375 -0.021499699 -0.03446621
000150 49 63 31 bd e5 29 58 bb ae 37 95 bc a8 04 7d bd
       -0.043307576 -0.0032983955 -0.018215027 -0.06177202
000160 65 68 10 bb 4d b0 2a bd c4 9e df 3c 48 23 93 bc
       -0.002203488 -0.04167204 0.027297385 -0.01796116
000170 96 1b 6d bd 9f 8e 06 bd 6a 09 8a bc a2 ab 86 3d
       -0.057887636 -0.032850858 -0.016850192 0.06575705
000180 84 f0 80 3d cc df 46 3c a4 63 ef 3c 3a 71 0b 3d
       0.06295875 0.012138318 0.029222317 0.03404353
000190 09 3d 95 3c bc 7c 98 bc 0f d5 64 bd d6 a7 2a 3d
       0.01821758 -0.018614165 -0.05586725 0.041663967
0001a0 d7 73 79 3c fa d2 54 3d 3f cc 65 3d 9e 2f 6d 3c
       0.015225372 0.051959015 0.056102987 0.014476685
0001b0 b1 4b de bc ed 3f 6a 3d b5 a5 7b bc bd 39 16 3d
       -0.027135702 0.05718987 -0.015359332 0.036676157
0001c0 69 d8 7b bd f2 02 75 bd ba cb 62 3d 7d 3e 0f bc
       -0.06148568 -0.059817262 0.05537007 -0.008742926
0001d0 3f 7c 31 3d 16 3f 93 bc 70 a0 20 3d 9d 72 ab 3c
       0.04333138 -0.017974418 0.039215505 0.020928675
0001e0 4f 24 72 bd b1 cb 6e 3d 87 9f 54 3b 47 e1 4a 3b
       -0.059116658 0.058299724 0.0032443719 0.003095703
0001f0 83 43 01 3d d9 3f de 3c 44 96 70 3d 41 6b 1d 3d
       0.031558525 0.027130054 0.058737054 0.038432363
000200 8e b4 11 bc b5 94 89 bc 3f 6c 12 3d 64 3d 11 bd
       -0.008893145 -0.016794542 0.035747763 -0.035458937
000210 7f ea 89 bd b3 82 d7 bc 45 e1 5f bd e7 8f 3a bc
       -0.0673418 -0.02630744 -0.054658193 -0.011386848
000220 29 d8 8c bd cc c8 0f bd c5 7c b7 bc 1a c3 3e bd
       -0.06877167 -0.035103604 -0.022398362 -0.046572782
000230 10 40 8b bd 2b 05 90 bd 70 82 b6 3c 64 7f 1b 3c
       -0.06799328 -0.07032236 0.022278994 0.0094908215
000240 e7 20 52 3c ba 2b 1f 3d d9 6d 65 3b f7 1f 68 bd
       0.012825227 0.03886006 0.0035008101 -0.05667111
000250 ec 80 d1 ba 92 a0 1d bd f1 9e 0d bd 0f e5 4d 3d
       -0.0015983856 -0.03848321 -0.034575406 0.050267275
000260 27 3e 7b 3c e9 91 84 3d 01 9f 20 3d 78 08 4d bc
       0.0153346425 0.06473143 0.039214138 -0.012514226
000270 30 ac 6f bc 98 5f a0 3c 38 fa 24 3d 4c 48 7f bc
       -0.014628455 0.019576833 0.04027769 -0.015581202
000280 bb 52 02 3d f4 88 5f bd 7a 7c 71 bc e9 b7 e4 bb
       0.03181718 -0.054573968 -0.01473915 -0.0069799316
000290 b3 fe 04 bd f1 ff b3 bc 36 8a 8c bd 44 8a 38 3d
       -0.032469463 -0.021972628 -0.06862299 0.045053735
0002a0 50 d7 72 3c 6d f5 3b 3d 5c 1a 89 bc 36 ce 2a bd
       0.014821842 0.045888353 -0.016736202 -0.041700564
0002b0 5f 91 64 bd 28 3c 84 bd b6 c6 72 bd c6 3d 51 bd
       -0.0558027 -0.064567864 -0.059271537 -0.051084302
0002c0 a9 cf 0b 3c be c0 40 bd 6a 16 46 bc 39 d6 1d bd
       0.008533397 -0.047058813 -0.012090305 -0.038534377
0002d0 03 8a 57 3d a5 62 77 bc a2 2c 13 3c 4a cc 70 3d
       0.052621853 -0.015099202 0.008982809 0.058788575
0002e0 e9 b4 12 3d 73 ba 21 bc 3a 9e bf bc 3b aa e0 3b
       0.03581706 -0.009871113 -0.023390878 0.0068562306
0002f0 ed ed 74 bd 19 e6 08 bd a1 18 e8 bb c7 ba 86 3c
       -0.059797216 -0.033422563 -0.007083014 0.016446484
000300 03 8d cf bc fb 3f 49 3c a4 af e0 bc a9 35 79 bd
       -0.025335794 0.012283321 -0.027427502 -0.06084219
000310 36 d2 1d bc 20 f9 78 bd 12 f9 85 bd 18 b7 86 3d
       -0.009632638 -0.06078446 -0.06541647 0.06577891
000320 76 0b e6 3b e8 69 50 3d 2d 78 0b 3d d0 be f7 3c
       0.007020409 0.05088225 0.034050155 0.030242354
000330 51 8e 29 bd 55 ad cb 3c 30 e7 ee 3c 64 c4 8a 3c
       -0.04139549 0.024862925 0.029162973 0.01693935
000340 1f be 8c 3d e0 e1 d0 3c da 5a b1 bc aa c4 6e bd
       0.068722 0.02549833 -0.021649767 -0.058293022
000350 29 4b 76 3b ab 20 87 bd a5 a9 6c 3d e9 bf e1 bc
       0.003758142 -0.06598028 0.057778973 -0.02755733
000360 8e f1 3a bc f7 9d 69 3d 66 45 8a 3d b2 28 c0 3c
       -0.01141013 0.057035413 0.06751518 0.023456905
000370 40 aa 7b bd 93 a6 03 3d b4 3a 32 bc e7 6f 09 3c
       -0.06144166 0.03214128 -0.010878254 0.008388496
000380 bd 15 34 bd df 5c 8a 3c d6 9d 82 3d 43 8a 1c bd
       -0.043966044 0.016889988 0.06377761 -0.038217794
000390 0e 56 89 bd df ae 3c bd 9e 4d 13 bd a7 6a 2a bd
       -0.06705867 -0.046065208 -0.035962693 -0.041605618
0003a0 85 34 fb 3c 15 6a 63 bb 31 8d 39 3d 28 df 41 3d
       0.030664692 -0.003470068 0.045300666 0.04733196
0003b0 4a a1 66 3d aa 26 87 3b ba 56 23 bc 40 09 71 3c
       0.05630616 0.004124482 -0.009969408 0.014711678
0003c0 5e 80 83 3d f0 63 27 bd a7 7a 55 3d c0 ad 3f 3d
       0.064209685 -0.040866792 0.052118924 0.04679656
0003d0 d4 cb ea bc d0 e7 05 bd e1 e3 e7 ba d8 94 4f bc
       -0.028661646 -0.032691777 -0.0017691815 -0.012669764
0003e0 2b 18 5f bc 42 59 49 39 21 45 c3 3b 93 be 0e bc
       -0.013616602 0.00019202105 0.0059591685 -0.008712429
0003f0 09 fd 30 3d 41 53 18 bd b3 63 69 3a 20 4c 8b 3d
       0.043210063 -0.037188772 0.0008903101 0.06801629

dense_layers.0.weight f4 [64, 200]
000000 6f df 3b bd 7e cb fc 3c 71 ef 70 3c 26 c7 82 3d
       -0.04586738 0.030858751 0.014705525 0.06385641
000010 86 1d 09 3d 0a 57 82 bd 73 81 3b 3d 9a 58 b7 bc
       0.03347542 -0.06364258 0.04577775 -0.022381116
000020 49 5b 8f bd e1 97 90 3d 7d cd cb bc 3c 16 1e 3c
       -0.06999833 0.070602186 -0.024878258 0.009648856
000030 80 63 f8 bb 47 53 8a 3d d8 de 79 3d 3e 2f db bc
       -0.0075802207 0.06754165 0.061003536 -0.026755925
000040 d1 15 80 bb 6e 3a be 3c e8 0d 36 3c 8f ab a7 bc
       -0.0039088507 0.02322122 0.011111714 -0.020467548
000050 70 37 2c 3c 4c d0 a1 3c 7d 86 3b bd 2f 8a c8 bc
       0.010511264 0.019752644 -0.045782555 -0.024479954
000060 ab 3c 45 bd 13 f4 3c bd 13 9b 90 3d 57 3d 0d bc
       -0.04815356 -0.046131205 0.07060828 -0.008620582
000070 d2 10 0c 3c 0d 9f bc bb 83 e8 8a bd 05 df 04 bd
       0.008548932 -0.005756265 -0.06782629 -0.03243925
000080 89 7f 63 3d 21 aa b9 bc f4 e4 35 bd 9c 82 5d 3d
       0.05554155 -0.022664132 -0.0444078 0.054079637
000090 2d 74 86 3c 8f 3d fc 3c 13 cb 9e bc d0 4f 98 3c
       0.016412819 0.030791072 -0.019383943 0.018592745
0000a0 38 8b 87 3d 52 a0 8d bd 5d e7 66 bd 7c 13 73 bd
       0.06618351 -0.06915344 -0.05637299 -0.059344754
0000b0 fe 59 27 3d f6 09 4e bd 79 89 0a 3d 82 74 a0 bc
       0.040857308 -0.05030247 0.03382251 -0.019586805
0000c0 a9 53 ef 3c f4 73 51 3d 52 31 8d bd a5 f5 55 3d
       0.029214697 0.051135972 -0.06894173 0.052236218
0000d0 a7 81 94 bc eb 38 06 bd 7f fc 8c bd 00 15 2e bd
       -0.01812823 -0.032769125 -0.06884097 -0.042500496
0000e0 10 80 28 3d b6 83 1f 3d 66 22 86 3c 70 58 90 bd
       0.041137755 0.03894397 0.016373824 -0.07048118
0000f0 0f f1 7e bd b9 23 88 3c 40 1f 8c 3d 0b 05 3b bd
       -0.06224161 0.016618596 0.06841898 -0.045659106
000100 d3 5c 01 3d 42 d5 1c bd 59 6a 51 bd a9 9e 8b bd
       0.031582665 -0.038289316 -0.05112681 -0.068173714
000110 04 bd 65 3d 69 31 21 bc 4e 9d b6 3b b8 51 8c bd
       0.056088462 -0.00983844 0.0055729514 -0.06851524
000120 9f 2a c2 3c f7 81 38 3d 60 99 fe 3c a0 a6 34 bb
       0.023701964 0.04504582 0.031078994 -0.0027565137
000130 0c 8d 0f bb 19 91 2c 3c 7e f0 47 bc fa 03 4d bd
       -0.002190414 0.010532641 -0.012203334 -0.05005262
000140 15 e0 38 3d 68 10 77 bc 9b 7a 62 bd 81 b2 3e bd
       0.045135576 -0.015079595 -0.055292707 -0.046556953
000150 3e 6a 81 bd 9a 4c 74 3d 9f 83 1f 3d c0 05 80 bd
       -0.06319092 0.059643365 0.038943883 -0.06251097
000160 8c 0b 9d 3c 8b ca 88 3d f5 59 f4 bc 5e cb 49 3d
       0.019170545 0.06679257 -0.029828051 0.04926621
000170 87 45 96 3c ca 5a 84 3c bf 4e e2 bc d3 7a 39 bd
       0.0183437 0.016156573 -0.02762544 -0.04528315
000180 76 29 5d bd 90 35 e5 bb 92 a1 c8 bc 6a 01 ee 3a
       -0.05399462 -0.0069949105 -0.024491105 0.001815838
000190 50 c0 33 3d a1 6a 26 3d e5 5f 55 bc 64 18 46 3c
       0.043884575 0.040629033 -0.013023351 0.012090776
0001a0 4c 48 81 bd 72 af ab bc c1 54 86 3d 9f 44 26 3d
       -0.06312618 -0.020957682 0.06559134 0.040592786
0001b0 ce 91 96 bc 65 5f 31 bd 2e 4c c5 bc 98 40 7b 3c
       -0.018380072 -0.043303866 -0.024084177 0.015335225
0001c0 ca 76 bd bb dc a5 2d bc 42 0f 75 3d 4d ee af bc
       -0.005781983 -0.010598626 0.059829004 -0.021475935
0001d0 ef 62 89 bd 45 ce e8 3c e2 5e 10 3c 83 d4 5a 3d
       -0.06708323 0.02841867 0.008811684 0.053425323
0001e0 a8 6f 89 3b f7 48 8c 3b 04 d1 bd 3b e9 a3 77 bc
       0.0041942187 0.004281159 0.005792739 -0.015114763
0001f0 e3 7f 24 39 3d a9 61 3d 46 98 8d bc de 96 0f bd
       0.000156879 0.05509304 -0.017284524 -0.035055988
000200 98 6f 3e bd 1f 7e 24 3d 4d fe 45 bc 6c 70 2a 3d
       -0.046493143 0.04015934 -0.012084556 0.04161112
000210 83 9f 9b 3c c9 8b 99 3a 82 92 76 bc 54 3a 22 3c
       0.01899696 0.0011714633 -0.015049579 0.009901602
000220 41 a6 e9 3c 95 1f 84 bd 37 2c 1e bd 45 45 59 3d
       0.028521659 -0.06451336 -0.038616385 0.053044576
000230 79 e6 45 3c 66 73 f2 bc e9 c2 e9 bc aa 8a 01 bd
       0.012078875 -0.029596042 -0.028535323 -0.03162638
000240 3d 90 d0 bc 1d 0b 86 3d 8b 96 85 3d a4 2d 7b bd
       -0.025459403 0.065450884 0.065228544 -0.061322823
000250 87 81 2a 3d 90 45 02 bb d2 b8 8d bc 19 a4 32 3d
       0.041627433 -0.0019877888 -0.017300043 0.043613527
000260 10 32 f0 bc 35 08 53 3d ea 78 da 3c 2c 34 7e bb
       -0.029320747 0.0515215 0.026668984 -0.003878842
000270 dc 31 2e bd de 32 d9 bc 92 21 02 3d 29 40 37 bd
       -0.04252802 -0.026513513 0.031770296 -0.044738922
000280 74 0e b4 bc 75 40 09 bd 48 1f 17 3d 68 24 71 3b
       -0.021979548 -0.033508737 0.036895066 0.0036795381
000290 7a 54 09 3d c5 a1 4c bd c3 8a 8e bd 7d c4 36 3d
       0.03352783 -0.049958963 -0.069600604 0.04462098
0002a0 5e 1a 7a bc 73 66 2f 3d 0f 5e 09 bd d3 5c 8a 3d
       -0.0152650755 0.042822313 -0.033536967 0.06755986
0002b0 7a bf 82 3d 95 f1 3b 3d fd 5e af 3c 3e e5 24 bd
       0.063841775 0.045884687 0.021407599 -0.040257685
0002c0 09 4f 79 3b 5e 44 2f bc 70 25 30 3d d3 07 eb 3c
       0.0038041493 -0.010697452 0.043004453 0.028690254
0002d0 82 5b 5a bd 06 09 0d bd bb 10 2d bc 64 27 1d 3d
       -0.053309925 -0.034432434 -0.010563071 0.038367644
0002e0 3c 80 16 3d 6a 08 a3 bc b7 8a b9 3c 76 86 33 bd
       0.036743388 -0.019901473 0.022649152 -0.043829404
0002f0 e6 4e 87 3d 16 c7 41 bd 41 be c3 bc 89 b4 88 bd
       0.066068456 -0.047309004 -0.023894431 -0.06675059
000300 a3 96 d0 bc 7b ec d0 bc 1c 9e 39 3d d8 31 01 bd
       -0.025462454 -0.025503388 0.0453168 -0.031541675
000310 e0 89 85 bc 96 97 21 3c d3 81 bb bc 87 c3 91 bc
       -0.016301095 0.009862801 -0.022889053 -0.01779343
000320 22 d5 55 3c 49 44 25 3c 0a 45 a2 3c 03 b6 9f bc
       0.013051303 0.010087081 0.019808311 -0.01949597
000330 61 d1 33 3d f9 bd c5 3c e6 60 6e bd 41 9c 60 3d
       0.04390085 0.024138438 -0.05819788 0.054836515
000340 d4 56 3f 3d 73 9d 3e bd c1 46 7b 3d f4 46 14 3d
       0.046713665 -0.046536874 0.061346773 0.03620048
000350 49 e5 7b bd ff 9f d5 3b 6a 1c d2 bc f2 b5 f1 bc
       -0.06149796 0.006519317 -0.025648315 -0.029505704
000360 3f 49 18 bd 9a 43 35 3b cb b9 22 bd 88 44 52 bd
       -0.037179228 0.0027658702 -0.039727967 -0.051334888
000370 01 41 0b 3c 0a d8 41 bd 3a 6c 4a bd 95 97 9c 3b
       0.008499385 -0.04732517 -0.04941962 0.004778812
000380 6b d5 54 3d 54 b9 7d bd 93 3e 76 3d a2 64 3e 3d
       0.051961344 -0.06194432 0.06011827 0.04648269
000390 d2 97 85 bc 83 4c 8d 3d c0 59 e1 3c dc b7 74 3c
       -0.016307745 0.06899359 0.027508616 0.014936414
0003a0 77 7d 7d bd 9b 17 10 3d 5a c1 8c bd 38 4e 86 bd
       -0.06188723 0.035178762 -0.068728164 -0.06557888
0003b0 a6 3d 66 bd a6 60 7d bd 5c 39 6a bd 42 b4 50 bd
       -0.056211136 -0.06185975 -0.05718361 -0.050953157
0003c0 4b ab 13 3d a5 af 89 bd 1f 68 77 3d 58 40 31 bd
       0.03605203 -0.06722955 0.060402032 -0.043274254
0003d0 e4 da 12 bc 31 6c fe bc 6e 39 84 3d b5 9b 85 3d
       -0.00896332 -0.031057449 0.06456266 0.065238394
0003e0 11 f6 58 bd 6f bc 18 bd 31 a8 84 bd 77 1e 39 3d
       -0.052969042 -0.03728908 -0.064773925 0.04519507
0003f0 e4 0a 4b 3d 1d d7 95 3c 1a ea 5e 3d bb 12 8d 3d
       0.049570933 0.01829105 0.054422475 0.06888338

dense_layers.0.bias f4 [64]
000000 49 e2 b6 3c bd c5 a9 3c 2a 86 c3 bc c5 4b 48 bd
       0.022324698 0.020724172 -0.023867685 -0.048900384
000010 5f e3 b9 3b 0c ec fd 38 2d 59 6e bd a9 86 4e 3d
       0.0056728567 0.00012107947 -0.058190513 0.05042139
000020 a6 af 76 bd a1 f5 9a bc 40 8e 32 bd e9 08 0d 3c
       -0.060226105 -0.018915953 -0.04359269 0.008608081
000030 86 7a cd bb 83 c2 be 3c 31 fe 07 bd 02 69 e1 3b
       -0.0062707094 0.02328611 -0.0332014 0.006878973
000040 9a f8 43 bd 87 d4 9b 3c 50 98 8b bd 0d e1 f2 3c
       -0.047844507 0.01902224 -0.06816161 0.029648328
000050 51 98 47 bc 69 ba a5 39 e4 43 e4 bc 3a 2d 11 bd
       -0.012182311 0.0003161014 -0.027864404 -0.035443522
000060 ed a6 ca 3c 7e 86 c0 bc d5 40 83 3d e4 87 5f bd
       0.0247378 -0.02350163 0.0640885 -0.054572955
000070 a0 07 b3 3c 89 71 97 ba 48 0e a5 3c 75 ae a9 bc
       0.021854222 -0.0011554222 0.020148411 -0.02071307
000080 64 e0 81 bd 49 e6 3c bd 0e da 82 bc 48 73 8a bd
       -0.06341627 -0.046118055 -0.015973117 -0.067602694
000090 e8 4c ef ba 0a 8b 5f 3c 06 fe 26 3d a8 29 2d bb
       -0.0018257173 0.013643989 0.0407696 -0.0026422534
0000a0 dc 80 47 bd 97 0d 85 bd ae 24 8e 3d 2e 7a 76 bc
       -0.048706874 -0.06496733 0.0694059 -0.015043778
0000b0 7b 6d 60 bd 18 9c 85 bd ef e5 82 3c e9 3b 86 bd
       -0.05479191 -0.06523913 0.015978782 -0.06554396
0000c0 71 0f c5 bc 3d f3 8c bd 36 57 2f bd ca 5b 86 bd
       -0.024055215 -0.068823315 -0.04280778 -0.06560476
0000d0 cc b5 81 3d af 43 86 3c 7e 8a 31 3c 3d f4 73 3c
       0.06333503 0.016389696 0.010836242 0.014889774
0000e0 9c 4f 46 bd a3 1a 47 3d f5 71 46 3d 4a 5f fa bc
       -0.048415765 0.048609387 0.04844852 -0.030563015
0000f0 5f b0 57 bd ee 97 05 bc b7 0a 7f 3d c5 7b 24 3d
       -0.052658435 -0.008153899 0.062266078 0.0401571

dense_layers.2.weight f4 [14, 64]
000000 c0 c5 41 3d 10 57 2f bd bc cf 29 bd 7a 37 d8 3d
       0.04730773 -0.04280764 -0.041457877 0.10557456
000010 84 fa cf 3d 80 a3 81 bc e0 6e c1 bc 52 9d 8e bd
       0.10155204 -0.015825033 -0.02361244 -0.069636
000020 08 7f e2 bd 9a 76 91 bd 6c 54 be 3d 88 92 c0 3c
       -0.110593855 -0.071026996 0.09293446 0.023507372
000030 c0 80 ec 3d f8 94 b3 3c 54 06 13 bd 20 dc fb 3c
       0.115479946 0.02192162 -0.035894707 0.030744612
000040 9c 26 8e 3d 38 b6 f3 bd 62 5f ef bd 38 f6 26 bd
       0.06940958 -0.1189999 -0.11688115 -0.040762156
000050 ac a2 56 bd dc 89 ad bd c4 02 02 bd 40 2b af bb
       -0.05240123 -0.0847356 -0.03174092 -0.005345732
000060 6e 06 f1 bd 50 53 d0 bc ea 62 80 3d 8a 8b ba 3d
       -0.117688045 -0.025430351 0.06268866 0.09108646
000070 16 b5 ed 3d 7c cd 33 3d da c8 9c bd c0 36 ce 3b
       0.11606805 0.043897137 -0.07655497 0.006293148
000080 d0 c8 ea bd de 3a de 3d b8 ee 95 3d 8e 52 b9 bd
       -0.11464083 0.10851072 0.073209226 -0.09048949
000090 4a 46 e5 bd fc b6 67 3d a0 bf 63 3c 10 fe fa bc
       -0.11195047 0.056570992 0.013900667 -0.030638725
0000a0 90 6d b9 3c 10 91 f0 bc 32 7e c8 bd f8 60 c2 bd
       0.022635251 -0.029366046 -0.09789695 -0.094911516
0000b0 80 10 e9 3a 9a cd 82 bd 40 29 fb bc a8 7f 61 3d
       0.0017781407 -0.06386872 -0.030659318 0.055053383
0000c0 94 05 6f bd ee a2 b7 3d e6 80 f3 3d 08 c2 b0 3d
       -0.05835493 0.08966623 0.1188982 0.086307585
0000d0 8c b7 6a 3d 2c 8d 6d 3d 34 b7 89 3d fe 74 81 bd
       0.05730395 0.05799596 0.06724396 -0.063211426
0000e0 30 44 d6 bd 48 c3 77 bd 8a 0a ea 3d f4 3e 56 3d
       -0.104622245 -0.06048897 0.114277914 0.05230613
0000f0 58 3d fb 3d 00 98 b0 bd c8 bc 24 3d 2c 7e db 3d
       0.1226756 -0.08622742 0.0402191 0.10717425
000100 b4 3c ea 3d 62 7d f4 bd e0 e7 bb bd 84 1e 38 bd
       0.114373595 -0.119379774 -0.09175086 -0.044950977
000110 54 61 9d 3d 20 3e 2b bc 06 b7 a2 bd 82 c8 9f 3d
       0.076845795 -0.0104518235 -0.07945065 0.07801916
000120 b8 f8 93 3c 90 e2 e3 3d 40 5c c7 3c a0 40 a7 3d
       0.018062934 0.11127198 0.02433598 0.08166623
000130 98 ca d0 bc ec 06 93 3d a8 f3 8a 3c ec 09 9a 3d
       -0.02548723 0.071790546 0.016961887 0.07521424
000140 80 1f ae ba e2 e7 fd 3d 68 60 b7 bd 88 68 29 3d
       -0.0013284534 0.12397744 -0.08953935 0.041359454
000150 76 45 bb bd 00 69 90 3a 82 99 d3 3d 84 9e c4 3d
       -0.09144108 0.001101762 0.10332014 0.09600547
000160 e6 65 fc bd ae 92 97 bd f8 3a c4 3c 18 53 08 3d
       -0.12324123 -0.07401024 0.0239539 0.03328237
000170 8c 9c 55 bd b0 27 41 bd 98 7c fc bc 98 fa 71 3d
       -0.052151248 -0.04715699 -0.03082113 0.059076875
000180 48 4e bd 3c 32 ed e0 bd cc b4 bb bd 4c bc 75 bd
       0.023108616 -0.109827414 -0.09165344 -0.059994027
000190 00 ef fb 3d ec 4d de bd a8 81 4b bd 78 b7 fd 3d
       0.12301445 -0.10854706 -0.049684197 0.123885095
0001a0 9a fd f6 3d e4 e3 cc bd b2 bf 83 bd c0 da e6 bc
       0.120600894 -0.10004404 -0.06433047 -0.02818048
0001b0 80 c6 2e 3c b2 11 ca 3d 58 ad 5f bd 2e e4 bf bd
       0.010667443 0.09866656 -0.054608673 -0.09369694
0001c0 7c 43 0d bd d8 16 90 3d c0 93 e1 bb c8 00 2d 3d
       -0.034488186 0.07035607 -0.0068840683 0.042237073
0001d0 c8 22 be bc 6e 38 b5 3d 5e aa e4 3d b8 99 f0 bc
       -0.023209944 0.08848654 0.111653075 -0.029370174
0001e0 c2 7a 83 3d 66 6d ec bd 7e 36 84 3d 8e 3c 9c 3d
       0.064198986 -0.115443036 0.06455706 0.076287374
0001f0 66 6b d5 3d 5a 94 fe bd 40 4e ec 3b 5c 64 c0 3d
       0.10420875 -0.124306396 0.0072114766 0.09394142
000200 78 f3 ba bc ec ef 5d bd 0e 2c e0 bd 3c f8 98 3d
       -0.022821173 -0.054183885 -0.10945903 0.07469222
000210 c0 35 c1 bd 44 3c 68 3d b8 dd c2 bd 14 d1 24 bd
       -0.0943408 0.0566981 -0.09514946 -0.040238455
000220 ae 44 91 bd a4 8f a3 bd 6a 8c 80 3d c0 ba da 3d
       -0.07093178 -0.07986382 0.06276782 0.10680151
000230 7a 72 dd bd 78 80 76 bd 40 94 0b bb a0 cc 8b 3d
       -0.1081285 -0.06018111 -0.002129808 0.068261385
000240 00 cc 2c bd 82 cf ed bd 20 62 03 3d 02 e3 f8 bd
       -0.042186737 -0.116118446 0.032076 -0.12152673
000250 c0 97 1e bd 74 6d 75 3d a4 4e c7 bd 94 f9 3a bd
       -0.03871894 0.059918836 -0.097317964 -0.045648172
000260 60 0a 9b bd 72 bc e3 3d 5e 04 ad bd c4 0e 89 bd
       -0.07570338 0.111199275 -0.084480986 -0.066922694
000270 a0 2a af bd fc 07 bf 3d 16 b5 df bd b2 77 ee bd
       -0.08553052 0.09327695 -0.10923211 -0.11643924
000280 36 10 a8 3d 88 84 d8 bd 00 34 9e 39 1e cd da 3d
       0.08206217 -0.10572153 0.0003017485 0.10683654
000290 54 c1 4c bd 64 1e 93 3d c8 9c c7 bd c0 84 fd 3b
       -0.04998906 0.07183531 -0.097467005 0.0077367723
0002a0 d6 55 9f 3d 28 04 67 bd 96 dd 82 bd c0 6e 72 3b
       0.07780044 -0.056400448 -0.063899204 0.0036992282
0002b0 a8 58 63 bd b6 7c c6 bd 1c 50 d8 3d 68 ea fe 3c
       -0.05550447 -0.096917555 0.10562155 0.031117633
0002c0 d0 c9 44 3d 92 f9 fa bd bc 07 f9 bd 96 d5 eb bd
       0.048044026 -0.12254633 -0.12159678 -0.11515348
0002d0 40 3c ca 3b 90 f8 ad bd 50 ab 00 bd a0 ee bd 3d
       0.006171733 -0.08494675 -0.031413376 0.0927403
0002e0 88 59 cb 3c 40 36 a7 3b 36 fb ef 3d 24 79 4b 3d
       0.024822965 0.0051029027 0.117178366 0.049676076
0002f0 08 64 ee 3d 24 97 88 3d c6 96 8a bd 74 4b 55 bd
       0.11640173 0.06669453 -0.06767039 -0.05207391
000300 1c 18 f0 bd 32 d3 fe bd a4 41 df 3d 28 a1 d1 3d
       -0.117233485 -0.12442626 0.10901192 0.10235816
000310 dc 1e 22 bd 60 ae b4 bd ac a4 20 3d 8c 09 1b 3d
       -0.03958021 -0.08822322 0.039219543 0.0378509
000320 c0 ce dc 3b a8 9d ec 3c 62 e6 fd bd f4 09 9d bd
       0.0067385137 0.02888377 -0.12397458 -0.07667914
000330 44 ba 4d bd 3c 38 7d 3d da 3c c5 bd 38 d4 c4 3c
       -0.050226465 0.061821207 -0.09630747 0.024026975
000340 80 cb 82 bd 40 39 19 3c b8 24 c4 3d 90 ae fa bd
       -0.06386471 0.009352028 0.09577316 -0.122403264
000350 ba b3 b0 bd ac f3 bc bd 12 08 e3 bd 00 6e d8 3a
       -0.0862803 -0.09226164 -0.11085524 0.0016512275
000360 24 00 79 3d 44 d8 16 bd 30 3f 28 3d c0 12 7e bb
       0.06079115 -0.03682734 0.041075885 -0.00387685
000370 32 78 a5 3d 14 c9 d0 3d a4 68 99 3d 4c 38 ac bd
       0.08079566 0.101946026 0.07490662 -0.08409175
000380 c0 6f 7b bb a4 1f a1 3d 54 93 fd 3d 9a 02 de bd
       -0.0038366169 0.07867363 0.12381616 -0.1084034
000390 3a 2d a9 3d 6c bb 3e 3d 60 08 e5 bd 40 28 14 bb
       0.082605794 0.04656546 -0.11183238 -0.0022606999
0003a0 88 7c e9 3d 50 f4 bf bc b4 9b 23 bd c6 50 8a bd
       0.114007056 -0.023431927 -0.039943412 -0.067536876
0003b0 10 11 0f 3c 90 71 eb 3c 14 9b de bd bc be 73 bd
       0.008732095 0.028740674 -0.108694226 -0.05950807
0003c0 78 ef c7 bd 88 4b d7 3d 00 11 81 bc 2e 7e a2 bd
       -0.09762472 0.10512453 -0.015755177 -0.07934223
0003d0 18 95 0d bd 82 89 ce 3d b4 ef 26 3d aa e0 cd 3d
       -0.034566015 0.10084821 0.040755942 0.10052617
0003e0 20 c5 7c bc c0 8e 08 bd 06 1b 83 3d a0 9a 6d 3c
       -0.015427858 -0.033339262 0.06401639 0.0145021975
0003f0 80 c0 ed ba 90 38 65 3d a0 56 39 3c 02 30 c8 3d
       -0.0018139035 0.055962145 0.011312157 0.09774782

dense_layers.2.bias f4 [14]
000000 30 23 4a 3c 0e e1 d7 bd 60 3f 87 bc b0 bb fe 3c
       0.012337491 -0.10540973 -0.016509712 0.031095356
000010 48 43 e4 bd d8 f2 9f 3c 6e 97 ed 3d c4 a3 d3 3d
       -0.111456454 0.019524977 0.116011485 0.1033397
000020 70 9c 17 3c 44 a9 c7 3d a0 13 87 3c 48 b0 db 3d
       0.009253606 0.09749082 0.01648885 0.10726982
000030 50 30 a1 3c 30 77 0c bd
       0.019676358 -0.034293354
