New_project/pesos_modelo.pth (torch, 727164 bytes, 8 tensors)

rnn_layer.weight_ih_l0 f4 [800, 7]
000000 49 bf 8f 3d 70 0a 65 3d 72 ab 0a 3d a0 1c 73 bc
       0.070189066 0.055918157 0.03385491 -0.014838368
000010 60 39 4f bc 8e ce cd bd 93 1c 9c 3c 93 5f 33 3d
       -0.012647957 -0.10049163 0.019056594 0.04379232
000020 42 39 95 3c db ec 4c bc ba 40 86 3b d9 9c 01 3d
       0.01821578 -0.012507643 0.0040970715 0.031643722
000030 ba 48 83 bd 37 c7 88 3c 87 c7 42 3d 0f c5 d7 3d
       -0.06410356 0.016696556 0.047553565 0.10535633
000040 73 e0 50 3d 06 bb 50 bc 7b 65 e9 3d 85 27 be 39
       0.0509953 -0.012739902 0.11396309 0.00036269068
000050 66 ae 05 3e e9 cd 60 bd cb aa f7 3a e7 bb a9 bc
       0.13054809 -0.05488387 0.0018895505 -0.020719482
000060 ac f6 1f 3d 75 79 9a 3d 20 af c9 bd 79 32 ca 3d
       0.039053604 0.07542697 -0.098478556 0.09872908
000070 47 71 b3 3c cd aa a9 3c 19 7d 0e bd 70 73 ab bd
       0.0219046 0.020711327 -0.03478727 -0.08371627
000080 67 a7 db bd 25 e3 38 3e 03 b6 97 3c 55 90 55 bc
       -0.10725289 0.18055399 0.018519407 -0.0130349
000090 c7 5a 73 bd a9 f1 a0 3c 7f fb 80 bd 25 22 2e 3d
       -0.059412744 0.019646483 -0.06297969 0.04251303
0000a0 9f d8 2e bd f0 bd 9e 3d c8 94 1d bd 03 39 7a 3d
       -0.042687055 0.077510715 -0.038471967 0.061089527
0000b0 28 79 3e 3d 7e ab 4c bd 78 7c d7 3c 2d e4 71 bd
       0.046502262 -0.049968235 0.026304469 -0.059055496
0000c0 c8 f0 76 3d c4 46 94 3d e0 e3 9b bc b6 e7 44 3d
       0.06028822 0.0724006 -0.019029558 0.04807254
0000d0 19 d3 38 3c 26 b0 24 bc 9a 9c 98 3b 0b 75 a6 3d
       0.011280798 -0.010051763 0.0046573402 0.08127793
0000e0 9c 03 e0 3c b4 88 13 bd f8 7c 0d bd 32 0c 36 bc
       0.027345471 -0.036019042 -0.034543008 -0.011111306
0000f0 7a 08 26 bd 8c e4 4c bd aa 22 c5 bd 84 f5 4e 3c
       -0.040535428 -0.050022647 -0.09625752 0.012631778
000100 3e fc b3 3d 9c 18 92 3b 82 51 4a 3d 1b 37 c9 3d
       0.08788346 0.0044585 0.04939414 0.09824964
000110 aa 47 14 3d 8f 3e 4f 3d 68 13 45 3d a7 a9 e3 bc
       0.036201157 0.05059677 0.04811421 -0.027790857
000120 8a c3 03 bd d3 34 56 bd 50 2f 0c bd d8 12 eb 3d
       -0.032168902 -0.05229647 -0.03422481 0.114782035
000130 7f 70 e9 bc 2e 26 da 3c 30 94 a2 3d 6f 9d 43 bd
       -0.028496025 0.026629534 0.07938421 -0.047757562
000140 12 bc 6d 3d 6d 91 9c 3d d9 14 94 bd 3d 1c 02 3d
       0.058040686 0.07644925 -0.07230539 0.03176521
000150 76 81 53 3d b4 a7 b6 3d 3d 17 15 3d 9e 54 6f 3d
       0.051637135 0.089187056 0.036399115 0.058430307
000160 d5 e3 a6 3d 49 bd d4 bd 6c 3e 44 3d 45 16 d9 bc
       0.08148924 -0.10387666 0.047911093 -0.026499877
000170 3a d8 04 3d b8 59 2b 3d cd db b8 bc b0 31 a9 3c
       0.032432772 0.04183361 -0.022565747 0.020653576
000180 38 54 80 bc ed 2a 1a bc 23 57 87 3d 57 23 94 bb
       -0.015665159 -0.009409648 0.06608417 -0.0045208144
000190 35 09 45 bd 10 05 0f bd 1f 2b 50 3d 6e 5b 6d 3d
       -0.048104484 -0.034916937 0.050822373 0.057948522
0001a0 f9 27 79 3c 29 b8 08 bd da ca 80 3d 36 58 97 bc
       0.015207284 -0.033378754 0.06288691 -0.01847468
0001b0 68 00 85 bd 61 2d a9 bc 7f 8b 83 bd 22 0f 77 bd
       -0.06494218 -0.020651521 -0.06423091 -0.060317166
0001c0 c7 5d a9 3c 78 5c 84 3d 31 2b c7 3b 6f 78 8f bd
       0.0206746 0.064629495 0.006078147 -0.07005393
0001d0 7d d7 3a 3d 5d 8a 7f bd 84 f8 5d bd 79 f7 92 bd
       0.045615662 -0.062387813 -0.05419208 -0.07176108
0001e0 f5 b7 25 bc b0 3b 09 bd 35 40 3d bd 0a 05 9d 3c
       -0.01011466 -0.033504188 -0.04620381 0.019167442
0001f0 f1 63 d2 bd e8 4b 02 3d 40 41 8d 3d d5 69 0d 3d
       -0.102729686 0.03181067 0.06897211 0.034524757
000200 9c 77 9f 3c 0b d5 7c 3d bf 37 b9 bc cd 8c b6 bd
       0.019466214 0.06172661 -0.02260959 -0.08913574
000210 3d e4 51 bb 11 66 97 3d 2c 2f 23 bc 19 91 01 3d
       -0.003202691 0.073925145 -0.009959977 0.031632517
000220 ff b7 5a 3d 71 4b 9d 3d 5e f4 d8 bd b9 8f 0a bd
       0.05339813 0.07680405 -0.10593484 -0.03382847
000230 cd cc c7 bb 30 06 11 bd 3d 27 6c 3c c1 cc 7b bc
       -0.006097412 -0.03540629 0.014413652 -0.015368641
000240 c5 02 48 bd f6 13 0d be 79 20 21 3d 25 65 1e bd
       -0.048830766 -0.13777146 0.03933761 -0.038670678
000250 30 bb 4f bd f6 c6 2a 3b 1e d7 3a 3d 49 c5 38 bc
       -0.050715625 0.0026058531 0.045615308 -0.011277505
000260 1b df 57 3d 3f df 50 bd 9d 02 0d be df ef 13 bd
       0.052703004 -0.050994154 -0.13770528 -0.03611743
000270 77 6a 39 3c 45 dc 64 bd f8 25 c4 3c 4f f5 8a bd
       0.011316887 -0.055874128 0.023943886 -0.0678507
000280 a6 7c b6 bd b9 23 19 3c 1c 8a 11 bd 9d 7d 88 3c
       -0.089104936 0.009346896 -0.035532102 0.01666146
000290 3c 78 8f bd 9f ae 5c bd 11 f3 1c bd bd 50 16 bd
       -0.07005355 -0.05387747 -0.038317744 -0.03669809
0002a0 a6 45 4b 3d 0e 91 74 bc 9d 99 f5 3b 19 f1 b9 bc
       0.04962697 -0.014927162 0.007495119 -0.022697972
0002b0 8f b5 4b 3c de e1 8f bd 34 f3 4e bd 16 ac 18 3d
       0.012433424 -0.070255026 -0.050524905 0.03727349
0002c0 a4 4a 8e 3d d2 eb 49 bd ab 8c 65 3c b9 83 20 bc
       0.0694783 -0.04929716 0.014010589 -0.00979703
0002d0 08 e8 89 bd f2 1a 5e bd e8 48 d9 bc 22 b7 4f 39
       -0.067337096 -0.054224916 -0.026524022 0.0001980928
0002e0 78 04 29 3d c9 31 44 bc 32 9e 56 3d aa 4c 60 bd
       0.041264027 -0.01197476 0.05239696 -0.054760613
0002f0 7d 6b c1 bc c0 f8 1b 3d 26 55 9c 3d 8e 5e 7a 3d
       -0.023610825 0.038079023 0.07633428 0.06112533
000300 94 ea f0 3c ca 7b 02 3c c2 35 76 3b 9f 19 1a bd
       0.02940873 0.007964084 0.0037568663 -0.03762209
000310 2b 79 58 3d 6e e5 fe 3c 47 a4 cf bd 30 05 f6 bb
       0.05284993 0.03111526 -0.10138755 -0.0075079426
000320 80 4f 18 bc ab 7e 01 bd 37 7a 4f bd 9d 91 21 bd
       -0.009296298 -0.03161494 -0.050653663 -0.03944551
000330 98 63 4f 3c 1d ff dd 3c 59 11 bc bd 3a 86 61 3d
       0.012658022 0.027099187 -0.09182996 0.05505965
000340 72 a3 83 3d d8 12 8c bd cb 56 93 3d a8 2a aa bc
       0.06427659 -0.06839532 0.07194289 -0.020772293
000350 5a 49 ea 3c 91 3f 8c bd 3c 77 3e bc e0 68 a3 b9
       0.02859943 -0.06848062 -0.011625107 -0.0003116792
000360 08 66 47 bc 04 ec 9c bd 65 01 d6 bb a3 8b 7b 3d
       -0.012170322 -0.07662204 -0.006530928 0.061412465
000370 9f dc 1d bd 62 25 2c 3d 52 17 83 bd 78 14 c7 3c
       -0.03854048 0.04202784 -0.06400932 0.024301752
000380 ca a7 bc 3d 69 67 12 3d 00 08 43 bd 96 7e 21 3d
       0.09211691 0.03574315 -0.04761505 0.039427362
000390 bc a1 76 3d 0b 8a 4c bd 15 21 b7 3d de d0 fd 3b
       0.060212836 -0.049936336 0.08941857 0.007745846
0003a0 86 20 57 bd e7 d3 bf bb 5e 13 a5 3d 5d 9a eb bb
       -0.05252125 -0.005854118 0.080603346 -0.0071900324
0003b0 b6 65 6c bd d5 d1 d7 bc 2c e3 d5 bd 72 a6 16 bd
       -0.057714187 -0.026345173 -0.1044372 -0.03677983
0003c0 b2 63 a2 3c 20 29 0a bd 28 8c 81 3c 64 47 1a bd
       0.019822929 -0.033730626 0.015813902 -0.03766574
0003d0 e3 0f f0 bd 9f c4 a5 3d db 51 22 3c 72 e4 47 3d
       -0.1172178 0.08094143 0.009907211 0.048801847
0003e0 bf 7b 0c 3c 9c a5 76 3d c1 98 60 3a 08 98 6a bc
       0.008574425 0.06021653 0.0008567684 -0.014318474
0003f0 42 75 43 bc 49 14 da 3d a2 56 25 3a 33 f7 4c 3d
       -0.011929812 0.106484 0.000630716 0.050040435

rnn_layer.weight_hh_l0 f4 [800, 200]
000000 44 38 55 3d 2f f8 2a 3d 16 36 cc bd 3c fa 07 bc
       0.052055612 0.041740593 -0.099712536 -0.008299407
000010 cb 74 ae bd 8b 62 ff bc ff b7 ac bd 1c 30 c4 3d
       -0.0851837 -0.031174919 -0.08433532 0.09579489
000020 63 92 fc 3b 3f 51 f7 3b 46 07 cb 3c b4 18 3e bd
       0.0077078803 0.007547527 0.024783742 -0.046410277
000030 ac 39 b8 bd 27 c7 39 bd 0f cd 76 bd d1 fb 2a bd
       -0.08995375 -0.045355942 -0.060254153 -0.041744057
000040 aa fb 1c 3d 89 a5 de bc c2 9a 8d 3d 61 1c c7 bc
       0.038325943 -0.027178543 0.06914283 -0.024305524
000050 ab 5e 7e bd ae 3d d9 bd 49 27 3c bc 0c 24 9e 3d
       -0.062102 -0.106074676 -0.011483976 0.07721719
000060 6b 62 47 3d f6 48 94 bd 7f c1 b5 3d d1 78 33 bd
       0.048677843 -0.07240479 0.08874797 -0.04381639
000070 2a 3a bc 3d 30 8a 65 3d ae 32 99 bd c6 e5 93 bc
       0.091907814 0.05603999 -0.074803695 -0.0180539
000080 29 e6 81 bb 86 b4 02 bd 4b f3 a1 bd 66 6b 02 bc
       -0.003964205 -0.03191044 -0.079077326 -0.007960176
000090 a5 6c 75 3d 30 5c 30 bd 51 a5 f9 bc 23 5a 4d bd
       0.059918065 -0.043056667 -0.030474337 -0.05013479
0000a0 67 94 3d 3b e0 5b 95 bd c1 d2 11 3d 6c 1d 36 bd
       0.0028927566 -0.072929144 0.03560138 -0.044461653
0000b0 c0 5d cc bd 59 38 92 3d 56 74 d2 3c 75 95 4d bd
       -0.09978819 0.07139654 0.025690239 -0.05019136
0000c0 c5 9c 66 3d b3 cd 81 bc ba e5 16 bd da f3 27 bc
       0.05630185 -0.015845155 -0.036840178 -0.01025101
0000d0 eb 5e ae bd 09 7f a2 3c d8 10 1f 3d ec c6 ca 3c
       -0.08514198 0.019835966 0.038834423 0.024753056
0000e0 d4 78 90 3d 8e df 97 3b ee 92 9d 3c 2d 05 b2 3d
       0.07054296 0.004634804 0.0192351 0.086923935
0000f0 af 4a d2 3c 8a 24 55 bd 47 fd a4 3d 98 fa fc 3b
       0.025670378 -0.0520368 0.08056121 0.007720303
000100 c2 a9 53 bb 0d c5 28 bb 3a 13 fc bb 0b a5 34 3d
       -0.0032297228 -0.0025752217 -0.0076927217 0.04410271
000110 58 8a 3a 37 11 38 4d 3d 24 af 1b 3d fa 42 d1 3d
       1.1118675e-05 0.050102297 0.038008824 0.10217853
000120 b4 f9 ab 3d 01 56 38 bc 21 86 af 3d 57 31 f4 bc
       0.083972365 -0.011250974 0.08570505 -0.029808683
000130 fb 0d a6 bd d1 51 30 bd 41 01 b9 3d 25 cc 80 bd
       -0.08108135 -0.043046776 0.09033442 -0.062889375
000140 37 8e 9d 3d b7 94 93 3d a1 68 3e 3d cf 93 12 ba
       0.07693141 0.072060995 0.0464865 -0.0005591483
000150 7a 51 ae 3b 23 06 19 bd 17 fd 9f bd c7 47 44 bc
       0.0053197714 -0.037359368 -0.07811945 -0.011980004
000160 93 28 d0 bd 58 d9 18 bc df 62 7c 3c ad b0 ab bd
       -0.10163989 -0.009329163 0.015404432 -0.083833076
000170 77 ca 21 bb bb 7a f2 3b dd c2 d6 bd 14 16 84 3d
       -0.002468733 0.0073998845 -0.10486386 0.064495236
000180 55 2c 66 bd 6b 51 86 3d 4d 17 97 bd c5 25 9d bb
       -0.056194622 0.06558498 -0.07377491 -0.0047957622
000190 46 c6 76 bc 56 14 47 3b 6c 24 b7 3d 08 9f a9 3d
       -0.0150619205 0.0030377111 0.08942494 0.08282286
0001a0 db e3 d2 3c 89 c2 2a bd 59 c9 89 bb c2 df 58 bd
       0.025743416 -0.04168943 -0.0042049107 -0.052947767
0001b0 9c 6d 69 3c 47 72 8a 3d 1a 4a 0e 3d ce cc e1 bc
       0.014247324 0.06760078 0.034738638 -0.027563479
0001c0 9b 69 35 bc ef b6 4e 3d 82 39 42 3d 55 61 1d 3d
       -0.011072542 0.050467428 0.047418125 0.0384229
0001d0 d6 11 aa 3c df 3a 77 bd 00 c3 11 bb 2a ef 22 3d
       0.020760458 -0.06035888 -0.0022241473 0.039778866
0001e0 63 e9 2a 3d 6f 43 5f bd b3 44 33 bc d5 a2 58 bd
       0.04172648 -0.05450767 -0.010941672 -0.052889664
0001f0 54 8b c1 bd c2 9b 53 3c c3 4a 9f bc 85 84 28 3d
       -0.09450403 0.0129155535 -0.019444829 0.041142005
000200 c9 91 1c 3d 8d 5e 9b 3d f2 a7 77 3d 6f bd a8 bd
       0.03822497 0.075863935 0.0604629 -0.082392566
000210 12 4e aa bd 26 bc c8 3d 66 32 c9 bc dd 69 e1 3c
       -0.08315672 0.098015115 -0.024560165 0.0275163
000220 e3 8c ae 3d aa 25 93 3d c6 03 69 3c 49 7b 85 3d
       0.08522966 0.07184918 0.014222091 0.065176554
000230 88 13 2a bb dc 3e 68 3d 9a 2b c3 3d 8b e7 51 bd
       -0.0025951583 0.056700572 0.09529801 -0.051246207
000240 f3 b7 77 3c e9 0d 93 bd 4e 2e 61 bd 47 0e af 3c
       0.0151195405 -0.071803875 -0.0549758 0.021369113
000250 68 e2 e9 bc 70 43 e3 bc b1 e6 11 bd 75 8b 8a 3a
       -0.028550342 -0.027742118 -0.035620395 0.0010570126
000260 c8 31 33 3c d3 e2 f4 bc 37 c4 00 3d fd 78 45 bc
       0.010937162 -0.029893314 0.031437125 -0.012052772
000270 a5 e8 9a bc b8 e9 69 3d 16 10 36 bc 3c a1 be bd
       -0.018909762 0.057107657 -0.011112234 -0.09308097
000280 03 61 a6 bc be 83 97 bd 51 ae 02 3d de b7 22 3d
       -0.02030993 -0.07398175 0.031904522 0.03972613
000290 c9 06 7c bd 4e 1f 6d 3d b1 bc 95 bc 6f 4f 61 bd
       -0.06152991 0.057891183 -0.018278452 -0.055007394
0002a0 71 61 08 bd 54 66 85 3d ad de 7a 3c 50 e6 ec 3c
       -0.033296052 0.06513658 0.015311879 0.028918415
0002b0 67 8d 1e 3d 53 3f 7b 3b 91 9f 4c 3d 37 23 6e 3d
       0.03870907 0.0038337305 0.049956862 0.058139052
0002c0 4a 28 77 bd 7e 34 b4 3b c6 3d 33 bd 30 cd 9c 3c
       -0.060341157 0.0054994216 -0.043760084 0.01914081
0002d0 8a f4 3a 3d 29 0e 8f 3b a0 e5 01 3c a5 08 d0 bc
       0.045643367 0.0043657017 0.007928282 -0.025394747
0002e0 bb 1b 7f bd 22 c4 ed ba 15 a9 a5 3c ee 88 02 3d
       -0.062282305 -0.0018140117 0.020222226 0.031868868
0002f0 ea 99 14 bd 15 f9 10 3c 16 50 65 3d fc 36 3f bc
       -0.036279596 0.008848448 0.05598458 -0.011670824
000300 fc da 2e 3d 8f 4d d8 bc 40 4f f9 3c 02 6d 80 3c
       0.04268931 -0.02640417 0.030433297 0.015676979
000310 ea ec 2b bd 3f 91 91 bd 99 63 be 3d c5 9a a6 3d
       -0.041973986 -0.071077816 0.092963405 0.08134989
000320 e1 cb 15 bd 83 04 a7 3c 02 7b 83 3d 7a ee ae bb
       -0.036571387 0.020387894 0.06419946 -0.005338487
000330 5c e5 08 be 29 f0 7b bd 6e a0 6f 3c 3c 9e 28 3d
       -0.13368744 -0.06150833 0.014625652 0.04116653
000340 5f 8e 12 bd 8c c3 db bc 85 48 15 3d 6f ca c5 3b
       -0.035780307 -0.026826642 0.036446113 0.006036095
000350 c8 2b 79 b9 7a c9 f8 bc 74 61 19 bd eb ab 86 bc
       -0.000237628 -0.030369509 -0.037446454 -0.016439399
000360 05 37 5d 3d ac e3 c5 bc 28 58 39 bb 62 00 6a 3c
       0.05400755 -0.024156414 -0.0028281305 0.014282318
000370 2d ab c2 3c 3d cf b7 3c 82 9f 17 bd f2 e4 e7 bc
       0.023763264 0.022437686 -0.037017353 -0.028307412
000380 ce dc 5f 3d 43 16 0f bd cf dc 12 bb 7f 33 6c 3d
       0.054653935 -0.03493334 -0.0022409444 0.057666298
000390 dc 69 a4 3d cd 23 3f 3d 98 58 52 bd 82 48 ca 3d
       0.080280036 0.046665 -0.05135402 0.09877111
0003a0 ca 43 b2 3b 86 f9 59 bd 12 3c 31 bb 7b 89 69 3c
       0.00544021 -0.05321648 -0.0027043861 0.014253969
0003b0 48 6f 16 bd 1b 86 c6 3b 8c b5 55 3c d3 f3 6d bc
       -0.03672722 0.006058467 0.013043772 -0.014523464
0003c0 43 de 14 3d f6 1e ad bc 5e d8 37 3d 04 3e 5e 3c
       0.036344778 -0.021132927 0.04488408 0.01356459
0003d0 22 51 36 bd d1 af 3f 3d bb 08 33 bd 8b 64 99 3d
       -0.044510968 0.04679853 -0.043709498 0.0748988
0003e0 c9 89 95 3c ec f8 2c bd c2 8f 05 3d a2 93 4d 3d
       0.018254178 -0.042229578 0.0326078 0.05018962
0003f0 f6 19 88 bc d9 87 a0 3a ec ba 26 3b 94 ba 5a bd
       -0.016613942 0.0012247517 0.0025441004 -0.05340059

rnn_layer.bias_ih_l0 f4 [800]
000000 a9 41 27 3d cd 2a 47 3d ae 38 8c bc 4d 71 08 3d
       0.040834103 0.048624802 -0.01711687 0.033311177
000010 87 94 fc 3c fb 73 47 3c 81 e9 a8 3d ee 21 25 bc
       0.030832542 0.012173648 0.08247662 -0.01007889
000020 21 84 8b 3d ec 23 15 3d cf ca c6 3d 4c 61 06 3d
       0.06812311 0.03641121 0.097066514 0.032807633
000030 b1 ff 88 3b b5 31 0a bd a0 8d ab 3d 05 10 41 3d
       0.0041808714 -0.03373881 0.08376622 0.047134418
000040 0c 38 db 3d 4e 2d bb 3d 0f d1 58 3b 00 ee e1 3c
       0.107040495 0.091395006 0.0033083593 0.027579308
000050 06 4c 11 3b 35 6f 06 3d 96 8c 63 bc cb ce 33 bd
       0.0022170558 0.0328209 -0.013888499 -0.043898385
000060 e6 77 82 3c c1 a2 9f 3c 37 08 3e 3c 0f 07 b5 3b
       0.015926313 0.019486787 0.011598638 0.005524523
000070 32 53 cd bc 73 e8 a5 bc a8 df ee bc de 5d 2d bd
       -0.025064085 -0.020252442 -0.029159382 -0.042325847
000080 19 d7 0b bc 30 0d 90 bc c9 92 82 3d 63 69 ec 3c
       -0.00853517 -0.017584413 0.06375653 0.028858846
000090 6b ac ce 3d 9b cf a3 3d 7c 65 23 bd cd a3 06 3e
       0.1009148 0.07998582 -0.039891705 0.13148423
0000a0 f1 af 3e bc 2f 71 0b 3d a4 7f 55 3d d9 34 f0 bc
       -0.011638627 0.034043487 0.05212368 -0.029322075
0000b0 0b b6 9f 3d 98 49 93 3c 3d d3 4b 3d ef 75 94 3b
       0.07798394 0.017979428 0.049762 0.0045306603
0000c0 1f 2c b1 3d 86 ae dc 3c d8 88 55 3d ea db 8a 3c
       0.086509936 0.026938688 0.052132457 0.016950566
0000d0 9a fa fe 3d d0 e8 d6 3c 90 2a c5 bb a8 61 6a 3d
       0.12450142 0.02623406 -0.0060170367 0.05722204
0000e0 28 18 69 3d 01 eb 30 bb 54 57 85 3d 5a c7 99 3d
       0.056907803 -0.0026995542 0.06510797 0.075087264
0000f0 c7 a4 90 3d b8 92 cd 3d 81 b5 6b 3d c7 e1 6c 3d
       0.07062679 0.1003775 0.057546142 0.057832506
000100 25 7f c4 3c 47 7b 94 bc 2c ab fe 3d 69 75 48 bd
       0.023986408 -0.01812519 0.12434992 -0.048940096
000110 5e 69 b9 ba 53 47 74 3c 3a 15 8e 3d 89 98 14 bd
       -0.0014145782 0.014909583 0.069376424 -0.03627828
000120 12 a7 5b 3c 87 2a 7c 3c 22 8f 65 3d 42 bf 07 3d
       0.013406532 0.015390999 0.056044705 0.033141382
000130 39 98 d3 bc 65 0c cb bb 5c ad 42 3d 60 dd 1e bd
       -0.025829421 -0.006196546 0.04752861 -0.03878534
000140 06 78 b4 bc a7 2b 61 bc b4 78 61 3d 4f ab b8 3d
       -0.022029888 -0.013743318 0.055046752 0.090170495
000150 fe 08 0f bd 89 d7 17 3d d5 0c 68 bd 66 ec ac 3c
       -0.034920685 0.037070785 -0.056652863 0.021108817
000160 68 34 05 bd 1b 39 a5 bc 1e a6 83 bc 6c 7a a0 3d
       -0.03252068 -0.020168832 -0.016070422 0.0783585
000170 73 5d 39 bb da d8 cc 3d a7 4f 37 3d 91 a8 a3 3c
       -0.002828446 0.10002299 0.044753697 0.01997784
000180 21 b4 d4 ba c0 0d b3 3d 5d ef 8e 3d 65 a1 84 bc
       -0.0016227999 0.08742857 0.06979249 -0.01619024
000190 4d 25 dc 3d a5 2f 81 bb b3 de 62 bd 24 c2 4a 3d
       0.10749302 -0.0039424472 -0.055388164 0.049501553
0001a0 f9 c5 de 3d f3 81 93 bc 21 f2 d6 bc 00 86 83 3d
       0.10877604 -0.0180063 -0.026238503 0.06422043
0001b0 0d cb 26 3d bf eb 88 bc 75 fd 61 3d a8 5f 24 bc
       0.040720988 -0.016713975 0.055173356 -0.010032572
0001c0 c9 bf 43 3d 2d b1 98 3b c6 73 9a 3c ac be 83 3d
       0.047790322 0.004659793 0.018854033 0.06432852
0001d0 ed 44 4a 3d f1 54 50 3d b7 9b 03 3d 6e 8d 48 bd
       0.04938214 0.050862256 0.032130923 -0.048963003
0001e0 80 d2 0b bc d0 73 a2 3d 90 da 28 3d fd 0c bb 3d
       -0.008534074 0.07932246 0.041224062 0.09133337
0001f0 11 8d c2 3d 0c 31 f9 3c 0d 8b 9d 3d 80 6e f5 bc
       0.094995625 0.030418895 0.076925375 -0.029959917
000200 2e ac 40 bc 0a 54 19 3d da ad b7 3d 18 ac bf 3d
       -0.011759801 0.03743366 0.089687064 0.09358996
000210 2f 0c 80 3d 17 0a c2 3d 42 fc 1f bc ba 26 0e 3b
       0.06252324 0.09474581 -0.009764733 0.0021690563
000220 ea 3d 5d 3d a1 32 97 3d 7a 35 4a bd 62 15 05 bd
       0.054014124 0.073827036 -0.049367405 -0.032491095
000230 7c bd 19 3d d3 ab 4f 3d 3c 1f bb 3d b6 5a aa 3d
       0.037534222 0.050700974 0.09136817 0.08318083
000240 65 0d 83 3d c0 f9 ef 3d 6f 66 84 bc f6 7d 50 3d
       0.06399039 0.11717558 -0.016162125 0.050901376
000250 e5 ed 6b 3d 03 65 d7 3d 01 ea e5 bc 8a 5d 76 3d
       0.05759992 0.10517313 -0.028065683 0.0601478
000260 a2 ee 06 3c 83 05 82 3c e4 79 a3 3c 8f 02 c1 3c
       0.008235605 0.015871769 0.019955583 0.02356079
000270 a6 16 f6 bc 10 4d 30 bc f0 b5 94 3d 2a be 07 3d
       -0.030040096 -0.010760561 0.07261264 0.03314034
000280 b5 59 c9 3d 49 71 fe 3c de 38 f3 3d 31 ee 4d 3c
       0.098315634 0.031059878 0.11876081 0.012568996
000290 33 a3 d3 bc 85 bc 6c 3d 53 99 ae 3d 08 28 9a bc
       -0.025834655 0.057796974 0.08525338 -0.018817917
0002a0 31 67 92 3d c9 f5 bf 3d f8 3d 8b 3d 52 a5 89 3c
       0.071485884 0.09373052 0.06798929 0.016802464
0002b0 21 1c 06 bd 6f 70 9b bc 92 b4 1b 3c b8 77 b6 3d
       -0.03274167 -0.018974511 0.009503501 0.08909553
0002c0 6a 8a af 3d c7 6e 15 3d ad 6a c0 3d ac b1 04 bd
       0.08571322 0.0364826 0.09395347 -0.032396004
0002d0 32 15 05 bc 5e 54 48 bd 09 a8 2c bc 6d 3e 2d 3d
       -0.008122729 -0.048908584 -0.01053811 0.042295862
0002e0 22 c0 d6 3d f7 dd 33 3d 78 f9 42 3d 1b b2 02 3d
       0.10485865 0.043912854 0.047601193 0.031908136
0002f0 70 d1 66 3c 5f 06 81 3c 80 5b ad ba 3d 83 9b bc
       0.01408802 0.015750108 -0.0013226122 -0.018983478
000300 9c c2 31 39 bb a9 2a 3d 68 a8 aa bb 59 75 71 3c
       0.00016952533 0.041665774 -0.005208064 0.0147374505
000310 07 5e af 3b 0c 8e 72 3d c8 fb 13 3c 2a 70 9d 3d
       0.005351785 0.059217498 0.009032197 0.07687409
000320 0e dc 91 bc 53 4b 3f bd 45 a9 87 bd 7b 01 5d 3c
       -0.017805126 -0.046702694 -0.066240825 0.0134891225
000330 65 1f 20 3d 7f 4a a0 3c f5 27 cb 3a 35 65 34 bd
       0.03909244 0.019566773 0.0015499579 -0.04404183
000340 8a 9f 65 3d d8 f0 c6 bd 2c 58 90 3d d2 e7 17 bd
       0.05606035 -0.09713906 0.070480675 -0.037086315
000350 20 70 25 3d 2c 2b 20 3c f8 dd 5f 3d a2 63 f7 3c
       0.040390134 0.009775918 0.054655045 0.030198876
000360 6a 48 4d bd fd ae ab bd b2 73 ac bd 6c 71 4a 3d
       -0.050117888 -0.08382986 -0.08420505 0.049424574
000370 75 b0 98 bd 26 b3 41 3c 1f b6 b1 bc c9 af 87 3d
       -0.074555315 0.0118224975 -0.021693287 0.06625325
000380 c8 cf d6 bc 2c b7 65 3b 5a 17 98 bc d2 e4 08 bc
       -0.026222125 0.0035051806 -0.018565822 -0.008355336
000390 0b d3 84 3d 36 94 5f bd 91 12 a1 bd 0f 9c b2 3c
       0.06485566 -0.054584704 -0.078648694 0.02180293
0003a0 cb 33 9e bc 35 d8 a4 bc be cb f0 3c 87 62 d6 bc
       -0.019311806 -0.020122627 0.029394027 -0.026170028
0003b0 24 2b e1 bc dc e5 59 3d 16 ac 75 bd e7 26 b0 3b
       -0.027486391 0.053197727 -0.059978567 0.0053757313
0003c0 89 8c 83 bd 8b d5 60 3d 5f 14 6e 3c 7d 19 0f bd
       -0.06423289 0.05489115 0.014531224 -0.034936417
0003d0 c9 93 9a 3d 82 d8 3f 3d 80 8d 65 3d 98 0f 7d 3d
       0.07547719 0.046837337 0.056043148 0.06178245
0003e0 14 24 07 3b f9 49 66 bd c9 9c 8d bd 0c df a6 bc
       0.002062087 -0.05622289 -0.0691467 -0.020370029
0003f0 a6 27 63 bd ad be 2a bd 0b 85 95 3d b9 61 ad bd
       -0.055457734 -0.04168575 0.073007666 -0.08465905

rnn_layer.bias_hh_l0 f4 [800]
000000 2e e6 fb bc 9f b8 2a bd 7b 13 26 bd 8a 5a 0d 3c
       -0.030749407 -0.041679975 -0.04054592 0.008627543
000010 00 a2 ea 3d 4a 39 86 3d 7d 73 0b bc e3 5b b6 3c
       0.1145668 0.06553896 -0.008511421 0.022260612
000020 2c 1e 0d bd 98 a4 36 39 8f 6a 0f 3d 76 1b 8f 3d
       -0.034452602 0.00017418189 0.03501373 0.0698766
000030 8d 66 7c 3d 25 e9 ad 3d 8c fd 3f bc 65 94 22 3d
       0.061621238 0.084917344 -0.011718165 0.0396923
000040 f4 56 66 3d 39 2e 02 bc 99 b1 1b 3d 0f 7a 96 3d
       0.05623527 -0.007945591 0.038011167 0.073474996
000050 08 8d 05 3d 45 34 a3 3d c6 ae 05 bd b6 ff a2 3d
       0.0326052 0.07968954 -0.03263738 0.07958929
000060 3b e0 b6 3c 73 c2 dd bc f7 ef 2d 3d b1 33 dc bb
       0.022323718 -0.02707026 0.042465176 -0.0067200293
000070 70 88 63 3d 9a 12 34 3d f4 6e 0e bc 6e 6c 36 3d
       0.05555004 0.043963052 -0.0086934455 0.044537
000080 4e 02 2f 3d c5 22 a9 3d 0b 02 65 3d d6 29 25 bd
       0.042726807 0.08258585 0.05591015 -0.0403231
000090 cb cb ee 3c de 01 93 3b 1e 45 46 3d 0f 00 9a 3d
       0.02914991 0.0044863066 0.04840576 0.075195424
0000a0 c1 ec be 3d 08 bc 22 bb b0 a1 d6 3d e3 16 9a 3c
       0.09322501 -0.0024831314 0.10480058 0.018809741
0000b0 15 94 b6 3d 89 50 4c 3d 34 28 5e 3b b7 c4 ef 3c
       0.08914963 0.04988149 0.0033898475 0.029268606
0000c0 13 a4 bb 3c a4 5b 22 bd bb 82 99 3d 81 44 04 3c
       0.022905385 -0.039638177 0.07495638 0.008072973
0000d0 fc 9c c9 3d e6 88 78 3d 99 11 80 bc b5 0e 96 bc
       0.098443955 0.06067743 -0.015633391 -0.01831756
0000e0 75 22 c2 3d b5 90 ac 3c 19 7c 76 3d 3f 4a 37 3d
       0.094792284 0.021065095 0.060176942 0.04474854
0000f0 b0 06 49 bd 84 5d a3 3d 4d 45 82 3d a5 57 37 bd
       -0.049078643 0.07976821 0.06360874 -0.04476132
000100 63 33 b0 3d bb e4 2e 3d 8e eb 30 3d 3b f1 c9 3c
       0.08603551 0.042698603 0.043193392 0.02465116
000110 26 c1 d7 bc 17 1b 49 3d ff 63 41 bd 97 26 ae 3d
       -0.026337218 0.0490981 -0.047214504 0.08503454
000120 ad e4 18 bd a4 40 ff bb 0e b6 9c 3c 8c 3c ab 3d
       -0.037327457 -0.007789688 0.01912978 0.08361158
000130 37 ba a1 bc 51 34 d2 3d ca c5 a6 3d 5a 10 2e bd
       -0.019742114 0.10263885 0.08143194 -0.042496063
000140 c7 73 53 3d 99 75 b7 bc 1b 7e a2 3d 01 1a 65 3b
       0.051624086 -0.022394942 0.07934209 0.0034958126
000150 28 12 b4 3c 40 f6 98 bb b9 55 a3 bc 06 73 4f 3d
       0.021981314 -0.004668027 -0.019938337 0.050646804
000160 c5 2b c9 bc 48 5a 6d 3d e0 a2 3d 3d 83 31 03 bd
       -0.024557004 0.057947427 0.046297908 -0.03202964
000170 55 ef 18 bd 76 15 64 bb 79 79 a9 3d 2c 8a 9a 3d
       -0.03733762 -0.003480283 0.08275122 0.075458854
000180 b4 16 a4 3b f6 95 6a bb bc 71 65 bc 85 58 d9 bc
       0.0050075892 -0.003579495 -0.014004167 -0.026531467
000190 0d be 84 3d 85 ad 5e 3d 77 cc 05 bd 5c 20 bd 3d
       0.06481562 0.0543647 -0.032665696 0.09234688
0001a0 59 2a ef 3d 95 8b 30 3d 43 f7 91 3d 09 49 10 bd
       0.11677999 0.043101866 0.071272396 -0.0352259
0001b0 b3 82 37 3d 5f b6 be 3c 31 f3 1d 3d 82 26 2f bc
       0.04480238 0.02328032 0.038562004 -0.010690333
0001c0 d0 38 ed bc 8f dd 3f 3d cb 23 23 3d ad c3 55 bd
       -0.028957754 0.046842154 0.039829057 -0.052188564
0001d0 8b 39 82 3d 40 46 82 3b 26 0c 43 3d ec 4e 31 3d
       0.06358632 0.0039756596 0.047619008 0.043288156
0001e0 80 04 cc 3c 46 75 93 3d ab 78 a7 3d bb 35 bc 3d
       0.02490449 0.072001025 0.081773125 0.09189936
0001f0 10 24 04 3d aa b0 c7 3c fb 9c db 3d ba 39 29 bd
       0.032260954 0.024376232 0.10723301 -0.041314818
000200 95 90 a8 3d da 5c 7e 3d 7f 17 dd 3b 5e 87 f4 bc
       0.08230702 0.06210027 0.0067471857 -0.029849704
000210 9d 22 86 bc 01 24 ea bb 45 3f 88 3d 4a a4 55 3c
       -0.016373927 -0.0071454053 0.06652693 0.013039658
000220 e2 20 1a 3d c7 f8 49 3c 40 17 03 3c ac 28 b0 3d
       0.037629016 0.01232738 0.008001149 0.086015075
000230 fa 8f ea bc bf e0 40 bd 9f 9e 8c 3c 28 b3 a9 3d
       -0.028633106 -0.047089335 0.01716548 0.082861245
000240 d7 eb 64 3d 7a da 24 3b 1d 9c 8d 3d 56 29 36 3d
       0.055888977 0.0025154636 0.06914542 0.044473015
000250 6d 2e 58 3d 32 1b 87 3d 85 73 8e 3d d0 66 98 bb
       0.05277865 0.06596984 0.06955627 -0.004650928
000260 fa 28 59 3b d3 4c ed 3c 18 ce e5 bc c3 2c 78 3d
       0.0033135996 0.028967297 -0.028052375 0.060589563
000270 c6 17 59 3d 7a f5 89 bc fc cc ac 3d c9 3a 2c 3c
       0.053001188 -0.016840685 0.08437535 0.010512062
000280 95 1a ca 3d e8 10 0a bd bc 91 ca 3d d7 ab 02 bd
       0.09868351 -0.03370753 0.09891078 -0.03190216
000290 1d 35 88 3d 2b 75 64 3d dc 9c 08 bd 26 0e 3a bd
       0.066507556 0.055775803 -0.033352718 -0.04542365
0002a0 32 ae 67 3c d9 3c 55 3d ca a5 7d 3d 83 5e cf 3d
       0.0141406525 0.052059982 0.061925687 0.101254486
0002b0 83 ab 4f bd 48 da 43 3d a8 ab 80 3d fc 2a e6 3d
       -0.050700676 0.04781559 0.06282741 0.11238667
0002c0 4f 3b 11 3e d3 ea 6d bd 06 ea a7 3a 63 75 bd bc
       0.1418278 -0.058085274 0.0012810833 -0.023127263
0002d0 0e 8d 7b 3d cf 35 d0 bb b7 16 1f bd 5d 63 62 3d
       0.061413817 -0.0063540707 -0.038840022 0.05527054
0002e0 88 49 8c 3d 0d d4 38 bd 26 67 6a bd ab 38 a7 3d
       0.068499625 -0.045124102 -0.057227276 0.081651054
0002f0 0c 55 d4 3d ef 4b 66 3d c6 5d 3f bd cb 49 ce 3c
       0.10367784 0.05622476 -0.04672029 0.025181672
000300 3c ec 7f 3c a9 f0 62 3d d0 9a 48 3d 1b 04 96 3d
       0.0156202875 0.055405293 0.048975766 0.07325002
000310 ea 71 0e bd 16 d7 ba 3c f5 53 37 3d fa e8 ae 3c
       -0.034776606 0.02280764 0.044757802 0.021351326
000320 52 8e 09 3b 77 cc 02 bd 11 ac e4 bc d6 74 9c 3c
       0.002098937 -0.031933274 -0.027914079 0.01909868
000330 a0 a8 30 3b 2e 04 bd bd 0b f2 17 bc 5f 8f 96 3c
       0.0026955977 -0.09229313 -0.009274016 0.018378912
000340 75 3a 4c ba 78 8c 2d bd b5 66 07 bd bd 2a 23 3d
       -0.0007790693 -0.04237029 -0.033056933 0.03983568
000350 73 0c 0c 3b 5e 0e ce bc 9b 04 f5 3c 31 45 99 bc
       0.0021369725 -0.025153335 0.029909423 -0.01870975
000360 fc 53 14 bd a9 01 17 bd 89 f0 a7 bc 21 82 84 bc
       -0.036212906 -0.036866818 -0.020500438 -0.016175332
000370 91 7e 18 bd 08 d2 a3 bd 16 15 95 bd 8b c1 8a 3c
       -0.037230078 -0.07999045 -0.072794124 0.016937992
000380 71 c4 2a 3d b4 4e b1 3c cc 1e aa 3c 5e a2 2d 3d
       0.041691247 0.021643974 0.020766638 0.042391174
000390 30 69 78 3d ca 0b 3d 3d dc 01 01 bc 12 e9 bb 3a
       0.06064719 0.04615382 -0.0078739785 0.0014336428
0003a0 c3 28 e8 bc f4 6f 0d 3d 6d 2f 15 3d 5c 0d 32 bc
       -0.02833975 0.034530595 0.036422182 -0.010867443
0003b0 d8 4f c2 3c 14 45 f8 bc 7b cf 18 bc c6 55 74 bd
       0.023719713 -0.030306377 -0.009326811 -0.059652112
0003c0 70 10 04 3c d1 68 8e 3a b9 c0 6a ba 1a 97 b2 bc
       0.00806056 0.0010864978 -0.00089551095 -0.021800566
0003d0 57 ed 90 3d 88 72 1b 3d 30 c0 0b bc 1b b7 00 3d
       0.07076519 0.037951022 -0.008529708 0.031424623
0003e0 83 aa eb bb 77 58 08 3d c5 83 24 39 78 7f 08 bd
       -0.0071919574 0.03328749 0.00015689347 -0.03332469
0003f0 70 e5 84 bd 21 fa 20 3d ce 8e 9b 3b 73 7e 5a bd
       -0.06489074 0.03930104 0.0047472483 -0.053343248

dense_layers.0.weight f4 [64, 200]
000000 79 53 03 3d 1d 4a 95 bd e7 41 fd 3c 94 7f a5 3c
       0.032062028 -0.072895266 0.030915214 0.020202436
000010 86 0f 56 3d a5 7e 72 3d f0 e0 2c bd c1 89 9a bd
       0.052260898 0.05920281 -0.042206705 -0.07545806
000020 fb 77 a2 3c fa 38 06 bc f4 a5 19 bd 2b 3b 48 bd
       0.019832602 -0.008192295 -0.03751178 -0.048884552
000030 b2 92 02 bd be 76 9b bd ac 6c bb 3c 75 1d 51 bd
       -0.03187818 -0.07591008 0.022878967 -0.051053483
000040 98 26 72 bc a0 50 50 3a 5b 37 a1 bc f8 ce 80 bd
       -0.014779709 0.00079465844 -0.019679716 -0.06289476
000050 ca 9c 1a bd 9e 22 7c bc 52 8c de 3c a5 70 a8 bc
       -0.037747182 -0.015389113 0.02716652 -0.020561526
000060 19 98 94 bd 30 31 26 bc 32 a3 8b 3d 41 1a 28 bc
       -0.07255573 -0.010143563 0.068182364 -0.010260166
000070 d5 e2 08 bc 05 66 0a bd 2d be b7 bb c1 53 2f 3d
       -0.008354862 -0.0337887 -0.0056073875 0.042804483
000080 48 c9 8b 3c e3 3b ca 3b 37 09 c9 bc 8a 0a 6d 3c
       0.017063752 0.00617169 -0.024540527 0.014467845
000090 ff 81 53 3d 0d 63 7e bd bd b7 9c 3c 02 c4 b8 3c
       0.051637646 -0.06210618 0.019130582 0.022554401
0000a0 25 c6 23 3d 54 f9 bf 3c 7a 96 19 3d bb 0e a3 3c
       0.039983887 0.023434319 0.03749702 0.019904485
0000b0 b9 97 a7 bd f9 c5 5b bd b2 82 5e 3d 6c 0e e9 3c
       -0.08183236 -0.0536556 0.05432386 0.02844926
0000c0 46 6e 63 39 96 33 85 bd 99 dc 93 3d 03 4b ab bd
       0.00021689487 -0.0650398 0.0721981 -0.08363917
0000d0 e3 df 8f bd ea 39 6f 3d 0c 61 9d 3d e2 07 37 3d
       -0.07025125 0.05840484 0.07684526 0.044685252
0000e0 b0 24 a8 bd 4d 6c 6d bd fa 93 40 3d 75 36 eb 3c
       -0.082101226 -0.05796461 0.04701612 0.02871249
0000f0 64 46 20 bc c1 8a b8 bd a7 89 c3 bc a6 38 54 bc
       -0.009782407 -0.0901084 -0.023869349 -0.012952959
000100 af 72 7b bd ef 61 21 bd ae 6c e2 3c 29 34 a1 3d
       -0.061388668 -0.039400037 0.027639713 0.07871277
000110 1a 8d 64 bd 50 50 bc bc d1 3f 96 3d ad 4a ab 3d
       -0.055798627 -0.022987515 0.07336391 0.08363853
000120 49 86 47 3d 0c f6 50 3c 4b 9d b4 bb 7a 8b 01 3d
       0.04871205 0.012753975 -0.005511915 0.031627156
000130 30 16 62 38 d8 f5 fd bc d3 54 ca 3c 90 05 1d 3d
       5.3903263e-05 -0.031001016 0.02469865 0.038335383
000140 52 05 12 bd 48 20 87 3d e9 85 3b 3c c8 34 4a bd
       -0.035649605 0.06597954 0.011445501 -0.049366742
000150 36 60 e7 3b 63 da 4c bc c1 84 6d bc b7 29 76 3d
       0.00706103 -0.012503239 -0.014496983 0.060098376
000160 c5 14 85 3c 88 5f 80 bd 18 93 b5 3c 86 6e 76 3c
       0.016245255 -0.06268221 0.022164866 0.015040999
000170 24 00 2d bc 2d f3 63 bc df fe 0b 3d d2 74 2f bc
       -0.010559116 -0.013912958 0.03417861 -0.0107090045
000180 f3 a0 0e bd 3e fe 5b 3d 1c 82 f3 3c 41 67 d3 3c
       -0.034821462 0.05370926 0.029725127 0.025806071
000190 27 e4 74 bc 89 08 f5 bc d0 a3 7c 3d 4b b3 66 3c
       -0.014946974 -0.029911296 0.06167966 0.014080833
0001a0 ab 5e 08 bc f2 ba 7b bd ae 27 cf bc 50 7d 93 bd
       -0.008323352 -0.06145758 -0.025287475 -0.07201636
0001b0 7d d8 80 3d 38 ef d7 bc 38 4b ba 3c 82 14 00 3d
       0.06291292 -0.026359186 0.022740945 0.031269558
0001c0 73 e2 f5 3c 93 30 e6 bc bb 35 1e bd 5a 87 e2 3b
       0.030015206 -0.028099334 -0.03862546 0.006913108
0001d0 73 f3 48 3d 40 fa 48 bd 3d ea 61 bc 5c 27 f1 ba
       0.049060296 -0.049066782 -0.013788757 -0.0018398571
0001e0 48 e5 cb 3c 7a cd 53 bd f5 ee 52 bc 4a a4 41 3d
       0.024889603 -0.05170963 -0.012874355 0.04727582
0001f0 e9 e0 f6 3c 4e ae 9b 3c 7d 29 9b 3c 42 1b c1 bd
       0.030136542 0.019004013 0.018940682 -0.09429027
000200 50 d9 80 bc 72 d2 57 3d 51 42 8f bc b7 c3 84 bd
       -0.015728623 0.05269093 -0.017487677 -0.06482642
000210 4d c3 94 bc 51 20 35 bc c2 92 b6 3c 44 c9 2c 3d
       -0.018159533 -0.011055068 0.022286776 0.04218413
000220 74 61 32 bd 09 dd 25 3d f0 49 67 3d 72 4d 93 bd
       -0.04354997 0.040494 0.056466997 -0.07192506
000230 a1 f0 84 3d b2 71 0f 3d 30 00 fa bc b0 8f 94 3c
       0.06491209 0.035020538 -0.030517668 0.018134922
000240 91 ae 74 3d 27 a0 8a bc ac a7 11 bd b6 e6 cc 3d
       0.059736792 -0.01692207 -0.035560295 0.10004942
000250 77 a9 91 3c c2 cd ad bc 5c b2 cb bc f6 ea 3e 3d
       0.017781002 -0.021216277 -0.024865322 0.046610795
000260 37 4e 6a bd cb 22 ed 3c 6f cf fe 3c 5a 95 0e 3d
       -0.057203498 0.028947255 0.031104771 0.0348104
000270 93 84 06 bc 78 d4 67 bd c4 19 19 bd b3 39 8e 3c
       -0.008210319 -0.05659911 -0.037378088 0.017361498
000280 2a d4 b2 bb 57 a8 54 3d 34 04 f6 bc 59 43 d2 3c
       -0.005457421 0.051918354 -0.030031301 0.02566688
000290 be 0b 1d 3d 72 75 78 bd 6d c2 fb 3c e1 03 45 3d
       0.038341276 -0.06065888 0.030732358 0.048099402
0002a0 ae 56 6c bc 3e 49 a2 3d 05 f4 97 3d ae 72 96 3c
       -0.014424963 0.07924126 0.0741959 0.01836523
0002b0 60 18 7d bc 84 af f5 bb 9c eb fc bc 34 10 48 bd
       -0.015447706 -0.0074977297 -0.030874066 -0.048843578
0002c0 6f 3e 8a 3d cd f1 7e 3d ff 56 c2 3c 5c b0 6b 3c
       0.067501895 0.062242318 0.023723124 0.014385309
0002d0 e6 59 b8 3d b7 df 0f bd c1 2b 81 3d a6 32 35 3d
       0.09001522 -0.03512546 0.063071735 0.044237755
0002e0 c0 68 f4 bb 8b e0 27 bd 8a 40 21 bd 4a 38 0c bd
       -0.0074587762 -0.040985625 -0.03936819 -0.03423337
0002f0 cf 02 8d 3d 98 6a c5 bb 9e cc fc bc 24 68 6f 3c
       0.06885301 -0.00602467 -0.030859288 0.014612231
000300 55 b5 2f 3d d6 80 6f ba c8 61 09 bc 0f 05 43 bd
       0.04289754 -0.00091363245 -0.008385129 -0.047612246
000310 d0 d7 63 bd 6d d8 19 3d c4 1b 7b 3d 97 ed 60 bb
       -0.055625737 0.037559915 0.061305776 -0.0034321302
000320 74 f4 14 3d 91 3a 46 bd 2e c2 a2 bd 4c 74 ac 3c
       0.03636594 -0.048395697 -0.07947193 0.021051548
000330 07 29 af 3a 48 a6 de 3c 74 3b 08 3d c3 e9 ed bc
       0.0013363668 0.027178898 0.033259824 -0.02904213
000340 2b 4b 52 bd cb df 7a bd 9b b0 81 bd 42 0d 78 bd
       -0.051341217 -0.06124858 -0.06332513 -0.06055952
000350 56 4b 74 bd c5 70 28 bb 28 d4 6d bc 21 5e 05 3b
       -0.05964216 -0.0025701982 -0.014515914 0.0020350295
000360 48 fe eb bc ba 70 9f 3c b8 20 b6 3b ad d2 0c bd
       -0.028807774 0.019462932 0.0055580996 -0.034380604
000370 13 78 a1 bd a2 62 9c b9 39 ba 43 bd 1a 7d c6 bc
       -0.078842305 -0.00029828126 -0.047785018 -0.024229575
000380 ba c6 13 bd 82 5b 64 3b fd 51 83 bc 6a 33 19 3d
       -0.036078192 0.0034844582 -0.016030306 0.037402548
000390 de ab ca bc c1 ae 9e bd 64 f6 02 3c fa 35 76 bc
       -0.024740156 -0.077481754 0.007993314 -0.015027517
0003a0 68 73 35 3c 6b 4b e3 3b 25 14 92 3d 58 e2 71 bd
       0.011074878 0.0069364808 0.071327485 -0.05905375
0003b0 2d 7d 1c bd 3c 7c c4 3d 65 34 61 bd d5 84 3e 3c
       -0.038205314 0.09594008 -0.054981608 0.011628349
0003c0 61 34 51 bc 2c 9b 2c 3c d6 8b d0 3b 02 77 4d 3c
       -0.012768836 0.010535043 0.006364326 0.012540581
0003d0 28 12 07 bd 53 e3 ab bc 7f f0 5d ba 15 3a 70 bd
       -0.0329763 -0.02098242 -0.00084663177 -0.05864914
0003e0 fe 02 32 3d 0d 3f 03 3d 2c 1a 3d 3d a6 eb c8 bc
       0.043459885 0.03204255 0.046167538 -0.024526428
0003f0 07 49 7f 3d 0c 6d 13 bd 15 f8 d3 3c 72 91 2e bd
       0.062325504 -0.035992667 0.02587513 -0.042619176

dense_layers.0.bias f4 [64]
000000 10 4e 17 bd 38 af 42 bc bd 14 6b bd 6c a2 98 bd
       -0.03693968 -0.011882596 -0.057392824 -0.074528545
000010 80 95 b9 bb 02 77 c0 3d 5d 16 19 3c 3e 19 41 3d
       -0.0056635737 0.09397699 0.009343711 0.047143213
000020 e7 e2 01 3d 9b 2e ac bc d6 c8 fd 3c 6f 5c 73 3c
       0.03171053 -0.021018317 0.030979555 0.014853581
000030 24 2b 00 3d ff 45 4f 3d 7a 59 0e bd 66 af 81 bd
       0.031291142 0.050603863 -0.0347533 -0.06332283
000040 6d 61 9c bc 9d 32 6d bd 3d a2 15 bd 9a 2c 8b bc
       -0.019089425 -0.057909597 -0.036531676 -0.016989041
000050 81 26 19 bc df 95 09 bd 8e eb 6c 3d 89 a1 91 3b
       -0.009347559 -0.033590194 0.05784183 0.0044443053
000060 00 3a 57 bd d1 72 ef bc b7 72 30 bd a0 01 2c bd
       -0.052545547 -0.029229553 -0.04307815 -0.041993737
000070 e2 86 69 bc cd e0 3b 3d b1 b8 3b bd 70 87 34 bc
       -0.01425335 0.045868684 -0.045830432 -0.011018619
000080 36 f2 2c bc 62 25 42 bd 30 ae 4a 3c 84 e6 91 bd
       -0.010555794 -0.047398932 0.012370631 -0.071240455
000090 51 3a 3e 3d d9 f4 25 3d 51 3a 1a bd 61 be 6e bd
       0.046442334 0.040516708 -0.03765327 -0.05828703
0000a0 3c 64 37 bb dd 55 7f 3d ca bc 09 3d a6 b1 2b bd
       -0.0027983328 0.062337745 0.03362731 -0.041917466
0000b0 72 44 6c bd e6 38 0c 3d 09 47 79 bd 1b 2b d0 bb
       -0.057682462 0.03423395 -0.06085876 -0.006352795
0000c0 ce 15 2f bb 18 11 27 3d 35 34 f8 3a cc 02 06 3a
       -0.0026715877 0.040787786 0.0018936457 0.0005112111
0000d0 d1 57 70 3d ff d1 55 3d 26 1e d8 3b c5 00 72 bd
       0.0586775 0.05220222 0.006595391 -0.059082765
0000e0 31 63 47 bd 45 7d 41 3d 3a 3e 1c bd c6 27 76 3d
       -0.04867858 0.047238607 -0.03814528 0.060096525
0000f0 21 fa 1d 3d 32 32 8a 3d e4 02 90 3c 32 4d a8 bb
       0.03856862 0.06747855 0.017579503 -0.0051361555

dense_layers.2.weight f4 [14, 64]
000000 08 2f 06 be 89 6b 17 3e dc 36 e4 3d 0a 07 74 be
       -0.13103878 0.14787115 0.11143276 -0.2383081
000010 d3 93 a9 3d b2 11 52 3e e9 48 ad 3d 44 27 1b 3e
       0.08280148 0.20514563 0.08461172 0.15151697
000020 71 22 73 be 36 2f 9e bd 1a 66 e4 bd 19 72 57 bd
       -0.23743607 -0.077238485 -0.11152287 -0.052599046
000030 5c 20 77 3e ba ed 85 bd 8c 69 5c 3b 16 cc 2c be
       0.24133438 -0.06539483 0.0033632247 -0.16874728
000040 f2 38 c7 3d 7b e9 0a be c1 d3 3d bc 26 0c ab bd
       0.09727658 -0.13565628 -0.011586131 -0.083519265
000050 a2 30 94 3d 09 59 3b 3e 37 93 38 bd 20 d5 19 3e
       0.072358385 0.18295683 -0.04506227 0.15022707
000060 c4 4e 63 3d 3b 88 36 3e c7 9f a0 bc 01 76 1b 3e
       0.05549504 0.17825405 -0.019607438 0.15181734
000070 c0 38 f9 3d 4c 7f 8a bc 28 c4 39 be dd f1 fd bd
       0.12169027 -0.016906403 -0.18141234 -0.123996474
000080 60 49 fe bd a3 03 4d be cb a0 35 3e be 6a ec 3b
       -0.12416339 -0.20020919 0.17737119 0.007214873
000090 37 89 0e 3a 28 05 b8 3d 4d 21 1d 3e 89 39 2e 3d
       0.0005437317 0.089853585 0.15344734 0.04253534
0000a0 18 e9 66 be e8 90 88 ba ca 2a 23 bd b0 02 55 3e
       -0.22549856 -0.0010419162 -0.03983573 0.20801806
0000b0 1a 32 79 be 37 92 1a 3e 81 46 1a bd 7c c9 3b be
       -0.24335518 0.15094839 -0.037664894 -0.18338579
0000c0 ec 37 5d be ea d0 64 3d 4f df ab bd b9 1f b0 bd
       -0.21603364 0.0558633 -0.08392202 -0.085998006
0000d0 b2 f5 10 3d 4b 05 3f 3e 0b 97 27 be ba 8e 74 3d
       0.035390563 0.18654363 -0.16366212 0.059706427
0000e0 b2 bd 97 bd 65 6d 42 bd c4 90 66 be a0 50 da 3d
       -0.074092284 -0.047467608 -0.22516161 0.10659909
0000f0 26 81 6d bc 9a ef 91 bd a3 8e d5 3d 3f 52 c4 bc
       -0.014496123 -0.071257785 0.104275964 -0.023965
000100 e2 cf 0d be 40 3c 87 bd 7e ba 8f bd f8 c8 db 3d
       -0.13848832 -0.06603289 -0.070179924 0.10731691
000110 43 d5 f6 bd b2 9e c7 bd 66 f6 f4 bd c2 1c 9d bd
       -0.12052395 -0.097470656 -0.11961059 -0.07671501
000120 33 57 a2 bd 15 93 c6 3d 69 38 99 3d 1e ad b5 bd
       -0.07926788 0.096960224 0.074814625 -0.0887091
000130 84 78 83 3d b7 2f 6a bd 21 87 77 bd 69 5f 05 3e
       0.06419471 -0.05717441 -0.060431603 0.13024677
000140 19 03 2b bd 46 6f 45 bb d6 e8 e7 bd ef 0f e0 3d
       -0.041751 -0.0030126139 -0.11323707 0.10940539
000150 16 8b b5 3d 22 97 8d bc dc 98 71 bb f2 6b 19 3c
       0.08864419 -0.01728398 -0.0036864793 0.009364115
000160 e9 a9 f3 3d b5 55 6e 3d ce 7d 6c bd 23 1e cf bd
       0.11897642 0.058187205 -0.057737164 -0.1011317
000170 af 92 00 be 02 b1 f9 3d f1 01 19 3d ce cf b4 3d
       -0.12555955 0.12191965 0.037355367 0.08828698
000180 ee b6 0c 3e 06 00 9c 3d 5d ed 76 3d 67 8b 62 bd
       0.13741657 0.07617192 0.06028496 -0.055308726
000190 2c 68 b6 bc 15 38 00 3e 36 50 ae 3d 67 b0 d1 bd
       -0.02226647 0.12521394 0.08511393 -0.10238724
0001a0 49 8f 70 3d f2 b6 11 3e 32 49 af 3d 45 fc 6d 3d
       0.058730397 0.14229944 0.08558883 0.05810191
0001b0 aa 61 e6 3c 32 dd fe 3d 00 a9 98 bd a6 2d 9a 3d
       0.028122742 0.124445334 -0.07454109 0.07528238
0001c0 6c 53 68 bd 8f f7 5c 3d 4e 1e 0c be 2c 71 08 be
       -0.056720182 0.053947028 -0.13683435 -0.13324422
0001d0 87 46 af 3d f7 26 d0 3c 63 94 e5 bd fb 1b 16 3e
       0.08558374 0.025409205 -0.11209943 0.14659111
0001e0 d4 85 f1 3d bd 78 5c 3d a0 4f fa bd 4e 50 ed 3d
       0.11793104 0.053826082 -0.122222185 0.115875825
0001f0 b4 9a 1c be a8 9f d9 3d f5 cc df bd 87 f6 0e 3e
       -0.1529339 0.10626155 -0.10927764 0.1396123
000200 ea ea 08 be 3f 93 e1 bd e7 89 97 3e a7 af 8f bc
       -0.13370863 -0.11014413 0.295974 -0.017539812
000210 8f 9a 90 bc e4 69 f8 bd 9f 1a 83 be fc ec e0 3d
       -0.017651824 -0.12129572 -0.25606248 0.10982701
000220 26 e2 70 be 26 b2 06 be 1f 97 82 3b e5 1c 6e 3e
       -0.23523769 -0.13153896 0.0039853 0.2325321
000230 dc fb 2a bd 60 3c 89 bd d1 93 15 3e da fc 13 3e
       -0.041744098 -0.06700969 0.14607169 0.14451924
000240 7a 9e 46 bd 23 50 3b 3e 24 b2 14 be 3e bd 5a be
       -0.04849098 0.18292288 -0.1452108 -0.21361253
000250 d2 d5 05 bc 2a 31 f7 3c 1d 0e 85 3a 7a 40 b8 bd
       -0.0081686545 0.03017481 0.0010151301 -0.08996673
000260 23 4f 41 3e e3 56 0e be 64 ae 08 be d6 e1 6c be
       0.18877845 -0.13900332 -0.13347775 -0.23133025
000270 b4 01 aa 3e 61 41 29 be b6 54 15 bd 39 50 22 3d
       0.33204424 -0.16528846 -0.03645774 0.039627288
000280 1b a6 f7 bd bf 36 1c 3d 9f ba 4a bd 2f 2d 4e 3e
       -0.12092229 0.038138147 -0.049494382 0.20134424
000290 d2 34 1a bd 9e 54 69 bd f2 84 e3 bd 02 77 3d 3e
       -0.03764803 -0.056965463 -0.11109342 0.18502429
0002a0 1a ca a7 be 74 b5 ce bd 5c 4e 8d bd 89 1f cd 3d
       -0.3277138 -0.10093203 -0.068997115 0.100157805
0002b0 5b b7 ab bd dd 95 52 3d b0 9e 23 3d 6c f5 90 be
       -0.08384582 0.051412452 0.039946258 -0.28312242
0002c0 d2 2b 1a 3c ee 1e 0b 3e ab a9 9c bd 25 ed ac bd
       0.009409862 0.13586017 -0.07649549 -0.08443669
0002d0 ec 24 b6 3d 79 a4 e2 bd 72 95 86 3e c8 07 8c bd
       0.08893761 -0.11066527 0.26285893 -0.06837422
0002e0 52 0f c8 3b 03 38 c2 bb f7 00 8d bd d5 c5 60 be
       0.006105342 -0.0059270873 -0.0688495 -0.21950467
0002f0 92 57 8d be 7e f0 b7 bc 8a c4 fa bd 3d 70 29 3d
       -0.27605873 -0.022453543 -0.12244518 0.041366804
000300 00 ed 0d be 7b ae 23 3e 67 71 f9 bd f1 5d 8c 3d
       -0.1385994 0.15984528 -0.12179833 0.068538554
000310 bd b7 89 be 06 d4 1b be 88 0b b1 be 33 0c fb bd
       -0.26897994 -0.152176 -0.3457911 -0.12258186
000320 74 4e dd bd 54 20 d3 3d db 37 38 3e 08 e1 9d bd
       -0.10805979 0.103089005 0.17990057 -0.07708937
000330 1f fb b0 3d 08 ba 0a 3d cd f4 60 bc 09 82 bf 3c
       0.086416475 0.03386882 -0.01373024 0.023377435
000340 a9 d4 df bd 82 ca 4d 3a ce 65 42 be fb fb 08 3d
       -0.109292336 0.00078503054 -0.18984148 0.033443432
000350 51 bc 6f 3e 85 b3 00 3e 0c 89 75 3e 1d 32 17 3e
       0.23411681 0.12568481 0.2397806 0.1476521
000360 4f 80 bc 3c d5 60 fb 3c 4f 42 51 bc a0 47 a0 3d
       0.023010401 0.030685822 -0.012772157 0.078261614
000370 63 26 ca 3d d5 46 76 3d 7c db 11 3e 25 13 96 bd
       0.09870603 0.060126144 0.14243883 -0.0732787
000380 c7 c8 2e 3d 96 a6 d2 bd a8 94 74 bd 7e a8 86 bd
       0.042671945 -0.1028568 -0.059712082 -0.06575106
000390 92 8c 51 3b 1e bf e7 bd e1 b7 62 bb d1 de 83 bc
       0.0031974656 -0.113157496 -0.0034594464 -0.016097458
0003a0 0e 99 d0 3d f9 79 91 3d b0 11 40 3b 6b 54 4b 3d
       0.10185443 0.071033426 0.0029307418 0.049641054
0003b0 17 a9 a2 bc 92 68 f8 3d f2 5a 3f 3e 9a 9d 3d 3e
       -0.019856019 0.1212932 0.18687037 0.18517151
0003c0 12 48 4d be 6c 27 7b bd 23 b9 62 3d 8e 18 31 be
       -0.20047024 -0.061316893 0.05535234 -0.17294523
0003d0 7e 23 b5 bd 19 0c 75 bd b2 5a 34 3e ee 03 00 3e
       -0.0884466 -0.05982599 0.17612723 0.12501499
0003e0 0e 43 9d bc d1 4d 1d 3e d3 93 27 3b 34 13 12 bd
       -0.019197013 0.15361716 0.0025570288 -0.035662845
0003f0 0f 1d c1 bd ec 67 00 be 21 73 21 3d 23 d2 90 3d
       -0.094293706 -0.12539643 0.039416436 0.070713304

dense_layers.2.bias f4 [14]
000000 c3 72 38 3d d3 6a cc bd 57 03 f8 bd 77 23 b2 bd
       0.04503132 -0.099813126 -0.12110012 -0.08698171
000010 91 c3 e0 bc 6b fe 4f 3b 98 0d 21 bd 77 34 43 3c
       -0.027437003 0.0031737338 -0.039319605 0.011914364
000020 02 65 8a bd 67 fe cc 3c 8a 99 0e be 20 de 5b 3d
       -0.06757547 0.025023652 -0.13925758 0.05367863
000030 a0 84 0a be a0 bb 85 bb
       -0.13527155 -0.0040812045
